llirl_sumo/saves/120p4k_ultimate_test2/policies_final.pth (torch, 784389 bytes, 28 tensors)

sigma f4 [4]
-0.004830619 -0.012084805 -0.008399904 -0.044277538
00000000: 2b4a 9ebb 59ff 45bc c09f 09bc 5d5c 35bd

layer1.weight f4 [200, 36]
0.05792438 0.159871 -0.00877554 0.031084934 0.048739742 0.053352095 -0.06269065 0.07703025
-0.044383656 0.087132394 -0.026936991 0.052163158 0.09824929 -0.10927682 0.04260065 0.02790348
-0.11877358 -0.034356024 0.0044474374 0.13097213 -0.08608365 0.11563334 -0.066859365 0.057685547
0.034417376 0.10520705 0.089188665 -0.14236763 -0.008126308 -0.15985711 -0.0014491379 -0.09525772
0.13187987 0.07752179 -0.07637567 0.016031632 -0.10164674 -0.14798924 0.08139373 -0.034276895
-0.0015481458 -0.0019305135 0.026813222 0.07618667 -0.07982425 -0.035341203 -0.08439187 -0.09903748
-0.0734523 0.02241344 -0.14039667 0.0050716586 0.13801591 -0.13964133 0.025684003 0.11501437
0.016791021 0.083789654 -0.09357667 0.0028748494 -0.05624993 0.0042644343 -0.033990413 0.014455053
0.13988647 -0.046687193 0.01547094 -0.11078223 0.07865482 0.019313267 -0.10439598 0.09888991
-0.11433815 -0.121922575 -0.15044728 -0.10824034 -0.032063577 -0.07302658 0.14418487 -0.14834398
-0.023276757 -0.1189962 0.15023802 -0.046695214 -0.1501423 0.0670943 -0.08389401 0.10438856
0.1725802 -0.019197192 0.02125007 -0.122927696 -0.006703988 0.12392091 0.119634435 0.078290276
-0.10438603 0.13672552 0.09381168 -0.011650324 -0.13212387 0.13029577 -0.029095318 -0.12036261
0.09026759 -0.15868217 -0.1601687 0.09062051 0.07966316 -0.04245831 -0.018267194 -0.089644924
-0.15041018 -0.08863722 -0.12103348 -0.03448443 -0.05730006 -0.034157187 -0.12239658 0.06770852
0.0633641 -0.073298514 0.10864879 0.04340076 -0.1394049 -0.043246955 -0.12621431 -0.042215087
0.10363903 -0.032225385 -0.074881725 0.023339799 -0.06627394 -0.17196298 0.012884282 -0.1627522
0.019205246 -0.041878264 0.012938429 -0.14013463 0.01855835 0.0013437553 -0.10975609 -0.016597636
0.048278652 -0.04300395 -0.060063213 0.090951495 0.12537368 -0.09417813 -0.001382958 -0.05972975
-0.024889074 0.07692666 -0.032199703 -0.02866966 0.03266288 0.0956659 0.12871832 0.0619989
-0.08812859 -0.056002896 -0.11698169 -0.15763918 -0.16028525 -0.029426644 0.052285343 0.14764017
0.0043906895 -0.15176262 -0.06885862 0.11701297 0.14086632 0.048180345 -0.051130116 0.0853228
0.018355865 -0.13616948 -0.11753298 -0.06510316 -0.039670132 -0.08836276 -0.041165832 0.09963816
0.09620359 -0.037715193 0.09142103 0.0954874 -0.06512838 0.12566023 0.03279921 -0.05026339
0.1580918 -0.037481394 0.0035258152 0.04292671 0.024722492 0.045278754 -0.074791305 0.047678046
0.043377124 -0.03668088 -0.12992543 -0.057351656 0.14629684 0.1147532 0.05001855 -0.07327244
0.08992639 0.10059801 -0.0982453 -0.045168977 -0.12936744 -0.16020527 0.1455349 0.03522711
-0.013234337 -0.010533776 -0.006791994 0.15808298 -0.13494404 0.111974515 0.06981438 -0.006309161
-0.072096474 -0.041941945 -0.07203844 0.051872376 0.115741484 0.106989264 -0.12251646 0.09044669
0.03687833 -0.029021949 -0.11409022 -0.08156833 0.14222123 0.02309907 -0.11305486 -0.014511589
-0.07964966 -0.03712218 0.059403382 -0.15314955 -0.122060806 -0.108945504 -0.10056771 -0.09937577
0.09574638 0.14410925 -0.122357346 -0.09172966 0.13218233 0.09087465 -0.10268981 -0.0052571287
00000000: 1d42 6d3d 39b5 233e 48c7 0fbc d5a5 fe3c
00000010: 53a3 473d ba87 5a3d f563 80bd 09c2 9d3d
00000020: a3cb 35bd 7872 b23d f7aa dcbc 09a9 553d
00000030: ec36 c93d 87cc dfbd 057e 2e3d d795 e43c
00000040: 903f f3bd e7b8 0cbd cfbb 913b 8f1d 063e
00000050: a04c b0bd 2cd1 ec3d 90ed 88bd ae47 6c3d
00000060: 3cf9 0c3d cb76 d73d 8ca8 b63d d2c8 11be
00000070: 3524 05bc 95b1 23be 00f1 bdba 7b16 c3bd
00000080: 840b 073e bfc3 9e3d d96a 9cbd c554 833c
00000090: 2b2c d0bd 7e8a 17be c2b1 a63d ee65 0cbd
000000a0: 27eb caba 4909 fdba 67a7 db3c c207 9c3d
000000b0: e57a a3bd f0c1 10bd a5d5 acbd 2ad4 cabd
000000c0: 296e 96bd 649c b73c 25c4 0fbe 2830 a63b
000000d0: 0b54 0d3e 23fe 0ebe 4267 d23c a78c eb3d
000000e0: 538d 893c e999 ab3d 20a5 bfbd f867 3c3b
000000f0: 5466 66bd abbc 8b3b 8839 0bbd e3d4 6c3c
00000100: 663e 0f3e 123b 3fbd d379 7d3c cbe1 e2bd
00000110: c715 a13d db36 9e3c 8fcd d5bd cb86 ca3d
00000120: 1f2a eabd 8bb2 f9bd da0e 1abe 1dad ddbd
00000130: 1955 03bd f68e 95bd 33a5 133e 7ce7 17be
00000140: e6ae bebc 48b4 f3bd ffd7 193e 7b43 3fbd
00000150: e7be 19be bd68 893d 9fd0 abbd abc9 d53d
00000160: ddb8 303e 6e43 9dbc a014 ae3c 84c1 fbbd
00000170: 21ad dbbb 3fca fd3d e602 f53d a756 a03d
00000180: 58c8 d5bd c601 0c3e 5720 c03d 00e1 3ebc
00000190: 7b4b 07be 416c 053e 4e59 eebc ac80 f6bd
000001a0: 37de b83d 947d 22be 4403 24be 3f97 b93d
000001b0: 7026 a33d c4e8 2dbd 15a5 95bc c297 b7bd
000001c0: 2005 1abe 6e87 b5bd 67e0 f7bd 8c3f 0dbd
000001d0: 78b3 6abd 68e8 0bbd 0fab fabd c4aa 8a3d
000001e0: 0ac5 813d 881d 96bd 4283 de3d ffc4 313d
000001f0: 28c0 0ebe b823 31bd 533e 01be bae9 2cbd
00000200: b340 d43d c4fe 03bd 975b 99bd 1b33 bf3c
00000210: a2ba 87bd 1017 30be 9818 533c 83a8 26be
00000220: 5254 9d3c 8b88 2bbd b4fb 533c 747f 0fbe
00000230: ae07 983c f220 b03a cdc7 e0bd c4f7 87bc
00000240: d6bf 453d e924 30bd d804 76bd c744 ba3d
00000250: f561 003e 77e0 c0bd 5f44 b5ba 2fa7 74bd
00000260: 2ce4 cbbc ba8b 9d3d d6e3 03bd a3dc eabc
00000270: 83c9 053d 7cec c33d bcce 033e 8ff2 7d3d
00000280: c37c b4bd 4b63 65bd 1994 efbd 2a6c 21be
00000290: d121 24be 2510 f1bc 2829 563d fc2e 173e
000002a0: c6df 8f3b a967 1bbe c005 8dbd 7fa4 ef3d
000002b0: 433f 103e c158 453d d06d 51bd b8bd ae3d
000002c0: 0a5f 963c 0370 0bbe 22b5 f0bd ce54 85bd
000002d0: 267d 22bd 89f7 b4bd 819d 28bd 170f cc3d
000002e0: 6306 c53d 3f7b 1abd f33a bb3d e68e c33d
000002f0: 0762 85bd 13ad 003e 7758 063d fce0 4dbd
00000300: d1e2 213e 1786 19bd 5d11 673b ebd3 2f3d
00000310: d386 ca3c 3776 393d 2f2c 99bd 0e4a 433d
00000320: 36ac 313d b13e 16bd 2c0b 05be 92e9 6abd
00000330: d7ce 153e ba03 eb3d 40e0 4c3d dc0f 96bd
00000340: 542b b83d 5406 ce3d d534 c9bd 1b03 39bd
00000350: e678 04be da0c 24be 1a07 153e 4d4a 103d
00000360: d5d4 58bc dc95 2cbc 608f debb 81e0 213e
00000370: c52e 0abe e552 e53d d7fa 8e3d 14bd cebb
00000380: 51a7 93bd 51cb 2bbd e488 93bd 2178 543d
00000390: df09 ed3d 301d db3d e9e9 fabd 1d3c b93d
000003a0: bb0d 173d 70bf edbc 22a8 e9bd 4c0d a7bd
000003b0: 71a2 113e 433a bd3c 4e89 e7bd 04c2 6dbc
000003c0: 5c1f a3bd 6d0d 18bd f650 733d 3cd3 1cbe
000003d0: 04fb f9bd d21e dfbd 72f6 cdbd 8685 cbbd
000003e0: ae16 c43d 6091 133e 7d96 fabd c3dc bbbd
000003f0: ce5a 073e 7d1c ba3d 094f d2bd fe43 acbb

layer1.bias f4 [200]
-0.008674731 0.012942864 0.0019525742 0.0144933695 -0.004418423 0.019833349 -0.0013075271 0.015963009
-0.012091036 0.007364338 -0.0035113844 -0.008865742 -0.00033863034 -0.004344268 0.016613135 0.0067578233
0.005293155 -0.0043847216 0.010353887 0.0034999591 0.0077318787 0.028181067 -0.014696723 0.004706316
0.0111949295 -0.01572359 0.01250589 -0.017338743 -0.0082166055 0.0037141105 0.007834398 0.018166648
-0.0058890013 0.009071514 0.00526494 0.029767193 0.013261755 0.0072108763 0.0016553877 -0.013434658
0.020165164 0.0067630466 -0.013814168 0.0005724284 0.015318836 -0.014051359 -0.011500111 0.005378303
-0.01557859 -0.005901582 -0.01381659 0.014813014 0.016989965 0.015873633 0.025818635 -0.016293636
-0.007644631 -0.010194855 -0.0064460915 -0.011010781 -0.007808988 -0.021079347 0.0030905006 -0.016771274
-0.0060143117 0.0016442606 0.008118355 -0.005962918 -0.00083863485 0.011956484 0.0036615336 -0.0008979194
0.009258977 -0.011349703 -0.009703323 0.009817653 0.02041503 -0.0123768095 -0.01461097 -0.012069124
0.0014044202 0.0027510037 0.007875395 0.0015750083 -0.0047558923 -0.009321647 -0.012929055 0.016954703
-0.024760764 -0.006201208 0.00565745 0.006687414 -0.011883739 -0.017583834 0.020475416 0.022227524
-0.0012841679 -0.010168143 0.018340738 0.010038012 -0.01105467 -0.010103153 -0.011371238 0.0071987426
0.014642597 -0.0065650716 0.008676776 0.010799452 -0.008372504 0.018015428 0.0066369046 -0.0124796955
-0.0057523693 0.012795948 0.011618431 -0.015126058 -0.005481526 0.014564368 -0.0031668723 0.001212207
-0.004072104 0.005697359 -0.007758885 0.022184245 0.01333754 0.026194017 -0.0015388738 -0.015526963
-0.015846074 0.0025923073 -0.02063511 -0.0083350325 0.018367022 0.0153763285 -0.008588818 0.008746599
-0.008508113 -0.0017428615 0.012509116 -0.0037586214 4.143012e-05 0.0034959845 0.010235085 0.013366843
0.018444456 0.0 -0.00053873565 0.012313108 -0.0049672974 -0.010543899 -0.0001475826 0.0092579145
-0.0066442722 0.007477804 0.014789291 -0.010246265 -0.011592408 0.0042260047 0.015701775 3.9956234e-05
-0.008419783 0.0 -0.0011357153 0.0010147777 -0.0023007044 0.007896406 -0.0038329 -0.012736331
-0.012012575 0.015728747 0.0023759361 -0.008940943 -0.0061075836 -0.013161885 -0.010256236 0.007484087
-0.012897008 -0.0073143006 0.01079359 0.0055366866 0.010490957 0.010469377 -0.011921163 -0.014385349
0.0 0.0053469962 3.5721096e-05 -0.008690349 -0.004019732 -0.001025332 0.012387202 -0.008309211
-0.010810533 -0.0034796547 -0.007817198 -0.009957553 -0.0054768394 0.007863359 -0.01470145 -0.004330925
00000000: 7520 0ebc 4e0e 543c 85ed ff3a 9975 6d3c
00000010: 6bc8 90bb 8c79 a23c 5461 abba dbc4 823c
00000020: 7b19 46bc 8b50 f13b 411f 66bb 9e41 11bc
00000030: 328a b1b9 5c5a 8ebb 4518 883c bb70 dd3b
00000040: 3472 ad3b b6ad 8fbb 5aa3 293c 925f 653b
00000050: b35b fd3b fbdb e63c 86ca 70bc 7137 9a3b
00000060: f06a 373c c2ce 80bc 81e5 4c3c fb09 8ebc
00000070: f19e 06bc 6f68 733b d95b 003c 39d2 943c
00000080: 86f8 c0bb b0a0 143c 8585 ac3b 54da f33c
00000090: d547 593c 3749 ec3b 98f9 d83a 0a1d 5cbc
000000a0: 6a31 a53c 8c9c dd3b d254 62bc 050f 163a
000000b0: dbfb 7a3c ac37 66bc f66a 3cbc 7a3c b03b
000000c0: 583d 7fbc 0f62 c1bb fb5e 62bc 49b2 723c
000000d0: 8a2e 8b3c 6c09 823c 9a81 d33c 3b7a 85bc
000000e0: d07f fabb 5208 27bc bc39 d3bb 9066 34bc
000000f0: 8ae2 ffbb 98ae acbc ff89 4a3b e963 89bc
00000100: b413 c5bb 3b84 d73a d902 053c 9564 c3bb
00000110: d5d7 5bba 21e5 433c 57f6 6f3b 5a62 6bba
00000120: f7b2 173c 1bf4 39bc b0fa 1ebc 39da 203c
00000130: 6c3d a73c 1ac8 4abc da62 6fbc 93bd 45bc
00000140: 8614 b83a 2f4a 343b cd07 013c 8270 ce3a
00000150: 51d7 9bbb d2b9 18bc 63d4 53bc 97e4 8a3c
00000160: 16d7 cabc 8133 cbbb 2162 b93b 1822 db3b
00000170: 04b4 42bc f90b 90bc 0fbc a73c 7f16 b63c
00000180: 8651 a8ba 4898 26bc 513f 963c 7976 243c
00000190: a61e 35bc b287 25bc 6e4e 3abc 6ee3 eb3b
000001a0: 81e7 6f3c d01f d7bb 0929 0e3c 2ff0 303c
000001b0: d42c 09bc 1795 933c 647a d93b a377 4cbc
000001c0: 5f7e bcbb 19a6 513c 3b5b 3e3c 49d3 77bc
000001d0: 5f9e b3bb 639f 6e3c 4d8b 4fbb ebe2 9e3a
000001e0: 496f 85bb e9b0 ba3b 3f3e febb bcbb b53c
000001f0: b385 5a3c d694 d63c 09b4 c9ba ce64 7ebc
00000200: a0cf 81bc b3e3 293b f60a a9bc a98f 08bc
00000210: 7076 963c ffec 7b3c 1db8 0cbc e54d 0f3c
00000220: 9d65 0bbc ba70 e4ba 09f3 4c3c 3453 76bb
00000230: 41c5 2d38 e31c 653b 0fb1 273c 9a00 5b3c
00000240: d418 973c 0000 0000 f039 0dba ebbc 493c
00000250: b6c4 a2bb 51c0 2cbc 67c0 1ab9 82ae 173c
00000260: 32b8 d9bb 5e08 f53b c84e 723c f3df 27bc
00000270: 15ee 3dbc 4c7a 8a3b 02a1 803c ae96 2738
00000280: 21f3 09bc 0000 0000 48dc 94ba 4a02 853a
00000290: 6ac7 16bb ed5f 013c 6431 7bbb 0bac 50bc
000002a0: 64d0 44bc 93d9 803c 98b5 1b3b 087d 12bc
000002b0: 2022 c8bb f2a4 57bc c609 28bc 123d f53b
000002c0: f94d 53bc cdac efbb 99d7 303c 186d b53b
000002d0: 43e2 2b3c c087 2b3c fb50 43bc 87b0 6bbc
000002e0: 0000 0000 db35 af3b 3cd3 1538 f761 0ebc
000002f0: f5b7 83bb 6f64 86ba b1f3 4a3c 5b23 08bc
00000300: a91e 31bc eb0a 64bb b413 00bc 0125 23bc
00000310: 0f77 b3bb 51d5 003c 5ade 70bc 6fea 8dbb

layer2.weight f4 [200, 200]
0.020445189 0.06614137 -0.09396553 -0.116477884 0.025351265 -0.022959806 0.07626458 0.012784956
-0.06932578 -0.072931364 0.007943912 0.02741107 -0.11960676 0.06810572 0.10798224 0.08376473
-0.004584171 -0.12518176 -0.039800175 0.09268478 -0.08121049 -0.055689912 -0.046501074 0.05157002
-0.008395681 -0.11560455 0.04896396 -0.012365405 -0.0040761 -0.003316919 -0.041120842 -0.074453644
0.049923763 -0.09134249 0.017639022 0.023739688 0.094084315 0.08618628 -0.050714538 0.031787414
0.006522086 -0.018299378 0.059274424 0.1096659 0.005089335 -0.046435185 -0.008355158 0.033276647
-0.033593092 -0.0046112137 0.022395574 0.030342735 0.087634556 -0.040820614 -0.100478515 -0.036494277
-0.09354219 -0.070327014 -0.01460696 0.004949115 0.06386267 0.057975546 0.051660664 -0.07478179
0.0455097 0.05333815 0.1137247 0.07377776 0.004403997 0.12376241 0.09630652 -0.08056793
0.0699873 -0.018891929 -0.11599229 -0.0076868385 -0.10386347 0.05531857 0.0027305135 -0.01241681
-0.025391802 -0.06606305 -0.1149213 0.073652424 0.024450086 -0.11974283 0.056648258 -0.1104908
-0.023583865 0.11319709 0.01130138 -0.07145204 -0.0950446 0.0777754 -0.0791095 -0.03987578
-0.07459408 0.07867689 -0.120279066 -0.0139497565 0.0034321323 -0.0623636 0.113703236 -0.12563065
-0.027780443 0.037223108 0.0024837882 0.03996668 -0.08490213 0.03661386 -0.061556257 0.10249252
-0.11587356 -0.041917644 -0.07817371 -0.099659845 -0.013672775 -0.08200956 -0.089539655 -0.06833437
-0.056974873 0.003511286 -0.012727842 0.06464279 0.055496484 -0.07215517 -0.05194222 -0.06643921
-0.046575025 -0.07448019 0.013649444 0.082387336 0.02142331 -0.04895327 -0.02295843 -0.10068565
0.035928585 0.10289955 -0.043191366 0.0916929 0.0059513366 -0.046329595 0.07258585 -0.033909913
0.0665929 0.024279572 -0.10174 -0.021069502 0.072079815 -0.055255495 -0.039196648 0.07860085
0.07155337 -0.051588107 -0.03829929 -0.031817015 -0.11705497 -0.11999775 0.065202855 0.11037751
0.08827826 -0.029297791 -0.01383397 0.03135948 -0.013131447 0.041502614 0.12108782 0.08027089
0.103942625 -0.041331906 -0.091501154 -0.035480507 -0.08459811 0.0958284 0.11421748 -0.10147977
-0.08277942 0.01706889 -0.022419522 -0.036332306 -0.08867044 0.043887444 0.0042768493 -0.122840464
0.11262544 0.08931793 0.0035984223 0.0701702 0.08022932 -0.09773122 0.07530216 0.014348911
-0.0029469132 -0.11579358 0.06407491 -0.00022983551 0.059978522 -0.019270372 -0.008586665 -0.0992617
-0.0636661 -0.012087208 -0.020771196 0.097920336 0.08711832 0.0016739346 -0.07265529 0.019751152
0.038331296 0.025210122 0.0010850588 0.12012017 -0.13256174 -0.0096760895 0.11392427 -0.06262864
-0.059586566 0.031245591 -0.057376977 0.038181793 -0.0038239995 -0.0029792548 -0.09531319 -0.12362615
0.008604083 -0.019389927 0.044841416 0.009335714 0.10026233 0.09119789 -0.11593611 0.07480391
0.018253064 0.05320268 0.05159258 0.022673374 0.05237847 -0.040052783 0.013273777 -0.0067794593
0.13866471 -0.045093875 -0.042931464 0.04172247 0.09359962 0.030156728 0.07388858 -0.009501399
0.022894775 -0.11359363 -0.07573988 -0.07804885 0.012204593 0.103966616 0.08637893 0.07014153
00000000: ab7c a73c 2075 873d 0071 c0bd f58b eebd
00000010: 75ad cf3c 3416 bcbc 9b30 9c3d fe77 513c
00000020: adfa 8dbd 0a5d 95bd 2f27 023c 2e8d e03c
00000030: 64f4 f4bd 037b 8b3d cb25 dd3d d88c ab3d
00000040: d036 96bb a62f 00be 8205 23bd 85d1 bd3d
00000050: af51 a6bd 1b1b 64bd e977 3ebd 163b 533d
00000060: 0a8e 09bc 14c2 ecbd 6f8e 483d 4598 4abc
00000070: ce90 85bb ab60 59bb 546e 28bd 277b 98bd
00000080: dc7c 4c3d c511 bbbd b67f 903c bc79 c23c
00000090: 47af c03d 6f82 b03d 0cba 4fbd 8533 023d
000000a0: 39b7 d53b 94e8 95bc bdc9 723d 8498 e03d
000000b0: 70c4 a63b d232 3ebd 13e4 08bc 184d 083d
000000c0: e998 09bd aa19 97bb ec76 b73c 5491 f83c
000000d0: bf79 b33d 8433 27bd aec7 cdbd 067b 15bd
000000e0: 0c93 bfbd 9c07 90bd 0852 6fbc 302c a23b
000000f0: 6eca 823d c477 6d3d 229a 533d 3227 99bd
00000100: 6168 3a3d 1b79 5a3d 7fe8 e83d cb18 973d
00000110: 684f 903b 2577 fd3d 5a3c c53d cd00 a5bd
00000120: 8055 8f3d 3fc3 9abc 5e8d edbd e0e1 fbbb
00000130: 5fb6 d4bd ba95 623d 6af2 323b e06f 4bbc
00000140: 7802 d0bc 104c 87bd dc5b ebbd 15d7 963d
00000150: 8c4b c83c bb3b f5bd 0108 683d 0049 e2bd
00000160: f332 c1bc e0d3 e73d 6c29 393c 7255 92bd
00000170: bea6 c2bd b548 9f3d 2904 a2bd c954 23bd
00000180: c8c4 98bd 5921 a13d df54 f6bd 858d 64bc
00000190: a0ed 603b f970 7fbd 3edd e83d 52a5 00be
000001a0: d093 e3bc 4277 183d 0dc7 223b 1ab4 233d
000001b0: 2be1 adbd 6af8 153d 6a22 7cbd 99e7 d13d
000001c0: 1e4f edbd d6b1 2bbd 8a19 a0bd 761a ccbd
000001d0: c603 60bc a1f4 a7bd 9160 b7bd e4f2 8bbd
000001e0: 7c5e 69bd 9b1d 663b 7088 50bc 7063 843d
000001f0: 4850 633d 17c6 93bd 5ec1 54bd 4811 88bd
00000200: 74c5 3ebd 1289 98bd eba1 5f3c b1ba a83d
00000210: f07f af3c 3983 48bd 5113 bcbc 4734 cebd
00000220: da29 133d 00bd d23d 6ee9 30bd 7dc9 bb3d
00000230: 6e03 c33b 1ac4 3dbd e4a7 943d 1fe5 0abd
00000240: dc61 883d f4e5 c63c 105d d0bd f399 acbc
00000250: 959e 933d 9653 62bd aa8c 20bd 7cf9 a03d
00000260: 938a 923d 0d4e 53bd b7df 1cbd 8f52 02bd
00000270: 84ba efbd 61c1 f5bd 1389 853d 9b0d e23d
00000280: 3bcb b43d ec01 f0bc e0a7 62bc cc72 003d
00000290: 4825 57bc a5fe 293d e4fc f73d 1065 a43d
000002a0: dfdf d43d a54b 29bd f564 bbbd 0254 11bd
000002b0: c641 adbd ae41 c43d dbea e93d a0d4 cfbd
000002c0: 4288 a9bd 0fd4 8b3c 25a9 b7bc 2fd1 14bd
000002d0: d998 b5bd 52c3 333d d024 8c3b c893 fbbd
000002e0: 2ba8 e63d 52ec b63d 82d3 6b3b 65b5 8f3d
000002f0: 454f a43d 4e27 c8bd 0538 9a3d b217 6b3c
00000300: 0021 41bb 2f25 edbd b539 833d 0000 71b9
00000310: 0aac 753d e6dc 9dbc 15af 0cbc b849 cbbd
00000320: 5f63 82bd 6d09 46bc 5b28 aabc 758a c83d
00000330: 176b b23d ed67 db3a 4ccc 94bd 2bcd a13c
00000340: 4701 1d3d 7585 ce3c 8838 8e3a 9001 f63d
00000350: 44be 07be 7688 1ebc 2151 e93d 7243 80bd
00000360: 0b11 74bd c1f6 ff3c 1f04 6bbd 8364 1c3d
00000370: 119c 7abb 9a3f 43bb 9033 c3bd b52f fdbd
00000380: 24f8 0c3c a0d7 9ebc a2ab 373d d3f4 183c
00000390: 5656 cd3d f6c5 ba3d e96f edbd cb32 993d
000003a0: 7387 953c 0eeb 593d be52 533d 83bd b93c
000003b0: ce8a 563d 630e 24bd 427a 593c 3a26 debb
000003c0: 1ffe 0d3e 5bb4 38bd e7d8 2fbd 2ee5 2a3d
000003d0: 28b1 bf3d 3e0b f73c e552 973d c1ab 1bbc
000003e0: d38d bb3c c7a3 e8bd 831d 9bbd 13d8 9fbd
000003f0: c6f5 473c 73ec d43d 70e7 b03d 5da6 8f3d

layer2.bias f4 [200]
-0.005964554 0.0051606004 -0.006354747 -0.008629158 -0.013814392 0.0028952004 -0.0012106075 0.009257812
0.0020291973 -0.009392345 0.012428424 -0.0036674705 -0.010054394 -0.0014984271 0.008948148 -0.013728651
0.023673844 0.016036412 -0.019786218 0.0 -0.008478772 -0.006354049 -0.009967997 -0.009869459
0.0004302943 0.017327257 0.017045991 -0.0019972292 -0.004362188 -0.0028626816 -0.009683899 -0.0076821926
-0.0059319013 0.006581671 -0.006017619 -0.007039233 -0.008403238 0.014743593 -0.0009253624 0.01979406
0.0055304808 -0.002978825 -0.0008792972 0.005260331 -0.016453855 -0.0080374535 -0.011472821 0.005097575
-0.007113114 -0.0076228413 0.0 -0.0059601725 -0.014980266 -0.0062130527 0.01188483 0.00052570296
0.015831875 -0.0003376453 -0.005703463 0.015545125 0.010048835 0.018744854 -0.008552897 -0.017787492
0.0027076805 -0.0069647892 -0.0005858159 -0.014516807 0.018669339 -0.005016804 0.005920466 0.014125951
-0.012369787 -0.007419755 -0.006866652 0.012378883 0.022764742 -0.01206322 -0.007593976 0.026441792
-0.007666624 -0.011752894 0.005061433 -0.0024404463 -0.0064977575 0.0034833038 -0.005036953 -0.0096899895
0.011883002 -0.006242565 0.01802526 0.0064043854 0.00029655546 -0.00586868 0.0020021026 -0.0070589217
0.01271652 -0.008794772 -0.0022908882 0.012458888 -0.0059648473 -0.0059648575 -0.004648549 -0.0039499933
-0.0040735947 -0.0023461867 0.009973403 -0.002566637 -0.0061596683 -0.014293617 -0.00373591 0.002848602
0.009539171 -0.011114663 -0.003361177 0.0028766033 -0.008630535 0.000775771 -0.0033606358 0.0040205866
-0.002552636 -0.012829885 0.0073747076 0.01578419 -0.0033934203 -0.011760681 -0.006278458 0.01243672
0.0032523093 -0.0013703816 -0.004376697 0.00014310976 -0.00039371604 0.02662225 0.0152932275 -0.0036860064
0.018299429 -0.015077862 0.008954982 0.0 -0.0072516846 -0.009074393 -0.011278011 -0.012041991
-0.006587105 -0.008339506 0.024507007 0.014012122 0.013772326 0.006099714 0.0024587158 -0.016591724
-0.002434624 -0.010246652 -0.007557296 -0.0014993586 0.0030427335 -0.013143848 -0.0017162206 -0.013785849
-0.0080443 -0.0101577975 -0.0074916366 -0.0015101548 -0.014390155 0.0015447404 -0.0061437804 -0.005228021
0.009769621 -0.010791899 0.0052691833 -0.008020454 -0.0060499352 0.004017972 -0.009283637 -0.0022127691
-0.007192841 -0.0058861617 -0.0070703314 0.016008195 -0.016228346 0.015019724 -0.0062017683 0.010291012
0.011235729 -0.010088716 -0.012312512 0.007347101 0.0011902044 0.013149578 0.015842257 0.02433725
-0.0052821236 0.012959431 0.007396962 -0.004467157 0.002108505 -0.0056826067 0.010636445 0.0008446886
00000000: 4e72 c3bb 411a a93b 7b3b d0bb 5061 0dbc
00000010: c255 62bc 67bd 3d3b 3fad 9eba 14ae 173c
00000020: 48fc 043b 5ae2 19bc 97a0 4b3c f259 70bb
00000030: 2fbb 24bc df66 c4ba 419b 123c 23ee 60bc
00000040: a6ef c13c cb5e 833c b516 a2bc 0000 0000
00000050: 8cea 0abc a035 d0bb cf50 23bc 83b3 21bc
00000060: 2099 e139 e4f1 8d3c 09a4 8b3c f2e3 02bb
00000070: aff0 8ebb d49b 3bbb 37a9 1ebc e7ba fbbb
00000080: 6560 c2bb 0fab d73b 722f c5bb 5ea9 e6bb
00000090: bcad 09bc 1c8f 713c 0594 72ba 2727 a23c
000000a0: 0939 b53b 6438 43bb a380 66ba db5e ac3b
000000b0: 3cca 86bc 86af 03bc 80f8 3bbc 8f09 a73b
000000c0: 2015 e9bb 07c9 f9bb 0000 0000 8d4d c3bb
000000d0: ca6f 75bc dd96 cbbb 97b8 423c 54cf 093a
000000e0: d9b1 813c fc05 b1b9 1ee4 babb fbb0 7e3c
000000f0: dea3 243c cf8e 993c 7321 0cbc 13b7 91bc
00000100: 5773 313b e338 e4bb 7191 19ba e7d7 6dbc
00000110: 71f0 983c 0164 a4bb 7800 c23b 8870 673c
00000120: a6aa 4abc 6b21 f3bb a701 e1bb ccd0 4a3c
00000130: 207d ba3c d0a4 45bc e3d6 f8bb 759c d83c
00000140: 4e38 fbbb 368f 40bc 61da a53b e5ef 1fbb
00000150: 24eb d4bb 2448 643b 060d a5bb c3c2 1ebc
00000160: ecb0 423c 6e8e ccbb b6a9 933c e1db d13b
00000170: 007b 9b39 0e4e c0bb b535 033b 874e e7bb
00000180: f358 503c f317 10bc ba22 16bb 5d20 4c3c
00000190: c474 c3bb da74 c3bb db52 98bb f26e 81bb
000001a0: ca7b 85bb 7bc2 19bb 7c67 233c 0635 28bb
000001b0: 0bd7 c9bb c62f 6abc 2bd6 74bb 9caf 3a3b
000001c0: 2f4a 1c3c 471a 36bc 3147 5cbb 6585 3c3b
000001d0: 1667 0dbc 1c5d 4b3a 1d3e 5cbb 20bf 833b
000001e0: 204a 27bb 7034 52bc 88a7 f13b d84d 813c
000001f0: 2564 5ebb dfaf 40bc 86bb cdbb 62c3 4b3c
00000200: b224 553b 609e b3ba 656a 8fbb bc0f 1639
00000210: ac6b ceb9 e816 da3c 7290 7a3c ed90 71bb
00000220: afe8 953c 2309 77bc ebb7 123c 0000 0000
00000230: 8a9f edbb c3ac 14bc 68c7 38bc c54b 45bc
00000240: a4d8 d7bb 6ca2 08bc ebc2 c83c 1993 653c
00000250: 52a5 613c 1ce0 c73b 6822 213b 5eeb 87bc
00000260: 368e 1fbb 93e1 27bc 32a3 f7bb 2086 c4ba
00000270: 9968 473b 4b59 57bc cff2 e0ba 0bde 61bc
00000280: 3dcc 03bc e46c 26bc 677c f5bb 63f0 c5ba
00000290: afc4 6bbc e378 ca3a c451 c9bb d24f abbb
000002a0: c310 203c 81d0 30bc 1da9 ac3b 3968 03bc
000002b0: 893e c6bb 31a9 833b 651a 18bc 1b04 11bb
000002c0: ecb1 ebbb b4e0 c0bb 3dae e7bb 9e23 833c
000002d0: 4ff1 84bc 4a15 763c 3438 cbbb a29b 283c
000002e0: 1016 383c 244b 25bc 6bba 49bc f3bf f03b
000002f0: a200 9c3a 5471 573c 9fc7 813c ea5e c73c
00000300: aa15 adbb cb53 543c 3762 f23b 3b61 92bb
00000310: d82e 0a3b 2935 babb 7c44 2e3c 186e 5d3a

mu.weight f4 [4, 200]
0.09655104 0.06535818 -0.077266835 -0.0033686226 -0.15743214 -0.035984285 0.07485819 0.1779402
0.09483814 -0.1392408 -0.057800528 -0.0826586 0.12996863 -0.0033279313 0.12540571 -0.0626436
0.1780039 0.1413456 0.079547554 0.10164653 0.070489965 0.071227 0.007267785 -0.08052426
0.031352628 0.092587054 0.0023281155 0.14013661 -0.0972776 -0.10777268 0.15696508 -0.07292758
-0.15573512 0.007398569 0.014272489 -0.13145459 -0.13765337 0.040672433 -0.07184498 -0.023670072
-0.028388709 -0.13263549 -0.08176555 0.14033465 -0.08131304 -0.13174395 0.016127517 -0.042450283
-0.10911932 -0.014442101 0.16605778 -0.06758535 -0.0756485 0.08731855 0.051181536 -0.1284137
0.12091285 -0.08268827 0.044011574 0.12239388 -0.15901177 0.07197599 -0.13828765 -0.044147536
-0.02083554 0.096146174 0.14294185 -0.083557196 0.09618277 -0.04122236 -0.1158491 0.12540929
0.018470585 -0.014706407 -0.03254368 0.16749424 -0.0017642629 -0.101643145 -0.118371904 0.10893372
-0.07928785 0.028174864 0.10237806 -0.042477507 0.103974424 0.029235555 -0.14800693 -0.11598093
0.09631013 -0.11310354 0.035418138 0.02558762 0.04697662 -0.046723902 0.01686213 0.09209702
0.1658599 -0.082921825 -0.12690598 0.13278659 -0.034772974 0.14472921 0.03668032 -0.07640467
-0.051110204 -0.13309467 0.095382325 0.14690219 -0.12062252 0.022392588 0.0006781325 0.004405858
0.11657187 0.061719447 -0.0212236 0.04008472 -0.09081035 0.016729888 -0.1054028 -0.12095691
-0.035737492 0.1214256 0.034087718 0.068504885 -0.018284293 -0.040264357 -0.07323567 0.14406815
0.04235815 -0.13736264 -0.06312524 -0.011916537 0.075216256 0.13756406 0.13275082 -0.11581886
-0.10607696 -0.15210125 0.0366192 -0.019651026 0.10026797 0.054550633 -0.114289016 -0.08577916
-0.06877319 -0.021998456 0.1509918 0.07251177 -0.043392546 -0.12311377 -0.09697659 -0.069272645
-0.018394308 0.008572193 0.10268564 0.0064384835 0.13045356 0.14326434 0.08523112 -0.02233422
-0.077257834 -0.13107453 -0.13868307 0.04848154 0.12533571 -0.05881613 -0.015974266 -0.08813155
0.07837854 -0.044628732 0.05233888 -0.09780158 0.14196843 -0.16523598 -0.12910046 0.14086705
-0.024668008 -0.14334948 -0.15718019 0.13265952 -0.04361535 0.08337718 -0.061755188 0.12111349
0.09581809 0.13833444 -0.15718779 0.038152594 0.07924787 0.16105025 0.054630883 0.13285436
-0.08111037 0.083436824 -0.06905035 -0.00619476 0.07116103 0.053519297 0.0040272786 0.13920833
0.0604487 -0.16049255 0.08893329 -0.049625102 -0.10300158 0.07749062 -0.12122724 -0.13065556
0.058392525 0.11376896 0.13686156 -0.09433842 -0.14107007 0.08635726 -0.12249659 -0.055905644
0.11713351 -0.042344395 -0.04149455 0.1183428 0.07670605 0.056819655 0.01578747 -0.008930805
-0.08367411 0.10292839 0.12545653 -0.14705284 -0.083820574 -0.048447095 -0.080864355 0.047684394
0.023147723 -0.16074291 -0.022299036 -0.010326512 0.11625554 -0.13878322 0.003381875 0.06857265
-0.14369942 -0.033956412 0.07866099 -0.15337874 -0.02833075 0.09230923 -0.14952189 0.08496093
-0.16128032 -0.064461395 0.010932952 -0.15324779 -0.048799027 -0.07079759 0.019405149 0.08174727
00000000: 8dbc c53d 82da 853d 133e 9ebd 1cc4 5cbb
00000010: e435 21be 4264 13bd 404f 993d f535 363e
00000020: 803a c23d 2495 0ebe 3fc0 6cbd e948 a9bd
00000030: 7f16 053e 6c19 5abb 5b6a 003e 4a4b 80bd
00000040: a846 363e e7bc 103e d4e9 a23d 0e2c d03d
00000050: 0b5d 903d 76df 913d 9926 ee3b e7e9 a4bd
00000060: 9d6b 003d 489e bd3d 4c93 183b f97f 0f3e
00000070: 7a39 c7bd ecb7 dcbd 74bb 203e 0e5b 95bd
00000080: 0779 1fbe b26f f23b 28d7 693c 089c 06be
00000090: 01f5 0cbe 2398 263d 7623 93bd bde7 c1bc
000000a0: 708f e8bc 99d1 07be b274 a7bd e3b3 0f3e
000000b0: 7387 a6bd e3e7 06be db1d 843c 59e0 2dbd
000000c0: f379 dfbd 909e 6cbc 0d0b 2a3e 306a 8abd
000000d0: 9aed 9abd 11d4 b23d bba3 513d e27e 03be
000000e0: 28a1 f73d 7858 a9bd 7b45 343d a4a9 fa3d
000000f0: fbd3 22be 2668 933d 479b 0dbe 0cd4 34bd
00000100: 4baf aabc 49e8 c43d 595f 123e 0920 abbd
00000110: 79fb c43d c7d8 28bd 4b42 edbd 4b6b 003e
00000120: a04f 973c 24f3 70bc 864c 05bd 9c83 2b3e
00000130: d73e e7ba 482a d0bd f86c f2bd a418 df3d
00000140: ab61 a2bd f9ce e63c 97ab d13d e5fc 2dbd
00000150: 8bf0 d43d 677f ef3c 218f 17be 6987 edbd
00000160: 3f3e c53d d4a2 e7bd 9c12 113d 219d d13c
00000170: 8e6a 403d 9061 3fbd 7322 8a3c 5d9d bc3d
00000180: 2dd7 293e ebd2 a9bd a4f3 01be 35f9 073e
00000190: 1b6e 0ebd e533 143e 1a3e 163d 0d7a 9cbd
000001a0: ef58 51bd f849 08be cf57 c33d 876d 163e
000001b0: f108 f7bd a970 b73c b4c4 313a 045f 903b
000001c0: 3cbd ee3d 88cd 7c3d 1ddd adbc e02f 243d
000001d0: c7fa b9bd 1e0d 893c 6cdd d7bd 42b8 f7bd
000001e0: 7a61 12bd fcad f83d 909f 0b3d 4a4c 8c3d
000001f0: f1c8 95bc 3dec 24bd 95fc 95bd 9a86 133e
00000200: bd7f 2d3d cba8 0cbe ce47 81bd 943d 43bc
00000210: fb0a 9a3d 98dd 0c3e d5ef 073e 7032 edbd
00000220: e13e d9bd 6ec0 1bbe 04fe 153d 30fb a0bc
00000230: 4b59 cd3d 7c70 5f3d 5c10 eabd fcac afbd
00000240: f5d8 8cbd 1b36 b4bc 989d 1a3e 0d81 943d
00000250: 62bc 31bd 1223 fcbd aa9b c6bd d1de 8dbd
00000260: a9af 96bc 6272 0c3c d94c d23d eaf9 d23b
00000270: 9e95 053e e3b3 123e a78d ae3d 41f6 b6bc
00000280: 5b39 9ebd 6738 06be ef02 0ebe 9494 463d
00000290: 0158 003e 2fe9 70bd 77dc 82bc 507e b4bd
000002a0: ee84 a03d 9ecc 36bd 4b61 563d 324c c8bd
000002b0: 2c60 113e 9f33 29be e932 04be 743f 103e
000002c0: 9014 cabc 35ca 12be d8f3 20be e6d7 073e
000002d0: 02a6 32bd a8c1 aa3d 02f3 7cbd 590a f83d
000002e0: 463c c43d 8ba7 0d3e d6f5 20be e545 1c3d
000002f0: b54c a23d 5bea 243e a2c4 5f3d f90a 083e
00000300: 321d a6bd ede0 aa3d 456a 8dbd 6afd cabb
00000310: e0bc 913d 0d37 5b3d 43f7 833b a18c 0e3e
00000320: 0e99 773d 2958 24be a822 b63d b143 4bbd
00000330: 7ef2 d2bd 67b3 9e3d fd45 f8bd 92ca 05be
00000340: 002d 6f3d b3ff e83d 7025 0c3e 8034 c1bd
00000350: ac74 10be 13dc b03d 7edf fabd 51fd 64bd
00000360: b2e3 ef3d 5171 2dbd 30f6 29bd b65d f23d
00000370: 1018 9d3d babb 683d b954 813c 8352 12bc
00000380: 555d abbd 1fcc d23d ad77 003e 0595 16be
00000390: 1faa abbd 7670 46bd 369c a5bd b650 433d
000003a0: 4ba0 bd3c ca99 24be 78ac b6bc 8830 29bc
000003b0: 6217 ee3d 301d 0ebe 73a2 5d3b d16f 8c3d
000003c0: f125 13be e115 0bbd 0319 a13d 510f 1dbe
000003d0: e415 e8bc 9f0c bd3d 441c 19be ffff ad3d
000003e0: ab26 25be 5604 84bd 2020 333c fdec 1cbe
000003f0: 7de1 47bd 54fe 90bd 8cf7 9e3c 1d6b a73d

mu.bias f4 [4]
0.0113082295 0.0072355247 0.020375645 0.00401603
00000000: 2746 393c fb17 ed3b d3ea a63c e798 833b

sigma f4 [4]
0.0066647204 -0.022398679 -0.02843923 -0.08707178
00000000: ba63 da3b 6f7d b7bc 63f9 e8bc b052 b2bd

layer1.weight f4 [200, 36]
0.044382162 0.15106511 -0.029403193 0.017542701 0.039933898 0.03272444 -0.06265419 0.07101516
-0.048715394 0.08716889 -0.032952107 0.04783142 0.09828578 -0.115291916 0.038268913 0.009349132
-0.13569993 -0.03906762 -0.01410691 0.11404575 -0.09079525 0.11433312 -0.06377675 0.052691426
0.033117145 0.10828967 0.08419451 -0.14366785 -0.0050436873 -0.16485128 -0.01586815 -0.09994915
0.12811962 0.06310279 -0.0810671 0.012271392 -0.111289054 -0.18304737 0.06603462 -0.04391919
-0.036606316 -0.017289618 0.023741549 0.06043547 -0.08232912 -0.03841285 -0.10014306 -0.10154235
-0.07652395 0.0066622454 -0.14290151 -0.0045114495 0.13282306 -0.15030968 0.0161009 0.10982149
0.006122682 0.07557366 -0.107283905 -0.009696823 -0.06446591 -0.009442819 -0.046562083 0.0062390794
0.12617923 -0.059258863 -0.0028343948 -0.13028653 0.05638304 0.0010079311 -0.12390024 0.07661813
-0.1125717 -0.11328022 -0.18117148 -0.10647389 -0.023421189 -0.103750795 0.15049659 -0.16075882
-0.04262602 -0.1126845 0.13782318 -0.066044465 -0.14383058 0.054679453 -0.10324326 0.12026518
0.19009908 -0.016614215 0.03712668 -0.10540879 -0.0041210065 0.12947 0.12705468 0.08349932
-0.09883689 0.14414573 0.09902073 -0.006101196 -0.12470365 0.13550484 -0.045362756 -0.13478822
0.0674937 -0.17494957 -0.17459431 0.06784662 0.07059484 -0.05550648 -0.030077556 -0.09871324
-0.16345836 -0.1004476 -0.14060423 -0.050481886 -0.072406575 -0.053727906 -0.13839404 0.05260202
0.043793384 -0.08929594 0.09354228 0.033541895 -0.15182084 -0.052454017 -0.13607319 -0.054631032
0.09443196 -0.044680513 -0.09094194 0.01370863 -0.07872907 -0.18802318 0.00325311 -0.1752073
0.003145038 -0.051509436 -0.0012243035 -0.15818451 0.0019504582 -0.012818977 -0.12780595 -0.03320554
0.046857197 -0.049302246 -0.063384816 0.089530066 0.11907538 -0.097499736 0.0060373982 -0.050632704
-0.026189974 0.084347 -0.023102654 -0.02997056 0.04008324 0.10476295 0.12741742 0.06270101
-0.090093106 -0.05874948 -0.11627958 -0.1596037 -0.16303177 -0.023546338 0.049154922 0.15348968
0.010270995 -0.15489301 -0.063009135 0.12289326 0.13773593 0.054029826 -0.04919812 0.07959869
0.02404248 -0.13423747 -0.12325709 -0.059416547 -0.0512149 -0.096162505 -0.061965577 0.08809336
0.08840384 -0.058514938 0.09306195 0.09329862 -0.07654162 0.12730111 0.030610433 -0.061676614
0.15973268 -0.039670177 -0.007887408 0.022118507 0.009790894 0.044752087 -0.09559952 0.03274646
0.042850457 -0.03644171 -0.13204198 -0.06319671 0.14653601 0.11263666 0.04417349 -0.07303328
0.08780985 0.09475294 -0.08853515 -0.03681432 -0.12639569 -0.1504951 0.1538896 0.03819887
-0.011044506 -0.0006726529 -0.0077468613 0.16027279 -0.12508294 0.111019656 0.054828532 -0.024810525
-0.07821467 -0.056927785 -0.09053978 0.045754228 0.10075563 0.08848792 -0.12863463 0.093614675
0.02699566 -0.015357498 -0.11092223 -0.091451 0.15588568 0.016379304 -0.11762779 -0.015911361
-0.08636943 -0.04169513 0.05800358 -0.15986931 -0.12663373 -0.1103453 -0.13657989 -0.11323664
0.078931436 0.10809708 -0.13621823 -0.10854461 0.14113145 0.10312148 -0.103400156 0.003691948
00000000: 12ca 353d d0b0 1a3e f7de f0bc b6b5 8f3c
00000010: ba91 233d 100a 063d d750 80bd 6570 913d
00000020: cb89 47bd 9a85 b23d caf8 06bd e1ea 433d
00000030: 0e4a c93d 2b1e ecbd ddbf 1c3d 1a2d 193c
00000040: ecf4 0abe 5e05 20bd ab20 67bc d190 e93d
00000050: dcf2 b9bd 7c27 ea3d 629d 82bd f7d2 573d
00000060: d8a5 073d f9c6 dd3d 2c6e ac3d aa1d 13be
00000070: 8445 a5bb c6ce 28be ecfd 81bc 24b2 ccbd
00000080: ca31 033e 093c 813d 8206 a6bd f30d 493c
00000090: 84eb e3bd c570 3bbe 293d 873d 9ce4 33bd
000000a0: 81f0 15bd f5a2 8dbc a37d c23c 2f8b 773d
000000b0: 2b9c a8bd cb56 1dbd ce17 cdbd 70f5 cfbd
000000c0: 97b8 9cbd f74e da3b c654 12be c8d4 93bb
000000d0: c502 083e c8ea 19be 09e6 833c 17ea e03d
000000e0: c7a0 c83b 5dc6 9a3d aab7 dbbd 6cdf 1ebc
000000f0: b406 84bd 0eb6 1abc e2b7 3ebd 3171 cc3b
00000100: 2135 013e 6cb9 72bd 41c1 39bb d569 05be
00000110: e7f1 663d 8e1c 843a 69bf fdbd f7e9 9c3d
00000120: fe8b e6bd 76ff e7bd 0485 39be fc0e dabd
00000130: cbdd bfbc 4c7b d4bd c71b 1a3e f69d 24be
00000140: 9f98 2ebd 22c7 e6bd 8521 0d3e 5242 87bd
00000150: 5348 13be 90f7 5f3d 3471 d3bd 974d f63d
00000160: 55a9 423e 891a 88bc 2512 183d 90e0 d7bd
00000170: 8209 87bb c993 043e 9f1a 023e b101 ab3d
00000180: ff6a cabd f09a 133e 61cb ca3d 8bec c7bb
00000190: a164 ffbd c8c1 0a3e 4cce 39bd ec05 0abe
000001a0: 233a 8a3d fb25 33be dac8 32be 2bf3 8a3d
000001b0: 0794 903d c35a 63bd 3565 f6bc 2b2a cabd
000001c0: a161 27be 79b7 cdbd 8efa 0fbe 18c6 4ebd
000001d0: e649 94bd cb11 5cbd 2bb7 0dbe 3775 573d
000001e0: b160 333d cae0 b6bd 1893 bf3d 3a63 093d
000001f0: ec76 1bbe 06da 56bd c556 0bbe cac4 5fbd
00000200: 8b65 c13d ea02 37bd c53f babd 299a 603c
00000210: b53c a1bd 2689 40be 2132 553b 8b69 33be
00000220: fb1c 4e3b 8ffb 52bd cf78 a0ba 1ffb 21be
00000230: 84a6 ff3a b006 52bc 90df 02be 8802 08bd
00000240: 55ed 3f3d 27f1 49bd e6cf 81bd 8a5b b73d
00000250: cbdd f33d f1ad c7bd 5ed5 c53b 3d64 4fbd
00000260: 5b8c d6bc 1fbe ac3d c741 bdbc d284 f5bc
00000270: 532e 243d f58d d63d b679 023e 6369 803d
00000280: bc82 b8bd 4ba3 70bd fd23 eebd 276f 23be
00000290: cdf1 26be 40e4 c0bc ac56 493d 662c 1d3e
000002a0: ad47 283c 469c 1ebe ef0a 81bd 76af fb3d
000002b0: a60a 0d3e 614e 5d3d f883 49bd a304 a33d
000002c0: bcf4 c43c 8c75 09be 376e fcbd c45e 73bd
000002d0: b7c6 51bd d9f0 c4bd 9ecf 7dbd 4b6a b43d
000002e0: 130d b53d 5cad 6fbd 4397 be3d 5913 bf3d
000002f0: dac1 9cbd 395b 023e bbc2 fa3c 9ea0 7cbd
00000300: f790 233e 327d 22bd 303a 01bc df31 b53c
00000310: fc69 203c f74d 373d aec9 c3bd 2721 063d
00000320: f683 2f3d e743 15bd 0336 07be 476d 81bd
00000330: 890d 163e 0dae e63d 43ef 343d 7992 95bd
00000340: a7d5 b33d d40d c23d eb51 b5bd 9dca 16bd
00000350: df6d 01be 631b 1abe 3c95 1d3e 6b76 1c3d
00000360: 04f4 34bc f954 30ba 62d9 fdbb 8d1e 243e
00000370: be15 00be 465e e33d e293 603d 713f cbbc
00000380: 032f a0bd 1c2d 69bd ec6c b9bd c968 3b3d
00000390: f858 ce3d 2839 b53d ccb8 03be 0db9 bf3d
000003a0: 0126 dd3c 049e 7bbc 322b e3bd a94a bbbd
000003b0: 7fa0 1f3e e42d 863c d7e6 f0bd 8b58 82bc
000003c0: 75e2 b0bd 83c8 2abd 2995 6d3d c8b4 23be
000003d0: 46ac 01be b7fc e1bd 99db 0bbe 9de8 e7bd
000003e0: cea6 a13d 0062 dd3d cb7c 0bbe a34c debd
000003f0: c384 103e 5b31 d33d 76c3 d3bd 9cf4 713b

layer1.bias f4 [200]
-0.017910864 0.0027275067 -0.012754295 -0.0038091221 -0.0072358777 -0.0031985173 -0.008262063 0.019378666
-0.021739468 -0.012277918 -0.003253835 -0.032080345 0.02418949 0.0039484175 0.019371547 -0.0075394376
0.021066906 -0.010304787 0.045843087 -0.0005736417 0.0062077814 0.030585771 -0.030402197 0.015354694
0.014083234 -0.01572359 0.018913712 -0.014719465 -0.013618631 -0.0034965784 -0.015004357 -0.0021564662
0.0143244425 -0.021637755 0.027324906 0.017110962 -0.0043902313 0.002180538 0.029225463 -0.02128624
0.0024851912 0.005934289 -0.016489536 0.026415266 0.010100564 -0.013931361 -0.011500111 0.0013276829
-0.01557859 -0.022664465 -0.0015496062 0.0051099244 0.010382625 -0.0035779572 0.021126758 0.016187279
-0.006075405 -0.010194855 -0.02325739 -0.011010781 -0.008661037 -0.0028921869 -0.016034925 -0.001800158
-0.014791551 0.00438288 -0.007113432 -0.005962918 0.021009192 -0.0033375607 -0.005825091 0.009990786
0.011548864 0.00079123495 -0.023482325 -0.009335014 0.029072143 -0.023532016 0.011626145 -0.012069124
-0.01194469 0.0015655074 -0.014679276 -0.0044379593 -0.004825908 -0.0046684374 -0.02116279 -0.008645978
-0.02501851 0.009745307 0.0017279612 -0.014773312 -0.009259157 -0.01339747 0.023448048 0.008878239
-0.0039753546 -0.020488502 -0.0026807068 0.004671263 -0.01105467 -0.009744288 -0.013917726 -0.011381817
-0.018178605 -0.0065650716 -0.0016360148 0.00064832624 -0.008372504 0.002424753 0.028327817 -0.02088449
0.0026186453 -0.0040011364 0.012232582 -0.031246707 -0.02532909 0.016128516 0.009321674 -0.0070920144
0.00785216 0.006649004 0.037160173 0.016887937 0.012027941 0.011815454 -0.008997285 -0.015526963
-0.025561733 0.011713124 -0.012863637 -0.019584276 -0.0071497327 0.0018159441 -0.01720412 0.005179337
-0.008508113 -0.0017428615 -0.004810723 0.001704838 -0.012705692 -0.0031809553 -0.0004166735 0.028362555
0.004063337 0.0 0.026047949 0.024227438 -0.0040832865 -0.010543899 -0.00287873 0.012655644
-0.013721623 -0.010184368 -0.016382627 0.00726552 -0.0010001769 -0.021349454 0.0025042654 0.021809038
-0.008419783 0.0 -0.011309501 -0.007086602 0.008723308 0.013138846 0.0013930582 -0.014477883
-0.003020055 0.022044947 0.011242453 -0.020082787 -0.010163437 -0.011935359 -0.008427511 0.006337683
-0.013361487 -0.016035397 -0.006250922 0.013132535 -0.011717562 0.0144140655 0.008452764 -0.020717502
-0.004765765 0.022887269 -0.0077432343 -0.008690349 -0.012253644 0.005749683 -0.0014648135 -0.02246977
-0.010810533 0.0029615285 -0.007817198 -0.009957553 -0.013187933 -0.0017893156 -0.01470145 -0.026853446
00000000: ceb9 92bc f8bf 323b 64f7 50bc 77a2 79bb
00000010: f11a edbb 379e 51bb 9b5d 07bc 02c0 9e3c
00000020: f816 b2bc 5229 49bc 4b3e 55bb ae66 03bd
00000030: 0a29 c63c ba61 813b 14b1 9e3c 630d f7bb
00000040: 8194 ac3c 69d5 28bc f6c5 3b3d 7160 16ba
00000050: a56a cb3b 038f fa3c 070e f9bc 4192 7b3c
00000060: 5dbd 663c c2ce 80bc eef0 9a3c e929 71bc
00000070: ae20 5fbc da26 65bb d6d4 75bc 8053 0dbb
00000080: 11b1 6a3c a941 b1bc 7bd8 df3c 4a2c 8c3c
00000090: eedb 8fbb 5be7 0e3b 3d6a ef3c 7b60 aebc
000000a0: 97de 223b 6d74 c23b 1015 87bc d464 d83c
000000b0: d67c 253c 5d40 64bc f66a 3cbc a505 ae3a
000000c0: 583d 7fbc d4aa b9bc 281c cbba 2771 a73b
000000d0: e31b 2a3c 297c 6abb 0612 ad3c 2f9b 843c
000000e0: 3114 c7bb 5208 27bc 4886 bebc 9066 34bc
000000f0: 06e7 0dbc d88a 3dbb ad5b 83bc 47f3 ebba
00000100: 4358 72bc 439e 8f3b cb17 e9bb 9564 c3bb
00000110: 781b ac3c faba 5abb 68e0 bebb 65b0 233c
00000120: 7237 3d3c e16a 4f3a 015e c0bc e3f1 18bc
00000130: b428 ee3c 37c6 c0bc 967b 3e3c 93bd 45bc
00000140: a9b3 43bc b631 cd3a 5981 70bc 4d6c 91bb
00000150: a722 9ebb b1f9 98bb 965d adbc dca7 0dbc
00000160: 9ef3 ccbc c8aa 1f3c c27c e23a c30b 72bc
00000170: b8b3 17bc 1081 5bbc 1f16 c03c 0976 113c
00000180: b143 82bb 81d7 a7bc ccae 2fbb 6511 993b
00000190: a61e 35bc 82a6 1fbc 2d07 64bc cd7a 3abc
000001a0: 4ceb 94bc d01f d7bb 8c6f d6ba 70f4 293a
000001b0: d42c 09bc 9be8 1e3b bd0f e83c f315 abbc
000001c0: 949d 2b3b f71b 83bb 2b6b 483c 18f9 ffbc
000001d0: f47e cfbc f31f 843c efb9 183c 2164 e8bb
000001e0: 59a6 003c e3df d93b 4435 183d 9258 8a3c
000001f0: d710 453c 9b95 413c 5969 13bc ce64 7ebc
00000200: d766 d1bc 67e8 3f3c 01c2 52bc 346f a0bc
00000210: 4e48 eabb f904 ee3a a8ef 8cbc 6eb7 a93b
00000220: 9d65 0bbc ba70 e4ba 45a3 9dbb df74 df3a
00000230: 892b 50bc 9377 50bb f874 dab9 9758 e83c
00000240: be25 853b 0000 0000 8262 d53c 9f78 c63c
00000250: 17cd 85bb 51c0 2cbc 13a9 3cbb 9e59 4f3c
00000260: a9d0 60bc 56dc 26bc dc34 86bc 9913 ee3b
00000270: 5e18 83ba 0de5 aebc 9a1e 243b dea8 b23c
00000280: 21f3 09bc 0000 0000 7c4b 39bc ba36 e8bb
00000290: 35ec 0e3c 5044 573c 4797 b63a a534 6dbc
000002a0: 1dec 45bb 9b97 b43c 4432 383c a884 a4bc
000002b0: 8b84 26bc 868c 43bc 8b13 0abc 57ac cf3b
000002c0: 23ea 5abc aa5c 83bc 89d4 ccbb d829 573c
000002d0: 04fb 3fbc f928 6c3c 767d 0a3c c0b7 a9bc
000002e0: 222a 9cbb 157e bb3c f5ba fdbb f761 0ebc
000002f0: 82c3 48bc d667 bc3b fcfe bfba 8612 b8bc
00000300: a91e 31bc 3416 423b b413 00bc 0125 23bc
00000310: 3312 58bc 7887 eaba 5ade 70bc c2fb dbbc

layer2.weight f4 [200, 200]
0.015745297 0.06614137 -0.09396553 -0.116477884 0.020888824 -0.027802365 0.07243925 0.012784956
-0.06932578 -0.07782377 0.007943912 0.022572914 -0.11960676 0.06810572 0.10318233 0.07886515
-0.004584171 -0.12518176 -0.039800175 0.08793931 -0.08121049 -0.06018744 -0.05100988 0.05157002
-0.013357557 -0.11560455 0.044544782 -0.012365405 -0.008854944 -0.008174467 -0.041120842 -0.074453644
0.045063045 -0.096136145 0.012884825 0.019388754 0.094084315 0.0812569 -0.050714538 0.031787414
0.0015753483 -0.018299378 0.059274424 0.10498832 0.00090359076 -0.046435185 -0.008355158 0.028499236
-0.033593092 -0.0046112137 0.022395574 0.025566952 0.087634556 -0.040820614 -0.10229002 -0.036494277
-0.09354219 -0.070327014 -0.01460696 0.004949115 0.05969247 0.05315258 0.051498767 -0.07478179
0.0455097 0.048836622 0.10887332 0.07377776 0.004403997 0.12376241 0.091510355 -0.08056793
0.06521328 -0.022074305 -0.11599229 -0.011958223 -0.10386347 0.05531857 0.0027305135 -0.01241681
-0.025391802 -0.06606305 -0.11974282 0.07038281 0.019696664 -0.11974283 0.056648258 -0.1104908
-0.023583865 0.11319709 0.0068925056 -0.076331414 -0.0950446 0.0777754 -0.083627015 -0.044691693
-0.07895026 0.07867689 -0.12492837 -0.01869517 0.0034321323 -0.0623636 0.112406194 -0.130285
-0.032431025 0.037223108 0.0024837882 0.03996668 -0.08490213 0.03661386 -0.061556257 0.10249252
-0.11587356 -0.046847828 -0.07817371 -0.099659845 -0.018542549 -0.08200956 -0.094053075 -0.07322641
-0.061823744 -0.000989365 -0.012727842 0.06279678 0.05460013 -0.07683846 -0.056521967 -0.06643921
-0.046575025 -0.07448019 0.008891695 0.082387336 0.01654518 -0.04895327 -0.027173003 -0.10068565
0.035928585 0.10289955 -0.04775716 0.087347575 0.001339703 -0.046329595 0.068027645 -0.03860896
0.06183815 0.024279572 -0.10174 -0.02594342 0.072079815 -0.055255495 -0.039196648 0.07860085
0.06664837 -0.051588107 -0.04136514 -0.036605477 -0.12191124 -0.12477903 0.065202855 0.105549596
0.08827826 -0.029297791 -0.01383397 0.027455695 -0.013131447 0.03682968 0.11614874 0.08027089
0.103942625 -0.041331906 -0.091501154 -0.039589982 -0.08904665 0.0958284 0.11006968 -0.10644637
-0.08277942 0.014128583 -0.022419522 -0.041220415 -0.093046695 0.038991887 -0.00014185222 -0.12671639
0.10810681 0.08931793 0.0035984223 0.0701702 0.075496845 -0.10231464 0.07530216 0.011123137
-0.0029469132 -0.11579358 0.06407491 -0.00022983551 0.059978522 -0.024055762 -0.008586665 -0.10277098
-0.0788584 -0.030620031 -0.03123291 0.10149527 0.081846595 -0.0059666294 -0.08802192 0.029972088
0.041946605 0.015957722 -0.0116315065 0.12744096 -0.13986129 -0.037295304 0.096654326 -0.071996056
-0.07687948 0.004867542 -0.06432703 0.021569092 -0.019909373 -0.027310621 -0.10481155 -0.1399033
-0.0030279704 -0.019389927 0.019995855 0.015190691 0.09055587 0.07720471 -0.12748891 0.065577246
0.01372056 0.03581766 0.035636563 0.02668681 0.045988005 -0.045785803 0.0060205464 -0.0125949625
0.13013187 -0.05511153 -0.042595897 0.024642717 0.082559265 0.009209634 0.07388858 -0.009267059
0.022894775 -0.12401561 -0.101988986 -0.076886766 -0.0048552235 0.09185501 0.088648744 0.045864027
00000000: 48fc 803c 2075 873d 0071 c0bd f58b eebd
00000010: 0a1f ab3c c9c1 e3bc 085b 943d fe77 513c
00000020: adfa 8dbd 1262 9fbd 2f27 023c d5ea b83c
00000030: 64f4 f4bd 037b 8b3d 4251 d33d 0d84 a13d
00000040: d036 96bb a62f 00be 8205 23bd 8619 b43d
00000050: af51 a6bd 1b87 76bd bcef 50bd 163b 533d
00000060: a8d9 5abc 14c2 ecbd 9774 363d 4598 4abc
00000070: 5414 11bc 33ee 05bc 546e 28bd 277b 98bd
00000080: 0794 383d 07e3 c4bd df1a 533c 2ad5 9e3c
00000090: 47af c03d 056a a63d 0cba 4fbd 8533 023d
000000a0: eb7b ce3a 94e8 95bc bdc9 723d 1e04 d73d
000000b0: f3de 6c3a d232 3ebd 13e4 08bc 3b77 e93c
000000c0: e998 09bd aa19 97bb ec76 b73c c971 d13c
000000d0: bf79 b33d 8433 27bd 6e7d d1bd 067b 15bd
000000e0: 0c93 bfbd 9c07 90bd 0852 6fbc 302c a23b
000000f0: 1780 743d 85b6 593d 5ff0 523d 3227 99bd
00000100: 6168 3a3d e908 483d faf8 de3d cb18 973d
00000110: 684f 903b 2577 fd3d c869 bb3d cd00 a5bd
00000120: 8a8e 853d 2cd5 b4bc 5e8d edbd 6cec 43bc
00000130: 5fb6 d4bd ba95 623d 6af2 323b e06f 4bbc
00000140: 7802 d0bc 104c 87bd b93b f5bd dd24 903d
00000150: e65a a13c bb3b f5bd 0108 683d 0049 e2bd
00000160: f332 c1bc e0d3 e73d 87da e13b a553 9cbd
00000170: bea6 c2bd b548 9f3d a444 abbd a30e 37bd
00000180: adb0 a1bd 5921 a13d 72da ffbd 9d26 99bc
00000190: a0ed 603b f970 7fbd 3835 e63d 6e69 05be
000001a0: 65d6 04bd 4277 183d 0dc7 223b 1ab4 233d
000001b0: 2be1 adbd 6af8 153d 6a22 7cbd 99e7 d13d
000001c0: 1e4f edbd 82e3 3fbd 8a19 a0bd 761a ccbd
000001d0: 8be6 97bc a1f4 a7bd e69e c0bd baf7 95bd
000001e0: e53a 7dbd 95ad 81ba 7088 50bc 999b 803d
000001f0: 63a4 5f3d 7c5d 9dbd 9483 67bd 4811 88bd
00000200: 74c5 3ebd 1289 98bd 79ae 113c b1ba a83d
00000210: c289 873c 3983 48bd eb99 debc 4734 cebd
00000220: da29 133d 00bd d23d 039d 43bd 49e3 b23d
00000230: f998 af3a 1ac4 3dbd 1452 8b3d 6e24 1ebd
00000240: 004a 7d3d f4e5 c63c 105d d0bd 4c87 d4bc
00000250: 959e 933d 9653 62bd aa8c 20bd 7cf9 a03d
00000260: f17e 883d 0d4e 53bd 7e6e 29bd a0ef 15bd
00000270: 9aac f9bd 268c ffbd 1389 853d 632a d83d
00000280: 3bcb b43d ec01 f0bc e0a7 62bc c4ea e03c
00000290: 4825 57bc b8da 163d 64df ed3d 1065 a43d
000002a0: dfdf d43d a54b 29bd f564 bbbd 1b29 22bd
000002b0: 175e b6bd ae41 c43d 366c e13d 8e00 dabd
000002c0: 4288 a9bd 927b 673c 25a9 b7bc bdd6 28bd
000002d0: 448f bebd f5b5 1f3d 2abe 14b9 f1c1 01be
000002e0: 1a67 dd3d 52ec b63d 82d3 6b3b 65b5 8f3d
000002f0: 179e 9a3d 578a d1bd 0538 9a3d d13d 363c
00000300: 0021 41bb 2f25 edbd b539 833d 0000 71b9
00000310: 0aac 753d 9710 c5bc 15af 0cbc 9779 d2bd
00000320: 8380 a1bd dcd6 fabc 29dc ffbc c1dc cf3d
00000330: 309f a73d b783 c3bb d644 b4bd 0688 f53c
00000340: 34d0 2b3d c5b9 823c 1392 3ebc e27f 023e
00000350: cc37 0fbe f6c2 18bd b4f2 c53d ab72 93bd
00000360: fd72 9dbd e77f 9f3b e4bd 83bd aab1 b03c
00000370: fb18 a3bc 86ba dfbc 70a7 d6bd d042 0fbe
00000380: ea70 46bb a0d7 9ebc 59ce a33c 60e2 783c
00000390: 5b75 b93d 811d 9e3d 748c 02be 5d4d 863d
000003a0: 33cc 603c 8ab5 123d a5f7 113d 4c9e da3c
000003b0: eb5d 3c3d e589 3bbd 0148 c53b 1a5b 4ebc
000003c0: 4a41 053e a1bc 61bd 0979 2ebd 86df c93c
000003d0: d514 a93d 01e4 163c e552 973d ddd4 17bc
000003e0: d38d bb3c e5fb fdbd 9adf d0bd cf76 9dbd
000003f0: 9118 9fbb 7b1e bc3d 798d b53d ebdb 3b3d
