llirl_sumo/saves/120p4k/env_model_init.pth (torch, 295502 bytes, 6 tensors)

layer1.weight f4 [200, 160]
0	0x3de517a3	0.11186149
1	0x3ef4a2ca	0.47780448
2	0x3e4010d5	0.18756421
3	0xbce4c5e1	-0.027926387
4	0x3eff8465	0.49905697
5	0xbcade52d	-0.021227444
6	0xbd9f60d7	-0.077821426
7	0x3e64308e	0.22284147
8	0x3c27a520	0.01023224
9	0xbd619565	-0.055074114
10	0x3e808709	0.25103024
11	0x3dc4c12f	0.09607159
12	0x3d15534c	0.03645639
13	0x3ecfb586	0.4056818
14	0xbd54c33c	-0.051944003
15	0xbdaa02ca	-0.08301313
16	0x3da5cadd	0.08095334
17	0x3deb5613	0.11491027
18	0xbd46925f	-0.048479434
19	0x3e32a5b5	0.17446025
20	0x3e11e82d	0.14248724
21	0xbda89636	-0.082317755
22	0x3ded9323	0.1160033
23	0x3e06904a	0.1314098
24	0x3d9785fb	0.073986016
25	0xbca9e550	-0.020739228
26	0x3df0e473	0.11762323
27	0x3d9de2c9	0.077092715
28	0x3cd10654	0.025515713
29	0x3d0c42f9	0.034243558
30	0x3eb04b5c	0.34432495
31	0x3f3ba2fc	0.7329557
32	0x3eb5a669	0.35478523
33	0x3ebfe6d0	0.37480783
34	0x3f1ad4f8	0.60481215
35	0x3e8b11bd	0.2716197
36	0xbdb136f1	-0.08653057
37	0x3ed38e60	0.4131956
38	0x3d38ef35	0.04515
39	0x3d937f3d	0.07202003
40	0x3ec454b0	0.3834586
41	0x3e66d4fe	0.22542188
42	0xbc1d5d14	-0.009604711
43	0x3eb140dc	0.34619796
44	0x3e185c64	0.14878994
45	0xbda93ea9	-0.082639046
46	0x3e7f29cc	0.24918288
47	0xbc5a0a3e	-0.013308106
48	0xbd06369c	-0.032766923
49	0x3ebb98f2	0.36640126
50	0x3e08deb4	0.13366205
51	0x3dbf8001	0.09350587
52	0x3ea33ecf	0.31883857
53	0x3dbffb35	0.09374086
54	0x3cabc957	0.02097003
55	0x3e2decd7	0.16984878
56	0x3e41e03d	0.18933196
57	0x3d5ceabf	0.05393481
58	0x3e89e089	0.2692912
59	0x3e1c2a54	0.15250522
60	0xbca7fc31	-0.020505996
61	0x3e55c904	0.20877463
62	0xbd09c6e5	-0.033636946
63	0x3c91ab8c	0.017781995
64	0x3e67f644	0.22652537
65	0xbd6760b7	-0.05648872
66	0x3f018fdd	0.5061014
67	0x3f5a4ef2	0.8527671
68	0x3e883c74	0.26608622
69	0x3f02e4bd	0.51130277
70	0x3f58c54a	0.8467604
71	0x3ef46ac7	0.47737715
72	0xbdea81c5	-0.11450533
73	0x3eb1d1f1	0.34730485
74	0x3e518367	0.20460282
75	0xbb0216ab	-0.0019849937
76	0x3e83d9a6	0.2575199
77	0x3e520f6d	0.20513697
78	0xbd06a8fc	-0.032876
79	0x3e5ec7c1	0.21755888
80	0x3e02437c	0.12721056
81	0x3c95325b	0.018212488
82	0x3ec6a37f	0.38796613
83	0x3d8ad5b6	0.067790434
84	0xbb9ca1bb	-0.004780022
85	0x3ec14a34	0.37751925
86	0x3d3ee710	0.046607077
87	0xbc9938e9	-0.018703895
88	0x3ed8ac3b	0.423189
89	0x3e33fe7d	0.17577548
90	0x3be2c223	0.0069201156
91	0x3e8ac89a	0.27106172
92	0x3e15ab1e	0.14616057
93	0x38137e2a	3.516503e-05
94	0x3e2fde5e	0.1717467
95	0x3de098ab	0.10966619
96	0x3e2c6e8c	0.16839045
97	0x3e85f57d	0.26163855
98	0x3e36ca5a	0.17850628
99	0x3db9dd82	0.090754524
100	0x3e1c5986	0.15268525
101	0x3d8f7a44	0.07005742
102	0x3ea36f3e	0.3192081
103	0x3f2f8fbb	0.6857869
104	0x3ebea9d0	0.37238932
105	0x3ee01f94	0.43774092
106	0x3f31e012	0.6948253
107	0x3e94f3d8	0.29092288
108	0x3db5625b	0.088566504
109	0x3dde6368	0.10858804
110	0x3d726a19	0.059183214
111	0x3df370b2	0.11886729
112	0x3e82efdb	0.2557362
113	0x3e43a042	0.19104102
114	0xbdbb6a9f	-0.09151196
115	0x3e941dba	0.2892893
116	0xbcb3dfef	-0.021957366
117	0xbe181369	-0.14851154
118	0x3e26c148	0.16284668
119	0x3d677b86	0.056514286
120	0x3d0e98a6	0.034813546
121	0x3dd516f9	0.10404772
122	0x3dd3b122	0.1033652
123	0x3e09dd17	0.13463245
124	0x3ef2eceb	0.4744638
125	0x3e040a64	0.12894589
126	0x3e1c2872	0.15249804
127	0x3ea41c4b	0.32052836
128	0x3e8ad260	0.27113628
129	0x3de2eff6	0.11080925
130	0x3e529875	0.2056597
131	0x3daff28a	0.085911825
132	0x3e405b9f	0.1878495
133	0x3ebb686c	0.36603105
134	0x3e7cf20a	0.24701706
135	0x3dad3f33	0.0845932
136	0x3ea07223	0.3133708
137	0x3e2cf56c	0.16890496
138	0x3f008360	0.5020046
139	0x3f22e922	0.6363698
140	0x3eb342ad	0.35011807
141	0x3eeb9bd2	0.4601732
142	0x3f4c32a8	0.79764795
143	0x3eac256c	0.336223
144	0xbd8b58b1	-0.06804026
145	0x3dbe50fa	0.09292789
146	0x3e0a1f0b	0.13488404
147	0xbb1ba456	-0.0023749075
148	0x3dd30edf	0.10305571
149	0x3dbafab1	0.09129847
150	0x3d8d8f29	0.06912071
151	0xbdb35761	-0.087569006
152	0x3debacaa	0.115075424
153	0xbe03df3c	-0.12878126
154	0xbd7e3dd3	-0.06207068
155	0xbc8efc4e	-0.017454293
156	0x3d1ebaa5	0.038752217
157	0x3d72ed94	0.059308603
158	0xbde8af92	-0.113616124
159	0xbdce9b44	-0.10088208
160	0x3ddcf7bb	0.10789438
161	0xbdeb60d1	-0.11493076
162	0x3c5e280e	0.0135593545
163	0xbb4492c9	-0.0029994717
164	0x3ddec431	0.10877264
165	0xbdb093e6	-0.086219594
166	0x3dc15afe	0.094411835
167	0x3cd5fc8f	0.026121406
168	0x3c7603db	0.015015568
169	0x3da062b2	0.07831325
170	0xbdee3df6	-0.11632912
171	0x3d4af867	0.0495533
172	0xbdc2cc70	-0.095116496
173	0x3d5aa5b7	0.053380694
174	0xbd7009e9	-0.0586032
175	0x3dc8c404	0.09803012
176	0xbd5781dc	-0.052614078
177	0xbd39c99d	-0.04535829
178	0xbda43c72	-0.080193415
179	0x3d89e74a	0.06733568
180	0x3df67f72	0.12036027
181	0xbdf2b28d	-0.11850462
182	0xbd1c8252	-0.03821022
183	0x3d60ea3c	0.054910883
184	0x3d0d77fd	0.034538258
185	0xbd82633b	-0.06366583
186	0x3df936ad	0.12168632
187	0x3dc047ab	0.093886696
188	0xbc20b737	-0.009809307
189	0x3dae1773	0.08500566
190	0xbd8ddf8d	-0.069274046
191	0x3d4c01e5	0.049806494
192	0xbbe60227	-0.0070192995
193	0xbdf6c094	-0.1204845
194	0x3c412040	0.011787474
195	0xbdbf2018	-0.09332293
196	0xbcac9b44	-0.02107013
197	0xbdb3245e	-0.08747171
198	0x3b064215	0.0020486165
199	0x3cb9378b	0.022609493
200	0xbda78a2f	-0.08180653
201	0x3c09665a	0.008386219
202	0x3dc8da29	0.09807236
203	0x3cccdf3e	0.025008794
204	0x3d8db56d	0.0691937
205	0xbd82af7e	-0.06381129
206	0xbe0ef52d	-0.13960715
207	0xbdc05424	-0.093910486
208	0xbdb5c13d	-0.08874748
209	0x3d565812	0.052330084
210	0xbd67377b	-0.056449395
211	0x3c0af2c4	0.008480731
212	0x3d7e6e54	0.062116936
213	0xbc41a178	-0.011818282
214	0x3c320446	0.010865277
215	0x3ddd1834	0.10795632
216	0x3dc35acb	0.09538802
217	0x3d43f47b	0.047840577
218	0xbdc7833a	-0.09741826
219	0xbd492a9a	-0.049112894
220	0xbe03495d	-0.12820955
221	0xbca67c3e	-0.020322915
222	0xbc7b2e7c	-0.015330907
223	0xbc1ce1b9	-0.009575301
224	0x3dd6cdbd	0.1048846
225	0xbdfadb27	-0.12248831
226	0xbde84595	-0.11341397
227	0xbde00c10	-0.10939801
228	0xbcf90f34	-0.030402757
229	0x3daf9cb1	0.085748084
230	0xbce66659	-0.028124975
231	0xbda60cc3	-0.08107903
232	0x3da2fa79	0.0795793
233	0x3dd878e2	0.105699316
234	0x3d382347	0.044955518
235	0x3dc10b31	0.09425963
236	0xbd518a94	-0.05115755
237	0xbd7a0d47	-0.06104782
238	0xbd9697d7	-0.0735318
239	0xbd953f94	-0.07287517
240	0x3c0d351c	0.008618619
241	0x3cc3ee59	0.023917364
242	0x3d38b1af	0.045091327
243	0xbd4989e6	-0.049203776
244	0xbdfdd9a6	-0.12395029
245	0x3dd4d3ea	0.10391982
246	0xbd553a04	-0.05205728
247	0x3c4d9eb4	0.012550045
248	0x3d49274e	0.04910975
249	0xbd9bd0a1	-0.07608152
250	0xbdc31094	-0.095246464
251	0xbcf724f0	-0.03016898
252	0xbd36ac57	-0.04459795
253	0x3e0074e8	0.12544596
254	0xbd57979b	-0.052634817
255	0xbba1753b	-0.004927305

layer1.bias f4 [200]
0	0xbe3de5c1	-0.18544675
1	0xbc4374cc	-0.011929702
2	0xbe2aa2b4	-0.16663629
3	0xbe344a1b	-0.17606394
4	0xbe43fb97	-0.19138943
5	0xbe0dcdc2	-0.13848022
6	0x3e6a1465	0.22859342
7	0xbe2844ef	-0.16432546
8	0xbc3ecfc5	-0.011646216
9	0xbe3bf7a9	-0.18356194
10	0xbe4f31f8	-0.20233905
11	0x00000000	0.0
12	0xbe4ae342	-0.19813254
13	0xbe220e5e	-0.15825793
14	0x00000000	0.0
15	0xbe14f49f	-0.1454644
16	0x3e7022a6	0.23450717
17	0xbe2f634e	-0.17127725
18	0x00000000	0.0
19	0xbe2b0a55	-0.1670316
20	0x00000000	0.0
21	0xbc27291f	-0.010202675
22	0xbe1b89be	-0.15189263
23	0x00000000	0.0
24	0x00000000	0.0
25	0xbe1e0de0	-0.1543498
26	0xbe3d0381	-0.18458368
27	0x00000000	0.0
28	0xbc8a98d6	-0.016918581
29	0xbe363313	-0.17792921
30	0xbe2d3e18	-0.16918218
31	0x3e9cae65	0.30601802
32	0xbe3132d1	-0.17304541
33	0xbe26df78	-0.16296184
34	0xbe14aef9	-0.14519872
35	0xbe48a102	-0.1959267
36	0xbe32112a	-0.1738936
37	0xbbb9520b	-0.0056555322
38	0xbe30820c	-0.17237109
39	0x3e956a99	0.2918289
40	0xbe24a36a	-0.16077963
41	0xbe3ce214	-0.18445617
42	0x3e85cb57	0.26131698
43	0xbe246ff0	-0.16058326
44	0xbe392ab5	-0.18082698
45	0xbc2a0ab9	-0.010378533
46	0xbe43bb23	-0.19114356
47	0xbe2a7b0f	-0.16648506
48	0xbc73d7c0	-0.014882982
49	0xbe27adfe	-0.16374967
50	0xbe234ea8	-0.15947974
51	0xbe3584fa	-0.17726508
52	0xbe2345b6	-0.15944561
53	0xbe3998f6	-0.18124756
54	0xbe29ef22	-0.16595128
55	0xbe34a427	-0.17640744
56	0x00000000	0.0
57	0xbe32c96a	-0.17459646
58	0xbe367fb6	-0.17822155
59	0xbe27d1a3	-0.16388564
60	0xbe1e7e44	-0.15477854
61	0x00000000	0.0
62	0xbe3d7d90	-0.1850493
63	0x3c1ecdff	0.009692668
64	0xbe2bf50d	-0.16792698
65	0xbe31ff50	-0.1738255
66	0x00000000	0.0
67	0xbe3ef03a	-0.18646327
68	0x3e92f27c	0.28700626
69	0xbe32c5fe	-0.1745834
70	0xbe1dd164	-0.15411907
71	0xbcd3da02	-0.02586079
72	0xbc36b42e	-0.011151357
73	0x3e91f58d	0.28507653
74	0xbe3d6dc5	-0.18498905
75	0xbe32a6df	-0.17446469
76	0xbe300d5d	-0.17192598
77	0xbc21fa58	-0.009886347
78	0xbde89603	-0.113567375
79	0xbe4256ce	-0.18978426
80	0xbe2edca0	-0.1707635
81	0xbe225ca7	-0.15855657
82	0xbe31e630	-0.17372966
83	0x3ea62630	0.3245101
84	0xbe2d3bd4	-0.16917354
85	0xbe4192c0	-0.18903637
86	0xbe2d4ed1	-0.16924597
87	0xbe322f88	-0.17400944
88	0xbe33eed5	-0.17571576
89	0xbe39446e	-0.1809251
90	0xbe289e3d	-0.16466613
91	0x3db40f10	0.087919354
92	0xbe35b218	-0.17743719
93	0xbe318d08	-0.17338955
94	0xbe3129b1	-0.1730106
95	0xbe334753	-0.17507677
96	0x00000000	0.0
97	0xbe47a572	-0.19496706
98	0xbe354e92	-0.17705753
99	0xbe485032	-0.19561842
100	0xbc29037f	-0.010315775
101	0xbe39dd10	-0.18150735
102	0xbe3334b3	-0.17500572
103	0x3e9463da	0.2898243
104	0xbe2cf665	-0.16890867
105	0xbe3d8603	-0.18508153
106	0xbe242507	-0.1602975
107	0xbe533ee8	-0.20629466
108	0x3e96d8ec	0.29462373
109	0xbe3c8764	-0.18411022
110	0xbe278819	-0.16360511
111	0xbe4ad055	-0.19806035
112	0xbe3010d4	-0.1719392
113	0xbe3061be	-0.17224786
114	0xbe2d29ca	-0.16910473
115	0xbe321367	-0.17390214
116	0xbe21a8fe	-0.15787122
117	0xbe2ca7af	-0.16860841
118	0xbe349ed6	-0.17638716
119	0xbc8b38bc	-0.016994826
120	0xbe519f99	-0.20471038
121	0xbe199c65	-0.15001066
122	0xbe24b713	-0.16085462
123	0xbd0231fb	-0.031785946
124	0xbc4a39c4	-0.012342874
125	0xbcc63777	-0.02419637
126	0xbe2b39c9	-0.16721262
127	0x00000000	0.0
128	0xbe28088f	-0.16409515
129	0xbe20bcff	-0.15697096
130	0xbe37a4b5	-0.17933924
131	0xbe348fc6	-0.1763297
132	0x3ea70fa9	0.32629135
133	0xbe583b00	-0.21116257
134	0xbe2c949b	-0.16853563
135	0xbe2d26f4	-0.1690939
136	0xbe43b1f1	-0.19110848
137	0xbe4de47f	-0.20106696
138	0xbe3d36cd	-0.18477936
139	0xbe3cffd0	-0.1845696
140	0xbe3a187d	-0.18173404
141	0x3abc4a7c	0.001436546
142	0xbe268efa	-0.16265479
143	0x3e8dfbad	0.27731076
144	0xbe28ac48	-0.1647197
145	0xbdffb054	-0.12484804
146	0x3eab3b41	0.33443645
147	0xbe24b301	-0.1608391
148	0xbe3e7bb3	-0.18601875
149	0xbe368f47	-0.17828093
150	0xbe2349d0	-0.15946126
151	0xbe3892aa	-0.18024698
152	0xbe351d55	-0.1768697
153	0xbe19f2ae	-0.15033981
154	0xbe3ec19e	-0.18628547
155	0xbe22bfac	-0.1589343
156	0xbe35cc86	-0.17753801
157	0xbe16968f	-0.14705871
158	0xbe529945	-0.2056628
159	0xbe2070a9	-0.15667976
160	0xbba8234f	-0.0051311622
161	0xbe496e9f	-0.19671105
162	0xbe39aa4b	-0.18131368
163	0xbe23daca	-0.1600143
164	0x00000000	0.0
165	0xbe70e4a4	-0.2352472
166	0xbe2449ca	-0.16043773
167	0xbe46ae4d	-0.19402428
168	0xbe297530	-0.1654861
169	0x3eaa99a7	0.33320352
170	0xbe32ac0b	-0.17448442
171	0xbe26d858	-0.16293466
172	0xbe45ea91	-0.19327761
173	0xbe2781b5	-0.16358073
174	0x3e8f09e7	0.27937242
175	0xbe1a0063	-0.1503921
176	0xbe386e91	-0.18010928
177	0x00000000	0.0
178	0x3d80ed66	0.0629528
179	0xbe323e64	-0.17406613
180	0xbe3f80ba	-0.18701449
181	0xbe1f3400	-0.1554718
182	0x3eab60b8	0.33472228
183	0xbe4c627e	-0.19959447
184	0xbe2e194f	-0.17001842
185	0xbe3615b9	-0.17781724
186	0xbe28d182	-0.16486171
187	0xbe3d8783	-0.18508725
188	0xbe2b14b6	-0.1670712
189	0xbe479020	-0.19488573
190	0xbe1b80b0	-0.15185809
191	0xbcd61b7d	-0.026136154
192	0xbe0f6057	-0.14001594
193	0x3e823909	0.2543414
194	0x00000000	0.0
195	0xbe4541d9	-0.192634
196	0xbe2d1d23	-0.16905646
197	0xbe2a9081	-0.16656686
198	0xbe2e520a	-0.17023483
199	0xbe374f3c	-0.1790132

layer2.weight f4 [200, 200]
0	0x3e56e934	0.20987397
1	0x3c53f98b	0.012937914
2	0x3e4061d8	0.18787324
3	0xbd015445	-0.031574506
4	0xbcf48039	-0.029846298
5	0x3e1ccf8b	0.15313546
6	0x3eeb77a0	0.45989704
7	0x3d1bfe8a	0.038084544
8	0xbcee0585	-0.029055366
9	0x3e73fb59	0.2382635
10	0x3e36e124	0.17859322
11	0x3d97b4bb	0.074075185
12	0xbd11d5ac	-0.035604164
13	0x3e0d4160	0.1379447
14	0xbcb85ccc	-0.022505186
15	0x3e42ecf6	0.19035706
16	0xbe23df86	-0.16003236
17	0x3d465999	0.04842529
18	0xbd6fb306	-0.05852034
19	0x3e416849	0.18887438
20	0xbd9e4539	-0.07728047
21	0x3dcbad56	0.099451706
22	0x3e8b1183	0.27161798
23	0x3de85c51	0.11345733
24	0x3da18e1b	0.078884326
25	0x3de9c860	0.114151716
26	0x3e0bff7c	0.13671678
27	0x3d668572	0.056279607
28	0xbd1a9c23	-0.03774656
29	0x3e0092b7	0.12555967
30	0x3d90f3c9	0.07077748
31	0x3d336429	0.043796692
32	0x3e6f4e39	0.23369683
33	0x3ead7893	0.33881053
34	0x3d854e53	0.0650908
35	0x3e11c72a	0.14236131
36	0x3e16cc5d	0.14726396
37	0x3da3a51b	0.07990476
38	0x3d96ec5f	0.07369303
39	0xbcb5ea0a	-0.022206325
40	0x3dee048a	0.116219595
41	0x3e4a70cd	0.19769593
42	0xbf034e55	-0.512914
43	0x3d9bd89b	0.076096736
44	0x3df8969b	0.12138101
45	0x3cafc9f4	0.021458603
46	0x3e366f71	0.17815949
47	0xbde4243d	-0.111397244
48	0xbc1d1886	-0.009588366
49	0x3db83658	0.0899474
50	0x3dcc2df9	0.09969706
51	0x3df239bc	0.11827418
52	0x3e6df5e0	0.23238325
53	0x3dec0499	0.115243144
54	0x3ea7b26a	0.32753307
55	0x3dd24472	0.10266961
56	0xbd00528c	-0.031328723
57	0xbd0ff589	-0.03514627
58	0x3b9dd646	0.004816803
59	0x3e2272b8	0.15864074
60	0x3e449645	0.19197948
61	0x3de7bf7f	0.11315822
62	0x3df2d7f0	0.11857593
63	0xbd795168	-0.06086865
64	0x3e6f5092	0.23370579
65	0x3e31e142	0.17371085
66	0x3dd016b1	0.10160578
67	0x3e110bd2	0.14164665
68	0x3de2a2d3	0.110662125
69	0x3e96f6cd	0.2948517
70	0x3e8d9e59	0.27659872
71	0xbc369f54	-0.011146385
72	0x3de8e235	0.113712706
73	0xbc708d0d	-0.014682067
74	0x3d33e43b	0.04391883
75	0xbd70cd7d	-0.05878972
76	0x3e9949b6	0.2993905
77	0x3d273e80	0.04083109
78	0x3e6be8b7	0.23037992
79	0x3e7c572a	0.24642625
80	0x3e3d421e	0.18482253
81	0x3e747926	0.2387434
82	0x3d0c5d1f	0.034268495
83	0xbe355185	-0.17706878
84	0x3e4439d3	0.19162683
85	0x3e3687fe	0.17825314
86	0x3c86fc4a	0.016477723
87	0x3ca415e3	0.020029968
88	0x3e866b99	0.26253965
89	0xbb92966f	-0.0044734995
90	0x3dd55c78	0.10418028
91	0x3bf47f13	0.0074614375
92	0x3d8c31b3	0.06845417
93	0x3dc8cae4	0.09804323
94	0x3d7caa92	0.061686106
95	0x3e4276f4	0.1899069
96	0x3deaffd5	0.11474577
97	0xbd98de3b	-0.07464262
98	0x3d281c18	0.041042417
99	0x3c6b2170	0.014351234
100	0x3cdf0263	0.027222818
101	0x3e359e30	0.17736125
102	0x3da02a17	0.07820528
103	0x3d80fef1	0.06298626
104	0x3e66a0f8	0.22522342
105	0xbbab4491	-0.0052266796
106	0x3e8f04a1	0.2793322
107	0x3eac41ee	0.3364405
108	0x3d1e417a	0.038636662
109	0x3e8a327f	0.2699165
110	0x3e815916	0.2526328
111	0x3e256f01	0.16155626
112	0x3e3dca45	0.18534191
113	0x3e0a7cbc	0.13524145
114	0x3e68d68e	0.22738096
115	0xbd12bac5	-0.03582265
116	0x3d4f2cbe	0.05057978
117	0x3e726518	0.23671377
118	0x3e469b92	0.19395283
119	0xbd1b6ef2	-0.037947603
120	0x3d24a4a1	0.040196065
121	0x3d0794f6	0.033101045
122	0x3d963a8d	0.073353864
123	0x3d7ed25e	0.06221234
124	0x3db019f2	0.08598699
125	0xbc88f853	-0.016719973
126	0xbd8d2337	-0.06891482
127	0xbde687a2	-0.11256339
128	0x3ea60b3d	0.3243045
129	0x3e0ebbc4	0.13938814
130	0xbdc9cdba	-0.09853692
131	0x3d0a8ffc	0.03382872
132	0xbd92661b	-0.07148381
133	0x3d2c1364	0.04201068
134	0x3e9e9184	0.30970395
135	0x3e831d0d	0.256081
136	0x3e0e27f6	0.13882431
137	0x3e2e758d	0.1703703
138	0x3e8778ca	0.26459342
139	0x3e981f5f	0.29711434
140	0xbcc94770	-0.024570197
141	0xbd622f06	-0.055220626
142	0x3e36bc4c	0.17845267
143	0x3da56024	0.08074978
144	0x3ec866e7	0.39141008
145	0x3e238f32	0.15972593
146	0xbe13b608	-0.14424908
147	0x3d7afa48	0.061273843
148	0x3dcb83e8	0.099372685
149	0x3e60984d	0.21933098
150	0x3db3c336	0.08777468
151	0x3d4379f3	0.04772372
152	0x3e0e2dcc	0.13884658
153	0x3dcf4cd0	0.10122073
154	0x3e501296	0.2031959
155	0x3e4c8684	0.19973189
156	0x3e20dd75	0.15709479
157	0x3e4e3476	0.201372
158	0x3e53e804	0.20693976
159	0x3e947b67	0.290004
160	0x3dae4fc8	0.08511311
161	0x3e2f9212	0.17145565
162	0x3e07f50b	0.1327707
163	0x3dd7b98e	0.105334386
164	0xbdd1d18d	-0.10245047
165	0x3e6d97a5	0.23202379
166	0x3ea1174f	0.31463096
167	0x3e2ac613	0.16677122
168	0x3e08f1e6	0.13373527
169	0xbd55e595	-0.0522209
170	0x3d00c292	0.031435557
171	0x3db18e53	0.08669724
172	0x3eb11ddd	0.34593096
173	0x3d48dd2a	0.049039043
174	0x3e8fcae6	0.28084487
175	0x3e152e5c	0.14568466
176	0x3e855246	0.26039332
177	0x3dbb7205	0.09152607
178	0x3e3cd158	0.18439233
179	0x3e2ae537	0.16689001
180	0x3dd7a3c8	0.10529286
181	0x3de12028	0.109924614
182	0xbdc279fb	-0.09495922
183	0x3d8d5a6f	0.069020145
184	0x3e871869	0.2638581
185	0x3d4310a4	0.04762329
186	0x3e55e5e0	0.20888472
187	0x3d6a911d	0.057267297
188	0x3e6c6042	0.23083594
189	0x3db93698	0.09043616
190	0x3de3c833	0.11122169
191	0x3dbc3ba7	0.09191065
192	0x3dc3a89e	0.095536456
193	0x3d9d3152	0.07675423
194	0xbdc8a170	-0.09796417
195	0x3d9feba7	0.07808619
196	0x3e58af4e	0.21160623
197	0x3e15e30d	0.14637394
198	0x3e9064f5	0.28202024
199	0x3e13e413	0.14442472
200	0xbb74aec9	-0.0037335625
201	0x3db5b6f5	0.08872787
202	0x3cee2a77	0.029072983
203	0xbd17dea8	-0.037077576
204	0xbbb2e4c0	-0.005459398
205	0xbce309cf	-0.027714638
206	0x3d1adfa0	0.03781092
207	0x3c1d91c6	0.009617275
208	0x3db4fdc9	0.08837468
209	0xbdbdc49e	-0.092660174
210	0xbdc80d03	-0.09768107
211	0x3d0b8d86	0.034070514
212	0xbb0b0c0a	-0.0021216893
213	0xbdf63454	-0.120216995
214	0xbdd9a13f	-0.106264584
215	0x3dcb0bed	0.09914384
216	0x3da77639	0.08176846
217	0x3d48140e	0.04884725
218	0x3da2bec3	0.07946541
219	0xbdf84197	-0.12121885
220	0xbd8929c6	-0.06697421
221	0x3d461f2e	0.04836958
222	0xbd047372	-0.03233666
223	0x3dee0fe7	0.11624127
224	0x3c0cc778	0.008592479
225	0x3d8b6763	0.06806829
226	0xbdaa3c24	-0.08312252
227	0xbd0a1e52	-0.033720322
228	0x3c5dcc0e	0.01353742
229	0x3d0439bc	0.032281622
230	0xbd0c6e04	-0.034284607
231	0x3dc453c0	0.095862865
232	0x3b80c085	0.0039292
233	0x3d87a0e1	0.06622482
234	0x3d9a20f6	0.07525818
235	0xb908488a	-0.00012996994
236	0x3dde1c50	0.10845244
237	0x3d79705e	0.060898177
238	0x3d92c6e6	0.07166843
239	0xbde08f8c	-0.109648794
240	0xbd8c1cc2	-0.068414226
241	0xbde3e2c3	-0.11127236
242	0x3d7374cd	0.05943756
243	0xbc1348e5	-0.008989547
244	0x3d1e5dd5	0.038663704
245	0xbdda6199	-0.106631465
246	0xbd9608ad	-0.073258735
247	0x3d5cdded	0.053922582
248	0x3dab1ef3	0.083555125
249	0xbbf3f0bb	-0.007444469
250	0x3da32819	0.079666324
251	0xbc1db8aa	-0.009626547
252	0xbd8cc161	-0.068728216
253	0xbe0314b3	-0.12800865
254	0x3dc1a033	0.09454384
255	0xbcd2baeb	-0.025723895

layer2.bias f4 [200]
0	0xbd156eb2	-0.03648252
1	0xbc2fb2c4	-0.010723773
2	0xbdfedac6	-0.124440715
3	0xbd82f74a	-0.06394823
4	0xbdfd89fa	-0.123798326
5	0xbcac8d3f	-0.021063445
6	0x3e5f9755	0.21835072
7	0x00000000	0.0
8	0xbd11afdd	-0.035568107
9	0xbc7ab823	-0.015302691
10	0x3b16ec0b	0.0023028876
11	0xbe3f15c8	-0.18660653
12	0xbbca706b	-0.006177952
13	0xbe39c344	-0.18140894
14	0xbe05dc34	-0.13072282
15	0xbe41c3ef	-0.18922399
16	0xbde29796	-0.11064069
17	0x3e554f24	0.20830971
18	0x3d1955dd	0.0374354
19	0x3ca11470	0.019663066
20	0xbe240199	-0.16016234
21	0xbe17ce10	-0.148247
22	0xbe19d03e	-0.15020844
23	0xbc207429	-0.00979332
24	0xbd4ecdf2	-0.050489374
25	0xbdef54f8	-0.116861284
26	0xbe0abb6f	-0.13548063
27	0xbc09377a	-0.008375043
28	0x3def3793	0.11680522
29	0xbbb43eea	-0.005500664
30	0xbc35cdb5	-0.011096408
31	0xbc049f37	-0.0080946
32	0xbbab5609	-0.005228762
33	0xbc3ed6ca	-0.011647889
34	0xbbcdd0a6	-0.0062809763
35	0xbdf1e34a	-0.1181093
36	0xbc0d60f9	-0.008629077
37	0xbcbd15bb	-0.023081651
38	0xbc7b8cc1	-0.015353383
39	0xbd6dcab1	-0.05805463
40	0xbc263125	-0.010143553
41	0xbe2bb45b	-0.16768019
42	0xbc7e6821	-0.015527756
43	0xbc8585b5	-0.016299108
44	0xbe2cf37d	-0.16889758
45	0xbc102216	-0.008797189
46	0xbd99442a	-0.074837044
47	0xbd9579c0	-0.072986126
48	0xbe237998	-0.15964353
49	0xbc77f386	-0.015133744
50	0xbc806969	-0.015675263
51	0x3e61c802	0.22048953
52	0x3ea0831b	0.31350026
53	0x3e9c6352	0.30544525
54	0x3e95a61f	0.29228303
55	0x3dfe602a	0.124206856
56	0xbc1774d5	-0.0092441635
57	0xbdf12db6	-0.11776297
58	0xbe156f4f	-0.14593242
59	0xbe30cb0e	-0.17264959
60	0xbd4cbdc6	-0.04998567
61	0xbe168925	-0.14700754
62	0xbe31e773	-0.17373447
63	0xbdae26de	-0.08503507
64	0xbc3f0c87	-0.011660702
65	0xbc6a91b7	-0.014316968
66	0x3e653566	0.22383651
67	0xbc96ccf5	-0.018408278
68	0xbde67fc9	-0.11254842
69	0xbc7c759e	-0.0154089015
70	0xbdfea116	-0.124330685
71	0xbc2fdd24	-0.010733876
72	0xbd8315dd	-0.064006545
73	0xbe1cb204	-0.15302283
74	0xbc23f04a	-0.01000602
75	0xbc0bb8d7	-0.008527956
76	0xbc7a7322	-0.015286239
77	0x3ea5a1c1	0.3234997
78	0xbdea6eb6	-0.11446898
79	0xbbab5608	-0.0052287616
80	0xbc3078f3	-0.010771024
81	0xbbdf2858	-0.0068102293
82	0xbe3e95e5	-0.18611868
83	0xbc52a2d1	-0.012856201
84	0xbc902447	-0.017595423
85	0xbbf26202	-0.0073969373
86	0xbe4ea1aa	-0.20178857
87	0xbc594243	-0.013260427
88	0xbc41152e	-0.011784835
89	0x3e947534	0.2899567
90	0xbdb666b0	-0.08906305
91	0xbe1b8898	-0.15188825
92	0xbd797e0b	-0.06091122
93	0x3dea7f1f	0.11450028
94	0x3e4b5201	0.19855501
95	0x00000000	0.0
96	0xbd38155e	-0.044942252
97	0xbe1cf404	-0.1532746
98	0xbd68c80a	-0.056831397
99	0x3e9e74d5	0.3094851
100	0x00000000	0.0
101	0x00000000	0.0
102	0xbe012a30	-0.1261375
103	0xbbc61652	-0.0060451413
104	0xbe00130e	-0.12507269
105	0xbd406aab	-0.046976727
106	0xbcbcfb04	-0.023068912
107	0xbe2a2340	-0.1661501
108	0xbd90795d	-0.07054398
109	0xbdae48e1	-0.08509994
110	0xbc4009d0	-0.0117210895
111	0x00000000	0.0
112	0x3b0599f9	0.0020385964
113	0xbc20229a	-0.009773875
114	0xbd77fa9d	-0.060541738
115	0xbe157b99	-0.1459793
116	0xbe015887	-0.12631427
117	0xbc314f0b	-0.010822068
118	0x3e78a2c8	0.24280846
119	0xbe072e79	-0.13201322
120	0xbdb735f3	-0.08945837
121	0x00000000	0.0
122	0xbc9d5330	-0.019204706
123	0x3e8cde6d	0.27513447
124	0xbdbc3ed4	-0.09191671
125	0xbd781f92	-0.060576983
126	0xbda98fde	-0.082793936
127	0x00000000	0.0
128	0xbe172a10	-0.1476214
129	0xbe0406c7	-0.1289321
130	0x00000000	0.0
131	0xbc408acb	-0.011751841
132	0x3daee1cc	0.08539161
133	0xbe4cca12	-0.19998959
134	0xbc591c30	-0.013251349
135	0xbca5d3d2	-0.020242605
136	0xbc925764	-0.017863937
137	0x3d8881fb	0.06665417
138	0xbe1d9859	-0.15390147
139	0x3e80134f	0.2501473
140	0xbd951dab	-0.07281049
141	0xbe376e9f	-0.17913292
142	0x3e4b27a5	0.19839342
143	0xbe0ab5c8	-0.13545907
144	0xbe1dfb81	-0.15427972
145	0xbe0dcff2	-0.13848856
146	0xbdcccc54	-0.0999991
147	0xbdbe4ed7	-0.09292381
148	0xbe096407	-0.13417064
149	0xbdc8fdc4	-0.09814027
150	0xbc62d737	-0.0138452565
151	0xbe5a997d	-0.21347614
152	0x3e23a2be	0.1598005
153	0xbe25d67f	-0.16195105
154	0xbded57ca	-0.1158901
155	0xbc2a54fd	-0.010396239
156	0x3e78ca51	0.24295928
157	0xbcecb7bd	-0.028896207
158	0xbc13c532	-0.009019183
159	0xbd89ad56	-0.06722514
160	0xbcb4b73d	-0.022060031
161	0x3ea0c8af	0.3140311
162	0xbc480723	-0.012208733
163	0xbc6d4bfc	-0.014483448
164	0xbe1af32a	-0.15131822
165	0xbe291476	-0.16511711
166	0xbe0d52be	-0.13801095
167	0x00000000	0.0
168	0x00000000	0.0
169	0xbdc54152	-0.096315995
170	0xbe6923d2	-0.2276757
171	0xbba1336d	-0.0049194605
172	0xbe3dcfee	-0.1853635
173	0xbd7de9ca	-0.061990537
174	0xbc6285fa	-0.013825888
175	0xbbeaaf98	-0.0071620457
176	0xbe21185c	-0.15731949
177	0xbc29767d	-0.010343191
178	0xbdaadc9f	-0.083428614
179	0x3e8122f0	0.25221968
180	0xbc2c103d	-0.010501918
181	0xbc4ca501	-0.012490512
182	0x3e94ae43	0.290392
183	0xbd736108	-0.059418708
184	0x3e5421cd	0.20716019
185	0xbbc4c9d6	-0.006005506
186	0xbdf2c0d6	-0.11853187
187	0xbd891e62	-0.06695248
188	0xbc61f482	-0.013791205
189	0x3e9308df	0.28717706
190	0x3e0d65a7	0.13808309
191	0xbc9c00ee	-0.019043412
192	0xbcde2a1d	-0.02711969
193	0xbc8230ad	-0.015892351
194	0xbc42d564	-0.011891697
195	0xbda4d95f	-0.08049273
196	0xbc40961a	-0.011754537
197	0xbe77a314	-0.24183303
198	0xbdf0df51	-0.11761344
199	0xbe3aac51	-0.18229796

mu.weight f4 [4, 200]
0	0xbeafd048	-0.34338593
1	0xbd9a7ef6	-0.07543747
2	0xbe4ed903	-0.20199971
3	0xbdd75ed1	-0.10516132
4	0xbea61896	-0.32440633
5	0x3e2eced3	0.17071085
6	0x3eb282a3	0.34865293
7	0xbe2f50ec	-0.17120713
8	0x3f167c8c	0.58783793
9	0x3daba59d	0.083811976
10	0x3eb1e4f9	0.34745005
11	0xbe07a36a	-0.13245931
12	0x3d7fca33	0.06244869
13	0xbe90fbd2	-0.28317124
14	0xbda488b8	-0.080338895
15	0xbe81c540	-0.25345802
16	0xbe80e840	-0.25177193
17	0x3e9ee157	0.31031296
18	0x3f29741f	0.6619281
19	0x3ea5a5f6	0.3235318
20	0xbe8527e2	-0.2600699
21	0xbe1a84d6	-0.15089735
22	0xbdf3f5eb	-0.119121395
23	0x3db73f09	0.0894757
24	0xbe02d15c	-0.12775177
25	0xbea957ad	-0.33074704
26	0xbe65ecde	-0.22453639
27	0xbda57008	-0.08078009
28	0x3f3ba2ff	0.7329559
29	0xbc9b4c75	-0.018957356
30	0xbce9b2ef	-0.028527705
31	0x3dc4179e	0.09574817
32	0x3c1d704f	0.009609296
33	0x3e0f4f6a	0.13995138
34	0xbd984619	-0.07435245
35	0xbea7578b	-0.32683977
36	0x3e03984f	0.1285107
37	0xbde9e85a	-0.11421271
38	0x3d18df7c	0.037322506
39	0xbe333e5e	-0.1750426
40	0x3e251a9a	0.16123429
41	0xbe30573b	-0.17220776
42	0x3cb9746c	0.022638522
43	0xbddf38ed	-0.108995296
44	0xbe06369a	-0.13106766
45	0x3e230efd	0.15923686
46	0xbe3db1a6	-0.18524799
47	0xbeacf7a2	-0.3378268
48	0xbdc3d6eb	-0.09562477
49	0xbd371ac3	-0.044703256
50	0xbcae56f8	-0.021281704
51	0x3ec1154a	0.37711555
52	0x3f12d465	0.5735534
53	0x3e99776e	0.2997393
54	0x3ec97feb	0.39355406
55	0x3dd533cc	0.1041027
56	0x3d8f8ed6	0.07009666
57	0xbe2bf4da	-0.16792622
58	0xbd3e0a4e	-0.046396546
59	0xbe96c828	-0.29449582
60	0xbe1d16c3	-0.15340714
61	0xbe7ede83	-0.24889569
62	0xbe68a951	-0.22720839
63	0xbe22e230	-0.15906596
64	0x3d8fe2c2	0.070256725
65	0xbb7e6cce	-0.0038822177
66	0xbf8b7b28	-1.0896959
67	0x3d7880f3	0.06066985
68	0xbe4e14ba	-0.20125094
69	0xbe33a17e	-0.17542073
70	0xbe1beb80	-0.15226555
71	0x3df0bad7	0.11754387
72	0xbe8d7d16	-0.27634495
73	0xbdae9642	-0.08524753
74	0xbde3a59a	-0.1111557
75	0x3c8d600d	0.017257715
76	0x3db5b01a	0.08871479
77	0x3ebe7c2c	0.3720411
78	0x3cd73f44	0.026275285
79	0xbd411254	-0.04713662
80	0x3dfd53e3	0.12369516
81	0x3e1e07c6	0.15432653
82	0xbd1692e0	-0.036761165
83	0x3cc6d59f	0.024271784
84	0x3b0cfe91	0.0021514038
85	0x3dfc64f2	0.12323941
86	0xba801bf2	-0.0009773953
87	0xbcee0081	-0.029052975
88	0x3dfc80c0	0.123292446
89	0x3eee85f3	0.4658657
90	0xbd74fd01	-0.059811596
91	0xbea0ffbb	-0.31445107
92	0xbe8390e7	-0.2569649
93	0x3ecd5e51	0.4011102
94	0x3c7a0cde	0.015261857
95	0x3c63a200	0.013893604
96	0xbea123f1	-0.31472734
97	0xbe02482e	-0.12722847
98	0xbd98c642	-0.0745969
99	0x3ec105e6	0.37699813
100	0xbe21ffc5	-0.15820225
101	0x3e1447d1	0.14480521
102	0xbda740e5	-0.081666745
103	0xbd571858	-0.05251345
104	0xbdfdce9f	-0.123929255
105	0xbea2562d	-0.31706372
106	0xbc0fa777	-0.008767954
107	0xbe2a275b	-0.16616575
108	0xbea7d3ff	-0.32778928
109	0xbe9740a8	-0.29541516
110	0x3dbae85e	0.09126352
111	0xbd1f9b74	-0.03896661
112	0xbdc4b5f7	-0.096050195
113	0xbe1a015e	-0.15039584
114	0xbd8d01e7	-0.068851285
115	0xbc961b0f	-0.01832345
116	0xbe177452	-0.14790466
117	0x3d456830	0.048195064
118	0x3eef0547	0.46683714
119	0xbe9624bb	-0.29324898
120	0xbde734ee	-0.112893924
121	0xbb115e80	-0.002218157
122	0x3c81c567	0.0158412
123	0x3f229964	0.63515306
124	0xbe89ebf1	-0.26937822
125	0xbe7caf3c	-0.24676222
126	0xbc821538	-0.015879259
127	0xbe2870fd	-0.16449352
128	0xbea4cc55	-0.32187143
129	0xbe3da972	-0.1852167
130	0x3d7ae69c	0.061255082
131	0x3d725b4c	0.0591691
132	0xbf31fb69	-0.69524246
133	0xbe41e1fe	-0.18933865
134	0x3dcbcd61	0.09951282
135	0x3d2b8456	0.041874252
136	0xbe062608	-0.13100445
137	0xbd8ad25f	-0.06778406
138	0xbdab9409	-0.08377845
139	0x3ec0f2c5	0.37685218
140	0xbc7fd995	-0.01561584
141	0x3aaee2f9	0.001334279
142	0x3ea3147a	0.3185156
143	0xbe9abdae	-0.3022284
144	0x3c93380e	0.017971065
145	0xbe99fae9	-0.30074242
146	0xbe3a4f8b	-0.18194406
147	0xbe06c0d5	-0.13159497
148	0xbe773584	-0.24141508
149	0xbd3420fa	-0.04397676
150	0xbe33f348	-0.17573273
151	0xbc35c601	-0.011094571
152	0xbf74a4aa	-0.9556376
153	0xbe83dda2	-0.2575503
154	0xbeaee2f5	-0.3415753
155	0x3d15d6a9	0.03658167
156	0x3ebad887	0.36493322
157	0xbe21f6d8	-0.1581682
158	0x3d9bf36a	0.07614787
159	0xbdd71be5	-0.10503367
160	0xbd64c5f7	-0.055852856
161	0x3e7a49e4	0.2444225
162	0xbe010414	-0.12599212
163	0xbcc5fd3b	-0.024168601
164	0xbe7cf4bb	-0.24702732
165	0xbe4232c9	-0.18964685
166	0xbe00e5a0	-0.12587595
167	0x3d99475e	0.07484315
168	0xbc6de960	-0.014520973
169	0xbe695be1	-0.22788955
170	0x3d561cf9	0.052273724
171	0x3d43def0	0.04782003
172	0xbd1adab3	-0.037806224
173	0xbd13c444	-0.036075845
174	0x3e0c2ecf	0.13689731
175	0x3e195879	0.14975156
176	0xbe6d2766	-0.2315956
177	0xbc2a173e	-0.010381518
178	0xbe8b295f	-0.2718
179	0x3ed17e4f	0.40916678
180	0x3d49a9e2	0.04923428
181	0x3d6f2415	0.05838402
182	0x3ed272e9	0.41103294
183	0xbeb48720	-0.35259342
184	0x3f01e6f0	0.5074301
185	0xbdf3e019	-0.119079776
186	0xbe93eee8	-0.28893209
187	0xbea13777	-0.3148763
188	0x3d346eb5	0.04405089
189	0x3f2188bd	0.6309927
190	0xbb214050	-0.0024604984
191	0x3d5e5e7d	0.05428933
192	0x3d97c0ee	0.07409845
193	0x3dd62411	0.10456098
194	0x3d1d5664	0.038412467
195	0xbe94938c	-0.2901882
196	0x3e21d4f5	0.15803893
197	0xbeb12cb6	-0.34604424
198	0xbeac845f	-0.3369474
199	0xbe0bd5d0	-0.13655782
200	0xbe5af059	-0.21380748
201	0x3bf25229	0.007395048
202	0xbe117555	-0.14204915
203	0xbe6f5193	-0.23370962
204	0xbdf8bb07	-0.12145048
205	0xbd806d51	-0.062708504
206	0x3e72d58c	0.23714274
207	0x3d876326	0.06610708
208	0x3e020841	0.12698461
209	0x3d31c398	0.043399423
210	0x3f2a1a12	0.6644603
211	0xbe18ed58	-0.1493429
212	0x3b648e15	0.0034874727
213	0xbe1508a9	-0.14554085
214	0xbe95f4a2	-0.29288203
215	0x3afba982	0.0019200298
216	0xbeab46df	-0.33452508
217	0x3f298b8a	0.66228545
218	0x3eaba530	0.33524466
219	0xbe169644	-0.1470576
220	0xbd9f5208	-0.07779318
221	0xbdf99512	-0.12186636
222	0xbdb7b779	-0.089705415
223	0x3df0fd64	0.117670804
224	0xbe18755e	-0.14888522
225	0xbe688277	-0.22706018
226	0xbe80c74c	-0.2515205
227	0x3dacef3d	0.084440686
228	0xbf59f797	-0.8514342
229	0xbde56c1a	-0.11202259
230	0x3df347cd	0.11878929
231	0x3ccf3cb9	0.02529751
232	0x3d8c1c5e	0.06841348
233	0x3d3591c0	0.04432845
234	0x3c6bc2dd	0.014389721
235	0xbe014bb9	-0.12626542
236	0x3e1ce849	0.15322985
237	0x3de47aad	0.11156211
238	0xbe2ba9c4	-0.16763979
239	0xbe7620db	-0.24035971
240	0x3e010755	0.12600453
241	0xbe9baf3c	-0.3040713
242	0x3da28aa1	0.079365976
243	0x3e080f61	0.13287117
244	0xbe54b29d	-0.2077126
245	0xbd8044d1	-0.06263126
246	0xbe91941a	-0.28433305
247	0xbdfda765	-0.123854436
248	0xbe94eb72	-0.2908588
249	0x3c18995e	0.009313909
250	0x3c83afd8	0.01607506
251	0x3d021bab	0.031764667
252	0x3f1eada7	0.6198372
253	0x3f1c0cdc	0.6095712
254	0x3f083e15	0.5321973
255	0xbf3ab6cf	-0.72935194

mu.bias f4 [4]
0	0xbc17299e	-0.009226231
1	0x3c80e9c4	0.015736468
2	0x3cc5f8fc	0.024166577
3	0x3c0454e8	0.008076884
