llirl_sumo/saves/120p4k/env_models.pth (torch, 491174 bytes, 13 tensors)

layer1.weight f4 [200, 160]
0	0xbdf49d5b	-0.11944076
1	0xbd2bc1a4	-0.041932717
2	0xbd06e01e	-0.03292858
3	0x3c431240	0.011906207
4	0x3e02ecff	0.1278572
5	0x3df2a0ba	0.118470624
6	0xbd98c377	-0.07459157
7	0xbe017a63	-0.12644343
8	0xbd897c7c	-0.06713197
9	0xbdba9683	-0.09110739
10	0x3be71f60	0.0070533007
11	0xbe0035d3	-0.12520532
12	0xbd61bdcc	-0.055112645
13	0xbc84faa0	-0.016232789
14	0x3dfa7bd6	0.12230651
15	0xbcdacc60	-0.026708782
16	0xbc241270	-0.0100141615
17	0xbd686fb2	-0.056747146
18	0x3d552874	0.052040532
19	0x3d99e0fa	0.07513614
20	0xbda60e68	-0.081082165
21	0x3c28a140	0.010292351
22	0x3d8e6016	0.06951921
23	0x3b89f860	0.004210517
24	0xbd97361b	-0.07383367
25	0xbdedbb30	-0.11607969
26	0xbda8f580	-0.082499504
27	0x3dbb6892	0.091508046
28	0xbdc17271	-0.09445656
29	0x3d9c04aa	0.07618077
30	0xbce2ec4c	-0.027700566
31	0xbdb91326	-0.090368554
32	0x3dc34758	0.09535092
33	0xbd045188	-0.032304317
34	0xbdb2780f	-0.087143056
35	0xbda56eba	-0.0807776
36	0xbdd872fc	-0.105688065
37	0xbdeba239	-0.11505551
38	0xbcfe3174	-0.03102944
39	0xbda66dce	-0.08126412
40	0x3d3dbaa0	0.046320558
41	0xbc8d87fc	-0.017276756
42	0xbd3f5654	-0.04671319
43	0x3d34af4c	0.04411249
44	0xbda642a8	-0.081181824
45	0xbd484ea8	-0.048903137
46	0xbe02eb33	-0.12785034
47	0x3d02c66c	0.03192751
48	0xbdd59509	-0.10428817
49	0x3da43c3e	0.08019303
50	0x3d92c248	0.071659625
51	0xbc4160e0	-0.011802882
52	0xbc9e28d8	-0.019306585
53	0x3d826064	0.06366041
54	0x3dd500ba	0.10400529
55	0xbdd84dbf	-0.10561704
56	0x3de7e33a	0.11322637
57	0x3d2df9d8	0.042474598
58	0x3e01a2c1	0.12659742
59	0xbd83be98	-0.06432837
60	0xbd70c9a8	-0.058786064
61	0xbdf67130	-0.120333076
62	0x3c60e8e0	0.013727397
63	0x3c045570	0.0080770105
64	0xbd29bd14	-0.041440085
65	0x3ddaaea4	0.10677841
66	0x3d9ba550	0.0759989
67	0xbce45f3c	-0.027877443
68	0xbce12c84	-0.027487047
69	0xbd7ddf8c	-0.06198077
70	0xbd0ddcb4	-0.034634307
71	0x3d939180	0.07205486
72	0x3d9948de	0.074846014
73	0xbb1221c0	-0.0022297949
74	0x3dde27b4	0.108474165
75	0xbca77f10	-0.02044633
76	0xbe03b950	-0.1286366
77	0x3cb55678	0.022135958
78	0xbdb34d9b	-0.087550364
79	0xbda27b1e	-0.07933639
80	0xbd0bc50e	-0.034123473
81	0x3d76bcfc	0.060238823
82	0x3e03abeb	0.1285855
83	0x3d7153fc	0.058917984
84	0x3d4687f4	0.0484695
85	0xbd1b6144	-0.037934557
86	0x3d9fd9e6	0.07805233
87	0x3da7cffc	0.08193967
88	0x3e03ba2f	0.12863992
89	0x3ddac9e2	0.10683037
90	0x3db7758c	0.08957967
91	0xbd6bacfe	-0.057538025
92	0x3d9bcabc	0.07607028
93	0x3cd0df80	0.025497198
94	0xbd8f4970	-0.06996429
95	0x3d63a888	0.055580646
96	0xbdda88b8	-0.10670608
97	0xbda33200	-0.07968521
98	0xb992dc00	-0.00028011203
99	0xbe02d91b	-0.12778132
100	0xbdbc3e36	-0.09191553
101	0xbd396d28	-0.045270115
102	0xbd46cb26	-0.04853358
103	0xbdd38e4c	-0.10329875
104	0x3dd02cc2	0.10164787
105	0xbd825a03	-0.063648246
106	0x3d8c37e4	0.06846598
107	0xbe038363	-0.12843089
108	0xbdb27cc8	-0.087152064
109	0x3dfbaa06	0.12288289
110	0xbd0ef182	-0.03489829
111	0xbd56cf06	-0.052443527
112	0x3d2a9d74	0.041654065
113	0xbd1e1002	-0.038589485
114	0xbd0d488c	-0.034493014
115	0x3daa8956	0.08326976
116	0xba39dd00	-0.00070901215
117	0xbd8c7609	-0.06858451
118	0xbac16a00	-0.0014756322
119	0xbdc73cb6	-0.097283766
120	0x3d74f444	0.059803262
121	0xbdbccb88	-0.09218508
122	0x3d9e49a8	0.077288926
123	0x3bd353a0	0.006449178
124	0x3c39ceb0	0.011340782
125	0xbd05269c	-0.032507524
126	0xbdf66902	-0.120317474
127	0x3e0051c5	0.12531193
128	0xbcdf08f8	-0.027225956
129	0x3df4e262	0.119572416
130	0x3ce33de8	0.02773948
131	0xbba57820	-0.0050497204
132	0x3d10b874	0.03533216
133	0x3d152968	0.03641644
134	0xbdbed142	-0.093172565
135	0x3d3465d0	0.04404241
136	0xbddf73cd	-0.10910759
137	0xb9a4fe00	-0.00031469762
138	0x3d808914	0.062761456
139	0xbd4c88f6	-0.049935304
140	0x3d2e2688	0.042517215
141	0x3a3cee00	0.00072070956
142	0xbda0340c	-0.07822427
143	0x3df32d98	0.11873931
144	0xbca929d4	-0.020649828
145	0xbe0169f8	-0.1263808
146	0xbd5b50ac	-0.05354373
147	0x3d714c8c	0.05891089
148	0xbd91beb1	-0.071164496
149	0xbdad3d08	-0.084589064
150	0x3e00b0ef	0.12567495
151	0xbdab9368	-0.08377725
152	0xbdfb6139	-0.12274403
153	0xbd329980	-0.04360342
154	0x3da494ba	0.0803618
155	0x3b403fc0	0.0029334873
156	0xbd88600e	-0.06658946
157	0xbddf16e4	-0.10893038
158	0xbde7dcaa	-0.11321385
159	0xbbf98a20	-0.0076153427
160	0x3e1c7e7f	0.1528263
161	0x3ea0bdeb	0.31394896
162	0x3e2bca3c	0.16776365
163	0x3ea10548	0.31449342
164	0x3e8a1011	0.26965383
165	0x3e630cfd	0.22172923
166	0x3e09efc0	0.13470364
167	0x3e42b0e1	0.19012786
168	0x3e1e4de8	0.15459406
169	0x3e478cca	0.194873
170	0x3ed205b2	0.4101997
171	0x3da8b081	0.082367904
172	0x3ea547f5	0.3228146
173	0x3e615a1d	0.22007032
174	0x3e157426	0.14595088
175	0x3e95b399	0.29238585
176	0x3e42a384	0.19007689
177	0x3d4bb1ca	0.0497301
178	0x3e5d5c54	0.21617252
179	0x3e8a35df	0.26994225
180	0x3e8870f5	0.2664868
181	0x3e34a8c4	0.17642504
182	0x3df2095f	0.11818194
183	0x3e227f0b	0.15868776
184	0x3e8b11fc	0.27162158
185	0x3e8c3620	0.27385044
186	0x3e22d7c6	0.15902624
187	0x3dd9f083	0.10641577
188	0x3d455c7d	0.048183907
189	0x3e5ad479	0.21370114
190	0x3ea1846d	0.31546345
191	0x3e535064	0.20636135
192	0x3eaa4bef	0.33261058
193	0x3e1f740f	0.15571617
194	0x3e24d564	0.16097027
195	0x3e5221d8	0.20520723
196	0x3ea1a917	0.31574318
197	0x3e8b1024	0.27160752
198	0x3e2558b9	0.16147126
199	0x3e1ba6f4	0.15200406
200	0x3eb75b6c	0.35811937
201	0x3e100a8b	0.14066522
202	0x3de26a8e	0.1105548
203	0x3e4791cc	0.19489211
204	0x3e8ec2eb	0.27883086
205	0x3e07685a	0.132234
206	0x3ec02470	0.375278
207	0x3e8429f6	0.25813264
208	0x3ddb162b	0.106975876
209	0x3e6711f9	0.2256545
210	0x3e84499e	0.25837415
211	0x3e945a5d	0.28975192
212	0x3e878e19	0.264756
213	0x3e511acd	0.2042038
214	0x3e8c51aa	0.27406055
215	0x3e03c34b	0.12867467
216	0x3e7c2f3c	0.24627393
217	0x3db57eb1	0.08862055
218	0x3d9dc3fa	0.07703395
219	0x3e1deece	0.15423128
220	0x3e04ac0f	0.1295626
221	0x3e12d891	0.14340426
222	0x3e5805ab	0.21095912
223	0x3e39d60e	0.18148062
224	0x3e8aef6a	0.27135783
225	0x3e0d4a70	0.13797927
226	0x3ead0e05	0.3379976
227	0x3e9c1d1c	0.3049096
228	0x3de071f8	0.10959238
229	0x3e37b49c	0.17939991
230	0x3e8d314f	0.27576682
231	0x3e6b68db	0.22989218
232	0x3e7ed3cb	0.2488548
233	0x3e9a700d	0.30163613
234	0x3e1ad020	0.15118456
235	0x3e077210	0.13227105
236	0x3e961555	0.2931315
237	0x3e3ba573	0.18324833
238	0x3ea1290c	0.3147663
239	0x3e2abeb8	0.16674316
240	0x3e846838	0.25860763
241	0x3e5ab21a	0.21357003
242	0x3e71e277	0.23621546
243	0x3d8eb821	0.069687136
244	0x3e9740d0	0.29541636
245	0x3e403bfa	0.18772879
246	0x3deeda44	0.116627246
247	0x3e9102ab	0.28322348
248	0x3e16c5d8	0.14723909
249	0x3e879742	0.26482588
250	0x3e59f8ef	0.21286367
251	0x3e3b3a6d	0.18284006
252	0x3e7059c9	0.2347175
253	0x3e273f43	0.16332726
254	0x3e3fb80b	0.1872255
255	0x3e82f683	0.255787

layer1.bias f4 [200]
0	0x00000000	0.0
1	0xbd2d3c3a	-0.042293765
2	0xbce9743d	-0.02849781
3	0xbcc82b22	-0.02443463
4	0xbce69d29	-0.028151112
5	0xbcac04d4	-0.020998396
6	0xbc94f9d4	-0.018185534
7	0xbd2763f0	-0.040866792
8	0xbd2b34d4	-0.041798428
9	0xbcff8efe	-0.031196114
10	0xbce9fa7f	-0.028561829
11	0xbd54eb28	-0.051982075
12	0xbd334d30	-0.043774784
13	0xbc348bec	-0.011019688
14	0xbce8e936	-0.028431516
15	0x3d337277	0.043810334
16	0xbd3a27d9	-0.045448158
17	0xbd310627	-0.043218758
18	0xbd0a0f32	-0.033705898
19	0xbd19f008	-0.037582427
20	0xbcbf53ec	-0.023355447
21	0xbcfc592e	-0.030804243
22	0xbca33179	-0.019921051
23	0xbd1fde83	-0.039030563
24	0xbd1550aa	-0.03645388
25	0xbd0618f6	-0.03273865
26	0xbcc413bd	-0.023935193
27	0xbd404d88	-0.04694894
28	0x3cf62194	0.030045308
29	0xbd24d58a	-0.04024271
30	0xbc15095a	-0.009096468
31	0xbcf2814b	-0.029602667
32	0xbd5eacd9	-0.05436406
33	0xbc145d5f	-0.0090554645
34	0xbba9fa3c	-0.005187301
35	0xbd56b9d2	-0.052423306
36	0xbd05ac4d	-0.032635022
37	0xbd66a8b9	-0.05631325
38	0xbcb460ff	-0.022018908
39	0xbd08fa14	-0.033441618
40	0xbd032ce1	-0.03202522
41	0xbcc84421	-0.024446549
42	0xbd83304e	-0.06405698
43	0xbd3eeb71	-0.046611253
44	0x00000000	0.0
45	0xbbb372a6	-0.0054763136
46	0xbcc30f79	-0.023811089
47	0xbcf7d876	-0.030254584
48	0xbd02f662	-0.03197325
49	0x00000000	0.0
50	0xbd50fe98	-0.05102405
51	0xbce2e86c	-0.027698718
52	0x3d1db015	0.038498003
53	0xbcd89304	-0.02643729
54	0xbc873d52	-0.016508732
55	0xbd1bc3a6	-0.03802838
56	0xbd0f7e69	-0.035032663
57	0xbd2f3937	-0.042779174
58	0xb9a3f167	-0.00031269641
59	0xbb88ecdc	-0.0041786265
60	0xbcd949ed	-0.026524508
61	0xbd6d21ca	-0.057893552
62	0xbcd86cd7	-0.026419086
63	0x3d6553e3	0.055988204
64	0x00000000	0.0
65	0xbcced971	-0.025250169
66	0xbcc41136	-0.023933988
67	0xbd6007d5	-0.05469497
68	0x3e4bec81	0.19914438
69	0x00000000	0.0
70	0xbce245d2	-0.027621184
71	0xbcbe9b62	-0.023267452
72	0xbd7723f0	-0.060337007
73	0xbd08b89f	-0.033379193
74	0xbd09f425	-0.0336801
75	0xbcdf6899	-0.027271556
76	0xbceff1c7	-0.029290093
77	0xbd9f20b7	-0.07769912
78	0xbd4d3e79	-0.050108407
79	0x00000000	0.0
80	0xbdcec2a6	-0.1009572
81	0xbcd4c48b	-0.025972625
82	0xbcbd1249	-0.023080008
83	0xbcce29ab	-0.025166353
84	0xbd529a51	-0.0514167
85	0xbd29ce5e	-0.041456573
86	0x3c9e52bf	0.019326566
87	0xbbab2cd7	-0.005223851
88	0xbd0b356c	-0.033986494
89	0x3dd6a4d6	0.10480659
90	0xbcf1a3eb	-0.029497107
91	0xbd19a6c6	-0.037512563
92	0xbd3a61e9	-0.04550353
93	0xbcc3c173	-0.023895955
94	0xbbb31120	-0.005464688
95	0xbd17d585	-0.037068862
96	0xbcda00d5	-0.026611725
97	0xbc059719	-0.0081537
98	0xbd61306c	-0.05497782
99	0xbc42fec0	-0.011901557
100	0xbd63b1a8	-0.055589348
101	0xbd477d7b	-0.048703652
102	0xbc48ba23	-0.01225141
103	0xbd372b56	-0.044719063
104	0x00000000	0.0
105	0xbcd12dee	-0.025534596
106	0xbd7b1b75	-0.061305482
107	0xbd4b8c38	-0.04969427
108	0xbbf31d6c	-0.007419279
109	0x00000000	0.0
110	0xbcc18262	-0.023621742
111	0xbcf1e125	-0.029526303
112	0xbca3d49a	-0.019998837
113	0x00000000	0.0
114	0xbd6ffeb7	-0.058592524
115	0xbcdbbf9a	-0.026824761
116	0xbd6692df	-0.05629241
117	0xbd2f0f1c	-0.04273902
118	0xbd8b44fc	-0.06800267
119	0xbba72889	-0.0051012677
120	0xbd8bd2eb	-0.06827339
121	0x3e3aa9ca	0.18228832
122	0xbd45d139	-0.048295233
123	0xbda2a112	-0.07940878
124	0xbcba2795	-0.022723952
125	0xbbd223df	-0.0064129676
126	0xbd2a36c9	-0.041556153
127	0xbc9c65f5	-0.019091586
128	0xbd1a4519	-0.037663553
129	0xbc9e4b81	-0.019323112
130	0xbca60531	-0.020266147
131	0xbd0647e6	-0.03278341
132	0xbd73d1ca	-0.059526242
133	0xbd246dba	-0.040143706
134	0xbcf9f713	-0.030513322
135	0xbcdb68c0	-0.026783347
136	0xbc6a2c33	-0.0142927645
137	0xbd187b86	-0.037227176
138	0xbd5d0cf5	-0.053967435
139	0x3dda61fd	0.10663221
140	0xbcf4f067	-0.029899789
141	0x00000000	0.0
142	0xbd30889f	-0.043099042
143	0x3bc159a6	0.0059005795
144	0x00000000	0.0
145	0xbd3a5942	-0.04549528
146	0xbbfb2fb4	-0.0076655988
147	0xbd456569	-0.048192415
148	0xbd337afb	-0.043818455
149	0x3e41ff03	0.18944936
150	0xbd0a5548	-0.033772737
151	0xbd3008eb	-0.042977255
152	0x00000000	0.0
153	0xbcc9daec	-0.024640523
154	0xbd16577e	-0.036704533
155	0xbd33bb26	-0.04387965
156	0xbd0f3c30	-0.03496951
157	0xbd50da26	-0.050989293
158	0xbd0c1fb8	-0.034209937
159	0xbd4c40d4	-0.049866512
160	0xbccafc97	-0.024778647
161	0xbd19a764	-0.03751315
162	0xbd15af58	-0.036544174
163	0xbd29f7d8	-0.041496128
164	0xbd59bed6	-0.05316051
165	0x3e5ddcb1	0.21666218
166	0xbd3398e5	-0.043846983
167	0xbd7ae064	-0.06124915
168	0xbd0f7a4d	-0.035028744
169	0xbd1aa432	-0.037754245
170	0xbcebd872	-0.028789733
171	0xbd3c473b	-0.04596637
172	0x3c58421d	0.013199356
173	0xbd482dfd	-0.048871983
174	0xbd2c2124	-0.042023793
175	0xbd1c99af	-0.0382325
176	0xbc16b8d3	-0.009199339
177	0xbd026a8f	-0.031839903
178	0xbcd88b11	-0.0264335
179	0xbce1d464	-0.027567096
180	0xbd3907d5	-0.045173485
181	0xbc0898e8	-0.008337237
182	0xbcd42c60	-0.025900066
183	0xbd35b46d	-0.04436152
184	0xbd5b2105	-0.053498287
185	0xbd2066a1	-0.039160375
186	0x00000000	0.0
187	0xbd1ce158	-0.038300842
188	0xbc403a03	-0.011732581
189	0x00000000	0.0
190	0x3ba6d568	0.005091358
191	0x00000000	0.0
192	0x3e6fe263	0.23426203
193	0xbd09b75c	-0.03362213
194	0xbcdcf8fe	-0.026974197
195	0xbd449e74	-0.048002675
196	0xbcd8b3be	-0.026452895
197	0xbd0005d7	-0.03125557
198	0xbcf7d5e2	-0.030253354
199	0xbd3a7ba1	-0.045528058

layer2.weight f4 [200, 200]
0	0x3c960d0c	0.018316768
1	0xbdf8f508	-0.12156111
2	0x3d97baba	0.07408662
3	0xbdb0e190	-0.08636773
4	0x3d29de5a	0.041471817
5	0x3c54360b	0.012952338
6	0x3d3a42b4	0.04547377
7	0x3da55660	0.08073115
8	0xbc259920	-0.010107309
9	0x3dc3c78e	0.095595464
10	0x3db615ed	0.08890901
11	0x3d0b564b	0.034017842
12	0x3df7357b	0.120707475
13	0xbd07a89b	-0.03311978
14	0x3cdfa250	0.027299076
15	0x3d9cf8a4	0.07664612
16	0x3db2e24f	0.08734571
17	0x3d38eabd	0.04514574
18	0x3d3a8a62	0.04554213
19	0xbd3a8c5b	-0.04554401
20	0xbd9b52fb	-0.07584187
21	0xbce0bbaa	-0.027433235
22	0x3dc4206c	0.095764965
23	0xbd857984	-0.06517318
24	0xbd7831dd	-0.06059443
25	0x3d582a24	0.052774563
26	0xbc5f5a8d	-0.013632429
27	0xbd1b8e20	-0.037977338
28	0x3d0b255e	0.033971183
29	0xbdcdb833	-0.10044899
30	0x3d590352	0.052981682
31	0xbdd19fc3	-0.1023555
32	0xbd84d78a	-0.06486423
33	0x3d4edb36	0.050502025
34	0xbdaf3772	-0.08555497
35	0x3d1195c4	0.03554322
36	0x3dcf4da2	0.10122229
37	0xbdff442c	-0.12464175
38	0xbe068011	-0.13134791
39	0x3d9f2d8d	0.0777236
40	0xbd8c5025	-0.06851224
41	0x3ddd1757	0.10795467
42	0xbd8733c2	-0.06601669
43	0xbdef37ea	-0.11680587
44	0x3de5e0d7	0.112245254
45	0x3d9c51cf	0.07632791
46	0xbd6e00ef	-0.05810636
47	0xbdbf1a4f	-0.0933119
48	0xbe007e63	-0.12548213
49	0xbde86ad1	-0.113484986
50	0xbd83f6a1	-0.06443525
51	0x3d5e8a8e	0.054331355
52	0x3d8d9037	0.069122724
53	0xbdc6de59	-0.09710378
54	0x3d8a1eab	0.06744131
55	0x3d03be38	0.03216383
56	0xbd4b8c5e	-0.04969441
57	0x3d22a0c5	0.039704103
58	0xbdca322c	-0.09872851
59	0xbd6f0972	-0.058358617
60	0xbc1e0d77	-0.009646765
61	0xbd650324	-0.0559112
62	0x3d7f9360	0.062396407
63	0xbdf81b0c	-0.12114534
64	0xbd5f20d8	-0.05447468
65	0xbb252617	-0.0025199705
66	0xbdb658d5	-0.08903662
67	0xbdf790aa	-0.12088139
68	0xbde8daae	-0.11369835
69	0xbd462e00	-0.048383713
70	0x3d280913	0.04102428
71	0x3cdeb9aa	0.02718814
72	0x3dac340d	0.084083654
73	0xbdb278af	-0.08714425
74	0xbbf83452	-0.0075745964
75	0xbd46e97c	-0.04856251
76	0xbdbc53b4	-0.091956526
77	0xbd258bad	-0.04041641
78	0xbcedb9b9	-0.029019224
79	0x3cc388e4	0.023868985
80	0x3d94b7b0	0.07261598
81	0x3bbee692	0.005825826
82	0xbd8eea3d	-0.06978271
83	0x3ce28ad8	0.027654096
84	0x3d227a1e	0.03966724
85	0x3da89516	0.08231561
86	0xbba07690	-0.0048969463
87	0x3d68ee36	0.0568678
88	0xbda31796	-0.07963483
89	0x3cdd587b	0.02701973
90	0x3d9a49ca	0.075336054
91	0xbda0363f	-0.078228466
92	0x3db056ae	0.08610283
93	0x3c3d001c	0.011535671
94	0xbdf59800	-0.11991882
95	0xbdc81ffb	-0.09771725
96	0xbd07a126	-0.033112668
97	0xbda68000	-0.08129883
98	0x3d9363d6	0.071967766
99	0x3d28920b	0.041154902
100	0xbb9e0d7e	-0.0048233857
101	0x3dbdd899	0.09269828
102	0x3af8d4c0	0.0018984303
103	0xbd5067f1	-0.050880376
104	0xbd7e939d	-0.062152494
105	0x3d8326bc	0.06403872
106	0x3ccc3f7b	0.024932614
107	0xbdc8abd2	-0.09798397
108	0x3dc69407	0.09696203
109	0x3deba133	0.11505356
110	0xbdc882c2	-0.09790565
111	0xbd8f30b7	-0.069917135
112	0x3d1e8ea7	0.038710263
113	0xbc379ce8	-0.011206843
114	0x3cc725ff	0.02431011
115	0x3da58554	0.08082071
116	0xbd6ec52a	-0.0582935
117	0x3cdb7ad1	0.026791962
118	0x3b4db4f1	0.0031388367
119	0xbd49163a	-0.049093463
120	0x3d43a18e	0.047761492
121	0x3d61d3cc	0.055133626
122	0x3d99de5d	0.075131156
123	0xbdab5599	-0.08365936
124	0xbe08439a	-0.13307038
125	0x3d66a302	0.0563078
126	0x3d0b83d6	0.034061275
127	0xbddb6278	-0.10712141
128	0xbddb8d20	-0.10720277
129	0xbdd7106b	-0.10501178
130	0xbcb8ee01	-0.022574427
131	0x3d711b7d	0.058864105
132	0x3d586b13	0.05283649
133	0x3c70fd10	0.014708772
134	0xbbcbdafc	-0.0062211733
135	0x3d04f830	0.032463253
136	0xbdb3b933	-0.08775558
137	0x3d991783	0.07475188
138	0xbb85719c	-0.004072381
139	0xbd82cc3d	-0.063866116
140	0xbda8dfab	-0.08245786
141	0x3d0a29a2	0.03373111
142	0xbd2d8c81	-0.042370323
143	0xbd1bf206	-0.03807261
144	0xbb5b8820	-0.0033497885
145	0xbc5040da	-0.012710774
146	0xbd749022	-0.05970777
147	0xbdba5a10	-0.09099209
148	0x3dc3cb93	0.09560313
149	0xbd77dbd3	-0.060512375
150	0x3d57f680	0.052725315
151	0xbd98dd27	-0.074640565
152	0x3cb00f0c	0.02149155
153	0xbdbb58cf	-0.09147798
154	0xbde36c42	-0.11104633
155	0xbd99070f	-0.074720494
156	0xbc4b5085	-0.012409334
157	0xbdcf4a25	-0.10121564
158	0xbe01aa44	-0.12662607
159	0x3d4dcd56	0.05024465
160	0x3d879114	0.06619468
161	0x3d7b8595	0.06140669
162	0xbdfb380c	-0.122665495
163	0xbbd8334b	-0.0065979115
164	0xbd816240	-0.06317568
165	0x3da9c4b5	0.08289472
166	0x3cc806a4	0.024417229
167	0xbd991cd3	-0.07476201
168	0xbdfef4fb	-0.1244907
169	0x3c5692a0	0.013096482
170	0xbc4ddb6d	-0.012564522
171	0x3dcddd92	0.10052027
172	0xbd1feda6	-0.039045
173	0xbdd9cd06	-0.10634808
174	0x3bd84017	0.006599437
175	0x3d98ba27	0.07457381
176	0x3d91b715	0.07114998
177	0xbdea89fb	-0.11452099
178	0xbdfbad9f	-0.12288975
179	0xbc015108	-0.0078928545
180	0x3d6691fd	0.05629157
181	0x3d458462	0.048221953
182	0xbdb7cde6	-0.08974819
183	0xbd4ae30c	-0.049532935
184	0xbdd0acec	-0.10189232
185	0xbcf2f135	-0.029656032
186	0x3d4ca40e	0.049961142
187	0xbdb8d5a9	-0.090251274
188	0xbc1049a0	-0.008806616
189	0x3dd8293d	0.105547406
190	0x3dd73aaa	0.10509236
191	0xbdf9e986	-0.12202744
192	0x3db94d73	0.090479754
193	0x3d78874b	0.0606759
194	0x3cb717f7	0.022350295
195	0x3d2a96b5	0.04164763
196	0xbd3f1f81	-0.046660904
197	0x3d6eda17	0.058313455
198	0xbdf96f09	-0.121793814
199	0x3d825b7b	0.06365105
200	0xbc6b5040	-0.014362395
201	0x3d1ada98	0.037806123
202	0xbbf42166	-0.0074502705
203	0x3d576e27	0.052595284
204	0x3da81c5d	0.08208535
205	0x3d5aa5d8	0.053380817
206	0xbc941316	-0.018075507
207	0x3d7dbfb3	0.061950397
208	0xbda9f007	-0.08297735
209	0xbdcccdb4	-0.10000172
210	0xbdda89c5	-0.10670809
211	0xbc6d2a6d	-0.014475447
212	0xbbaae0f0	-0.005214803
213	0x3d23a212	0.039949484
214	0xbde49d3f	-0.11162805
215	0x3d447523	0.047963273
216	0xbd9fab54	-0.0779635
217	0x3d5e3a88	0.05425504
218	0x3da846d2	0.08216633
219	0x3cb5e841	0.022205474
220	0x3da21b98	0.07915419
221	0xbbc097b6	-0.0058774604
222	0x3ca47526	0.020075392
223	0x3b72301b	0.0036954943
224	0xbc94e3ba	-0.018174995
225	0xbdaea678	-0.08527845
226	0xbe00b43d	-0.12568755
227	0x3ba8e445	0.005154165
228	0xbd365df4	-0.044523194
229	0xbd1b918a	-0.037980594
230	0xbd20c222	-0.03924764
231	0xbd103c49	-0.035213742
232	0xbda1e594	-0.07905117
233	0xbd95faa6	-0.07323198
234	0xbdcdab68	-0.10042459
235	0x3d874786	0.06605439
236	0xbe0cd204	-0.1375199
237	0x3db459cc	0.0880619
238	0x3dcb5e03	0.09930041
239	0xbd9896bf	-0.074506275
240	0xbc8acfa3	-0.016944712
241	0x3d9908c7	0.07472377
242	0x3d835bba	0.0641398
243	0x3d4d60af	0.050141033
244	0x3dce35fb	0.1006889
245	0xbd178d54	-0.037000015
246	0x3da78b93	0.081809185
247	0xbc50f9f8	-0.01275491
248	0x3da5a214	0.080875546
249	0x3d6b06ca	0.05737952
250	0x3dce4e97	0.100735836
251	0x3d7d5ec3	0.06185795
252	0xbda46eb0	-0.080289245
253	0x3dac0342	0.08399059
254	0xbd83a3e3	-0.06427743
255	0xbdc5d8cc	-0.09660491

layer2.bias f4 [200]
0	0xbc8f438b	-0.017488262
1	0xbcb60b30	-0.022222131
2	0xbc8d018c	-0.017212652
3	0xbaa91db1	-0.0012902525
4	0xbbaa5045	-0.005197557
5	0x3cb016d3	0.021495258
6	0xbcf281c7	-0.029602898
7	0xbd673718	-0.056449026
8	0xbbee606b	-0.0072746775
9	0xb9236fe7	-0.00015586578
10	0xbc8a8803	-0.016910559
11	0xba2bfc3f	-0.000656072
12	0x3c879e98	0.016555116
13	0x3c7f6e1f	0.01559022
14	0xbba4fc29	-0.0050349426
15	0xbc3d9556	-0.011571249
16	0x00000000	0.0
17	0x3df11fcc	0.11773643
18	0x3c5d3ac4	0.01350278
19	0x3a42198f	0.0007404321
20	0x3b8d6d38	0.0043159984
21	0xbc02b663	-0.007978055
22	0x3c2f304b	0.010692666
23	0x00000000	0.0
24	0x00000000	0.0
25	0xbc54bc05	-0.0129842805
26	0xbcb924f4	-0.022600628
27	0xbc6cb2af	-0.014446898
28	0x3c5e7594	0.0135778375
29	0xbcba7eb0	-0.022765487
30	0x3ba7efab	0.005125006
31	0x00000000	0.0
32	0xbc71dd84	-0.014762286
33	0x3c6ed894	0.014578003
34	0xbca96985	-0.020680198
35	0x3b1960fc	0.0023403754
36	0xbcb5b332	-0.022180174
37	0xbccecb27	-0.025243355
38	0xbc48ccbe	-0.012255846
39	0xbbc4c9db	-0.0060055084
40	0xbc8310f2	-0.015999291
41	0x3d9ece12	0.077541485
42	0xbd30c430	-0.04315585
43	0xbc84b036	-0.016197305
44	0x3c8b2949	0.01698746
45	0x3c408d61	0.011752457
46	0x3cbcdb9b	0.023053935
47	0x3e5f5c98	0.21812665
48	0xbca7514c	-0.020424508
49	0xbd541757	-0.05178007
50	0x00000000	0.0
51	0x00000000	0.0
52	0x3ca7b0bd	0.020470018
53	0xbc027a08	-0.007963665
54	0xbcbe6248	-0.023240224
55	0xbc230252	-0.009949284
56	0x3ad4201b	0.0016183885
57	0xbbc149a4	-0.005898671
58	0x3c8e4b50	0.017369896
59	0x3c86dee6	0.016463708
60	0xbc345f2c	-0.011009019
61	0xbba5b01d	-0.0050563947
62	0xbc962949	-0.018330233
63	0xbc8d2133	-0.017227745
64	0xbd335234	-0.043779567
65	0xbbf279c8	-0.0073997714
66	0x3c52a74a	0.012857268
67	0xbc6ea44c	-0.014565539
68	0x3cca4f57	0.024696035
69	0x3e685ec8	0.22692406
70	0xbcc88082	-0.02447534
71	0xbc1046d6	-0.008805951
72	0x3d68f101	0.056870464
73	0x3ca3dba9	0.020002203
74	0x3c2628df	0.01014158
75	0xbcea4cff	-0.028601168
76	0x3b8d469d	0.0043113963
77	0xbc43b50e	-0.011945022
78	0x3c02ba6b	0.007979016
79	0xbc6a8282	-0.014313342
80	0xbd369e3c	-0.044584498
81	0xbc0e337e	-0.008679269
82	0xbc0db963	-0.008650157
83	0xbd787459	-0.060657833
84	0xbc49abb0	-0.012309
85	0xbc8069ff	-0.015675543
86	0xbd3671d1	-0.044542138
87	0x3dc40a9e	0.095723376
88	0x3d402c2f	0.046917137
89	0xbc9c126d	-0.019051755
90	0xbbc3d94d	-0.005976832
91	0x00000000	0.0
92	0x3c84ab20	0.01619488
93	0xbccdb857	-0.025112314
94	0x3c6985f0	0.014253125
95	0xbb4fea31	-0.0031725282
96	0xbc9c0a7e	-0.019047972
97	0x3c81bfe3	0.015838569
98	0xbc4c56c3	-0.0124718575
99	0xbbc4f95c	-0.0060111713
100	0xbc616c7d	-0.013758776
101	0x3d9044b7	0.07044356
102	0xbd206bbd	-0.039165247
103	0x3e288dd9	0.1646036
104	0xbba846f1	-0.00513541
105	0xbc9fc88a	-0.019504804
106	0x3da20b71	0.079123385
107	0xbd806a31	-0.062702544
108	0xbc7c08c5	-0.01538295
109	0xbc5d1905	-0.013494735
110	0x3c37c4f3	0.01121639
111	0xbc3926b9	-0.011300736
112	0x3e4e7af3	0.20164089
113	0x00000000	0.0
114	0xbc3e4901	-0.011614085
115	0xbd05387c	-0.03252457
116	0xbc5fc0b9	-0.0136567885
117	0x3c964373	0.01834271
118	0xbc665321	-0.014057905
119	0xbc9d86e9	-0.01922937
120	0xbcf066fd	-0.029345984
121	0x3cafef68	0.021476462
122	0x3c6f5d0c	0.014609586
123	0xbc1de047	-0.009635991
124	0x00000000	0.0
125	0x00000000	0.0
126	0xbc948554	-0.018129982
127	0xbbab6903	-0.005231024
128	0x3c939fe7	0.018020583
129	0x3b859cd9	0.0040775356
130	0xbcab8f25	-0.02094228
131	0xbcb1b598	-0.021693036
132	0xbc83ed43	-0.016104346
133	0x3d0ad3a8	0.033893257
134	0xbccaa58b	-0.02473714
135	0x00000000	0.0
136	0xbc3b053d	-0.011414823
137	0xbc9a8e80	-0.018866777
138	0x3c08a889	0.008340963
139	0x3ddf728e	0.109105214
140	0x3b119c2f	0.0022218337
141	0xbc213c02	-0.009840967
142	0xbbc4c9d9	-0.0060055074
143	0x3ba6769b	0.005080057
144	0x3c8a2f50	0.016868263
145	0x3e2c9d5b	0.16856901
146	0x3bb532c8	0.0055297352
147	0xbcba08e6	-0.022709321
148	0xbc447621	-0.011991055
149	0xbd46a692	-0.048498698
150	0x3e2e68e3	0.17032199
151	0xbc4f1fc7	-0.012641854
152	0x3bb2c637	0.005455758
153	0xbd6185e4	-0.05505933
154	0xbc91d4ce	-0.017801668
155	0xba2cc493	-0.0006590571
156	0x3c812538	0.015764818
157	0xbd4abc5a	-0.049496032
158	0x00000000	0.0
159	0xbc99f56c	-0.018793784
160	0x3caa9175	0.020821312
161	0x00000000	0.0
162	0xbcc48050	-0.023986965
163	0xbc9819fa	-0.018567074
164	0xbc27c72d	-0.010240358
165	0x3de7856c	0.11304745
166	0xbc7b6827	-0.015344656
167	0xbb4f962a	-0.0031675198
168	0xbd3b17ba	-0.045676924
169	0x3d4bb164	0.04972972
170	0x3d76c6de	0.06024825
171	0xbc7835f9	-0.015149587
172	0x00000000	0.0
173	0x3b5b7268	0.003348494
174	0x3bc64a21	0.0060513173
175	0xbb130985	-0.0022436094
176	0xbc8a8fed	-0.016914332
177	0xbc486ba6	-0.012232697
178	0xbbc921a3	-0.006138043
179	0xbc628d85	-0.013827686
180	0xbc9b19c8	-0.018933192
181	0xbbaecee7	-0.0053347233
182	0xbc6c78ae	-0.014433069
183	0xbc2b3f3c	-0.010452088
184	0xbd1b62dc	-0.037936077
185	0x3cba448b	0.022737762
186	0xbc2c7d9d	-0.010527995
187	0x3c6ba845	0.01438338
188	0xbd16727f	-0.036730286
189	0xbc9b4c52	-0.01895729
190	0xbccf5251	-0.025307806
191	0xbcbed09e	-0.023292836
192	0xbca06fbb	-0.019584527
193	0x3e60e599	0.21962585
194	0xbcc08b82	-0.023504023
195	0xbc045616	-0.008077165
196	0xbc542973	-0.012949335
197	0xbc4342e7	-0.011917806
198	0xbc8b7a4a	-0.017026085
199	0xbd414fdb	-0.047195297

mu.weight f4 [4, 200]
0	0x3dd8f3c6	0.10593371
1	0xbc997e77	-0.018737061
2	0x3df67ab5	0.12035123
3	0xbe8392a3	-0.25697812
4	0x3d4f1146	0.050553583
5	0xbe8c166d	-0.2736086
6	0xbe845d2a	-0.2585233
7	0xbe43ec28	-0.19133055
8	0x3ca212d7	0.019784374
9	0x3de85e8c	0.113461584
10	0x3d8c9f12	0.06866278
11	0x3dc0edfa	0.094203904
12	0xbdb51e6c	-0.08843693
13	0xbe682d1f	-0.22673462
14	0xbd6d82aa	-0.05798594
15	0x3d4de3c5	0.050266046
16	0x3dc0cb7a	0.0941381
17	0x3e1bdd59	0.15221156
18	0xbe023791	-0.1271651
19	0x3c9bf9da	0.019040037
20	0xbe32fb0a	-0.17478576
21	0xbcdd57f5	-0.02701948
22	0xbc9ce6e2	-0.019153062
23	0x3c4e3b50	0.012587383
24	0xbcd4ef48	-0.025993004
25	0xbe2612ca	-0.16218105
26	0xbe3d3529	-0.1847731
27	0x3dddbc11	0.108268864
28	0xbe7604db	-0.2402529
29	0xbe07234b	-0.13197057
30	0xbe413373	-0.18867283
31	0x3def69de	0.116901144
32	0x3c0a65c7	0.008447117
33	0xbd630c36	-0.055431567
34	0x3defbc15	0.11705796
35	0xbe9439cf	-0.28950354
36	0xbe0394c3	-0.12849717
37	0x3e124dfc	0.14287561
38	0x3dfca321	0.12335802
39	0xbe124fe1	-0.14288284
40	0x3d8aee69	0.067837544
41	0x3e37ac11	0.17936732
42	0xbe531f00	-0.20617294
43	0x3dd48e6b	0.103787266
44	0xbe45ddd5	-0.19322903
45	0xbdc10aec	-0.09425911
46	0xbe718b19	-0.23588218
47	0x3ef7a4e5	0.48367992
48	0xbe808551	-0.25101712
49	0xbe7a250d	-0.24428196
50	0xbd5cc1b2	-0.05389566
51	0xbdef200b	-0.116760336
52	0xbaea2af6	-0.0017865587
53	0xbe3633e1	-0.17793228
54	0xbd3e7724	-0.04650034
55	0xbd991304	-0.0747433
56	0xba4efd2a	-0.0007896001
57	0x3d8b74cc	0.068093866
58	0x3ab4119e	0.001373816
59	0x3e6883f1	0.22706582
60	0x3c86ab44	0.016439088
61	0x3e2134ab	0.15742747
62	0xbe12b61d	-0.14327283
63	0x3d0c5175	0.03425737
64	0xbe872542	-0.26395613
65	0x3d2fbfcc	0.04290752
66	0xbe90b810	-0.2826543
67	0x3e0c6405	0.1371003
68	0xbe2700df	-0.16308926
69	0x3e9ef224	0.31044114
70	0xbdf91a8e	-0.12163268
71	0xb912b36b	-0.00013990483
72	0x3d15e1f6	0.036592446
73	0xbe83bfee	-0.25732368
74	0xbda0db19	-0.078542896
75	0xbe574025	-0.21020563
76	0xbe83af4f	-0.25719687
77	0x3e07b165	0.13251264
78	0xbca542d6	-0.020173471
79	0xbe21de30	-0.15807414
80	0xbe27091b	-0.16312067
81	0x3ce79ad9	0.02827208
82	0x3e00784e	0.12545893
83	0xbe622d70	-0.22087646
84	0x3dd218e4	0.10258654
85	0x3cd2582b	0.025676807
86	0xbe40e198	-0.18836057
87	0x3e895b25	0.2682735
88	0xbe0c2078	-0.13684261
89	0xbdafe210	-0.0858804
90	0xbddc2188	-0.10748583
91	0x3dd4f32e	0.10397945
92	0xbdc350a7	-0.095368676
93	0xbe802809	-0.25030544
94	0xbe74c3eb	-0.23902862
95	0xbda1ccd5	-0.07900397
96	0xbe64edc4	-0.22356325
97	0xbe526980	-0.20548058
98	0x3d87762c	0.06614336
99	0xbde97021	-0.1139834
100	0x3dad40d3	0.0845963
101	0xbba625ba	-0.0050704153
102	0xbd9b5ec5	-0.07586435
103	0x3ef8fbd5	0.48629633
104	0x3e2a0fcd	0.1660759
105	0xbe168b0e	-0.14701483
106	0x3e6df2d9	0.2323717
107	0xbde40b7a	-0.111350015
108	0x3dd7838b	0.10523137
109	0x3d8fa961	0.07014728
110	0xbe77c031	-0.24194409
111	0x3cc3c7c0	0.02389896
112	0x3ee42d52	0.44565827
113	0x3e1ce8a3	0.15323119
114	0xbd042f80	-0.032271862
115	0xbe311348	-0.17292511
116	0xbe1a9de2	-0.1509929
117	0xbe8ce5c7	-0.27519056
118	0x3df33fe1	0.11877418
119	0xbd5b0639	-0.05347273
120	0xbe8d799a	-0.27631837
121	0xbcb42e90	-0.021994859
122	0xbd6f0933	-0.058358382
123	0xbe37d58a	-0.17952552
124	0x3d7e7278	0.062120885
125	0xbd2c5da0	-0.042081475
126	0xbe869654	-0.26286566
127	0x39b75a54	0.0003497178
128	0x3cf186bb	0.02948319
129	0xbe6be6f6	-0.23037323
130	0x3dc13252	0.09433426
131	0x3e0a7d0c	0.13524264
132	0xbe1c7b45	-0.15281399
133	0x3e3e8d31	0.18608548
134	0xbd9925b2	-0.07477893
135	0xbdc5ae0c	-0.096523374
136	0xbe21056d	-0.15724726
137	0x3d491100	0.049088478
138	0xbe580f21	-0.21099521
139	0xbcd44660	-0.025912464
140	0x3e1575ec	0.14595765
141	0xbda4b3ba	-0.080420926
142	0x3e1ba97c	0.15201372
143	0xbc91f977	-0.01781915
144	0xbe227500	-0.15864944
145	0x3eb1c260	0.3471861
146	0xbdf8d8f4	-0.121507555
147	0xbe8dc079	-0.27685907
148	0xbd8fa818	-0.07014483
149	0xbd4c5076	-0.04988142
150	0x3f0562ca	0.52103865
151	0xbde191d4	-0.11014143
152	0xbd87d9d0	-0.06633341
153	0xbe299cf7	-0.16563784
154	0xbd6e743d	-0.058216322
155	0xbe86d99a	-0.26337892
156	0x3d2ba285	0.041903038
157	0xbe024cf3	-0.12724666
158	0xbcb92720	-0.022601664
159	0x3db1730a	0.0866452
160	0xbe406137	-0.18787085
161	0x3d2bb8c8	0.041924268
162	0xbda43ac0	-0.08019018
163	0x3da327ad	0.07966552
164	0xbdaa35ea	-0.083110645
165	0x3e936764	0.28789818
166	0xbd4c3e3f	-0.04986405
167	0xbdfe0b99	-0.12404556
168	0xbe2e43c0	-0.17018032
169	0x3d1656b3	0.036703777
170	0xbe19080e	-0.14944479
171	0x3e35bef3	0.17748623
172	0x3b883800	0.0041570663
173	0xbe62d076	-0.22149834
174	0xbddb3393	-0.107031964
175	0xbb90f817	-0.004424106
176	0x3df921b1	0.12164629
177	0x3dbb332f	0.09140622
178	0xbe8491fd	-0.2589263
179	0x3e1e6396	0.15467677
180	0xbdd273f9	-0.10276026
181	0xbce2a37a	-0.027665842
182	0x3d7ed610	0.062215865
183	0x3e0510d7	0.12994705
184	0xbe8ccd08	-0.27500176
185	0x3d6c6f5e	0.057723396
186	0x3dfdbef3	0.12389936
187	0xbe2fbd1e	-0.17161986
188	0xbe98ee3f	-0.29869267
189	0x3bf3226c	0.007419875
190	0xbcab2a8e	-0.020894315
191	0xbdf15583	-0.11783888
192	0xbd5fbab5	-0.054621417
193	0x3e40ab90	0.18815446
194	0xbe86c118	-0.26319194
195	0x3d69f98d	0.057122756
196	0x3e05658a	0.13027015
197	0x3e1f8b36	0.15580449
198	0xbe5c9c44	-0.21543986
199	0xbe702d79	-0.23454846
200	0xbdf34841	-0.11879016
201	0x3db12bda	0.08650942
202	0x3d34b045	0.044113416
203	0x3a8dcb09	0.0010817955
204	0xbbf0b7f0	-0.007346146
205	0xbd44d222	-0.04805196
206	0xbe858843	-0.26080522
207	0xbd3ebb0d	-0.046565104
208	0x3e18fb16	0.14939532
209	0xbdefd1a3	-0.11709907
210	0x3bd32114	0.006443152
211	0x3deb49f6	0.11488716
212	0xbdbeb1fc	-0.093112916
213	0xbbf42cb9	-0.0074516204
214	0x3ddd0781	0.10792447
215	0x3c5ebe71	0.013595209
216	0xbd80eb04	-0.06294826
217	0x3ebd3e45	0.3696157
218	0x3cd18c83	0.025579697
219	0x3d7abde5	0.061216254
220	0xbe7eb67f	-0.24874304
221	0xbd1a4632	-0.0376646
222	0xbe24e7c0	-0.1610403
223	0xbcacff88	-0.02111794
224	0x3e147deb	0.14501159
225	0x3e0d2284	0.13782698
226	0xbe1d7439	-0.15376367
227	0x3ca37129	0.01995142
228	0x3ced7db0	0.028990597
229	0xbe808596	-0.25101918
230	0xbe375c73	-0.1790636
231	0x3dcc5b0a	0.09978302
232	0xbe31bf00	-0.17358017
233	0xbde39ed1	-0.11114276
234	0x3bc4af20	0.006002322
235	0x3de041ba	0.10950036
236	0xbd3df3b9	-0.04637501
237	0x3c507cb4	0.012725044
238	0x3dc59400	0.096473694
239	0x3db15d07	0.08660322
240	0x3da4fc38	0.080559194
241	0x3e2139fe	0.15744779
242	0xbe12f82d	-0.14352484
243	0x3cced30a	0.025247116
244	0xbe0d8e48	-0.13823807
245	0x3e553a4d	0.20823021
246	0xbe4823d4	-0.19544917
247	0x3e8a39b6	0.26997155
248	0xbde7e7a5	-0.113234796
249	0xbdfb0b16	-0.12257974
250	0xbda9fef4	-0.083005816
251	0xbe0ea0d7	-0.13928543
252	0xbdf74f73	-0.120757006
253	0xbe68362e	-0.22676918
254	0xbe6beadc	-0.2303881
255	0x3dae2600	0.08503342

mu.bias f4 [4]
0	0xbd15329c	-0.036425218
1	0xbcf54a39	-0.029942619
2	0xbd297e82	-0.041380413
3	0xbd1c0bbf	-0.03809714

sigma f4 [4]
0	0xbd0df25d	-0.034654964
1	0x3c92e389	0.017930763
2	0x3cfa3bee	0.030546155
3	0xba31bb65	-0.0006779938

layer1.weight f4 [200, 36]
0	0x3d57cc9f	0.052685376
1	0x3e22de43	0.15905099
2	0xbb707325	-0.0036689725
3	0x3cd3badf	0.025845943
4	0x3d444786	0.047919773
5	0x3d6f725a	0.058458664
6	0xbd7b1be4	-0.061305895
7	0x3d9d027f	0.07666492
8	0xbd2a6afa	-0.041605927
9	0x3db5487a	0.088517144
10	0xbcdfa924	-0.027302332
11	0x3d6109b2	0.054940887
12	0x3dcc0cee	0.09963404
13	0xbde08c11	-0.109642155
14	0x3d39deae	0.04537838
15	0x3ce53164	0.027977653
16	0xbe05cf8f	-0.13067459
17	0xbce5478d	-0.02798822
18	0x3b9429fe	0.0045216074
19	0x3df3db91	0.11907113
20	0xbda3420f	-0.07971584
21	0x3df7d87e	0.121018395
22	0xbd8fa0b2	-0.07013072
23	0x3d88ab6a	0.0667332
24	0x3d2307d7	0.0398024
25	0x3dd0c3a9	0.10193569
26	0x3dc93020	0.09823632
27	0xbe0c452c	-0.13698262
28	0xbc3abd62	-0.011397691
29	0xbe1a6dd5	-0.1508096
30	0xbb82c514	-0.0039907787
31	0xbdb70550	-0.0893656
32	0x3e0563ab	0.13026302
33	0x3d998f2e	0.074980125
34	0xbd9059ae	-0.07048355
35	0x3c6c2c0b	0.014414798
36	0xbd8f2f49	-0.06991441
37	0xbe057e36	-0.13036427
38	0x3dbd3cef	0.09240138
39	0xbb26c29c	-0.0025445586
40	0x3c83b3a3	0.016076868
41	0x3c14b824	0.009077106
42	0x3d893829	0.06700165
43	0x3dc0e7f2	0.0941924
44	0xbd371758	-0.044699997
45	0x3b9ed557	0.0048472094
46	0xbd87f575	-0.06638614
47	0xbd82e4f2	-0.06391324
48	0xbd083fbd	-0.03326391
49	0x3d258e8f	0.040419158
50	0xbdd79918	-0.10527247
51	0x3bf1e85a	0.007382435
52	0x3e0a7582	0.13521388
53	0xbe056044	-0.13025004
54	0x3ce5554d	0.027994776
55	0x3de5cf9f	0.11221241
56	0x3cd67c4c	0.026182316
57	0x3dd04fcb	0.10171469
58	0xbda28f9f	-0.0793755
59	0x3ca0822b	0.019593319
60	0xbd1cfa93	-0.038324904
61	0x3c974535	0.018465618
62	0xbc8d7de2	-0.01727194
63	0x3d04a0fc	0.03238009
64	0x3e1dc923	0.15408759
65	0xbcf580f1	-0.02996871
66	0x3d4384c3	0.047734033
67	0xbdc7f22c	-0.097629875
68	0x3dd1416d	0.10217557
69	0x3d5341be	0.05157637
70	0xbdbaddf0	-0.091243625
71	0x3dfab271	0.12241066
72	0xbdc34839	-0.0953526
73	0xbe161243	-0.14655404
74	0xbe1c1a57	-0.15244423
75	0xbdb6cb37	-0.08925479
76	0xbd683909	-0.056695018
77	0xbd99a5ef	-0.075023524
78	0x3e133e32	0.14379194
79	0xbe287fac	-0.16454953
80	0xbca49947	-0.02009262
81	0xbdf48248	-0.11938912
82	0x3e093fcf	0.13403247
83	0xbd3238ab	-0.043511074
84	0xbe1a25e8	-0.15053523
85	0x3d5070b4	0.050888732
86	0xbda54b39	-0.08070988
87	0x3da37df2	0.079830065
88	0x3e1e2ded	0.15447207
89	0xbceb36b7	-0.028712614
90	0xbb58d1f4	-0.0033084126
91	0xbe106bb2	-0.14103583
92	0xbc84de90	-0.016219407
93	0x3dd93025	0.10604886
94	0x3dd06a96	0.1017658
95	0x3d93f74f	0.07224905
96	0xbdfa626f	-0.12225806
97	0x3df36b39	0.118856855
98	0x3db3c0ff	0.087770455
99	0xbcf1d8f3	-0.029522395
100	0xbe1997a5	-0.14999254
101	0x3dfe7925	0.1242545
102	0xbc6fa420	-0.014626533
103	0xbde51627	-0.11185866
104	0x3dea7f0c	0.114500135
105	0xbe13acab	-0.14421336
106	0xbe1b4e03	-0.15166478
107	0x3deb3814	0.114853054
108	0x3dcc2138	0.099672735
109	0xbd14e14c	-0.036347672
110	0xbcdb2db5	-0.026755193
111	0xbd8e9cfb	-0.069635354
112	0xbe13c345	-0.14429958
113	0xbdc6e991	-0.09712518
114	0xbdc7ab57	-0.09749477
115	0x3a4c55b3	0.00077947526
116	0xbd5aa4da	-0.05337987
117	0xbc2df8f3	-0.010618436
118	0xbdb2729c	-0.08713266
119	0x3d92b217	0.07162874
120	0x3db1fa1a	0.08690281
121	0xbd1bca2f	-0.038034614
122	0x3de68a95	0.11256901
123	0x3d8786dc	0.06617519
124	0xbdf1a502	-0.11799051
125	0xbd2474e7	-0.04015055
126	0xbdd3d846	-0.10343985
127	0xbcaa6660	-0.02080077
128	0x3dda981d	0.106735446
129	0xbc364830	-0.011125609
130	0xbd578c60	-0.052624106
131	0x3c871a98	0.016492173
132	0xbd39088c	-0.045174167
133	0xbe194c5f	-0.1497054
134	0x3bc5cf26	0.006036657
135	0xbe110d52	-0.14165238
136	0x3d29d4f2	0.041462846
137	0xbd4794cf	-0.0487259
138	0x3d3ba91a	0.045815565
139	0xbdd8efe8	-0.105926335
140	0x3cf50f3e	0.029914495
141	0x3d0c2b36	0.034220897
142	0xbd9ab8c8	-0.075547755
143	0xbbabc0d2	-0.005241492
144	0x3d22acde	0.03971564
145	0xbd055c2e	-0.032558613
146	0xbd803dff	-0.06261825
147	0x3da8bb4c	0.08238849
148	0x3e0b1428	0.13581908
149	0xbdc61c11	-0.09673322
150	0x3c00dc17	0.0078649735
151	0xbd29895b	-0.041390758
152	0xbccdefce	-0.025138762
153	0x3db07c4b	0.08617457
154	0xbc631810	-0.013860717
155	0xbcece845	-0.028919348
156	0x3d2baaaf	0.041910823
157	0x3de97b66	0.114004895
158	0x3e038d4a	0.12846866
159	0x3d1e94b2	0.038716026
160	0xbdccb32e	-0.09995113
161	0xbd952fc2	-0.072845
162	0xbe0fa180	-0.14026451
163	0xbe2d8761	-0.16946174
164	0xbe3560e1	-0.17712738
165	0xbd63f12f	-0.055649932
166	0x3d0b4cba	0.03400872
167	0x3e05c378	0.13062847
168	0xbcb2da49	-0.021832602
169	0xbe2e1eca	-0.17003933
170	0xbdafdcc5	-0.0858703
171	0x3db9eff2	0.09078969
172	0x3dfb1047	0.12258964
173	0x3cff5563	0.031168645
174	0xbce584fa	-0.02801751
175	0x3dc7c074	0.097535044
176	0x3d1b1a10	0.037866652
177	0xbde78a5b	-0.11305686
178	0xbdd7b266	-0.10532074
179	0xbd3abf12	-0.045592375
180	0xbcd76e00	-0.02629757
181	0xbda7fd64	-0.08202627
182	0xbc9421f0	-0.018082589
183	0x3de7722a	0.11301072
184	0x3dd20088	0.102540076
185	0xbc6fbad6	-0.0146319475
186	0x3ddfe2af	0.10931908
187	0x3de7a504	0.11310771
188	0xbd2b61c6	-0.04184129
189	0x3e1300ec	0.1435582
190	0x3d4e84a3	0.05041946
191	0xbcdcfd7d	-0.026976341
192	0x3e3436aa	0.17598978
193	0xbca2b3cd	-0.019861126
194	0x3cdba6a9	0.026812868
195	0x3d396006	0.04525759
196	0x3bc9a029	0.006153126
197	0x3cb32f65	0.021873185
198	0xbd946620	-0.07246041
199	0x3cee7557	0.029108686
200	0x3ca39b64	0.019971557
201	0xbd054bf7	-0.03254315
202	0xbe176480	-0.14784431
203	0xbd62e8ee	-0.05539792
204	0x3e1a0b83	0.15043454
205	0x3dc65110	0.0968343
206	0x3d54e0e4	0.051972285
207	0xbd8d967c	-0.06913468
208	0x3d9378aa	0.07200749
209	0x3dd206a3	0.10255172
210	0xbdd1715e	-0.10226701
211	0xbd4c7a14	-0.04992111
212	0xbdf419ed	-0.119190075
213	0xbe282b1e	-0.16422698
214	0x3e10295a	0.14078274
215	0x3d39fa07	0.04540446
216	0xbb9c873b	-0.004776863
217	0xbc91c158	-0.017792389
218	0x3ba0f2dd	0.004911764
219	0x3e2a8995	0.16654046
220	0xbe119d95	-0.14220269
221	0x3dfd4b0e	0.12367831
222	0x3d9fc511	0.07801259
223	0xbc5440bb	-0.012954886
224	0xbd8731d6	-0.06601302
225	0xbd0a36e0	-0.03374374
226	0xbda1252a	-0.078684166
227	0x3d6d6317	0.057955828
228	0x3dfdd41a	0.12393971
229	0x3dcd80ea	0.10034354
230	0xbdee746a	-0.11643298
231	0x3dbd0ae3	0.09230592
232	0x3ce1c682	0.027560476
233	0xbcbd877e	-0.023135897
234	0xbde5d95a	-0.11223097
235	0xbdba2289	-0.09088618
236	0x3e17a970	0.14810729
237	0x3d442079	0.04788253
238	0xbdd39cf2	-0.10332669
239	0xbb5cdd7a	-0.0033701346
240	0xbd60bb69	-0.05486623
241	0xbce06963	-0.027394002
242	0x3d9079ce	0.070544824
243	0xbe037265	-0.12836607
244	0xbde60ea8	-0.11233264
245	0xbdc84d7b	-0.09780403
246	0xbdb47976	-0.08812229
247	0xbdc4b007	-0.09603887
248	0x3de0b452	0.10971893
249	0x3e204fdd	0.15655465
250	0xbdf3c0ff	-0.119020455
251	0xbd9f3f1f	-0.07775711
252	0x3dae2870	0.085038066
253	0x3da0d9a5	0.078540124
254	0xbe1b8e44	-0.15190989
255	0xbd56a2d8	-0.052401394

layer1.bias f4 [200]
0	0xba9cb174	-0.0011954741
1	0x3b80c953	0.0039302497
2	0xba640526	-0.0008698277
3	0xbc01cded	-0.007922632
4	0xbb694c39	-0.003559841
5	0xbb4f54e9	-0.0031636304
6	0x3b884b1d	0.004159345
7	0xbc189dec	-0.009314995
8	0xbca881e8	-0.020569757
9	0xbc73a075	-0.014869799
10	0xbcbdb436	-0.02315722
11	0x3bb8f7da	0.0056447806
12	0x3bff4347	0.0077900025
13	0xbc3e9dfd	-0.011634347
14	0xbc012f91	-0.007884876
15	0xbc833c99	-0.016020106
16	0xbba2e048	-0.004970584
17	0x3a230946	0.00062193384
18	0xbc790722	-0.0151994545
19	0xbc9d8f0a	-0.019233245
20	0x3cbf230f	0.023332147
21	0xbc5b2b92	-0.013377087
22	0xbbc0d42d	-0.0058846683
23	0xbca179fb	-0.019711485
24	0xbbfae9c1	-0.00765726
25	0xbc7e7bc7	-0.0155324405
26	0xbb6fa305	-0.0036565673
27	0x3c39f969	0.011350968
28	0x3b215f4e	0.0024623456
29	0xbc9cc8df	-0.019138752
30	0xbcb0f9cb	-0.021603486
31	0xbc23b8d5	-0.009992798
32	0x3b96885e	0.004593893
33	0xbad3ed5b	-0.001616876
34	0x3cc0430b	0.023469469
35	0xbce1dc11	-0.027570756
36	0xbcb2c2e2	-0.021821443
37	0xbd336578	-0.04379794
38	0x3c141452	0.009038048
39	0x3cf371a1	0.029717268
40	0xbcd00f71	-0.025397988
41	0xbbe127e0	-0.0068712085
42	0xbb5d6cef	-0.0033786853
43	0xbc0bddee	-0.008536799
44	0xbc6d346b	-0.014477829
45	0xbb17dc93	-0.0023172244
46	0xbbfbf26e	-0.007688812
47	0xbaa1bde5	-0.0012339918
48	0x3cdf7daa	0.027281601
49	0xbbe1e94a	-0.0068942653
50	0x3d06d4cf	0.032917794
51	0xbcabc243	-0.020966655
52	0xbc670618	-0.014100574
53	0xbc4fa69e	-0.012674002
54	0x3b66db20	0.0035225824
55	0xbc9f3124	-0.019432612
56	0xbc6ab66e	-0.014325721
57	0xbc791a5c	-0.0152040385
58	0xbc48d8d2	-0.012258725
59	0xbca9cecb	-0.02072849
60	0xbc48687b	-0.012231941
61	0xbc36649f	-0.011132388
62	0x3c6a5478	0.0143023655
63	0xbbf2526f	-0.0073950808
64	0xbc9a8e20	-0.018866599
65	0xbd1a3110	-0.037644446
66	0x3b928144	0.004470976
67	0xbbdcb791	-0.00673575
68	0x3c546a24	0.012964759
69	0xbcb35fb1	-0.021896215
70	0x3c032007	0.008003241
71	0x39b97105	0.00035370156
72	0xbce0a455	-0.02742211
73	0x3b571702	0.003282011
74	0x3cbf889f	0.023380576
75	0x3c969cb1	0.018385263
76	0x3bfad7c8	0.0076551177
77	0x3a8c4963	0.0010703023
78	0x3cbcee94	0.023062982
79	0xbcb062df	-0.02153152
80	0x3c4a433a	0.01234513
81	0xbcd2c6e9	-0.025729613
82	0x3b34c4d5	0.0027583141
83	0x3c90fc97	0.01769857
84	0x3cddb4f5	0.027063826
85	0xbc7d234e	-0.015450312
86	0xbc81a0ea	-0.0158238
87	0xbcc53784	-0.024074323
88	0xbcb9e1c8	-0.022690669
89	0x3be92172	0.0071145827
90	0x3b3199b3	0.0027099669
91	0x3a31ba60	0.0006779786
92	0xbc0eb168	-0.008709289
93	0xbc420b80	-0.011843562
94	0x3c83613c	0.016037576
95	0xbcc3078a	-0.023807306
96	0xbc4c924a	-0.01248605
97	0xbc44947d	-0.011998293
98	0xbc8aeffd	-0.016960138
99	0xb774ae53	-1.4584121e-05
100	0xbc7b88d7	-0.015352449
101	0x3c457941	0.012052835
102	0xbc891592	-0.016733918
103	0x3c878538	0.016543016
104	0x3c5d129c	0.013493206
105	0xbcb0b14e	-0.02156892
106	0xbb72b150	-0.0037031956
107	0xbcd8e63e	-0.026476976
108	0x3c419a90	0.011816636
109	0xbbaf16c1	-0.0053432886
110	0x3d14cc37	0.036327567
111	0x3cab5e21	0.020918908
112	0xbd02a8ec	-0.031899378
113	0xbb3e05e4	-0.002899521
114	0x3c9a1b5f	0.01881188
115	0x3c770abc	0.015078243
116	0x3b447f5b	0.0029983136
117	0xbc3ac169	-0.011398652
118	0x3ca258ce	0.019817736
119	0x3c8577ce	0.016292479
120	0x3cc59125	0.024117062
121	0x3c2c861f	0.010530024
122	0xbadd43dd	-0.0016881187
123	0xbc4d4554	-0.012528736
124	0x3be54b92	0.006997534
125	0x3c6ba630	0.014382884
126	0x3c8ccabf	0.01718652
127	0xbc80e35f	-0.015733419
128	0x3c5feedf	0.013667791
129	0x3bdeb0d8	0.0067959838
130	0x3c15dd9d	0.009147075
131	0x3ced0353	0.02893225
132	0xbc11d33b	-0.008900459
133	0x3c902a9f	0.017598448
134	0xbc504dd6	-0.01271387
135	0x3b5bcdf6	0.003353951
136	0x388fef06	6.863293e-05
137	0xbca01a32	-0.01954374
138	0xbc6cbac7	-0.014448828
139	0x3bfc9aef	0.007708899
140	0xbb1b1be3	-0.0023667745
141	0x3c1b05eb	0.00946186
142	0x3b9a2106	0.0047036437
143	0x3bb1cf57	0.005426328
144	0xbcab7bd9	-0.020933079
145	0x00000000	0.0
146	0xbcd09d2f	-0.025465576
147	0xbca7b420	-0.020471632
148	0xbca67ddb	-0.020323684
149	0x3c98c24e	0.01864734
150	0xbc9ac07c	-0.018890612
151	0x3c30ba91	0.010786668
152	0x3c9c3a32	0.019070718
153	0x3c104fee	0.008808119
154	0xbc9c4593	-0.019076144
155	0x3ccfb1a9	0.02535327
156	0x3c4d6cf7	0.012538186
157	0xbbad3f8d	-0.005287117
158	0x3c172469	0.009224989
159	0xbc6711d2	-0.01410337
160	0xbc61bde9	-0.013778188
161	0x00000000	0.0
162	0x3cc3e84d	0.02391448
163	0xbcbc915c	-0.023018532
164	0x3ca237ed	0.019802058
165	0xbc884ff6	-0.01663969
166	0xbcc39220	-0.023873389
167	0x3c92cac2	0.017918948
168	0x3ca2347a	0.019800413
169	0xbca4df05	-0.020125875
170	0xbc017471	-0.007901297
171	0x3c2bd449	0.010487624
172	0x3d117ff1	0.035522405
173	0x3c897e17	0.016783757
174	0xbd167fe3	-0.036743056
175	0x3b2aa26d	0.0026036755
176	0x3cb3c013	0.021942174
177	0xbcc5315c	-0.024071388
178	0xbcb8a02e	-0.022537317
179	0x3c4f0ef7	0.012637845
180	0x3be91a59	0.0071137366
181	0xbb352bb3	-0.0027644455
182	0xbc41aa4a	-0.011820385
183	0x3d07fc1a	0.033199407
184	0xbccafa74	-0.024777628
185	0x3ca40964	0.020024009
186	0x3c7f1118	0.01556804
187	0xbc3f424a	-0.011673519
188	0xbab5d28f	-0.0013871955
189	0xbb4573f3	-0.0030128926
190	0xbc45b8c4	-0.012067977
191	0x3c8a71f9	0.01690005
192	0xbc2a3381	-0.010388256
193	0x3c0dc18a	0.0086521
194	0x3b7324d4	0.0037100809
195	0xbc95d64d	-0.018290663
196	0x3c7fcf64	0.015613411
197	0x3cc21a21	0.0236941
198	0xbc851c18	-0.016248748
199	0x393d966b	0.0001808048
