llirl_sumo/saves/120p4k/learners_state.pth (torch, 394482 bytes, 15 tensors)

exp_avg f4 [4]
0.0005507866 -0.0003053424 -0.00021938854 0.0002243183
00000000: aa62 103a 5d16 a0b9 aa0b 66b9 fc36 6b39

exp_avg_sq f4 [4]
8.293737e-06 9.6271415e-06 5.747947e-06 7.831629e-06
00000000: 5425 0b37 4284 2137 7dde c036 9764 0337

exp_avg f4 [200, 36]
-8.337394e-06 -2.4607656e-05 -2.094296e-06 -8.337394e-06 -2.4607656e-05 -2.094296e-06 -6.669891e-06 -2.2733113e-05
9.057631e-08 -6.669891e-06 -2.2733113e-05 9.057631e-08 -6.669891e-06 -2.2733113e-05 9.057631e-08 -5.2165046e-07
3.5376715e-06 1.4244333e-06 -5.2165046e-07 3.5376715e-06 1.4244333e-06 -2.893536e-06 9.93774e-07 1.6349375e-06
-2.893536e-06 9.93774e-07 1.6349375e-06 -2.893536e-06 9.93774e-07 1.6349375e-06 1.4731754e-06 -6.830207e-07
6.085643e-06 1.4731754e-06 -6.830207e-07 6.085643e-06 -7.633315e-07 -8.855998e-08 5.0334404e-07 -7.633315e-07
-8.855998e-08 5.0334404e-07 -1.179438e-06 -2.378097e-07 -1.5721076e-06 -1.179438e-06 -2.378097e-07 -1.5721076e-06
-1.179438e-06 -2.378097e-07 -1.5721076e-06 -1.5689228e-06 -6.225632e-07 -2.7581345e-06 -1.5689228e-06 -6.225632e-07
-2.7581345e-06 -3.4087595e-06 -2.4445183e-06 -5.621264e-06 -3.4087595e-06 -2.4445183e-06 -5.621264e-06 -3.4087595e-06
-2.4445183e-06 -5.621264e-06 -3.6874471e-06 -8.7531185e-07 -3.1179568e-06 -3.6874471e-06 -8.7531185e-07 -3.1179568e-06
3.8416334e-07 1.8521702e-07 1.1313575e-06 3.8416334e-07 1.8521702e-07 1.1313575e-06 7.989176e-07 2.4929375e-07
1.7760995e-07 7.989176e-07 2.4929375e-07 1.7760995e-07 7.989176e-07 2.4929375e-07 1.7760995e-07 3.7119835e-06
7.771422e-06 4.022198e-06 3.7119835e-06 7.771422e-06 4.022198e-06 3.39322e-06 8.432809e-06 3.1640427e-06
3.39322e-06 8.432809e-06 3.1640427e-06 3.39322e-06 8.432809e-06 3.1640427e-06 -8.898314e-07 -1.6688537e-07
-5.921387e-07 -8.898314e-07 -1.6688537e-07 -5.921387e-07 9.441679e-06 2.6911578e-06 8.635494e-06 9.441679e-06
2.6911578e-06 8.635494e-06 5.582267e-06 6.1588474e-07 7.4189716e-06 5.582267e-06 6.1588474e-07 7.4189716e-06
5.582267e-06 6.1588474e-07 7.4189716e-06 -7.911326e-07 -4.9658496e-08 -1.5651578e-06 -7.911326e-07 -4.9658496e-08
-1.5651578e-06 -4.410396e-07 -7.562877e-08 -5.25871e-07 -4.410396e-07 -7.562877e-08 -5.25871e-07 -4.410396e-07
-7.562877e-08 -5.25871e-07 -9.069352e-07 -4.982333e-07 -1.8692734e-06 -9.069352e-07 -4.982333e-07 -1.8692734e-06
2.8733302e-05 2.6652971e-05 2.8832641e-05 2.8733302e-05 2.6652971e-05 2.8832641e-05 2.4161369e-05 1.7822547e-05
3.079367e-05 2.4161369e-05 1.7822547e-05 3.079367e-05 2.4161369e-05 1.7822547e-05 3.079367e-05 1.7576028e-06
3.0038993e-07 9.757994e-07 1.7576028e-06 3.0038993e-07 9.757994e-07 4.230411e-06 6.2616584e-07 2.3924695e-06
4.230411e-06 6.2616584e-07 2.3924695e-06 4.230411e-06 6.2616584e-07 2.3924695e-06 2.5643615e-07 4.3036408e-07
-5.8033432e-08 2.5643615e-07 4.3036408e-07 -5.8033432e-08 -2.5558962e-05 -1.91739e-05 -2.7425021e-05 -2.5558962e-05
-1.91739e-05 -2.7425021e-05 -3.105274e-05 -2.0574325e-05 -3.490699e-05 -3.105274e-05 -2.0574325e-05 -3.490699e-05
-3.105274e-05 -2.0574325e-05 -3.490699e-05 2.6349219e-06 9.8683195e-06 1.6919887e-06 2.6349219e-06 9.8683195e-06
1.6919887e-06 -3.6739178e-07 9.609651e-06 -2.9585692e-06 -3.6739178e-07 9.609651e-06 -2.9585692e-06 -3.6739178e-07
9.609651e-06 -2.9585692e-06 -5.3008347e-07 -1.7474972e-07 -2.4366145e-06 -5.3008347e-07 -1.7474972e-07 -2.4366145e-06
-1.9583671e-05 -7.438669e-06 -1.996663e-05 -1.9583671e-05 -7.438669e-06 -1.996663e-05 -1.8867837e-05 -3.6997692e-06
-2.0942367e-05 -1.8867837e-05 -3.6997692e-06 -2.0942367e-05 -1.8867837e-05 -3.6997692e-06 -2.0942367e-05 -9.901266e-07
-1.2840161e-07 -2.0894352e-06 -9.901266e-07 -1.2840161e-07 -2.0894352e-06 -2.4685446e-06 -5.5243686e-07 -4.3046334e-06
-2.4685446e-06 -5.5243686e-07 -4.3046334e-06 -2.4685446e-06 -5.5243686e-07 -4.3046334e-06 -2.1222934e-06 -5.478235e-07
-2.3793643e-06 -2.1222934e-06 -5.478235e-07 -2.3793643e-06 1.5807724e-07 1.2254005e-08 2.4661142e-07 1.5807724e-07
00000000: d6e0 0bb7 8a6c ceb7 bb8b 0cb6 d6e0 0bb7
00000010: 8a6c ceb7 bb8b 0cb6 edcd dfb6 fdb2 beb7
00000020: da82 c233 edcd dfb6 fdb2 beb7 da82 c233
00000030: edcd dfb6 fdb2 beb7 da82 c233 8c07 0cb5
00000040: bc68 6d36 282f bf35 8c07 0cb5 bc68 6d36
00000050: 282f bf35 922e 42b6 d161 8535 0670 db35
00000060: 922e 42b6 d161 8535 0670 db35 922e 42b6
00000070: d161 8535 0670 db35 ecb9 c535 d358 37b5
00000080: 4633 cc36 ecb9 c535 d358 37b5 4633 cc36
00000090: bee7 4cb5 5d2e beb3 8a1d 0735 bee7 4cb5
000000a0: 5d2e beb3 8a1d 0735 2e4d 9eb5 a258 7fb4
000000b0: 3501 d3b5 2e4d 9eb5 a258 7fb4 3501 d3b5
000000c0: 2e4d 9eb5 a258 7fb4 3501 d3b5 c793 d2b5
000000d0: 381e 27b5 6418 39b6 c793 d2b5 381e 27b5
000000e0: 6418 39b6 0bc2 64b6 810c 24b6 4a9e bcb6
000000f0: 0bc2 64b6 810c 24b6 4a9e bcb6 0bc2 64b6
00000100: 810c 24b6 4a9e bcb6 dc75 77b6 f9f6 6ab5
00000110: 173e 51b6 dc75 77b6 f9f6 6ab5 173e 51b6
00000120: 023f ce34 11e0 4634 26d9 9735 023f ce34
00000130: 11e0 4634 26d9 9735 3375 5635 acd6 8534
00000140: 0db5 3e34 3375 5635 acd6 8534 0db5 3e34
00000150: 3375 5635 acd6 8534 0db5 3e34 641b 7936
00000160: 0162 0237 6bf6 8636 641b 7936 0162 0237
00000170: 6bf6 8636 13b7 6336 a47a 0d37 d755 5436
00000180: 13b7 6336 a47a 0d37 d755 5436 13b7 6336
00000190: a47a 0d37 d755 5436 c0dc 6eb5 1a31 33b4
000001a0: 76f3 1eb5 c0dc 6eb5 1a31 33b4 76f3 1eb5
000001b0: b467 1e37 bd99 3436 2ae1 1037 b467 1e37
000001c0: bd99 3436 2ae1 1037 4f4f bb36 4753 2535
000001d0: 7bf0 f836 4f4f bb36 4753 2535 7bf0 f836
000001e0: 4f4f bb36 4753 2535 7bf0 f836 385e 54b5
000001f0: 1848 55b3 6a12 d2b5 385e 54b5 1848 55b3
00000200: 6a12 d2b5 05c8 ecb4 5b69 a2b3 9429 0db5
00000210: 05c8 ecb4 5b69 a2b3 9429 0db5 05c8 ecb4
00000220: 5b69 a2b3 9429 0db5 1d74 73b5 55be 05b5
00000230: bfe3 fab5 1d74 73b5 55be 05b5 bfe3 fab5
00000240: 4c08 f137 d294 df37 a0dd f137 4c08 f137
00000250: d294 df37 a0dd f137 25ae ca37 a181 9537
00000260: 7428 0138 25ae ca37 a181 9537 7428 0138
00000270: 25ae ca37 a181 9537 7428 0138 c6e6 eb35
00000280: 4745 a134 36f8 8235 c6e6 eb35 4745 a134
00000290: 36f8 8235 f4f2 8d36 ca15 2835 508e 2036
000002a0: f4f2 8d36 ca15 2835 508e 2036 f4f2 8d36
000002b0: ca15 2835 508e 2036 51ac 8934 ca0c e734
000002c0: 6f40 79b3 51ac 8934 ca0c e734 6f40 79b3
000002d0: 7467 d6b7 a3d7 a0b7 c90e e6b7 7467 d6b7
000002e0: a3d7 a0b7 c90e e6b7 a03e 02b8 0797 acb7
000002f0: 1869 12b8 a03e 02b8 0797 acb7 1869 12b8
00000300: a03e 02b8 0797 acb7 1869 12b8 9dd3 3036
00000310: 1c90 2537 4a18 e335 9dd3 3036 1c90 2537
00000320: 4a18 e335 f13d c5b4 2339 2137 d58b 46b6
00000330: f13d c5b4 2339 2137 d58b 46b6 f13d c5b4
00000340: 2339 2137 d58b 46b6 0f4b 0eb5 d6a2 3bb4
00000350: b884 23b6 0f4b 0eb5 d6a2 3bb4 b884 23b6
00000360: 9d47 a4b7 ae99 f9b6 037e a7b7 9d47 a4b7
00000370: ae99 f9b6 037e a7b7 5f46 9eb7 8d49 78b6
00000380: 64ad afb7 5f46 9eb7 8d49 78b6 64ad afb7
00000390: 5f46 9eb7 8d49 78b6 64ad afb7 7ee4 84b5
000003a0: c4de 09b4 3938 0cb6 7ee4 84b5 c4de 09b4
000003b0: 3938 0cb6 46a9 25b6 2c4b 14b5 8570 90b6
000003c0: 46a9 25b6 2c4b 14b5 8570 90b6 46a9 25b6
000003d0: 2c4b 14b5 8570 90b6 b96c 0eb6 250e 13b5
000003e0: 2bad 1fb6 b96c 0eb6 250e 13b5 2bad 1fb6
000003f0: f1bb 2934 af85 5232 0466 8434 f1bb 2934

exp_avg_sq f4 [200, 36]
2.7391843e-08 2.0435674e-08 3.054807e-08 2.7391843e-08 2.0435674e-08 3.054807e-08 3.5202348e-08 2.4627662e-08
4.1432276e-08 3.5202348e-08 2.4627662e-08 4.1432276e-08 3.5202348e-08 2.4627662e-08 4.1432276e-08 5.1327684e-09
5.959339e-09 6.1096563e-09 5.1327684e-09 5.959339e-09 6.1096563e-09 8.851636e-09 8.434094e-09 1.1394023e-08
8.851636e-09 8.434094e-09 1.1394023e-08 8.851636e-09 8.434094e-09 1.1394023e-08 9.045618e-10 5.771852e-11
1.8806638e-09 9.045618e-10 5.771852e-11 1.8806638e-09 3.230629e-11 2.103941e-12 1.0483906e-10 3.230629e-11
2.103941e-12 1.0483906e-10 5.2470164e-11 4.033228e-12 1.4808778e-10 5.2470164e-11 4.033228e-12 1.4808778e-10
5.2470164e-11 4.033228e-12 1.4808778e-10 3.8864663e-09 4.1031125e-09 4.264226e-09 3.8864663e-09 4.1031125e-09
4.264226e-09 5.1819984e-09 5.498492e-09 5.7045333e-09 5.1819984e-09 5.498492e-09 5.7045333e-09 5.1819984e-09
5.498492e-09 5.7045333e-09 2.5598415e-10 2.3103066e-11 3.6210968e-10 2.5598415e-10 2.3103066e-11 3.6210968e-10
6.129278e-11 2.1969147e-12 1.6366832e-10 6.129278e-11 2.1969147e-12 1.6366832e-10 1.2852955e-10 5.0530977e-12
3.540326e-10 1.2852955e-10 5.0530977e-12 3.540326e-10 1.2852955e-10 5.0530977e-12 3.540326e-10 9.278132e-09
2.522711e-08 9.978561e-09 9.278132e-09 2.522711e-08 9.978561e-09 1.2929903e-08 2.8002853e-08 1.3538533e-08
1.2929903e-08 2.8002853e-08 1.3538533e-08 1.2929903e-08 2.8002853e-08 1.3538533e-08 1.951256e-10 1.039229e-11
3.4587003e-10 1.951256e-10 1.039229e-11 3.4587003e-10 3.4100172e-09 2.803862e-10 4.101683e-09 3.4100172e-09
2.803862e-10 4.101683e-09 4.7544964e-09 3.25091e-10 7.044056e-09 4.7544964e-09 3.25091e-10 7.044056e-09
4.7544964e-09 3.25091e-10 7.044056e-09 3.817158e-12 1.2310628e-13 3.6712338e-11 3.817158e-12 1.2310628e-13
3.6712338e-11 3.97441e-12 1.2983425e-13 1.0782402e-10 3.97441e-12 1.2983425e-13 1.0782402e-10 3.97441e-12
1.2983425e-13 1.0782402e-10 1.0923842e-10 6.466145e-12 2.8298727e-10 1.0923842e-10 6.466145e-12 2.8298727e-10
1.4240014e-08 1.610541e-08 1.5170292e-08 1.4240014e-08 1.610541e-08 1.5170292e-08 1.6618216e-08 1.7207782e-08
1.9690338e-08 1.6618216e-08 1.7207782e-08 1.9690338e-08 1.6618216e-08 1.7207782e-08 1.9690338e-08 1.6774096e-10
8.190601e-12 2.6627106e-10 1.6774096e-10 8.190601e-12 2.6627106e-10 7.193996e-10 8.6472884e-11 1.6248392e-09
7.193996e-10 8.6472884e-11 1.6248392e-09 7.193996e-10 8.6472884e-11 1.6248392e-09 2.3546612e-10 1.7241517e-11
3.862078e-10 2.3546612e-10 1.7241517e-11 3.862078e-10 7.743323e-09 8.4970475e-09 9.250324e-09 7.743323e-09
8.4970475e-09 9.250324e-09 1.1080958e-08 1.0982714e-08 1.4073601e-08 1.1080958e-08 1.0982714e-08 1.4073601e-08
1.1080958e-08 1.0982714e-08 1.4073601e-08 9.78093e-09 2.821496e-08 1.07072875e-08 9.78093e-09 2.821496e-08
1.07072875e-08 1.3743464e-08 3.014163e-08 1.4660801e-08 1.3743464e-08 3.014163e-08 1.4660801e-08 1.3743464e-08
3.014163e-08 1.4660801e-08 1.2897239e-10 8.416297e-12 2.4061547e-10 1.2897239e-10 8.416297e-12 2.4061547e-10
4.9735736e-09 1.2163175e-09 5.9190066e-09 4.9735736e-09 1.2163175e-09 5.9190066e-09 6.9982757e-09 1.0637372e-09
8.503303e-09 6.9982757e-09 1.0637372e-09 8.503303e-09 6.9982757e-09 1.0637372e-09 8.503303e-09 1.7522137e-11
9.271425e-13 6.721076e-11 1.7522137e-11 9.271425e-13 6.721076e-11 3.014062e-11 1.8123881e-12 2.3747518e-10
3.014062e-11 1.8123881e-12 2.3747518e-10 3.014062e-11 1.8123881e-12 2.3747518e-10 1.9271128e-10 1.3065056e-11
3.353921e-10 1.9271128e-10 1.3065056e-11 3.353921e-10 1.3133624e-12 5.2786897e-14 1.8212183e-12 1.3133624e-12
00000000: 4d4b eb32 868a af32 f533 0333 4d4b eb32
00000010: 868a af32 f533 0333 6431 1733 cd8c d332
00000020: 45f3 3133 6431 1733 cd8c d332 45f3 3133
00000030: 6431 1733 cd8c d332 45f3 3133 4f5c b031
00000040: e6c2 cc31 1bed d131 4f5c b031 e6c2 cc31
00000050: 1bed d131 e811 1832 8ae5 1032 71bf 4332
00000060: e811 1832 8ae5 1032 71bf 4332 e811 1832
00000070: 8ae5 1032 71bf 4332 e1a4 7830 47d9 7d2e
00000080: fd3c 0131 e1a4 7830 47d9 7d2e fd3c 0131
00000090: a615 0e2e 3b0d 142c 258b e62e a615 0e2e
000000a0: 3b0d 142c 258b e62e 27c4 662e 17e8 8d2c
000000b0: 01d3 222f 27c4 662e 17e8 8d2c 01d3 222f
000000c0: 27c4 662e 17e8 8d2c 01d3 222f b889 8531
000000d0: 5cfb 8c31 8784 9231 b889 8531 5cfb 8c31
000000e0: 8784 9231 570d b231 3fed bc31 9b01 c431
000000f0: 570d b231 3fed bc31 9b01 c431 570d b231
00000100: 3fed bc31 9b01 c431 91ba 8c2f 7b37 cb2d
00000110: 6812 c72f 91ba 8c2f 7b37 cb2d 6812 c72f
00000120: c5c8 862e 1998 1a2c 89f4 332f c5c8 862e
00000130: 1998 1a2c 89f4 332f da51 0d2f 42ca b12c
00000140: a9a1 c22f da51 0d2f 42ca b12c a9a1 c22f
00000150: da51 0d2f 42ca b12c a9a1 c22f a865 1f32
00000160: 00b3 d832 2d6e 2b32 a865 1f32 00b3 d832
00000170: 2d6e 2b32 5122 5e32 ed8a f032 1997 6832
00000180: 5122 5e32 ed8a f032 1997 6832 5122 5e32
00000190: ed8a f032 1997 6832 f98a 562f b7d2 362d
000001a0: e124 be2f f98a 562f b7d2 362d e124 be2f
000001b0: a855 6a31 d924 9a2f c9ee 8c31 a855 6a31
000001c0: d924 9a2f c9ee 8c31 fe5c a331 7eb8 b22f
000001d0: 2c08 f231 fe5c a331 7eb8 b22f 2c08 f231
000001e0: fe5c a331 7eb8 b22f 2c08 f231 e74d 862c
000001f0: f89a 0a2a 6b76 212e e74d 862c f89a 0a2a
00000200: 6b76 212e 4ed6 8b2c 2d2e 122a 871b ed2e
00000210: 4ed6 8b2c 2d2e 122a 871b ed2e 4ed6 8b2c
00000220: 2d2e 122a 871b ed2e c337 f02e db81 e32c
00000230: eb92 9b2f c337 f02e db81 e32c eb92 9b2f
00000240: 3ea4 7432 2c58 8a32 d34f 8232 3ea4 7432
00000250: 2c58 8a32 d34f 8232 d8bf 8e32 50d0 9332
00000260: 8323 a932 d8bf 8e32 50d0 9332 8323 a932
00000270: d8bf 8e32 50d0 9332 8323 a932 e26e 382f
00000280: 3017 102d 5262 922f e26e 382f 3017 102d
00000290: 5262 922f 3fbf 4530 e827 be2e f250 df30
000002a0: 3fbf 4530 e827 be2e f250 df30 3fbf 4530
000002b0: e827 be2e f250 df30 e972 812f 72a8 972d
000002c0: ea51 d42f e972 812f 72a8 972d ea51 d42f
000002d0: 7f07 0532 69fa 1132 5beb 1e32 7f07 0532
000002e0: 69fa 1132 5beb 1e32 925e 3e32 7dae 3c32
000002f0: 5ac8 7132 925e 3e32 7dae 3c32 5ac8 7132
00000300: 925e 3e32 7dae 3c32 5ac8 7132 fc08 2832
00000310: 5a5d f232 26f3 3732 fc08 2832 5a5d f232
00000320: 26f3 3732 651c 6c32 1375 0133 e2de 7b32
00000330: 651c 6c32 1375 0133 e2de 7b32 651c 6c32
00000340: 1375 0133 e2de 7b32 80ce 0d2f a20f 142d
00000350: 9e47 842f 80ce 0d2f a20f 142d 9e47 842f
00000360: 04e4 aa31 5e2b a730 2260 cb31 04e4 aa31
00000370: 5e2b a730 2260 cb31 7c75 f031 ed32 9230
00000380: ec15 1232 7c75 f031 ed32 9230 ec15 1232
00000390: 7c75 f031 ed32 9230 ec15 1232 5820 9a2d
000003a0: d47b 822b 4bcc 932e 5820 9a2d d47b 822b
000003b0: 4bcc 932e 528f 042e 2a12 ff2b a98d 822f
000003c0: 528f 042e 2a12 ff2b a98d 822f 528f 042e
000003d0: 2a12 ff2b a98d 822f 67e3 532f c8d7 652d
000003e0: 3e62 b82f 67e3 532f c8d7 652d 3e62 b82f
000003f0: ded6 b82b 26bb 6d29 2728 002c ded6 b82b

exp_avg f4 [200]
-2.4160372e-06 -2.8462316e-06 1.7322915e-05 1.4780483e-05 3.3536806e-05 -1.6618511e-05 -1.6680475e-05 2.9938951e-06
4.346724e-06 3.7019174e-05 2.9074796e-05 -1.1008357e-05 6.9167922e-06 1.5580752e-05 3.1140284e-05 4.3905733e-05
9.630596e-06 -2.5420079e-05 2.5297575e-05 2.4700448e-06 -3.9268973e-05 1.41189785e-05 2.1371538e-05 4.7575136e-06
-1.2553538e-05 3.5955568e-07 1.8139235e-05 1.2995574e-05 -3.892558e-05 1.3569633e-05 5.9171825e-06 1.8960812e-06
7.3314773e-06 -1.2516502e-05 1.4838339e-06 2.0693062e-06 1.9348656e-06 3.714229e-05 6.308511e-06 -2.945114e-05
3.340495e-06 1.3426995e-05 -1.4885722e-05 3.756318e-06 -3.5499243e-06 3.106563e-06 -2.5920292e-06 4.4091087e-07
-1.303417e-05 -1.2162579e-06 -1.8412024e-05 7.0074325e-06 2.2098856e-08 1.0973312e-05 1.5271104e-06 1.7594399e-05
9.8318e-07 3.7977773e-07 7.4572786e-06 4.1633098e-06 4.9720493e-05 2.5615864e-05 -5.1246872e-05 5.7269544e-06
1.7018506e-06 3.57733e-05 -8.009023e-06 1.7379112e-06 1.451816e-05 9.1365555e-06 -5.5478067e-05 -1.0487274e-05
1.5826517e-05 1.9390644e-05 -6.2676963e-06 -4.571918e-05 -5.410058e-06 -3.2386006e-06 -1.9451718e-05 1.1697465e-06
-4.155366e-05 1.28344445e-05 -2.3703948e-05 -8.9933355e-06 -3.188504e-05 2.2298855e-06 1.6665705e-05 2.6311554e-06
7.088912e-06 -1.6616734e-05 5.1533225e-06 -1.3295466e-05 1.3015724e-05 1.228295e-05 -1.9882373e-05 4.20503e-06
5.1162064e-05 4.3779796e-06 -7.902716e-06 1.9293782e-05 1.8672345e-06 -8.038855e-06 3.098074e-05 -8.433694e-05
-3.3833478e-06 2.5719795e-05 -6.33127e-07 5.7720335e-06 -4.5578577e-06 6.59387e-06 -3.5898956e-05 -6.607215e-05
1.3608407e-05 -5.440561e-05 3.7339664e-06 -5.0751914e-05 -1.7346461e-05 1.3563425e-07 -5.3071693e-05 9.145004e-06
-2.0802501e-05 2.5658477e-05 3.524404e-06 -4.1249573e-06 -8.10555e-06 -2.5860183e-05 -4.8561003e-05 8.2575247e-07
-1.6654078e-05 2.4650071e-06 -5.328931e-05 -4.557955e-05 -3.3482098e-05 -6.340924e-05 2.5754182e-06 2.1066853e-05
3.7268474e-05 4.0205073e-08 5.155753e-06 -1.4376337e-05 5.5100914e-05 -3.347058e-05 -2.6830674e-05 3.943349e-06
1.3715736e-05 0.0 5.2988514e-07 1.3080709e-05 4.9974196e-06 -3.2697666e-05 1.7858772e-06 -2.2411318e-07
-4.7913778e-05 -4.211659e-07 4.7738386e-06 -9.578439e-05 6.736306e-06 -4.715833e-05 -5.6456015e-06 4.0978907e-06
9.449069e-06 0.0 -1.2673837e-05 9.648838e-06 -4.5579316e-05 1.0591344e-05 3.0257508e-05 -7.712359e-05
-2.1972353e-05 2.3003164e-05 8.324822e-06 -6.769376e-07 -0.00012127498 -2.1371994e-05 5.4810134e-06 -5.6075964e-06
-2.7671831e-05 1.4941747e-05 7.739234e-06 8.912346e-06 -3.76653e-05 2.8117338e-06 2.7650221e-05 -8.5826934e-05
2.0590325e-05 -2.4535617e-05 -6.0924787e-05 5.850922e-06 3.936977e-06 8.588611e-06 4.8309944e-06 -1.9207435e-05
3.1792246e-05 8.5278776e-07 -6.113158e-07 6.943094e-09 -2.240012e-06 -2.9719089e-05 1.9534707e-05 2.374686e-05
00000000: 3423 22b6 e301 3fb6 ad50 9137 b1f9 7737
00000010: dfa9 0c38 fb67 8bb7 0ced 8bb7 baea 4836
00000020: 13da 9136 0945 1b38 a6e5 f337 89b0 38b7
00000030: cb16 e836 69b3 8237 a09c 0238 6c27 3838
00000040: 1893 2137 343d d5b7 2136 d437 0cc3 2536
00000050: bdb4 24b8 8de0 6c37 0747 b337 bba2 9f36
00000060: 099d 52b7 f508 c134 b629 9837 9107 5a37
00000070: 0644 23b8 21a9 6337 368c c636 db7c fe35
00000080: e900 f636 f7fd 51b7 2528 c735 69de 0a36
00000090: bdd8 0136 3bc9 1b38 b2ad d336 d70d f7b7
000000a0: 442d 6036 8144 6137 b0bd 79b7 0d15 7c36
000000b0: 3c3b 6eb6 597a 5036 b9f2 2db6 54b6 ec34
000000c0: 55ad 5ab7 4e3e a3b5 8573 9ab7 6321 eb36
000000d0: e6d3 bd32 041a 3837 1df7 cc35 af97 9337
000000e0: cff5 8335 41e4 cb34 8939 fa36 8fb2 8b36
000000f0: f98a 5038 a6e1 d637 e9f1 56b8 2a2a c036
00000100: 246b e435 4a0b 1638 7e5e 06b7 2d42 e935
00000110: 0693 7337 3549 1937 1fb1 68b8 80f2 2fb7
00000120: 30c3 8437 17a9 a237 1a4f d2b6 99c2 3fb8
00000130: 0b88 b5b6 bc56 59b6 3f2c a3b7 2f00 9d35
00000140: e749 2eb8 8553 5737 d7d7 c6b7 15e2 16b7
00000150: 4dbc 05b8 24a5 1536 54cd 8b37 e892 3036
00000160: 4add ed36 2a64 8bb7 b4ea ac36 970f 5fb7
00000170: 1c5e 5a37 de12 4e37 12c9 a6b7 ef18 8d36
00000180: d996 5638 8fe6 9236 e895 04b7 15d9 a137
00000190: b09d fa35 9fde 06b7 51f1 0138 0dde b0b8
000001a0: 790d 63b6 d7c0 d737 28f4 29b5 64ad c136
000001b0: b3ef 98b6 e940 dd36 3692 16b8 3790 8ab8
000001c0: aa4f 6437 9431 64b8 0e95 7a36 74de 54b8
000001d0: 3e83 91b7 dca2 1134 4c99 5eb8 7e6d 1937
000001e0: 0881 aeb7 293d d737 cd84 6c36 1d69 8ab6
000001f0: 12fd 07b7 52ee d8b7 fbad 4bb8 47a9 5d35
00000200: 5cb4 8bb7 806c 2536 f682 5fb8 ab2c 3fb8
00000210: 216f 0cb8 94fa 84b8 59d5 2c36 b9b8 b037
00000220: b850 1c38 f2ad 2c33 95ff ac36 e631 71b7
00000230: 281c 6738 c362 0cb8 6f12 e1b7 1c51 8436
00000240: a31c 6637 0000 0000 6e3d 0e35 3875 5b37
00000250: 82af a736 da24 09b8 46b2 ef35 c3a3 70b4
00000260: 07f7 48b8 9a1c e2b4 f62e a036 dadf c8b8
00000270: 6e08 e236 dfcb 45b8 596f bdb6 9d80 8936
00000280: 7187 1e37 0000 0000 b7a1 54b7 72e1 2137
00000290: 6b2c 3fb8 7ab1 3137 81d1 fd37 69bd a1b8
000002a0: 4551 b8b7 ebf6 c037 d7aa 0b37 ccb6 35b5
000002b0: 0255 feb8 0248 b3b7 8ce9 b736 e328 bcb6
000002c0: ce20 e8b7 51ae 7a37 c2d7 0137 3c86 1537
000002d0: cffa 1db8 38b1 3c36 66f2 e737 fcfd b3b8
000002e0: 63b9 ac37 d6d1 cdb7 7e89 7fb8 0a53 c436
000002f0: 601a 8436 ce17 1037 ed19 a236 a71f a1b7
00000300: aa58 0538 21eb 6435 4d19 24b5 1a90 ee31
00000310: 1d53 16b6 424d f9b7 77de a337 fe33 c737

exp_avg_sq f4 [200]
1.2240932e-07 1.9653495e-08 3.771877e-08 2.2833452e-08 4.0274948e-08 6.266068e-08 2.2338563e-08 1.9937516e-09
3.908076e-09 6.700952e-08 6.096631e-08 5.380162e-08 2.0196472e-08 2.5292893e-08 3.7839442e-08 4.7511904e-08
1.5440733e-08 4.3944222e-08 1.2842054e-08 1.014419e-08 1.16992965e-07 2.4578855e-08 5.9247654e-08 3.9434533e-10
2.4973895e-08 8.911648e-11 3.1672748e-08 7.669633e-08 8.271247e-08 3.822985e-08 1.2487768e-08 2.480397e-09
3.0962394e-08 9.921076e-08 5.510907e-08 2.4815913e-10 8.840904e-10 2.1018872e-08 2.774816e-08 4.6460965e-08
4.1131372e-08 2.978004e-09 3.300281e-08 3.1543679e-09 1.3862655e-08 2.9386587e-08 5.2600044e-09 2.3597688e-09
9.3746175e-09 1.23200925e-08 2.40618e-08 4.096508e-09 4.4613654e-13 2.2315719e-08 2.0897767e-08 1.3105539e-08
6.724392e-09 1.1200223e-10 1.424714e-08 7.915533e-09 7.933492e-08 2.0886242e-08 8.137658e-08 5.9311023e-09
6.8155465e-10 1.9386595e-08 2.1061663e-08 7.212347e-10 7.491916e-08 3.7648262e-09 1.0331335e-07 1.9569235e-08
9.061433e-09 2.3108484e-08 2.1878127e-07 7.34088e-08 9.2596e-09 9.27411e-09 2.8644667e-08 5.05288e-10
5.7869592e-08 2.208661e-08 4.996948e-08 1.8238373e-08 9.597789e-08 1.7908897e-08 3.87136e-08 8.2742696e-10
8.555275e-09 2.4252746e-08 1.9145052e-08 4.5604075e-08 2.8868016e-08 2.0339826e-08 1.9840103e-08 1.5996847e-08
3.8778357e-08 2.1847356e-08 4.3952593e-08 7.234545e-08 2.678664e-09 3.0778832e-08 1.8040618e-08 1.0597522e-07
4.767189e-08 1.1260185e-08 1.6819557e-09 5.1951545e-09 1.5012086e-08 1.1263959e-08 3.697077e-08 2.564972e-07
1.4940728e-08 1.1751686e-07 5.0173966e-08 9.549505e-08 2.1306215e-08 2.5925861e-09 1.06523636e-07 4.926153e-08
5.1860848e-08 1.2685297e-07 3.1103575e-09 1.7661662e-08 1.5582991e-08 7.703443e-08 3.6803726e-08 5.2622895e-10
3.860197e-08 3.0545742e-08 1.00852326e-07 7.304789e-08 4.4665768e-08 7.145448e-08 2.0724167e-09 5.048873e-08
3.8304393e-08 6.6683627e-13 3.979791e-08 3.3110894e-08 9.2252016e-08 5.4030068e-08 2.986246e-08 1.17218395e-08
2.7051009e-08 0.0 4.86329e-11 3.2167446e-08 9.525436e-09 7.563621e-08 1.3886936e-08 1.7276845e-08
1.3732223e-07 8.866464e-09 1.024714e-08 3.1850624e-07 2.2227683e-08 3.5396578e-08 1.2017627e-08 2.854526e-08
1.9968103e-09 0.0 3.96047e-08 1.522636e-08 1.8559712e-07 2.2250676e-08 7.6016846e-08 2.3281528e-07
9.0393364e-08 5.7681188e-08 3.3393528e-09 2.6091273e-08 3.010713e-07 3.154002e-08 2.8178821e-09 8.124884e-08
1.40305e-07 1.8007386e-08 3.1355198e-09 3.117818e-08 4.0291884e-08 4.0312337e-08 3.6363335e-08 1.7345394e-07
3.4644432e-09 8.655869e-08 4.783071e-08 1.3719389e-08 1.1233923e-08 3.470488e-08 6.034035e-09 3.4635114e-08
4.0375827e-08 2.8037835e-08 5.368917e-09 2.440181e-14 1.299296e-07 1.527963e-07 2.3842729e-08 2.3732504e-08
00000000: 9e6f 0334 7ed2 a832 3a00 2233 4b23 c432
00000010: c6fa 2c33 1390 8633 05e3 bf32 7302 0931
00000020: cd47 8631 e0e6 8f33 95ec 8233 8213 6733
00000030: 837c ad32 a943 d932 e884 2233 e40f 4c33
00000040: 88a2 8432 2fbd 3c33 f39f 5c32 9f46 2e32
00000050: 903d fb33 7921 d332 7c77 7e33 2ccb d82f
00000060: 2d86 d632 1ef8 c32e 8e08 0833 41b4 a433
00000070: a99f b133 2a32 2433 c989 5632 9b73 2a31
00000080: 83fb 0433 b10d d533 10b1 6c33 4b6d 882f
00000090: 5504 7330 fd8c b432 d95a ee32 5f8c 4733
000000a0: 6ca8 3033 9aa5 4c31 f9be 0d33 3ac4 5831
000000b0: 9a28 6e32 ca6d fc32 7dbb b431 7e29 2231
000000c0: 010e 2132 57a8 5332 75b0 ce32 44c1 8c31
000000d0: 0d27 fb2a c9b0 bf32 ad82 b332 c526 6132
000000e0: 610c e731 a64b f62e 96c3 7432 e2fc 0732
000000f0: d55e aa33 5569 b332 3fc1 ae33 87ca cb31
00000100: 2558 3b30 9387 a632 16eb b432 6140 4630
00000110: 3ee3 a033 c35b 8131 1ddd dd33 3419 a832
00000120: 9bac 1b32 1880 c632 23ea 6a34 eaa4 9d33
00000130: 2714 1f32 f853 1f32 4a0e f632 7be4 0a30
00000140: 4a8c 7833 f8b8 bd32 069e 5633 9baa 9c32
00000150: 671c ce33 15d6 9932 0e46 2633 ff70 6330
00000160: 7ffa 1232 5a54 d032 6a74 a432 36de 4333
00000170: 70f9 f732 c0b7 ae32 d96c aa32 7069 8932
00000180: 418d 2633 d8aa bb32 63c6 3c33 555c 9b33
00000190: 8e13 3831 af31 0433 bdf7 9a32 7e94 e333
000001a0: ccbf 4c33 d172 4132 8e2a e730 1081 b231
000001b0: edf3 8032 6a83 4132 cbc9 1e33 b5b4 8934
000001c0: 0257 8032 945d fc33 dc7e 5733 f512 cd33
000001d0: dd04 b732 4229 3231 fdc1 e433 a093 5333
000001e0: 9bbd 5e33 1435 0834 fdbd 5531 68b6 9732
000001f0: 5cdb 8532 206e a533 2012 1e33 12a6 1030
00000200: 51cb 2533 6631 0333 2794 d833 81de 9c33
00000210: 88d6 3f33 8472 9933 576a 0e31 f2d8 5833
00000220: 2084 2433 9eb2 3b2b 44ee 2a33 d035 0e33
00000230: 151c c633 b00e 6833 1f42 0033 3261 4932
00000240: cc5d e832 0000 0000 c7e3 552e 7b28 0a33
00000250: 50a5 2332 726d a233 6493 6e32 2f68 9432
00000260: d972 1334 1f53 1832 660b 3032 2aff aa34
00000270: 31ef be32 f306 1833 1576 4e32 b133 f532
00000280: 4238 0931 0000 0000 d419 2a33 1fcb 8232
00000290: 8c48 4734 c121 bf32 b43e a333 c7fb 7934
000002a0: 471e c233 23bd 7733 847a 6531 511f e032
000002b0: eda2 a134 9e76 0733 b5a4 4131 067b ae33
000002c0: bfa6 1634 a9ae 9a32 a678 5731 c5e8 0533
000002d0: 650d 2d33 e223 2d33 e92d 1c33 a83e 3a34
000002e0: 2113 6e31 25e2 b933 6c6e 4d33 83b2 6b32
000002f0: 51ff 4032 6b0e 1533 ef53 cf31 b6c1 1433
00000300: b169 2d33 dad7 f032 7e79 b831 beca db28
00000310: c782 0b34 5410 2434 b7ce cc32 54dc cb32

exp_avg f4 [200, 200]
6.2417955e-09 4.7723814e-10 2.8360843e-09 -2.811612e-10 2.7991396e-09 4.5975543e-10 4.8156995e-10 4.478005e-12
0.0 1.5011821e-08 7.280886e-09 -2.864887e-10 4.972828e-09 3.2393477e-09 6.7318573e-09 1.1774145e-08
0.0 2.8555374e-09 3.509307e-10 8.813947e-09 1.5127442e-10 1.9580035e-10 7.884982e-09 -7.605074e-11
6.749253e-09 4.67362e-11 6.8683947e-09 4.30934e-09 3.182267e-09 2.6652462e-09 5.0864157e-09 1.6125569e-10
2.380163e-09 9.678338e-09 2.010055e-09 7.9473434e-13 1.032093e-10 5.480106e-09 1.9286592e-09 1.1547163e-10
4.2107104e-09 -2.0974679e-10 9.1565366e-10 -2.363671e-10 7.45245e-09 0.0 7.140623e-10 -2.598194e-10
8.146545e-10 6.692985e-10 0.0 -6.4628847e-10 2.7138027e-12 0.0 1.5570763e-10 4.423495e-09
-1.2568116e-10 0.0 6.758646e-10 -4.674179e-11 3.6832595e-10 8.438613e-09 6.369337e-09 0.0
6.693451e-10 1.493758e-11 -3.5062198e-10 0.0 4.6822524e-09 4.0088226e-09 5.934139e-09 -1.321887e-10
1.748013e-10 2.9117744e-09 6.225169e-10 2.8777773e-09 1.8911197e-09 1.2665438e-09 1.4772734e-09 4.5439374e-11
-4.9625865e-10 7.4151907e-09 -1.2706788e-10 0.0 -2.9772202e-13 0.0 1.6781222e-09 -3.604808e-10
6.63853e-09 4.1614983e-09 1.6020073e-09 3.7417394e-09 4.1398267e-09 1.36503e-09 0.0 1.0168548e-09
0.0 1.00762705e-08 2.4759665e-09 9.465597e-10 0.0 1.5722964e-09 2.2705073e-09 1.3104402e-09
-1.198867e-12 4.0265105e-10 6.4606254e-10 0.0 0.0 -1.2335004e-10 5.3337668e-09 -1.9176945e-13
-2.3345806e-10 1.02883675e-08 5.4622604e-09 1.1471362e-09 -1.1345281e-10 1.5792901e-09 9.248872e-11 -1.1090265e-10
9.8931445e-12 7.0858017e-09 0.0 8.95961e-09 2.848802e-09 3.3225758e-09 -3.2774974e-11 -2.4296799e-11
1.7602735e-09 2.7827035e-12 1.308503e-09 9.832275e-10 2.5677105e-09 7.814885e-12 3.555982e-10 7.861193e-09
-2.0143068e-10 -9.673853e-11 5.7339102e-09 4.5408866e-10 2.7255185e-09 5.6105457e-11 8.9518803e-10 -9.937513e-11
3.472635e-09 0.0 -1.6749059e-10 3.4898313e-09 -1.4011626e-11 0.0 5.8409887e-12 1.0174008e-10
3.751205e-09 1.7365739e-09 5.5525775e-09 1.0614228e-08 8.907835e-09 4.317669e-09 4.956619e-10 7.33823e-09
1.7281673e-11 0.0 0.0 1.0644033e-08 1.1130803e-08 1.8414205e-09 -4.18926e-10 9.378732e-10
4.672085e-11 2.73006e-09 -2.950768e-10 3.3834615e-09 -1.2416643e-10 1.0544951e-08 -1.2859618e-10 2.4892413e-09
-6.958537e-11 5.259462e-10 1.3426675e-10 2.5944484e-09 -2.1171995e-10 8.95548e-09 -4.841806e-10 6.830944e-09
2.025517e-11 3.4123664e-09 3.1534342e-09 0.0 -2.9829508e-10 1.6109237e-09 -1.13562125e-10 -4.234127e-12
2.1535935e-12 7.42567e-09 0.0 0.0 4.3600283e-09 5.851641e-09 -6.680503e-11 3.3296406e-09
2.3668069e-07 1.0362342e-06 1.2122077e-06 4.739753e-10 3.49878e-08 1.3834476e-06 2.0755428e-08 4.766881e-11
5.0932505e-07 1.9801018e-06 1.4440006e-06 5.754668e-07 1.3383423e-07 5.101472e-09 5.3398895e-07 8.222068e-07
1.1144112e-06 2.5666734e-06 7.106896e-09 1.886459e-06 1.6231742e-07 5.6857573e-07 7.0272097e-07 -1.9465242e-10
1.9989882e-06 7.185968e-11 2.1384747e-06 2.2396105e-08 2.2212505e-06 1.0121774e-06 1.4842714e-06 -9.251363e-09
3.3758883e-07 2.5311147e-06 4.8824894e-08 3.6655104e-10 2.2327784e-07 5.5152803e-08 1.1818286e-08 1.7480131e-06
1.0304471e-07 3.1189316e-09 8.543349e-07 1.1209182e-08 6.448617e-08 1.2944047e-06 -1.7666862e-09 -2.8432368e-10
2.7838934e-10 1.421834e-06 2.078607e-06 6.3407173e-09 1.4596968e-12 2.666274e-07 -2.662062e-10 1.4213687e-06
00000000: 6a77 d631 a62e 0330 ece4 4231 ec91 9aaf
00000010: fc5a 4031 d3c0 fc2f 795f 0430 498e 9d2c
00000020: 0000 0000 58f3 8032 5a2b fa31 b37f 9daf
00000030: 75dd aa31 359b 5e31 0b4e e731 3d47 4a32
00000040: 0000 0000 253b 4431 1bed c02f 266c 1732
00000050: f753 262f e648 572f 8476 0732 c33c a7ae
00000060: 0fe7 e731 498c 4d2e 0aff eb31 5b11 9431
00000070: 08af 5a31 8227 3731 96c4 ae31 714d 312f
00000080: 4590 2331 c845 2632 4321 0a31 a5b2 5f2b
00000090: acf5 e22e 864b bc31 5589 0431 c0ec fd2e
000000a0: cdad 9031 799e 66af 66b1 7b30 b6f1 81af
000000b0: 3908 0032 0000 0000 ab47 4430 54d6 8eaf
000000c0: 37ee 5f30 b2f9 3730 0000 0000 82a6 31b0
000000d0: 86f7 3e2c 0000 0000 cd33 2b2f 79fd 9731
000000e0: 1a30 0aaf 0000 0000 bec7 3930 9492 4dae
000000f0: 457d ca2f 6af9 1032 48d9 da31 0000 0000
00000100: f9fc 3730 7164 832d a8c1 c0af 0000 0000
00000110: 87e1 a031 fabd 8931 3de5 cb31 d057 11af
00000120: 3132 402f 7a18 4831 bc1d 2b30 65c2 4531
00000130: eef4 0131 8c12 ae30 f008 cb30 30d8 472e
00000140: 1969 08b0 b5c8 fe31 6eb6 0baf 0000 0000
00000150: 449a a7aa 0000 0000 ada3 e630 2a2d c6af
00000160: 2119 e431 edfc 8e31 9f2d dc30 b090 8031
00000170: 4d3e 8e31 b99b bb30 0000 0000 66c1 8b30
00000180: 0000 0000 e81b 2d32 aa25 2a31 1c18 8230
00000190: 0000 0000 4318 d830 3007 1c31 041b b430
000001a0: bcb9 a8ab 195c dd2f 9c96 3130 0000 0000
000001b0: 0000 0000 f39f 07af 4f44 b731 c8e9 57aa
000001c0: 4d58 80af b8c0 3032 8dae bb31 44a9 9d30
000001d0: 417c f9ae 550e d930 8562 cb2e a4e0 f3ae
000001e0: c30a 2e2d 5f77 f331 0000 0000 c8ec 1932
000001f0: a8c4 4331 5f53 6431 5725 10ae 87b7 d5ad
00000200: 1eee f130 bbd0 432c dbd6 b330 3e22 8730
00000210: a473 3031 1d7b 092d ff7d c32f e40d 0732
00000220: b279 5daf f3ba d4ae 0204 c531 4ca3 f92f
00000230: d44b 3b31 21c1 762e 4211 7630 3a87 daae
00000240: 3ea3 6e31 0000 0000 6928 38af c3d1 6f31
00000250: c17e 76ad 0000 0000 f382 cd2c 93ba df2e
00000260: f3e3 8031 43ac ee30 fdc8 be31 de59 3632
00000270: 1309 1932 9e5a 9431 1b3f 0830 c123 fc31
00000280: de02 982d 0000 0000 0000 0000 f4dc 3632
00000290: ca39 3f32 3915 fd30 984e e6af 7be6 8030
000002a0: 007b 4d2e b99b 3b31 5e38 a2af 7c82 6831
000002b0: be85 08af 2f29 3532 9b64 0daf 320f 2b31
000002c0: 1505 99ae 2c92 1030 bba0 132f 054a 3231
000002d0: dec9 68af 9eda 1932 2e17 05b0 9eb5 ea31
000002e0: 972a b22d fc7e 6a31 cdb3 5831 0000 0000
000002f0: 4dfd a3af 5767 dd30 cbb9 f9ae a0f9 94ac
00000300: b18b 172c e224 ff31 0000 0000 0000 0000
00000310: 37cf 9531 940f c931 e3e7 92ae a8cf 6431
00000320: 4b22 7e34 bc14 8b35 24b3 a235 0c49 0230
00000330: 7e45 1633 e6ae b935 ab49 b232 4fa6 512e
00000340: 8db8 0835 e4e1 0436 7ccf c135 c779 1a35
00000350: 13b4 0f34 0649 af31 7157 0f35 9fb5 5c35
00000360: e192 9535 1d3f 2c36 eb30 f431 3d32 fd35
00000370: 7949 2e34 3aa0 1835 9ea2 3c35 c905 56af
00000380: 5b26 0636 6705 9e2e b782 0f36 8e61 c032
00000390: cb10 1536 27da 8735 2d37 c735 edef 1eb2
000003a0: db3d b534 38dc 2936 8ab3 5133 7983 c92f
000003b0: 25be 6f34 26e1 6c33 5f09 4b32 469d ea35
000003c0: 6e49 dd33 d354 5631 7355 6535 8192 4032
000003d0: a67b 8a33 68bb ad35 bfcf f2b0 004f 9caf
000003e0: d10b 992f d8d5 be35 327e 0b36 8add d931
000003f0: 1f6f cd2b fe24 8f34 3159 92af dbc5 be35

exp_avg_sq f4 [200, 200]
3.1102098e-14 8.565389e-17 7.091893e-15 5.7666956e-17 7.019299e-15 2.326957e-16 1.6323607e-16 1.6543588e-20
0.0 1.863745e-13 4.307775e-14 3.077066e-17 1.6404899e-14 8.065593e-15 3.6823626e-14 1.1318797e-13
0.0 6.801552e-15 6.531041e-17 6.4281825e-14 1.8879552e-17 1.7990081e-17 5.1679167e-14 2.5680298e-18
3.974904e-14 1.8020514e-18 3.8019697e-14 1.5494664e-14 9.403696e-15 6.5292844e-15 2.1740607e-14 1.05801694e-17
5.8096304e-15 7.993443e-14 2.9020115e-15 5.2108017e-22 8.788166e-18 2.6044047e-14 2.0474576e-15 1.10004715e-17
1.5354847e-14 3.619191e-17 4.590445e-16 6.2512686e-17 4.2993512e-14 0.0 4.2357963e-16 2.5611578e-17
5.554397e-16 1.6894952e-16 0.0 2.540148e-16 6.0759894e-21 0.0 2.0002327e-17 1.441403e-14
1.3031703e-17 0.0 3.7685997e-16 1.8024818e-18 6.055282e-17 5.751636e-14 3.174597e-14 0.0
2.5913475e-16 1.8408611e-19 4.688898e-17 0.0 1.588774e-14 1.3258497e-14 2.6585713e-14 1.4416148e-17
2.5278165e-17 7.515824e-15 3.1971486e-16 7.0046398e-15 2.0421763e-15 1.0380228e-15 1.0442668e-15 1.7034332e-18
1.5524442e-16 3.931914e-14 4.14826e-17 0.0 7.312779e-23 0.0 1.9002653e-15 5.999881e-17
3.6604868e-14 1.4095541e-14 2.1173348e-15 1.29787115e-14 1.4207147e-14 1.5304313e-15 0.0 1.2494516e-15
0.0 7.914611e-14 5.2301303e-15 1.0758876e-15 0.0 1.5622852e-15 4.5086852e-15 1.7825345e-15
9.972575e-18 8.017127e-17 3.4435767e-16 0.0 0.0 6.8989303e-18 1.9775117e-14 3.034025e-23
5.2944463e-17 8.994967e-14 2.2891841e-14 1.0956181e-15 5.6030693e-17 2.0457396e-15 3.520358e-18 1.57668e-16
3.5152847e-17 4.1391322e-14 0.0 6.2176426e-14 5.602337e-15 8.732902e-15 1.2941455e-18 4.87033e-19
2.5571209e-15 6.388434e-21 1.9095898e-15 7.9756945e-16 5.6311987e-15 5.0385536e-20 6.077116e-17 5.1336868e-14
2.9167993e-17 6.7736956e-18 2.5866958e-14 2.2000558e-16 6.2577727e-15 2.5969925e-18 7.7971437e-16 3.8027255e-18
9.190906e-15 0.0 1.2197573e-17 9.627795e-15 1.6197111e-19 0.0 2.8147082e-20 2.1203377e-17
1.4208804e-14 2.3663426e-15 2.6616904e-14 9.189004e-14 6.719745e-14 1.6348783e-14 2.0268969e-16 4.1813053e-14
2.463951e-19 0.0 0.0 9.1428486e-14 1.0215312e-13 2.7023015e-15 1.1137414e-16 7.256856e-16
1.8008667e-18 5.614217e-15 1.5466256e-16 1.0671164e-14 5.7714418e-18 9.3471976e-14 6.4136437e-18 7.4246995e-15
3.994814e-18 3.089985e-16 1.4872967e-17 5.8803776e-15 3.290817e-17 6.542323e-14 1.8523593e-16 3.932118e-14
6.2734184e-18 8.862256e-15 8.264181e-15 0.0 3.7616336e-17 1.949931e-15 1.0639657e-17 2.3129736e-18
3.8263796e-21 4.2273114e-14 0.0 0.0 1.5683366e-14 2.886464e-14 1.2949646e-17 7.888482e-15
2.0986456e-11 4.0453335e-10 5.829661e-10 1.6683276e-14 4.601644e-13 7.306938e-10 1.6250403e-13 1.8746888e-18
9.656382e-11 1.4642542e-09 7.838864e-10 1.2247059e-10 6.6776203e-12 2.453263e-13 1.0551811e-10 2.5101296e-10
4.9581295e-10 2.5034248e-09 2.4925749e-14 1.3339395e-09 1.1096663e-11 1.2084563e-10 1.9384877e-10 2.1580039e-17
1.4897826e-09 4.260211e-18 1.7119001e-09 2.2672916e-13 1.8508024e-09 3.8241504e-10 8.44204e-10 5.0027724e-14
4.2184478e-11 2.410671e-09 9.866189e-13 4.0634328e-16 2.005405e-11 1.3079818e-12 6.7972625e-14 1.1636854e-09
4.5093903e-12 1.0101178e-14 2.7536434e-10 6.6236635e-14 5.6139342e-12 6.3503036e-10 2.1938452e-15 2.5041665e-15
6.899018e-17 7.647133e-10 1.693012e-09 2.1436199e-13 1.7578656e-21 3.233805e-11 6.0351296e-17 7.6839e-10
00000000: 4712 0c29 2281 c524 2b83 ff27 90f8 8424
00000010: 9be5 fc27 d323 8625 c932 3c25 f13f 9c1e
00000020: 0000 0000 cbd6 512a 4401 4229 95e7 0d24
00000030: 1fc3 9328 fc4b 1128 c0d6 2529 6ce0 fe29
00000040: 0000 0000 3f0d f527 7698 9624 f3bf 9029
00000050: 1522 ae23 e1ed a523 06be 6829 b67c 3d22
00000060: 8603 3329 caf7 0422 ba39 2b29 4390 8b28
00000070: e566 2928 053e eb27 6dd2 c328 702b 4323
00000080: 6250 d127 10ff b329 aa1c 5127 a07c 1d1c
00000090: f11c 2223 7c95 ea28 ed88 1327 42ec 4a23
000000a0: de4d 8a28 dee7 2624 814f 0426 fa24 9024
000000b0: 25a0 4129 0000 0000 522d f425 a139 ec23
000000c0: 3718 2026 19c9 4225 0000 0000 f86d 9225
000000d0: 5d8b e51d 0000 0000 297d b823 7ed4 8128
000000e0: 7a64 7023 0000 0000 b73e d925 ebff 0422
000000f0: 13a0 8b24 ed83 8129 9df8 0e29 0000 0000
00000100: 8a61 9525 9d54 5920 bd3c 5824 0000 0000
00000110: a21a 8f28 06d8 6e28 7b76 ef28 2bf7 8423
00000120: 6126 e923 9f64 0728 964d b825 665e fc27
00000130: 8127 1327 4898 9526 a57e 9626 e361 fb21
00000140: 11fc 3225 e213 3129 034e 3f24 0000 0000
00000150: e9cf b01a 0000 0000 b5ed 0827 0c59 8a24
00000160: 8ada 2429 36ec 7d28 ef91 1827 becd 6928
00000170: e7ee 7f28 f38e dc26 0000 0000 a110 b426
00000180: 0000 0000 a038 b229 706f bc27 3f0d 9b26
00000190: 0000 0000 2726 e126 4871 a227 f571 0027
000001a0: 27f6 3723 c4dc b824 3982 c625 0000 0000
000001b0: 0000 0000 8e86 fe22 511e b228 69b7 121a
000001c0: ca29 7424 748c ca29 fe30 ce28 2ce5 9d26
000001d0: af32 8124 3c69 1327 d7e0 8122 61c7 3525
000001e0: 281d 2224 f268 3a29 0000 0000 4502 8c29
000001f0: 70d8 c927 6751 1d28 6ffb be21 2cbf 0f21
00000200: 8e42 3827 2459 f11d b799 0927 3de2 6526
00000210: a4e2 ca27 60f0 6d1f f620 8c24 6133 6729
00000220: 7d83 0624 bfe7 f922 25fd e828 30a6 7d25
00000230: c475 e127 cd9f 3f22 c4bc 6026 ba4b 8c22
00000240: 9391 2528 0000 0000 6901 6123 5e70 2d28
00000250: c438 3f20 0000 0000 bceb 041f 0f91 c323
00000260: 8bf6 7f28 5183 2a27 67be ef28 00eb ce29
00000270: b150 9729 ba41 9328 70af 6925 2b4f 3c29
00000280: 2d72 9120 0000 0000 0000 0000 efe0 cd29
00000290: 4407 e629 aab8 4227 d867 0025 252a 5126
000002a0: 69e1 0422 0346 ca27 5550 3225 0f3c 4028
000002b0: baed d422 ed7a d229 279f ec22 62c0 0528
000002c0: f461 9322 2120 b225 cd2d 8923 e9dc d327
000002d0: 1cc3 1724 ed51 9329 ff8f 5525 3c16 3129
000002e0: c372 e722 f1a5 1f28 cfdf 1428 0000 0000
000002f0: 8879 2d24 e181 0c27 5c44 4423 d6aa 2a22
00000300: 798e 901d 9561 3e29 0000 0000 0000 0000
00000310: 6143 8d28 aafe 0129 f9e0 6e23 341b 0e28
00000320: 4c99 b82d 0265 de2f 983e 2030 0445 9628
00000330: 5786 012b 01da 4830 99f6 362a df53 0a22
00000340: 9958 d42e dd3e c930 1a79 5730 68a8 062f
00000350: a8f2 ea2c 3f1b 8a2a 6a09 e82e effe 892f
00000360: bc49 0830 b708 2c31 dd82 e028 d355 b730
00000370: ed36 432d 05df 042f 9423 552f 6d0a c723
00000380: 11c1 cc30 8e2c 9d22 2148 eb30 3b46 7f2a
00000390: 525f fe30 223c d22f 930d 6830 0a4e 6129
000003a0: 8087 392e f9a8 2531 b1da 8a2b af3d ea25
000003b0: b565 b02d 0315 b82b 8d0f 9929 8aef 9f30
000003c0: faa8 9e2c 76f7 3528 1662 972f d226 9529
000003d0: d385 c52c 4a8e 2e30 4d15 1e27 b871 3427
000003e0: 9d14 9f24 ea33 5230 90af e830 a359 712a
000003f0: 11d2 041d 6839 0e2e 1e29 8b24 a436 5330

exp_avg f4 [200]
2.262392e-07 5.236746e-06 1.2901021e-05 4.372676e-05 -2.453412e-05 -9.05125e-05 1.775075e-05 6.290021e-05
4.126614e-05 -5.271236e-05 -2.755255e-05 7.945403e-06 1.7858356e-05 -4.7355043e-05 -4.8510246e-05 3.1049763e-06
1.3168733e-06 -2.3447385e-05 2.5003861e-05 2.5185536e-09 1.1159922e-05 2.1911692e-05 3.389861e-05 3.249209e-06
-1.6126167e-05 3.0203926e-05 1.7580937e-06 2.9606929e-06 1.7802241e-06 -6.6791563e-06 8.518006e-06 -1.0170686e-05
4.8094503e-06 2.301887e-05 1.0172469e-06 2.2831553e-06 -9.7684824e-05 4.1012063e-05 -2.017497e-05 1.563242e-05
-3.1412623e-05 3.339832e-07 -5.1562896e-05 1.1662885e-05 -1.3627141e-06 3.1273762e-06 8.597024e-06 -3.3269014e-05
9.169306e-06 -9.344731e-06 0.0 4.862299e-07 3.0451527e-05 1.0800824e-05 -7.954559e-06 -5.283405e-05
-2.3161461e-05 3.437238e-06 2.2954599e-05 2.5350595e-05 -1.3882961e-05 0.0 -6.6470304e-05 -1.960381e-05
1.5797588e-05 4.389353e-05 8.318796e-06 -7.1791474e-06 7.0360256e-06 -1.3719422e-05 -7.387215e-08 -5.3714753e-06
-3.557201e-05 -3.3355805e-05 1.2325158e-06 4.699512e-05 -3.7109403e-06 3.9576953e-06 -2.5375259e-05 6.279129e-07
2.0084058e-06 8.5595263e-07 -1.941608e-05 -7.3591573e-06 1.225539e-06 -3.988956e-05 0.0 -1.2462899e-06
-7.907803e-05 -2.6587824e-05 -7.2029547e-06 3.1936804e-06 -5.299175e-06 3.0096002e-05 -5.632361e-07 1.3105798e-06
1.8945178e-05 8.622409e-06 -1.8324832e-05 -8.207835e-06 2.5146604e-05 1.1270705e-06 -4.2835272e-05 3.85155e-06
-9.759286e-05 -1.7252034e-05 1.7431574e-05 6.261553e-05 -4.333416e-05 -6.447845e-05 -5.165694e-05 2.7409042e-05
5.8184037e-07 8.7854644e-08 1.2542148e-06 2.5248051e-05 -3.5206693e-05 1.4103184e-06 2.0335492e-05 9.15869e-06
4.074274e-06 4.088895e-06 1.6663801e-06 2.9968001e-05 -5.6950114e-05 -5.8768986e-05 9.50127e-07 -4.8998703e-05
-6.3510583e-06 -2.3452327e-05 -0.000112711925 5.1930647e-06 -4.915869e-05 -5.9963677e-05 -5.2855048e-05 1.100473e-05
1.9184532e-05 -2.4830882e-05 5.5602245e-06 3.4189068e-06 -6.976326e-05 2.8161073e-06 3.935723e-06 1.340556e-07
-8.700816e-06 4.849612e-06 3.8858047e-06 -4.586406e-06 2.6637888e-06 3.7095146e-05 3.0068588e-06 2.8698949e-05
-7.773796e-05 3.2974676e-05 2.090669e-05 9.4727926e-07 -1.4315719e-05 1.17910995e-05 4.4245803e-07 3.4242628e-06
-6.7623725e-05 5.9517965e-06 2.2271872e-05 -4.6288897e-05 2.485152e-05 -8.7794324e-05 4.634448e-09 -1.382087e-05
-2.6595086e-05 -4.045427e-06 6.736995e-06 -6.7501956e-06 6.614269e-06 -1.8100807e-05 7.905349e-06 4.4226636e-06
-3.109287e-05 7.694188e-08 6.71138e-07 1.9424006e-05 1.7679529e-06 -3.4994755e-05 6.165489e-06 8.298493e-06
-3.4314078e-06 1.2692733e-05 -2.0497202e-05 1.4705971e-05 2.2090906e-05 -1.3076573e-05 7.708034e-06 9.4339356e-07
4.79086e-05 1.0835691e-05 -3.3202603e-05 8.425709e-06 3.1078273e-06 1.5035384e-08 4.5481274e-06 -3.4480658e-05
00000000: 28ec 7234 4eb7 af36 7771 5837 4067 3738
00000010: 9fce cdb7 87d1 bdb8 72e7 9437 4be9 8338
00000020: 2e15 2d38 7717 5db8 a720 e7b7 3f4d 0537
00000030: 87ce 9537 179f 46b8 7b77 4bb8 165f 5036
00000040: 6cbf b035 e0b0 c4b7 62bf d137 dd12 2d31
00000050: 803b 3b37 00cf b737 5b2e 0e38 fc0c 5a36
00000060: ae46 87b7 705e fd37 a4f7 eb35 51b0 4636
00000070: 09f0 ee35 841d e0b6 8fe8 0e37 c4a2 2ab7
00000080: dd60 a136 a618 c137 5688 8835 4f38 1936
00000090: 24dc ccb8 5e04 2c38 6b3d a9b7 5e22 8337
000000a0: 0cc1 03b8 4d4e b334 3d45 58b8 b6ab 4337
000000b0: 80e6 b6b5 eadf 5136 f03b 1037 558a 0bb8
000000c0: dfd5 1937 50c7 1cb7 0000 0000 7785 0235
000000d0: 2872 ff37 3035 3537 9274 05b7 219a 5db8
000000e0: dc4a c2b7 4dab 6636 a08e c037 fda7 d437
000000f0: ddea 68b7 0000 0000 f965 8bb8 dd72 a4b7
00000100: 1085 8437 521a 3838 f590 0b37 68e4 f0b6
00000110: 0017 ec36 782c 66b7 a5a3 9eb3 9f3c b4b6
00000120: 2833 15b8 86e7 0bb8 ec6c a535 a01c 4538
00000130: 7809 79b6 58cc 8436 f4dc d4b7 d98d 2835
00000140: 26c8 0636 9ec4 6535 b7df a2b7 aeee f6b6
00000150: 337d a435 174f 27b8 0000 0000 3246 a7b5
00000160: b2d6 a5b8 eb08 dfb7 e9b0 f1b6 0353 5636
00000170: 91cf b1b6 ac76 fc37 4a31 17b5 2ee7 af35
00000180: 76ec 9e37 f7a8 1037 47b8 99b7 62b4 09b7
00000190: ecf1 d237 d945 9735 06aa 33b8 903c 8136
000001a0: c5aa ccb8 76b8 90b7 053a 9237 7550 8338
000001b0: b3c1 35b8 9b38 87b8 38aa 58b8 78ec e537
000001c0: c42f 1c35 9aaa bc33 7e56 a835 c7cb d337
000001d0: e6aa 13b8 2c4a bd35 2396 aa37 46a8 1937
000001e0: bfb5 8836 5733 8936 62a8 df35 cb63 fb37
000001f0: b8dd 6eb8 b87e 76b8 3b0c 7f35 f583 4db8
00000200: 2d1b d5b6 7dbb c4b7 c15f ecb8 1640 ae36
00000210: be2f 4eb8 8281 7bb8 adb0 5db8 f5a0 3837
00000220: 78ee a037 ea4b d0b7 f791 ba36 5f70 6536
00000230: dd4d 92b8 5bfc 3c36 9a0f 8436 ecf0 0f34
00000240: b8f9 11b7 dab9 a236 cf62 8236 ede4 99b6
00000250: 8bc3 3236 9c96 1b38 71c9 4936 86be f037
00000260: 4007 a3b8 4a4e 0a38 c660 af37 8948 7e35
00000270: 8c2d 70b7 63d2 4537 f88a ed34 63cc 6536
00000280: 36d1 8db8 8bb5 c736 7bd4 ba37 5326 42b8
00000290: 3c78 d037 381e b8b8 093d 9f31 2fe0 67b7
000002a0: 8318 dfb7 f4bd 87b6 590e e236 bd7f e2b6
000002b0: 23f0 dd36 30d7 97b7 37a1 0437 6466 9436
000002c0: b769 02b8 3f3b a533 4128 3435 bcf0 a237
000002d0: 664a ed35 55c7 12b8 26e1 ce36 c239 0b37
000002e0: 2347 66b6 e0f2 5437 68f1 abb7 aab9 7637
000002f0: dc4f b937 7463 5bb7 c151 0137 833d 7d35
00000300: 78f1 4838 f0ca 3537 0643 0bb8 255c 0d37
00000310: 1190 5036 2927 8132 1e9c 9836 539f 10b8

exp_avg_sq f4 [200]
4.0772025e-11 1.0511235e-08 1.341291e-07 6.380294e-08 4.291819e-08 2.087548e-07 4.5404963e-08 2.0143884e-07
1.8641221e-07 2.8645232e-07 2.3173829e-08 1.624765e-08 5.704411e-08 1.01871926e-07 1.0397235e-07 1.2691716e-08
1.1115234e-09 5.5274665e-08 2.3926777e-08 1.4118102e-15 2.8840395e-08 5.72599e-08 1.3796836e-07 9.936136e-10
3.569147e-08 1.914729e-08 2.762218e-08 9.220002e-08 1.7278381e-08 5.2890283e-09 5.4945977e-09 1.5360184e-08
1.4676738e-07 5.3588902e-08 2.1132442e-10 6.594869e-09 4.2670516e-07 5.488284e-08 4.9142873e-08 4.0705398e-08
1.26939e-07 9.2025866e-11 5.5137342e-08 5.1885067e-08 5.9119554e-08 1.1147786e-07 2.3577341e-08 8.173799e-08
1.7064295e-08 2.6220091e-08 0.0 1.0914152e-10 1.08170575e-07 3.6749814e-08 2.0444695e-08 2.0964211e-07
4.5628575e-08 4.1788892e-09 2.2527347e-08 5.0716203e-08 8.271166e-08 0.0 2.983476e-07 3.3383916e-08
3.0505515e-08 1.2872991e-07 1.794702e-08 4.8774044e-08 1.3993744e-08 5.9076735e-09 2.6766287e-08 4.13954e-08
8.4618705e-08 6.632539e-08 7.604943e-10 2.7233312e-07 8.978176e-09 9.476097e-09 1.2816005e-07 1.0137348e-10
4.6052415e-09 8.271997e-10 3.469366e-08 6.254598e-08 1.2391246e-09 4.5279066e-08 0.0 2.4310916e-08
1.3446916e-07 1.3549962e-07 5.0092016e-08 3.5706644e-09 1.4411513e-09 9.239457e-08 8.04298e-10 1.2563185e-09
9.12729e-08 1.1755912e-08 5.2062273e-08 1.4416443e-08 4.2438597e-08 2.987881e-10 3.332524e-08 1.2615475e-08
2.599423e-07 1.5359983e-07 4.170433e-08 7.4147614e-08 2.5250537e-07 1.529585e-07 9.473141e-08 1.0514242e-07
1.4780758e-09 6.19905e-12 2.0923876e-09 3.142463e-08 2.4964327e-08 3.4468522e-10 6.8285765e-08 3.783471e-08
7.534433e-09 1.1333919e-08 1.3911923e-09 1.8613875e-07 1.852389e-07 1.0896371e-07 2.1206196e-08 1.8728629e-07
1.676641e-08 1.7260017e-07 3.6164252e-07 2.3892053e-08 1.25588e-07 9.900844e-08 1.3719776e-07 2.527465e-08
2.1412347e-08 2.6234952e-07 1.0279156e-08 2.6117617e-09 1.11395956e-07 1.9843307e-08 1.427434e-07 1.4826224e-11
8.6126164e-08 2.976997e-09 3.219771e-09 1.0829421e-07 4.793847e-09 1.2886461e-07 3.909918e-09 7.396234e-08
1.7313982e-07 9.004862e-08 2.4121512e-08 7.4031514e-10 1.2910677e-07 6.103639e-08 3.564732e-10 7.763845e-08
2.1370137e-07 2.5454197e-08 4.18503e-08 9.71259e-08 4.8460286e-08 2.944189e-07 2.5686678e-10 2.6628367e-08
4.2980066e-08 5.5099076e-09 1.324313e-08 8.3935774e-08 3.6313928e-08 6.18798e-08 4.3142903e-09 1.512077e-07
1.7016605e-08 4.7424963e-12 1.0255841e-07 6.889414e-08 8.1326806e-10 1.1519768e-07 9.235763e-09 1.359349e-08
9.223752e-09 4.5850253e-08 2.357339e-07 5.4684822e-08 1.0096849e-07 8.666265e-08 1.778908e-08 3.7906986e-10
7.43817e-08 2.0950225e-08 2.9645182e-08 3.883156e-08 4.1461288e-08 1.7982355e-13 1.2783828e-08 4.5472685e-08
00000000: 3851 332e e794 3432 2005 1034 0a04 8933
00000010: 0d55 3833 1526 6034 4903 4333 164b 5834
00000020: 9928 4834 b5c9 9934 ca0f c732 f690 8b32
00000030: aa00 7533 afc4 da33 6747 df33 c20a 5a32
00000040: 41c4 9830 2367 6d33 8a87 cd32 9a76 cb26
00000050: b3bc f732 eded 7533 7424 1434 ac8f 8830
00000060: 304b 1933 5679 a432 d145 ed32 7fff c533
00000070: 906b 9432 c9ba b531 feca bc31 67f1 8332
00000080: 1c97 1d34 9f29 6633 895a 682f 1599 e231
00000090: e915 e534 52b8 6b33 2911 5333 0fd4 2e33
000000a0: ba4c 0834 f55d ca2e 26d0 6c33 3cd8 5e33
000000b0: a3ea 7d33 9a65 ef33 1f87 ca32 ef87 af33
000000c0: c894 9232 973a e132 0000 0000 3701 f02e
000000d0: 674b e833 d9d6 1d33 5c9e af32 fc19 6134
000000e0: 26f9 4333 e695 8f31 2982 c132 0ed3 5933
000000f0: 379f b133 0000 0000 952c a034 0162 0f33
00000100: 2b05 0333 0239 0a34 ea29 9a32 a17b 5133
00000110: 2369 7032 72fc ca31 b0eb e532 b9ca 3133
00000120: a0b7 b533 c56e 8e33 070b 5130 2e35 9234
00000130: 703e 1a32 51cc 2232 5e9c 0934 32ec de2e
00000140: 223c 9e31 0161 6330 1502 1533 0451 8633
00000150: d24d aa30 dc78 4233 0000 0000 45d4 d032
00000160: 9a62 1034 da7d 1134 c124 5733 cb5f 7531
00000170: 0112 c630 746a c633 7115 5d30 c7aa ac30
00000180: cf01 c433 0cf7 4932 139b 5f33 30ac 7732
00000190: bb45 3633 b042 a42f 7d21 0f33 72bb 5832
000001a0: 338e 8b34 33ed 2434 651e 3333 153b 9f33
000001b0: 1390 8734 ea3c 2434 256f cb33 a8ca e133
000001c0: 2b25 cb30 141c da2c acc9 0f31 bff7 0633
000001d0: 2371 d632 227e bd2f 7fa4 9233 b47f 2233
000001e0: c970 0132 1ab7 4232 3a34 bf30 6edd 4734
000001f0: 15e6 4634 6fff e933 eb28 b632 dd18 4934
00000200: ba05 9032 f953 3934 c527 c234 2e3b cd32
00000210: 5ed9 0634 779e d433 a250 1334 8b1b d932
00000220: 40ee b732 0bd9 8c34 3598 3032 997a 3331
00000230: 9338 ef33 e573 aa32 0245 1934 b069 822d
00000240: 5cf4 b833 e393 4c31 cf42 5d31 5f8f e833
00000250: 20b7 a431 095e 0a34 0158 8631 3ad5 9e33
00000260: 50e8 3934 c160 c133 c433 cf32 0c7f 4b30
00000270: 99a0 0a34 1c13 8333 25f9 c32f 30ba a633
00000280: c975 6534 5fa6 da32 e4be 3333 8793 d033
00000290: a622 5033 a010 9e34 c936 8d2f 66bc e432
000002a0: 1599 3833 a951 bd31 e783 6332 2e40 b433
000002b0: 96f7 1b33 c8e2 8433 e63c 9431 a85b 2234
000002c0: e92b 9232 9cdc a62c 153e dc33 f4f2 9333
000002d0: a78c 5f30 9862 f733 51ab 1e32 cd88 6932
000002e0: 7e76 1e32 e3ec 4433 0b1e 7d34 99de 6a33
000002f0: 04d4 d833 4c1b ba33 9ace 9832 5765 d02f
00000300: c6bb 9f33 08f6 b332 72a6 fe32 c0c7 2633
00000310: 2b13 3233 9c76 4a2a df9f 5b32 bf4d 4333
