llirl_sumo/saves/120p4k/llirl_checkpoint_latest.pth (torch, 197216 bytes, 7 tensors)

sigma f4 [4]
-0.034654964 0.017930763 0.030546155 -0.0006779938
00000000: 5df2 0dbd 89e3 923c ee3b fa3c 65bb 31ba

layer1.weight f4 [200, 36]
0.052685376 0.15905099 -0.0036689725 0.025845943 0.047919773 0.058458664 -0.061305895 0.07666492
-0.041605927 0.088517144 -0.027302332 0.054940887 0.09963404 -0.109642155 0.04537838 0.027977653
-0.13067459 -0.02798822 0.0045216074 0.11907113 -0.07971584 0.121018395 -0.07013072 0.0667332
0.0398024 0.10193569 0.09823632 -0.13698262 -0.011397691 -0.1508096 -0.0039907787 -0.0893656
0.13026302 0.074980125 -0.07048355 0.014414798 -0.06991441 -0.13036427 0.09240138 -0.0025445586
0.016076868 0.009077106 0.06700165 0.0941924 -0.044699997 0.0048472094 -0.06638614 -0.06391324
-0.03326391 0.040419158 -0.10527247 0.007382435 0.13521388 -0.13025004 0.027994776 0.11221241
0.026182316 0.10171469 -0.0793755 0.019593319 -0.038324904 0.018465618 -0.01727194 0.03238009
0.15408759 -0.02996871 0.047734033 -0.097629875 0.10217557 0.05157637 -0.091243625 0.12241066
-0.0953526 -0.14655404 -0.15244423 -0.08925479 -0.056695018 -0.075023524 0.14379194 -0.16454953
-0.02009262 -0.11938912 0.13403247 -0.043511074 -0.15053523 0.050888732 -0.08070988 0.079830065
0.15447207 -0.028712614 -0.0033084126 -0.14103583 -0.016219407 0.10604886 0.1017658 0.07224905
-0.12225806 0.118856855 0.087770455 -0.029522395 -0.14999254 0.1242545 -0.014626533 -0.11185866
0.114500135 -0.14421336 -0.15166478 0.114853054 0.099672735 -0.036347672 -0.026755193 -0.069635354
-0.14429958 -0.09712518 -0.09749477 0.00077947526 -0.05337987 -0.010618436 -0.08713266 0.07162874
0.08690281 -0.038034614 0.11256901 0.06617519 -0.11799051 -0.04015055 -0.10343985 -0.02080077
0.106735446 -0.011125609 -0.052624106 0.016492173 -0.045174167 -0.1497054 0.006036657 -0.14165238
0.041462846 -0.0487259 0.045815565 -0.105926335 0.029914495 0.034220897 -0.075547755 -0.005241492
0.03971564 -0.032558613 -0.06261825 0.08238849 0.13581908 -0.09673322 0.0078649735 -0.041390758
-0.025138762 0.08617457 -0.013860717 -0.028919348 0.041910823 0.114004895 0.12846866 0.038716026
-0.09995113 -0.072845 -0.14026451 -0.16946174 -0.17712738 -0.055649932 0.03400872 0.13062847
-0.021832602 -0.17003933 -0.0858703 0.09078969 0.12258964 0.031168645 -0.02801751 0.097535044
0.037866652 -0.11305686 -0.10532074 -0.045592375 -0.02629757 -0.08202627 -0.018082589 0.11301072
0.102540076 -0.0146319475 0.10931908 0.11310771 -0.04184129 0.1435582 0.05041946 -0.026976341
0.17598978 -0.019861126 0.026812868 0.04525759 0.006153126 0.021873185 -0.07246041 0.029108686
0.019971557 -0.03254315 -0.14784431 -0.05539792 0.15043454 0.0968343 0.051972285 -0.06913468
0.07200749 0.10255172 -0.10226701 -0.04992111 -0.119190075 -0.16422698 0.14078274 0.04540446
-0.004776863 -0.017792389 0.004911764 0.16654046 -0.14220269 0.12367831 0.07801259 -0.012954886
-0.06601302 -0.03374374 -0.078684166 0.057955828 0.12393971 0.10034354 -0.11643298 0.09230592
0.027560476 -0.023135897 -0.11223097 -0.09088618 0.14810729 0.04788253 -0.10332669 -0.0033701346
-0.05486623 -0.027394002 0.070544824 -0.12836607 -0.11233264 -0.09780403 -0.08812229 -0.09603887
0.10971893 0.15655465 -0.119020455 -0.07775711 0.085038066 0.078540124 -0.15190989 -0.052401394
00000000: 9fcc 573d 43de 223e 2573 70bb dfba d33c
00000010: 8647 443d 5a72 6f3d e41b 7bbd 7f02 9d3d
00000020: fa6a 2abd 7a48 b53d 24a9 dfbc b209 613d
00000030: ee0c cc3d 118c e0bd aede 393d 6431 e53c
00000040: 8fcf 05be 8d47 e5bc fe29 943b 91db f33d
00000050: 0f42 a3bd 7ed8 f73d b2a0 8fbd 6aab 883d
00000060: d707 233d a9c3 d03d 2030 c93d 2c45 0cbe
00000070: 62bd 3abc d56d 1abe 14c5 82bb 5005 b7bd
00000080: ab63 053e 2e8f 993d ae59 90bd 0b2c 6c3c
00000090: 492f 8fbd 367e 05be ef3c bd3d 9cc2 26bb
000000a0: a3b3 833c 24b8 143c 2938 893d f2e7 c03d
000000b0: 5817 37bd 57d5 9e3b 75f5 87bd f2e4 82bd
000000c0: bd3f 08bd 8f8e 253d 1899 d7bd 5ae8 f13b
000000d0: 8275 0a3e 4460 05be 4d55 e53c 9fcf e53d
000000e0: 4c7c d63c cb4f d03d 9f8f a2bd 2b82 a03c
000000f0: 93fa 1cbd 3545 973c e27d 8dbc fca0 043d
00000100: 23c9 1d3e f180 f5bc c384 433d 2cf2 c7bd
00000110: 6d41 d13d be41 533d f0dd babd 71b2 fa3d
00000120: 3948 c3bd 4312 16be 571a 1cbe 37cb b6bd
00000130: 0939 68bd efa5 99bd 323e 133e ac7f 28be
00000140: 4799 a4bc 4882 f4bd cf3f 093e ab38 32bd
00000150: e825 1abe b470 503d 394b a5bd f27d a33d
00000160: ed2d 1e3e b736 ebbc f4d1 58bb b26b 10be
00000170: 90de 84bc 2530 d93d 966a d03d 4ff7 933d
00000180: 6f62 fabd 396b f33d ffc0 b33d f3d8 f1bc
00000190: a597 19be 2579 fe3d 20a4 6fbc 2716 e5bd
000001a0: 0c7f ea3d abac 13be 034e 1bbe 1438 eb3d
000001b0: 3821 cc3d 4ce1 14bd b52d dbbc fb9c 8ebd
000001c0: 45c3 13be 91e9 c6bd 57ab c7bd b355 4c3a
000001d0: daa4 5abd f3f8 2dbc 9c72 b2bd 17b2 923d
000001e0: 1afa b13d 2fca 1bbd 958a e63d dc86 873d
000001f0: 02a5 f1bd e774 24bd 46d8 d3bd 6066 aabc
00000200: 1d98 da3d 3048 36bc 608c 57bd 981a 873c
00000210: 8c08 39bd 5f4c 19be 26cf c53b 520d 11be
00000220: f2d4 293d cf94 47bd 1aa9 3b3d e8ef d8bd
00000230: 3e0f f53c 362b 0c3d c8b8 9abd d2c0 abbb
00000240: deac 223d 2e5c 05bd ff3d 80bd 4cbb a83d
00000250: 2814 0b3e 111c c6bd 17dc 003c 5b89 29bd
00000260: ceef cdbc 4b7c b03d 1018 63bc 45e8 ecbc
00000270: afaa 2b3d 667b e93d 4a8d 033e b294 1e3d
00000280: 2eb3 ccbd c22f 95bd 80a1 0fbe 6187 2dbe
00000290: e160 35be 2ff1 63bd ba4c 0b3d 78c3 053e
000002a0: 49da b2bc ca1e 2ebe c5dc afbd f2ef b93d
000002b0: 4710 fb3d 6355 ff3c fa84 e5bc 74c0 c73d
000002c0: 101a 1b3d 5b8a e7bd 66b2 d7bd 12bf 3abd
000002d0: 006e d7bc 64fd a7bd f021 94bc 2a72 e73d
000002e0: 8800 d23d d6ba 6fbc afe2 df3d 04a5 e73d
000002f0: c661 2bbd ec00 133e a384 4e3d 7dfd dcbc
00000300: aa36 343e cdb3 a2bc a9a6 db3c 0660 393d
00000310: 29a0 c93b 652f b33c 2066 94bd 5775 ee3c
00000320: 649b a33c f74b 05bd 8064 17be eee8 62bd
00000330: 830b 1a3e 1051 c63d e4e0 543d 7c96 8dbd
00000340: aa78 933d a306 d23d 5e71 d1bd 147a 4cbd
00000350: ed19 f4bd 1e2b 28be 5a29 103e 07fa 393d
00000360: 3b87 9cbb 58c1 91bc ddf2 a03b 9589 2a3e
00000370: 959d 11be 0e4b fd3d 11c5 9f3d bb40 54bc
00000380: d631 87bd e036 0abd 2a25 a1bd 1763 6d3d
00000390: 1ad4 fd3d ea80 cd3d 6a74 eebd e30a bd3d
000003a0: 82c6 e13c 7e87 bdbc 5ad9 e5bd 8922 babd
000003b0: 70a9 173e 7920 443d f29c d3bd 7add 5cbb
000003c0: 69bb 60bd 6369 e0bc ce79 903d 6572 03be
000003d0: a80e e6bd 7b4d c8bd 7679 b4bd 07b0 c4bd
000003e0: 52b4 e03d dd4f 203e ffc0 f3bd 1f3f 9fbd
000003f0: 7028 ae3d a5d9 a03d 448e 1bbe d8a2 56bd

layer1.bias f4 [200]
-0.0011954741 0.0039302497 -0.0008698277 -0.007922632 -0.003559841 -0.0031636304 0.004159345 -0.009314995
-0.020569757 -0.014869799 -0.02315722 0.0056447806 0.0077900025 -0.011634347 -0.007884876 -0.016020106
-0.004970584 0.00062193384 -0.0151994545 -0.019233245 0.023332147 -0.013377087 -0.0058846683 -0.019711485
-0.00765726 -0.0155324405 -0.0036565673 0.011350968 0.0024623456 -0.019138752 -0.021603486 -0.009992798
0.004593893 -0.001616876 0.023469469 -0.027570756 -0.021821443 -0.04379794 0.009038048 0.029717268
-0.025397988 -0.0068712085 -0.0033786853 -0.008536799 -0.014477829 -0.0023172244 -0.007688812 -0.0012339918
0.027281601 -0.0068942653 0.032917794 -0.020966655 -0.014100574 -0.012674002 0.0035225824 -0.019432612
-0.014325721 -0.0152040385 -0.012258725 -0.02072849 -0.012231941 -0.011132388 0.0143023655 -0.0073950808
-0.018866599 -0.037644446 0.004470976 -0.00673575 0.012964759 -0.021896215 0.008003241 0.00035370156
-0.02742211 0.003282011 0.023380576 0.018385263 0.0076551177 0.0010703023 0.023062982 -0.02153152
0.01234513 -0.025729613 0.0027583141 0.01769857 0.027063826 -0.015450312 -0.0158238 -0.024074323
-0.022690669 0.0071145827 0.0027099669 0.0006779786 -0.008709289 -0.011843562 0.016037576 -0.023807306
-0.01248605 -0.011998293 -0.016960138 -1.4584121e-05 -0.015352449 0.012052835 -0.016733918 0.016543016
0.013493206 -0.02156892 -0.0037031956 -0.026476976 0.011816636 -0.0053432886 0.036327567 0.020918908
-0.031899378 -0.002899521 0.01881188 0.015078243 0.0029983136 -0.011398652 0.019817736 0.016292479
0.024117062 0.010530024 -0.0016881187 -0.012528736 0.006997534 0.014382884 0.01718652 -0.015733419
0.013667791 0.0067959838 0.009147075 0.02893225 -0.008900459 0.017598448 -0.01271387 0.003353951
6.863293e-05 -0.01954374 -0.014448828 0.007708899 -0.0023667745 0.00946186 0.0047036437 0.005426328
-0.020933079 0.0 -0.025465576 -0.020471632 -0.020323684 0.01864734 -0.018890612 0.010786668
0.019070718 0.008808119 -0.019076144 0.02535327 0.012538186 -0.005287117 0.009224989 -0.01410337
-0.013778188 0.0 0.02391448 -0.023018532 0.019802058 -0.01663969 -0.023873389 0.017918948
0.019800413 -0.020125875 -0.007901297 0.010487624 0.035522405 0.016783757 -0.036743056 0.0026036755
0.021942174 -0.024071388 -0.022537317 0.012637845 0.0071137366 -0.0027644455 -0.011820385 0.033199407
-0.024777628 0.020024009 0.01556804 -0.011673519 -0.0013871955 -0.0030128926 -0.012067977 0.01690005
-0.010388256 0.0086521 0.0037100809 -0.018290663 0.015613411 0.0236941 -0.016248748 0.0001808048
00000000: 74b1 9cba 53c9 803b 2605 64ba edcd 01bc
00000010: 394c 69bb e954 4fbb 1d4b 883b ec9d 18bc
00000020: e881 a8bc 75a0 73bc 36b4 bdbc daf7 b83b
00000030: 4743 ff3b fd9d 3ebc 912f 01bc 993c 83bc
00000040: 48e0 a2bb 4609 233a 2207 79bc 0a8f 9dbc
00000050: 0f23 bf3c 922b 5bbc 2dd4 c0bb fb79 a1bc
00000060: c1e9 fabb c77b 7ebc 05a3 6fbb 69f9 393c
00000070: 4e5f 213b dfc8 9cbc cbf9 b0bc d5b8 23bc
00000080: 5e88 963b 5bed d3ba 0b43 c03c 11dc e1bc
00000090: e2c2 b2bc 7865 33bd 5214 143c a171 f33c
000000a0: 710f d0bc e027 e1bb ef6c 5dbb eedd 0bbc
000000b0: 6b34 6dbc 93dc 17bb 6ef2 fbbb e5bd a1ba
000000c0: aa7d df3c 4ae9 e1bb cfd4 063d 43c2 abbc
000000d0: 1806 67bc 9ea6 4fbc 20db 663b 2431 9fbc
000000e0: 6eb6 6abc 5c1a 79bc d2d8 48bc cbce a9bc
000000f0: 7b68 48bc 9f64 36bc 7854 6a3c 6f52 f2bb
00000100: 208e 9abc 1031 1abd 4481 923b 91b7 dcbb
00000110: 246a 543c b15f b3bc 0720 033c 0571 b939
00000120: 55a4 e0bc 0217 573b 9f88 bf3c b19c 963c
00000130: c8d7 fa3b 6349 8c3a 94ee bc3c df62 b0bc
00000140: 3a43 4a3c e9c6 d2bc d5c4 343b 97fc 903c
00000150: f5b4 dd3c 4e23 7dbc eaa0 81bc 8437 c5bc
00000160: c8e1 b9bc 7221 e93b b399 313b 60ba 313a
00000170: 68b1 0ebc 800b 42bc 3c61 833c 8a07 c3bc
00000180: 4a92 4cbc 7d94 44bc fdef 8abc 53ae 74b7
00000190: d788 7bbc 4179 453c 9215 89bc 3885 873c
000001a0: 9c12 5d3c 4eb1 b0bc 50b1 72bb 3ee6 d8bc
000001b0: 909a 413c c116 afbb 37cc 143d 215e ab3c
000001c0: eca8 02bd e405 3ebb 5f1b 9a3c bc0a 773c
000001d0: 5b7f 443b 69c1 3abc ce58 a23c ce77 853c
000001e0: 2591 c53c 1f86 2c3c dd43 ddba 5445 4dbc
000001f0: 924b e53b 30a6 6b3c bfca 8c3c 5fe3 80bc
00000200: dfee 5f3c d8b0 de3b 9ddd 153c 5303 ed3c
00000210: 3bd3 11bc 9f2a 903c d64d 50bc f6cd 5b3b
00000220: 06ef 8f38 321a a0bc c7ba 6cbc ef9a fc3b
00000230: e31b 1bbb eb05 1b3c 0621 9a3b 57cf b13b
00000240: d97b abbc 0000 0000 2f9d d0bc 20b4 a7bc
00000250: db7d a6bc 4ec2 983c 7cc0 9abc 91ba 303c
00000260: 323a 9c3c ee4f 103c 9345 9cbc a9b1 cf3c
00000270: f76c 4d3c 8d3f adbb 6924 173c d211 67bc
00000280: e9bd 61bc 0000 0000 4de8 c33c 5c91 bcbc
00000290: ed37 a23c f64f 88bc 2092 c3bc c2ca 923c
000002a0: 7a34 a23c 05df a4bc 7174 01bc 49d4 2b3c
000002b0: f17f 113d 177e 893c e37f 16bd 6da2 2a3b
000002c0: 13c0 b33c 5c31 c5bc 2ea0 b8bc f70e 4f3c
000002d0: 591a e93b b32b 35bb 4aaa 41bc 1afc 073d
000002e0: 74fa cabc 6409 a43c 1811 7f3c 4a42 3fbc
000002f0: 8fd2 b5ba f373 45bb c4b8 45bc f971 8a3c
00000300: 8133 2abc 8ac1 0d3c d424 733b 4dd6 95bc
00000310: 64cf 7f3c 211a c23c 181c 85bc 6b96 3d39

layer2.weight f4 [200, 200]
0.011499425 0.053726994 -0.10549243 -0.09742819 0.005484351 -0.028953224 0.067859575 0.016259816
-0.06932578 -0.08170439 -0.0010069123 0.05016408 -0.1298136 0.04812322 0.099147156 0.07491944
-0.004584171 -0.13464344 -0.049323708 0.08360826 -0.09489994 -0.07590395 -0.055204827 0.06762873
-0.016766256 -0.1269329 0.028456 -0.020984283 -0.012020741 -0.011382354 -0.049740687 -0.08291936
0.042681012 -0.09989101 0.0082286745 0.023493616 0.083991535 0.07779941 -0.06202208 0.024206243
-0.0018355432 -0.0062625324 0.048481684 0.12658943 -0.0040810145 -0.046435185 -0.017203037 0.055735145
-0.051368393 -0.017818054 0.022395574 0.051636018 0.08682765 -0.040820614 -0.11177442 -0.04599343
-0.08284584 -0.070327014 -0.033312377 0.012267191 0.053159606 0.049082074 0.042578433 -0.07478179
0.03517501 0.044660337 0.12523541 0.07377776 -0.005161829 0.106178686 0.08698887 -0.072622724
0.064226285 -0.02704478 -0.12404776 -0.016147528 -0.11488648 0.04542305 -0.009513178 -0.01963132
-0.0044192504 -0.075786345 -0.11567092 0.06982184 0.024543267 -0.11974283 0.046864063 -0.08822672
-0.032281496 0.10306389 0.002221384 -0.07938056 -0.11270925 0.05888313 -0.0791095 -0.04591872
-0.07459408 0.06952687 -0.12863967 -0.02000068 0.0034321323 -0.0725536 0.09370474 -0.13263609
-0.034557346 0.025518108 -0.015493206 0.03996668 -0.08490213 0.04932329 -0.07144555 0.102552705
-0.0987812 -0.05048974 -0.08737802 -0.10790164 -0.015817843 -0.09316955 -0.10709152 -0.06058622
-0.052687287 -0.0052371314 -0.012727842 0.055446453 0.0456939 -0.08106091 -0.041519918 -0.06312246
-0.055037625 -0.0753064 0.007027403 0.065592006 0.013081431 -0.054116484 -0.0331187 -0.10942308
0.048454612 0.11546118 -0.052226074 0.08547102 -0.0025061392 -0.054315805 0.06539098 -0.015922925
0.05743037 0.024279572 -0.082274854 -0.029991735 0.07545995 -0.055255495 -0.040828012 0.07847628
0.064154364 -0.060371768 -0.046731535 -0.040675588 -0.12564681 -0.128294 0.048743483 0.10123143
0.08432407 -0.029297791 -0.014086261 0.02242317 -0.021912055 0.032818593 0.12926783 0.062225707
0.09662621 -0.05553367 -0.07609722 -0.043375958 -0.07129677 0.08716922 0.1276681 -0.107874356
-0.06817009 0.0004729204 -0.037129875 -0.044537455 -0.081697196 0.03505096 0.01796219 -0.131449
0.10970185 0.08013844 -0.01563075 0.0701702 0.09073094 -0.11859409 0.08569379 0.012402112
-0.003594748 -0.1250404 0.06407491 -0.00022983551 0.05112233 -0.027853327 0.00309646 -0.10888246
-0.093487084 -0.0117993355 -0.03390515 0.08568986 0.046946164 -0.04042663 -0.102390245 0.016225394
0.025886307 -0.010608021 -0.03861304 0.08754617 -0.1430435 -0.032868575 0.07672422 -0.099010885
-0.05223991 0.019253094 -0.07263095 0.014253882 -0.044723023 -0.036963172 -0.12637508 -0.07630523
-0.027991757 -0.022427402 0.013737507 -0.0051129623 0.06694419 0.05565812 -0.14311257 0.09394778
-0.0061083664 0.015009058 0.016627902 -0.0041435175 0.04428843 -0.07461883 -0.008121417 -0.033264726
0.10218665 -0.027100153 -0.051671386 0.025141355 0.06690851 0.024196224 0.08108189 -0.0056816977
0.0034268745 -0.12023913 -0.08480717 -0.07794144 0.021385442 0.09692496 0.10413598 0.074133754
00000000: 1668 3c3c d610 5c3d 6a0c d8bd 6e88 c7bd
00000010: 12b6 b33b 502f edbc f6f9 8a3d 4e33 853c
00000020: adfa 8dbd a254 a7bd 5ffa 83ba da78 4d3d
00000030: dbed 04be db1c 453d aa0d cb3d 5d6f 993d
00000040: d036 96bb f8df 09be a807 4abd cf3a ab3d
00000050: e65a c2bd 8873 9bbd 751e 62bd ee80 8a3d
00000060: 6359 89bc b3fa 01be 8f1c e93c 3be7 abbc
00000070: a4f2 44bc 0e7d 3abc e4bc 4bbd a0d1 a9bd
00000080: 49d2 2e3d a893 ccbd 90d1 063c af75 c03c
00000090: c103 ac3d 4c55 9f3d dd0a 7ebd 2c4c c63c
000000a0: 9c96 f0ba ee35 cdbb bb94 463d a9a0 013e
000000b0: 08ba 85bb d232 3ebd 62ed 8cbc 894a 643d
000000c0: aa67 52bd 2bf7 91bc ec76 b73c 4a80 533d
000000d0: b2d2 b13d 8433 27bd fde9 e4bd 9b63 3cbd
000000e0: 14ab a9bd 9c07 90bd 8f72 08bd 54fc 483c
000000f0: e3bd 593d 490a 493d b966 2e3d 3227 99bd
00000100: ac13 103d c2ed 363d b63d 003e cb18 973d
00000110: 8f24 a9bb 3674 d93d 3827 b23d 39bb 94bd
00000120: 1289 833d 048d ddbc c10c febd d247 84bc
00000130: 9a49 ebbd 850d 3a3d 29dd 1bbc ddd1 a0bc
00000140: 5ccf 90bb df35 9bbd e0e4 ecbd c1fe 8e3d
00000150: f60e c93c bb3b f5bd 88f4 3f3d 36b0 b4bd
00000160: 9a39 04bd 2913 d33d a494 113b 4692 a2bd
00000170: 1bd4 e6bd 702f 713d 2904 a2bd 4515 3cbd
00000180: c8c4 98bd 1b64 8e3d 1eba 03be 77d8 a3bc
00000190: a0ed 603b fb96 94bd 45e8 bf3d c1d1 07be
000001a0: 018c 0dbd 5a0b d13c 37d7 7dbc 1ab4 233d
000001b0: 2be1 adbd 3807 4a3d 0b52 92bd 2707 d23d
000001c0: cc4d cabd 54ce 4ebd 3ff3 b2bd 89fb dcbd
000001d0: 6c94 81bc adcf bebd cd52 dbbd 4229 78bd
000001e0: a0ce 57bd 3e9c abbb 7088 50bc d21b 633d
000001f0: 8729 3b3d 4303 a6bd ca10 2abd 5946 81bd
00000200: 226f 61bd 3e3a 9abd 2146 e63b 1a55 863d
00000210: 8053 563c 3fa9 5dbd 79a7 07bd 3519 e0bd
00000220: 5878 463d e976 ec3d 02eb 55bd 6e0b af3d
00000230: 0a3e 24bb 407a 5ebd b5eb 853d cb70 82bc
00000240: 1c3c 6b3d f4e5 c63c b87f a8bd 3ab1 f5bc
00000250: bf8a 9a3d 9653 62bd 463b 27bd 2cb8 a03d
00000260: 5d63 833d 6348 77bd 9169 3fbd 729b 26bd
00000270: 8fa9 00be 815f 03be 3fa7 473d 6d52 cf3d
00000280: 19b2 ac3d ec01 f0bc 10ca 66bc ccb0 b73c
00000290: e980 b3bc ca6c 063d c95e 043e 62e0 7e3d
000002a0: f6e3 c53d 4677 63bd dcd8 9bbd fdaa 31bd
000002b0: 0a04 92bd c785 b23d 6dbb 023e 3bed dcbd
000002c0: c39c 8bbd 4df2 f739 7f15 18bd e86c 36bd
000002d0: dc50 a7bd 9891 0f3d 7125 933c 919a 06be
000002e0: 5dab e03d 9f1f a43d 0f0c 80bc 65b5 8f3d
000002f0: 25d1 b93d 75e1 f2bd 3a80 af3d 3a32 4b3c
00000300: dd95 6bbb 970a 00be b539 833d 0000 71b9
00000310: a665 513d a92c e4bc faed 4a3b c4fd debd
00000320: 2876 bfbd 0052 41bc 20e0 0abd 2a7e af3d
00000330: 9f4a 403d 6596 25bd fab1 d1bd 1eeb 843c
00000340: 850f d43c 44cd 2dbc b528 1ebd 684b b33d
00000350: ff79 12be 33a1 06bd 9621 9d3d 38c6 cabd
00000360: 84f9 55bd aab8 9d3c 89bf 94bd 1d89 693c
00000370: 7d2f 37bd b266 17bd 7868 01be eb45 9cbd
00000380: f84e e5bc acb9 b7bc 4813 613c a38a a7bb
00000390: 091a 893d c5f9 633d 1a8c 12be b267 c03d
000003a0: b128 c8bb 8de8 753c 3d37 883c 58c6 87bb
000003b0: c967 353d c2d1 98bd b10f 05bc 9840 08bd
000003c0: 3c47 d13d 2401 debc 60a5 53bd 3ef5 cd3c
000003d0: 5407 893d 2937 c63c 430e a63d 892d babb
000003e0: 6a95 603b ef3f f6bd 62af adbd c39f 9fbd
000003f0: 8630 af3c 9880 c63d 3f45 d53d 70d3 973d

layer2.bias f4 [200]
-0.01502829 -0.021047784 0.017582921 -0.010666977 -0.007069302 0.011792713 -0.014190024 -0.02227279
0.00431475 0.009866972 0.02803248 -0.008684245 -0.004666157 0.028704992 0.0037178819 -0.008937575
-0.00827364 -0.012010758 -0.01816849 -0.019720733 -0.00524888 0.0062459265 0.010080504 -0.02311235
0.0041184425 -0.016149977 0.0047224695 -0.013924445 -0.0138990255 0.013956812 -0.0013623973 0.017578539
0.005246003 -0.008988434 -0.017253935 -0.010637161 0.023758952 -0.022357943 0.028158156 0.0073768636
0.0066067176 -0.014792698 0.015639827 -0.013548827 0.014419277 0.019673519 -0.014103294 0.017205672
-0.023418557 0.0074283606 0.0 -0.016031012 0.006495561 -0.012978272 -0.016187726 0.018690066
0.0036670116 -0.017790496 -0.015354842 0.00010092454 0.012501581 0.0 0.02501256 0.028676812
-0.0052860524 -0.014591743 -0.010986429 0.0063392045 -0.01050669 0.040030997 0.0059027174 -0.004636458
0.024273634 0.009589408 -0.012926516 0.003488755 0.0068451627 -0.011848268 0.015884113 -0.024999546
-0.011792713 -0.0041373405 -0.0047255973 0.013920967 -0.014794265 0.012520127 0.0 0.0040369616
0.019846058 0.027028356 0.012282122 -0.01518965 -0.002282794 0.011071493 -0.0061626756 -0.0067115324
-0.015561969 -0.015221882 0.012872671 -0.010643213 -0.020753551 -0.021906018 0.0133364415 -0.010813648
0.019788021 0.02501926 -0.014053179 -0.030532215 0.016371056 0.028513646 0.012403971 0.007870757
-0.0044370657 -0.014967341 -0.016019192 -0.017789623 0.02055139 -0.028293515 -0.006020903 0.0089724725
-0.016549474 -0.013191791 -0.019735534 0.013148945 0.02609819 0.030157957 -0.007855688 -0.013498239
0.0039857873 0.0110348705 0.02801778 0.020532154 0.016590653 0.020535463 0.016945073 -0.022937149
0.007682743 0.019039692 -0.016203139 -0.009146063 0.019822808 -0.0047677765 0.019646784 -0.014789482
0.026082354 -0.03305756 -0.018947609 0.0019522952 -0.01585868 0.0013481274 -0.0137043465 -0.0063406886
0.0076087774 0.00545197 -0.0034270652 -0.014794093 -0.0035851416 -0.013333586 -0.0077014384 -0.0024744398
0.017803714 -0.010727852 -0.0071109827 0.017138308 -0.011638488 0.015404039 0.0035382656 0.006277873
0.024318926 0.024100274 -0.013422417 0.014456384 -0.010550138 0.02153535 -0.029180242 0.011322963
0.01706339 -0.012225025 0.008915307 -0.020676002 -0.017189808 0.024525989 -0.020405367 -0.027175765
-0.003630931 -0.009989936 0.023605242 0.011710609 -0.012291157 -0.004581356 -0.018308206 -0.019714234
-0.0025023425 -0.020230202 0.021623611 -0.012594589 -0.011027993 -0.0078502195 -0.01584805 -7.0177295e-05
00000000: 3839 76bc 676c acbc 0f0a 903c 8bc4 2ebc
00000010: 9aa5 e7bb 3936 413c 467d 68bc 6d75 b6bc
00000020: bf62 8d3b 15a9 213c 5fa4 e53c 5d48 0ebc
00000030: 90e6 98bb bb26 eb3c b5a7 733b e86e 12bc
00000040: 298e 07bc c5c8 44bc 16d6 94bc 608d a1bc
00000050: ccfe abbb a1aa cc3b b328 253c 1c56 bdbc
00000060: 00f4 863b f54c 84bc f2be 9a3b 5b23 64bc
00000070: bdb8 63bc 1dab 643c 7892 b2ba de00 903c
00000080: aae6 ab3b 3a44 13bc 2058 8dbc 7d47 2ebc
00000090: 22a2 c23c 0128 b7bc efab e63c 9eb9 f13b
000000a0: 2a7d d83b 135d 72bc 181f 803c e6fb 5dbc
000000b0: d53e 6c3c 5c2a a13c 8111 67bc e9f2 8c3c
000000c0: 46d8 bfbc 9b69 f33b 0000 0000 7853 83bc
000000d0: b7d8 d43b d1a2 54bc 1f9c 84bc e91b 993c
000000e0: 3f52 703b 60bd 91bc e092 7bbc 73a7 d338
000000f0: 6ed3 4c3c 0000 0000 24e7 cc3c a2eb ea3c
00000100: 9f36 adbb 3512 6fbc 6c00 34bc 1ab9 cf3b
00000110: 4024 2cbc 8bf7 233d 956b c13b 6eed 97bb
00000120: 80d9 c63c e41c 1d3c bdc9 53bc 99a3 643b
00000130: 634d e03b 3d1f 42bc 661f 823c d9cb ccbc
00000140: 3936 41bc 8792 87bb 2fd9 9abb c414 643c
00000150: a563 72bc 3821 4d3c 0000 0000 7d48 843b
00000160: 3394 a23c 926a dd3c f43a 493c 02de 78bc
00000170: ee9a 15bb 3565 353c 45f0 c9bb 6aec dbbb
00000180: a1f7 7ebc 3365 79bc e5e7 523c df60 2ebc
00000190: 5a03 aabc 4074 b3bc 1781 5a3c ba2b 31bc
000001a0: 7d1a a23c 31f5 cc3c 4e3f 66bc b21e fabc
000001b0: 981c 863c 7395 e93c 063a 4b3c 59f4 003c
000001c0: ce64 91bb 9439 75bc ae3a 83bc 8bbb 91bc
000001d0: 635b a83c cdc7 e7bc ff4a c5bb 4701 133c
000001e0: c392 87bc 6222 58bc 6aac a1bc ac6e 573c
000001f0: dfcb d53c d20d f73c 25b5 00bc b827 5dbc
00000200: 359b 823b 9acb 343c 8b85 e53c 0c33 a83c
00000210: 1fe9 873c fd39 a83c 65d0 8a3c b0e6 bbbc
00000220: 85bf fb3b 21f9 9b3c 72bc 84bc 5ed9 15bc
00000230: 7163 a23c 023b 9cbb 4bf2 a03c 954f 72bc
00000240: a9aa d53c 5d67 07bd 0438 9bbc 28e4 ff3a
00000250: 10ea 81bc a6b3 b03a 3288 60bc 8dc5 cfbb
00000260: 0d53 f93b 70a6 b23b 9d98 60bb ec62 72bc
00000270: b2f4 6abb 1d75 5abc 595c fcbb 362a 22bb
00000280: 18d9 913c dfc3 2fbc 3f03 e9bb a365 8c3c
00000290: 5baf 3ebc 3961 7c3c 3fe2 673b 9eb6 cd3b
000002a0: 7c38 c73c f06d c53c b3e9 5bbc 78da 6c3c
000002b0: 7cda 2cbc e76a b03c 670b efbc f383 393c
000002c0: 86c8 8b3c 794b 48bc 8211 123c b860 a9bc
000002d0: a4d1 8cbc baea c83c 2829 a7bc b69f debc
000002e0: eaf4 6dbb d4ac 23bc c85f c13c dbdd 3f3c
000002f0: d960 49bc 331f 96bb 17fb 95bc bf7f a1bc
00000300: 57fe 23bb cfb9 a5bc 0024 b13c 8959 4ebc
00000310: c1ae 34bc 359e 00bc c5d3 81bc 262c 93b8

mu.weight f4 [4, 200]
0.09318094 0.045296878 -0.09152312 -0.013959942 -0.1581424 -0.039499547 0.085204445 0.17692359
0.091744505 -0.13347876 -0.10016083 -0.09054207 0.14881246 0.0064940155 0.12963033 -0.07338529
0.15907744 0.119093634 0.07559124 0.109880835 0.058089644 0.06473361 0.022011885 -0.11066103
0.02316646 0.058771078 -0.009103094 0.11475137 -0.080363005 -0.1124106 0.1450987 -0.06830747
-0.14709012 -0.0099719195 0.0041629868 -0.15179673 -0.14359872 0.044438444 -0.07189843 -0.03916041
-0.036970776 -0.13064322 -0.10235757 0.12027924 -0.07210953 -0.13034905 0.041293986 -0.06943007
-0.09655864 -0.044538837 0.16605778 -0.059962258 -0.055563763 0.08110521 0.05181186 -0.14418764
0.11402092 -0.06143332 0.036944102 0.10654153 -0.14454561 0.060665652 -0.14232293 -0.051497698
-0.019664202 0.10250149 0.11332105 -0.08066391 0.08760455 -0.034588613 -0.09752868 0.12167504
-0.0012363669 -0.019271158 -0.048836928 0.15563288 -0.030342618 -0.08323135 -0.12872408 0.075489506
-0.06870485 0.0113796685 0.09508074 -0.029226638 0.09982593 0.01835972 -0.15205106 -0.104556836
0.07016694 -0.13472468 -9.914957e-05 0.0055784495 0.021966139 -0.074680954 -0.008063628 0.065648325
0.15418446 -0.09373952 -0.11134927 0.11036888 -0.045682415 0.12824439 0.02997677 -0.0704367
-0.05623181 -0.12875776 0.11361843 0.14593707 -0.12900919 0.0128135225 0.006113966 -0.019068716
0.09479224 0.049955867 -0.01477825 0.03856692 -0.113928415 0.010056917 -0.09292931 -0.13833739
-0.054019988 0.14821431 0.018360324 0.03599525 -0.026967831 -0.06135517 -0.08944419 0.13573027
0.011813963 -0.15137176 -0.06982256 -0.034751598 0.06162274 0.14132756 0.12011366 -0.107921794
-0.10130397 -0.14876045 0.044999752 -0.015631841 0.08813313 0.03308267 -0.14009796 -0.10543632
-0.06856144 -0.0138709005 0.12668158 0.052484095 -0.0350165 -0.1410915 -0.09530999 -0.07303184
-0.033503897 0.0048580114 0.09580599 -0.014700206 0.11695418 0.16750717 0.042212795 -0.016310697
-0.09309318 -0.11215283 -0.17316939 0.04443202 0.13036962 -0.07265316 -0.019448629 -0.093414955
0.064799026 -0.04142142 0.058687862 -0.10125136 0.12975241 -0.1785747 -0.09646315 0.12857437
-0.02745626 -0.13015969 -0.15354829 0.13018985 -0.045621958 0.07207734 -0.06845825 0.097175986
0.07348231 0.13786766 -0.17187706 0.039786343 0.07777302 0.1540889 0.07338446 0.09385521
-0.086010315 0.08809571 -0.09977247 -0.01089134 0.090318315 0.06274708 -0.018342776 0.13401355
0.062108792 -0.12115875 0.11529928 -0.0053511187 -0.09674717 0.09008576 -0.11142473 -0.10549397
0.07580874 0.13507305 0.104567826 -0.08671471 -0.13338862 0.08714458 -0.10051841 -0.030933246
0.098810844 -0.022789532 -0.045245234 0.11850675 0.10111762 0.086285144 0.047305938 -0.00782143
-0.060288154 0.09797706 0.13767661 -0.15003105 -0.06795491 -0.052760907 -0.062068626 0.063907854
0.03814922 -0.138494 -0.036574565 -0.002010617 0.13666143 -0.09046446 0.02305799 0.09354496
-0.12022958 -0.068114296 0.07930879 -0.15060444 -0.016025182 0.13089529 -0.1538909 0.10145834
-0.15406004 -0.07171623 0.010932952 -0.13512388 -0.017549189 -0.053919386 0.035984628 0.07262622
00000000: a6d5 be3d 3889 393d 7970 bbbd 3eb8 64bc
00000010: 15f0 21be 47ca 21bd ab7f ae3d 752b 353e
00000020: 8be4 bb3d a8ae 08be 1f21 cdbd 1f6e b9bd
00000030: 4b62 183e c0cb d43b d0bd 043e 074b 96bd
00000040: 32e5 223e 5de7 f33d 94cf 9a3d 3409 e13d
00000050: 68ef 6d3d 0e93 843d 4552 b43c 40a2 e2bd
00000060: 97c7 bd3c f1b9 703d 2525 15bc c402 eb3d
00000070: 5c95 a4bd 8737 e6bd c194 143e c9e4 8bbd
00000080: cb9e 16be 4361 23bc aa69 883b 9a70 1bbe
00000090: 8b0b 13be 1605 363d 7c3f 93bd ab66 20bd
000000a0: ab6e 17bd 56c7 05be d8a0 d1bd f654 f63d
000000b0: 29ae 93bd 397a 05be e223 293d 5a31 8ebd
000000c0: 89c0 c5bd 5b6e 36bd 0d0b 2a3e fc9a 75bd
000000d0: d496 63bd 7d1a a63d ac38 543d eda5 13be
000000e0: cd83 e93d 81a1 7bbd b352 173d 7232 da3d
000000f0: c403 14be 8c7c 783d 1abd 11be 40ef 52bd
00000100: d216 a1bc 4dec d13d de14 e83d 1f33 a5bd
00000110: 046a b33d caac 0dbd 1ebd c7bd c330 f93d
00000120: 970d a2ba 8cde 9dbc 3b09 48bd 3a5e 1f3e
00000130: 1591 f8bc 3375 aabd 3fd0 03be 3e9a 9a3d
00000140: 21b5 8cbd ca71 3a3c b1b9 c23d b46c efbc
00000150: 8a71 cc3d 2067 963c 46b3 1bbe e521 d6bd
00000160: afb3 8f3d 44f5 09be 85ee cfb8 6dcb b63b
00000170: 55f2 b33c 54f2 98bd 4f1d 04bc a172 863d
00000180: 88e2 1d3e 81fa bfbd 160b e4bd 1409 e23d
00000190: 7c1d 3bbd 7f52 033e d891 f53c 1e41 90bd
000001a0: 5453 66bd 13d9 03be c8b0 e83d 8770 153e
000001b0: fc1a 04be cfef 513c aa57 c83b ff35 9cbc
000001c0: 6f22 c23d 869e 4c3d 7920 72bc 59f8 1d3d
000001d0: 4d53 e9bd c4c5 243c b951 bebd 51a8 0dbe
000001e0: 1044 5dbd 7ec5 173e 6468 963c c16f 133d
000001f0: a4eb dcbc 8f4f 7bbd 842e b7bd e0fc 0a3e
00000200: 5a8f 413c 3301 1bbe 21ff 8ebd b157 0ebd
00000210: 2068 7c3d 2cb8 103e 27fe f53d 1a06 ddbd
00000220: 7578 cfbd a954 18be a951 383d 590e 80bc
00000230: 247f b43d b281 073d d775 0fbe ffee d7bd
00000240: f169 8cbd c642 63bc d1b8 013e 90f9 563d
00000250: 766d 0fbd 4a7a 10be e231 c3bd b891 95bd
00000260: 623b 09bd f42f 9f3b ee35 c43d 22d9 70bc
00000270: ac85 ef3d 0087 2b3e 53e7 2c3d 039e 85bc
00000280: a3a7 bebd 62b0 e5bd 5153 31be 5afe 353d
00000290: 9d7f 053e 2ecb 94bd bb52 9fbc 5750 bfbd
000002a0: 5ab5 843d 82a9 29bd af62 703d df5c cfbd
000002b0: d1dd 043e 49dc 36be 798e c5bd 00a9 033e
000002c0: f3eb e0bc 9548 05be c33b 1dbe 7d50 053e
000002d0: 17de 3abd 499d 933d d733 8cbd 3404 c73d
000002e0: e57d 963d 2e2d 0d3e 8a00 30be 01f7 223d
000002f0: 7647 9f3d 7bc9 1d3e 974a 963d 2937 c03d
00000300: 2d26 b0bd 866b b43d 8255 ccbd 9771 32bc
00000310: cff8 b83d 8b81 803d 9743 96bc d93a 093e
00000320: ca65 7e3d 1422 f8bd 0722 ec3d 7058 afbb
00000330: 6123 c6bd e27e b83d a632 e4bd 390d d8bd
00000340: 9d41 9b3d 9750 0a3e a827 d63d 7b97 b1bd
00000350: 0797 08be dc78 b23d 99dc cdbd b867 fdbc
00000360: 575d ca3d 1db1 babc 1153 39bd abb3 f23d
00000370: c116 cf3d 44b6 b03d dfc3 413d 7525 00bc
00000380: b6f0 76bd 32a8 c83d 19fb 0c3e bda1 19be
00000390: f22b 8bbd d21b 58bd ac3b 7ebd 1fe2 823d
000003a0: 5b42 1c3d 5fd1 0dbe 36cf 15bd 8ec4 03bb
000003b0: f9f0 0b3e 6e45 b9bd 1ce4 bc3c 8094 bf3d
000003c0: ed3a f6bd 827f 8bbd a66c a23d 0d38 1abe
000003d0: 3e47 83bc 6a09 063e 9395 1dbe 64c9 cf3d
000003e0: eac1 1dbe f5df 92bd 2020 333c ea5d 0abe
000003f0: 51c3 8fbc 93da 5cbd 9e64 133d 0ebd 943d

mu.bias f4 [4]
-0.019851375 0.025459252 -0.016572848 -0.0070725214
00000000: 5a9f a2bc ec8f d03c c8c3 87bc 9cc0 e7bb
