llirl_sumo/saves/120p4k/optimal_policy_period_3.pth (torch, 196916 bytes, 7 tensors)

sigma f4 [4]
000000 ec 06 d4 bc c9 d1 5b 3c 3f d9 d7 3c 17 87 44 3b
       -0.025882207 0.013416716 0.026348708 0.0029987746

layer1.weight f4 [200, 36]
000000 b0 55 4e 3d 6d c8 1a 3e 30 3c 8a bb fd cc c0 3c
       0.050374687 0.15115519 -0.0042186007 0.023535246
000010 25 f0 23 3d 06 32 6d 3d df e4 80 bd ce 66 8f 3d
       0.04002394 0.057909034 -0.06293654 0.0700203
000020 93 55 2a bd 8e f1 b1 3d f5 0b 0b bd 19 1f 61 3d
       -0.041585516 0.08688651 -0.03394695 0.054961298
000030 02 b6 c8 3d c2 27 ee bd 15 f4 39 3d fd 74 e2 3c
       0.0980034 -0.11628677 0.04539879 0.027643675
000040 88 a8 03 be 8f 6e de bc 60 38 89 3b a1 29 f8 3d
       -0.12857258 -0.027152328 0.0041876286 0.12117315
000050 cd 8b a1 bd df f4 f4 3d 79 9c 8e bd c2 1b 8a 3d
       -0.07887993 0.11960768 -0.069634385 0.06743576
000060 9b 40 1d 3d e2 c7 d1 3d 78 a0 ca 3d fb b6 0d be
       0.03839169 0.10243203 0.09893888 -0.13839333
000070 89 9b 32 bc a6 b5 19 be 61 9b e4 ba d7 76 bf bd
       -0.01090134 -0.150107 -0.0017441326 -0.09348839
000080 ff fa 0b 3e 14 29 9e 3d 35 cb 98 bd a0 d0 aa 3c
       0.13669966 0.07722679 -0.07460634 0.020851433
000090 e7 cb 9b bd 5e 5b 08 be ee da c1 3d 8e 95 0e bc
       -0.07607251 -0.13316104 0.09465586 -0.008702649
0000a0 cd 94 59 3c 23 a8 39 3c ef da 73 3d 04 cb b5 3d
       0.013280106 0.011331591 0.059534963 0.08876613
0000b0 08 5c 4f bd 8e ab 2b bb 63 12 93 bd 4c 07 8f bd
       -0.050624877 -0.0026194784 -0.07181241 -0.06983814
0000c0 21 d5 26 bd b1 54 0f 3d 72 bb e3 bd f2 14 cc 3b
       -0.0407306 0.034992877 -0.11119737 0.006228083
0000d0 a4 00 0a 3e 20 5c 07 be 74 e0 db 3c e3 e5 e4 3d
       0.13476807 -0.13218737 0.026840426 0.1117666
0000e0 5f 9d c6 3c 08 dd cb 3d 69 a8 a5 bd de 8a 84 3c
       0.024244962 0.09954268 -0.08088762 0.016179498
0000f0 19 e0 25 bd 0c e2 8a 3c 2f 75 a9 bc eb 76 f7 3c
       -0.04049692 0.01695349 -0.02068576 0.030208072
000100 c0 3c 1c 3e 1e bc 08 bd d8 38 18 3d e0 0b d9 bd
       0.1525755 -0.033382528 0.037163585 -0.10597968
000110 5e dd c1 3d d3 f5 27 3d a4 f7 cb bd 62 4e eb 3d
       0.094660506 0.04100592 -0.09959343 0.1148956
000120 70 ac be bd aa 35 10 be 22 f3 17 be 6e 2f b2 bd
       -0.093102336 -0.14082971 -0.14838842 -0.08700453
000130 b0 c6 50 bd 83 57 91 bd 6c 8d 16 3e 53 4b 23 be
       -0.050970733 -0.0709677 0.14702386 -0.15946703
000140 54 0d a1 bc dd e3 ed bd 28 74 0e 3e b5 72 30 bd
       -0.019659676 -0.11615727 0.13911498 -0.043078143
000150 ae d6 16 be 1a 42 65 3d 3c 68 a4 bd b4 1c a7 3d
       -0.14730331 0.055971242 -0.08027694 0.081597716
000160 44 7a 20 3e 71 15 dc bc 9e f3 c9 ba 5b 1f 0e be
       0.1567164 -0.026865693 -0.0015407687 -0.13879149
000170 93 7a 6b bc c6 fd db 3d 7a 26 d5 3d 42 85 96 3d
       -0.014372486 0.10741763 0.104077294 0.07349636
000180 ce 94 f7 bd 1d 27 f8 3d f2 4e b6 3d 65 a2 e6 bc
       -0.12088929 0.12116835 0.089017764 -0.028153608
000190 b3 39 17 be 8d 83 00 3e 0c c1 8f bc 5d f2 e9 bd
       -0.14768104 0.12550183 -0.017548107 -0.1142318
0001a0 6b 81 e7 3d 8b aa 16 be 21 bc 1d be 73 3a e8 3d
       0.113039814 -0.14713494 -0.15403797 0.11339273
0001b0 77 51 db 3d 16 60 ed bc 65 83 a8 bc 78 d9 7e bd
       0.107088976 -0.028976481 -0.020570466 -0.062219113
0001c0 f5 36 0c be fd 3e ba bd 70 10 c0 bd c5 c1 19 3b
       -0.1369284 -0.09094045 -0.09378135 0.0023461443
0001d0 47 09 4a bd 81 43 e2 bb 39 3d af bd e0 ff 9a 3d
       -0.049325254 -0.0069050197 -0.08556599 0.075683355
0001e0 01 95 b9 3d 6a 5f 15 bd 5e d8 ee 3d 24 0d 43 3d
       0.09061623 -0.036467947 0.116623625 0.047619954
0001f0 94 dd fe bd 5d f9 54 bd 8e d8 f9 bd aa 48 df bc
       -0.124446064 -0.051995624 -0.12199508 -0.027256329
000200 e1 55 c2 3d 4d 30 ae bc 73 c4 7e bd af 27 68 3c
       0.09489036 -0.021263266 -0.062199067 0.014169618
000210 a2 8e 62 bd 65 1a 23 be 41 68 73 3b da 6e 1b be
       -0.055311806 -0.15928037 0.0037140998 -0.15179005
000220 df 9c 02 3d 31 18 51 bd 3d 5c 2b 3d 43 54 eb bd
       0.031887885 -0.05104846 0.041836012 -0.11490681
000230 40 4f cb 3c b3 bc f7 3c 23 1d ad bd 65 60 29 bc
       0.024818063 0.030241346 -0.08452823 -0.010337924
000240 ff e9 4f 3d 9b cd bb bc c7 80 54 bd dd 59 bf 3d
       0.050760265 -0.022925189 -0.051880624 0.09343312
000250 80 f1 14 3e 73 1e b0 bd 69 db 86 3c 9d 02 10 bd
       0.1454525 -0.08599558 0.016462045 -0.035158742
000260 c5 f3 76 bc a2 17 c2 3d 26 fa f9 bb 5a 72 9a bc
       -0.015072768 0.09477164 -0.007628697 -0.018853355
000270 5c e1 4e 3d c6 3e f6 3d 07 dc 0d 3e ef 12 38 3d
       0.05050789 0.12023692 0.13853465 0.04493993
000280 ba d8 c2 bd cf 91 8f bd f2 41 09 be 25 9a 28 be
       -0.095139936 -0.07010233 -0.13404062 -0.16465051
000290 e5 91 32 be 88 4f 46 bd c7 f2 17 3d 20 8d 08 3e
       -0.17438467 -0.04841569 0.037096765 0.13335085
0002a0 ee 2d 6f bc 45 f5 2a be 76 49 aa bd c6 c0 c8 3d
       -0.014598353 -0.16695125 -0.08314793 0.098023936
0002b0 a7 b1 00 3e 4f d1 0a 3d 99 3d df bc d4 7b d1 3d
       0.12567769 0.03389102 -0.027251052 0.102286965
0002c0 09 8c 1a 3d 84 f8 e5 bd 06 f7 cd bd 19 4d 3b bd
       0.037731204 -0.11229041 -0.100568816 -0.045727823
0002d0 0b 49 22 bd a1 87 bb bd 68 47 ff bc 24 29 cc 3d
       -0.03962044 -0.091567285 -0.031161979 0.099687845
0002e0 4b 76 be 3d e2 02 e3 bc 87 2c c4 3d b8 33 d5 3d
       0.09299906 -0.027711336 0.095788054 0.10410255
0002f0 32 aa 62 bd d9 25 05 3e 0f a2 29 3d 27 c7 25 bd
       -0.055338092 0.13002719 0.041414317 -0.04047313
000300 97 5b 26 3e f3 78 ec bc b2 2b 5a 3c 75 61 3e 3d
       0.16245876 -0.028866267 0.013316082 0.04647966
000310 e2 f6 10 3c 51 54 b9 3c 68 e5 91 bd 5e 44 02 3d
       0.008847924 0.022623213 -0.07123834 0.03180348
000320 50 c0 a9 3c b4 e2 05 bd f2 ca 14 be 29 80 67 bd
       0.020721585 -0.032686904 -0.14530542 -0.056518707
000330 d6 e5 19 3e 2f 84 cb 3d a9 49 50 3d d9 e1 8d bd
       0.15029082 0.099373214 0.050851498 -0.06927843
000340 c9 ab 98 3d 05 bb cf 3d b0 d3 d5 bd 55 c9 57 bd
       0.074546404 0.10143093 -0.10440767 -0.05268224
000350 8e 6d 01 be 48 5c 2a be 8b 55 0d 3e ad 77 1c 3d
       -0.12639448 -0.16636765 0.13802163 0.03820007
000360 c0 79 8f bc ec e5 e1 bc 16 20 e5 bb 96 7e 1d 3e
       -0.01751411 -0.027575456 -0.0069923503 0.1538032
000370 25 a2 1b be e0 e9 e4 3d 20 95 8a 3d fa bf 94 bc
       -0.15198572 0.111774206 0.067667246 -0.018157948
000380 70 87 9c bd bd 96 34 bd 11 cd ab bd e3 b7 42 3d
       -0.0764302 -0.044089068 -0.08388723 0.04753865
000390 29 a4 e8 3d 03 d9 c2 3d 02 e5 01 be 1d d5 a6 3d
       0.11359436 0.09514048 -0.12685016 0.08146117
0003a0 fa c4 af 3c 48 a3 0e bd 20 0f fc bd ec a2 c6 bd
       0.02145623 -0.034823686 -0.12307572 -0.09699044
0003b0 8d b1 0b 3e e9 5a df 3c 04 1b fa bd 4c 8f 84 bc
       0.13641949 0.027265029 -0.12212184 -0.01618161
0003c0 37 97 9a bd d9 30 3d bd cc 79 6c 3d 27 8f 18 be
       -0.07548373 -0.046189163 0.057733342 -0.14898358
0003d0 5d 46 06 be 63 8a e2 bd 8f d5 c2 bd e9 ea d2 bd
       -0.13112779 -0.110615514 -0.09513389 -0.10298712
0003e0 26 80 d4 3d d0 21 19 3e f0 fd 00 be 4b 73 ab bd
       0.10376005 0.14954305 -0.1259687 -0.083716
0003f0 f0 17 bb 3d 52 d1 a5 3d 22 fc 12 be db c3 3c bd
       0.09135425 0.08096565 -0.14353994 -0.04608522

layer1.bias f4 [200]
000000 f2 35 c6 ba a6 8a 44 3b 0a 20 53 3b b8 2d 61 bb
       -0.0015122278 0.0029989867 0.0032215142 -0.0034359526
000010 e8 86 86 3b a2 73 cb bb 71 9f 7b ba 0a 75 cc bb
       0.0041054375 -0.006208853 -0.0009598649 -0.006239538
000020 77 61 8e bc 24 27 08 bc ee 74 91 bc 80 44 63 3b
       -0.01738046 -0.008310113 -0.017755952 0.003467828
000030 5e 35 24 3c 6c fb e9 bb 85 0c 0e ba a1 30 de bb
       0.010022489 -0.0071405675 -0.00054187357 -0.0067806994
000040 fe 8a b9 ba 4d e2 a1 bb 77 86 a2 bb f2 57 94 bc
       -0.0014155803 -0.0049403072 -0.004959877 -0.018108342
000050 18 ff 93 3c 50 7d 17 bc a1 6f f3 ba 27 ec 0e bc
       0.018065974 -0.009246185 -0.0018572697 -0.008723295
000060 c3 27 39 bc 7f dd 61 bc 44 83 85 3a 71 3d 5d 3c
       -0.011300984 -0.013785719 0.0010186215 0.013503418
000070 21 7f 75 bb d0 b4 82 bc 39 14 9d bc 86 1c 07 bc
       -0.0037459808 -0.015955359 -0.019174682 -0.008246547
000080 5a 28 d5 3b 77 6b 61 bb 15 a3 c2 3c 6d 81 b0 bc
       0.0065050544 -0.003439633 0.023759404 -0.02154609
000090 81 4f 9a bc 55 43 03 bd 61 8a 30 3c 1c 1a c0 3c
       -0.018836739 -0.032046635 0.01077518 0.02344995
0000a0 01 df c9 bc 6a a7 90 3b 43 df e9 bb c7 35 b3 bb
       -0.02464247 0.0044144886 -0.0071372106 -0.0054690572
0000b0 89 ee 81 bc 3c c5 c2 ba 04 d5 18 bc 15 59 56 ba
       -0.015860813 -0.0014859806 -0.009328131 -0.00081767264
0000c0 17 e8 ac 3c 90 61 f2 bb 9a 0f e1 3c 9b 9e 82 bc
       0.021106763 -0.0073968843 0.02747326 -0.01594477
0000d0 8d 3b 4e bc 46 72 18 bc 4b 4e 83 3b e7 e1 4a bc
       -0.01258744 -0.009304589 0.004007136 -0.012382961
0000e0 c5 b3 61 bc 9b 23 5e bc 06 e5 19 bc 67 39 98 bc
       -0.013775771 -0.013558294 -0.009392982 -0.01858206
0000f0 c9 7d 87 bb 84 c0 44 bb 5d a4 c6 3b 7b 8d 82 bb
       -0.004134868 -0.0030021975 0.006062074 -0.003984151
000100 b8 0f 82 bc 2d d7 d3 bc 78 3a fe 3a ea e9 76 bb
       -0.015876636 -0.02585944 0.0019396087 -0.0037676045
000110 d4 46 7c 3c 15 d8 76 bc b6 90 b4 38 1c 2e 4a bb
       0.015397746 -0.015066166 8.610023e-05 -0.0030850237
000120 1e 2b a2 bc 8d a2 15 3c 9c 7f ba 3c dc 68 2e 3c
       -0.01979595 0.009132993 0.022765927 0.010645118
000130 e3 56 a6 3b 85 98 f7 b9 d1 be 91 3c 71 d5 9c bc
       0.0050762757 -0.00047225147 0.017791184 -0.019144746
000140 a3 e4 90 3b 86 53 b2 bc 4f ff 09 bb 62 ed 6f 3c
       0.004421787 -0.021768343 -0.0021056717 0.014643999
000150 79 08 b7 3c 8f 9d 70 bc 0d 9a 43 bc 01 d9 a2 bc
       0.022342907 -0.014686002 -0.011938584 -0.019878866
000160 56 15 9d bc be 82 11 3b a8 c7 90 3b 8c b9 0e bb
       -0.019175213 0.0022203173 0.004418332 -0.0021778075
000170 88 3e aa bb f1 51 01 bc b3 ad 1c 3c 5d 89 b6 bc
       -0.0051954426 -0.0078930715 0.0095628975 -0.022282297
000180 20 1a 15 ba 0d 52 2e bc 12 1a 99 bc 85 ad 56 3b
       -0.0005687792 -0.01063968 -0.01868919 0.0032757234
000190 04 6c 60 bc ab 09 23 3c 64 a6 c9 bb a4 af 98 3b
       -0.013697628 0.0099510355 -0.0061538685 0.00465961
0001a0 5b 6d 51 3c a5 3b 2b bc 94 8c 90 bb f7 ce ba bc
       0.01278242 -0.010451232 -0.0044112895 -0.022803767
0001b0 ba a5 25 3c c4 69 23 bb 72 70 e3 3c e4 b0 74 3c
       0.010110313 -0.0024934867 0.027763579 0.014934752
0001c0 45 7c db bc 23 c7 26 bc ee 5e a0 3c 45 3b f7 3b
       -0.026792655 -0.010179314 0.019576516 0.0075449073
0001d0 03 be 20 bb ef c0 38 bc 67 7d 4a 3c 5a f3 94 3c
       -0.0024527318 -0.011276468 0.012359 0.018182445
0001e0 f5 3d a3 3c 36 aa 62 3c 14 aa 9e 3a db 98 64 bc
       0.019927004 0.013834527 0.0012105131 -0.013952459
0001f0 38 b3 83 3b 95 a0 25 3c d3 b3 b6 3b d7 b9 66 bc
       0.0040191673 0.0101090865 0.005575636 -0.014082394
000200 ea 3a 20 3c ca e3 f3 3b fd 0f be 3a b6 a4 ad 3c
       0.009779671 0.007442926 0.0014500614 0.021196704
000210 68 71 84 bc 5a 1f dc 3b 1c ca 25 bc d1 d2 fa 3b
       -0.016167358 0.0067176046 -0.010118987 0.007654526
000220 40 3b 10 3c 7c a5 8d bc 9f 4e 59 bc c6 da 85 3b
       0.008803189 -0.017290823 -0.013263374 0.0040849177
000230 f2 1e c3 3b f1 3a 3b 3b 82 7a 1e bb d4 8d e8 3b
       0.0059546167 0.0028569067 -0.0024181907 0.0070969854
000240 e8 25 8c bc 00 00 00 00 f9 11 b4 bc 59 4c 8c bc
       -0.017107919 0.0 -0.021981226 -0.01712625
000250 55 40 93 bc e4 2a 58 3c b0 0e 95 bc 88 72 2f 3c
       -0.017975012 0.01319382 -0.01819548 0.010708459
000260 af 48 57 3c 6c f3 0c 3c 20 8d 8a bc 34 eb 8f 3c
       0.013139888 0.008602958 -0.016912997 0.017568208
000270 b8 61 6f 3c c5 7f 89 bc 10 e1 e0 3b 7c d7 54 bc
       0.0146107 -0.016784558 0.006862767 -0.012990829
000280 4a aa 85 bb 00 00 00 00 24 fa ab 3c 75 2f 9f bc
       -0.004079138 0.0 0.0209933 -0.019431809
000290 03 ed 74 3c 97 43 5b bc 50 55 9a bc ec 75 2d 3c
       0.014949086 -0.013382814 -0.018839508 0.010587197
0002a0 59 be 86 3c 84 e1 80 bc 8c 8a a9 ba 03 ae 28 3c
       0.016448187 -0.015732534 -0.0012934967 0.010295394
0002b0 6f f2 cf 3c bc 8b 38 3c d6 19 03 bd bd fd de 3a
       0.025384156 0.011263784 -0.03200706 0.0017012876
0002c0 8f fd 97 3c 6c 5a 9b bc 43 b1 84 bc a6 fd 74 3c
       0.018553523 -0.018964015 -0.016197806 0.014953053
0002d0 9c bc c3 ba ac 12 0b bb 8b 63 a9 bb 65 88 c2 3c
       -0.0014933529 -0.0021220846 -0.005169337 0.023746679
0002e0 2e 10 0f bc 22 b3 84 3c 43 d8 36 3b fb b7 19 bc
       -0.008731885 0.016198698 0.0027899898 -0.009382243
0002f0 0c fd a5 39 f1 73 6b ba db fb 16 bc d6 53 47 3c
       0.00031659787 -0.0008981815 -0.00921532 0.012165984
000300 2f 2e 4d bb 61 95 11 3c 7a 10 5a 3b 44 58 85 bc
       -0.0031308045 0.008885712 0.003327398 -0.01627744
000310 cd 23 7b 3c 7a 88 a5 3c b8 24 2b bc 44 9d ed 3b
       0.01532836 0.020206679 -0.010445766 0.0072514135

layer2.weight f4 [200, 200]
000000 b0 b5 56 3c bd 0b 64 3d 24 f5 d4 bd a1 4a ca bd
       0.013104841 0.055675257 -0.10398319 -0.098775156
000010 8e c4 e4 3b 65 29 e3 bc b7 0a 8e 3d 2b 00 86 3c
       0.006981439 -0.0277297 0.069356374 0.016357502
000020 ad fa 8d bd 35 14 a4 bd ec de 19 3a 49 52 46 3d
       -0.06932578 -0.08011667 0.0005869705 0.048418317
000030 1f 22 03 be 41 be 4b 3d b4 50 ce 3d 13 b4 9c 3d
       -0.12805985 0.049741987 0.10073987 0.07651534
000040 d0 36 96 bb 65 49 08 be 3a 7a 43 bd 5b 78 ae 3d
       -0.004584171 -0.13309248 -0.047723986 0.0851905
000050 b8 1b c0 bd a6 7e 98 bd 9a a8 5b bd 15 82 88 3d
       -0.09380287 -0.07446031 -0.053627588 0.06665436
000060 f1 81 79 bc 6b 51 01 be f4 36 f6 3c 31 19 9f bc
       -0.015228734 -0.12628715 0.0300555 -0.019421192
000070 93 c7 2c bc 24 4b 22 bc b0 57 45 bd 68 ec a6 bd
       -0.010545629 -0.00990561 -0.04817933 -0.0815056
000080 2b 8a 34 3d 22 62 c9 bd 74 dd 21 3c f9 9b c0 3c
       0.04407708 -0.098331705 0.009879459 0.023511874
000090 d7 f9 ad 3d 07 7c a2 3d d0 5e 76 bd 96 7d ce 3c
       0.08494919 0.079338126 -0.060149014 0.025206368
0000a0 e2 04 9e b9 c8 a2 f4 bb 3e ee 4d 3d 32 81 00 3e
       -0.00030139746 -0.007465694 0.050276034 0.12549284
0000b0 7e 6e 20 bb d2 32 3e bd 06 09 81 bc ad 5b 5d 3d
       -0.002447992 -0.046435185 -0.015751373 0.054042507
0000c0 10 6a 4c bd 15 2d 81 bc ec 76 b7 3c 98 b9 4c 3d
       -0.049905837 -0.015768567 0.022395574 0.049981683
0000d0 80 f2 b1 3d 84 33 27 bd a3 a5 e2 bd 40 94 35 bd
       0.08688831 -0.040820614 -0.11066749 -0.044330835
0000e0 d5 c7 ab bd 9c 07 90 bd 24 83 02 bd 83 67 3e 3c
       -0.08387724 -0.070327014 -0.031863347 0.011621359
0000f0 8e d4 60 3d d2 98 4f 3d 33 0b 35 3d 32 27 99 bd
       0.054890208 0.05068285 0.044200134 -0.07478179
000100 62 08 17 3d 99 18 38 3d 4a c0 fc 3d cb 18 97 3d
       0.03687323 0.044945333 0.12341364 0.07377776
000110 a8 58 64 bb 51 ab dc 3d f3 87 b5 3d 8f e1 96 bd
       -0.0034842882 0.107748635 0.08863821 -0.07367241
000120 ee e0 85 3d 55 36 d1 bc 06 1b fb bd 62 51 6f bc
       0.065370426 -0.025538603 -0.12261014 -0.0146068055
000130 81 85 e7 bd b9 02 41 3d be fc f6 bb 2a 9e 9b bc
       -0.11304761 0.047121737 -0.0075374534 -0.018996317
000140 0d 76 c4 bb 72 bb 97 bd bf 4f ee bd c1 fe 8e 3d
       -0.005995518 -0.07408799 -0.11636304 0.06982184
000150 83 00 c9 3c bb 3b f5 bd 91 df 46 3d 7b 2b b8 bd
       0.024536377 -0.11974283 0.048553053 -0.08992668
000160 a5 8b fb bc 46 50 d6 3d be ea 75 3b ea 89 9f bd
       -0.030706236 0.1046453 0.003752395 -0.07789977
000170 83 9e e3 bd c7 6c 77 3d 29 04 a2 bd 18 f7 36 bd
       -0.11114218 0.060406473 -0.0791095 -0.04466924
000180 c8 c4 98 bd 6f bb 91 3d 6d 29 02 be aa 9e 99 bc
       -0.07459408 0.07115828 -0.12711115 -0.018752415
000190 a0 ed 60 3b 06 08 91 bd 24 fe c2 3d 44 6d 06 be
       0.0034321323 -0.070816085 0.0952113 -0.13127619
0001a0 39 97 0d bd 82 e1 de 3c 62 33 66 bc 1a b4 23 3d
       -0.034568045 0.02720714 -0.014050337 0.03996668
0001b0 2b e1 ad bd f7 fe 44 3d 90 ce 8e bd d1 04 d2 3d
       -0.08490213 0.048094716 -0.069729924 0.10254825
0001c0 4b ac cc bd 32 67 48 bd 3f 9a af bd 30 e9 d9 bd
       -0.099938 -0.04892654 -0.08574342 -0.1064018
0001d0 54 15 86 bc 38 ab bb bd b7 11 d9 bd 2c 98 79 bd
       -0.016367592 -0.09163517 -0.10599082 -0.060936138
0001e0 79 92 57 bd 44 88 6f bb 70 88 50 bc 6b ce 69 3d
       -0.05262992 -0.0036549727 -0.012727842 0.05708162
0001f0 f2 20 42 3d f7 bd a2 bd f1 0a 2c bd e1 20 82 bd
       0.0473947 -0.07946389 -0.042002622 -0.063539274
000200 ff 23 5b bd a8 19 9a bd fa a9 08 3c 77 63 89 3d
       -0.053501125 -0.07524425 0.008341307 0.067084245
000210 31 61 6f 3c 51 fe 5c bd 05 d2 00 bd 0e de dc bd
       0.014610575 -0.053953473 -0.03145029 -0.10784541
000220 bd 57 41 3d 1d 7b ea 3d 1d 4d 4f bd e4 94 b1 3d
       0.047202814 0.11449263 -0.05061065 0.08670977
000230 76 ce 7c ba 62 8a 5b bd 95 bb 88 3d 5e f2 8b bc
       -0.0009643802 -0.05359877 0.066764034 -0.017083343
000240 0b e7 71 3d f4 e5 c6 3c d6 5f ab bd a1 97 e8 bc
       0.05905823 0.024279572 -0.08367889 -0.028392615
000250 06 fd 99 3d 96 53 62 bd 1f b8 26 bd c2 2b a2 3d
       0.075189635 -0.055255495 -0.040702935 0.079185024
000260 cb 4b 86 3d 95 d6 70 bd 3d 18 39 bd 3d 12 20 bd
       0.06557425 -0.05879839 -0.04518913 -0.039079893
000270 fd 1e fe bd a7 cf 01 be 2e 65 4d 3d 30 a9 d2 3d
       -0.12408254 -0.1267687 0.05014532 0.10286176
000280 3d 5a ad 3d ec 01 f0 bc 10 ca 66 bc 06 d5 c4 3c
       0.08464477 -0.029297791 -0.014086261 0.024027359
000290 76 7f a6 bc fb d5 0c 3d eb cc 02 3e 13 7c 82 3d
       -0.02032445 0.034383755 0.12773483 0.063713215
0002a0 76 36 c7 3d f7 cb 5c bd 0b c5 9d bd 46 a1 2b bd
       0.097271845 -0.053905454 -0.077035986 -0.04190185
0002b0 a3 ad 94 bd e9 bd b5 3d a8 64 01 3e 1c 46 da bd
       -0.07259681 0.08874113 0.12636054 -0.106579036
0002c0 8e 41 8d bd ab a5 df 3a f8 c2 13 bd 9d 3a 30 bd
       -0.06897269 0.0017062923 -0.03607461 -0.043024648
0002d0 a8 e4 a9 bd ad 18 16 3d 37 7a 87 3c 70 00 05 be
       -0.08295566 0.036644626 0.016537769 -0.12988448
0002e0 04 18 e1 3d 5f 75 a7 3d c8 94 66 bc 65 b5 8f 3d
       0.10990909 0.08176684 -0.014073558 0.0701702
0002f0 03 5d b6 3d d2 99 ef bd 23 77 ad 3d 60 49 4a 3c
       0.08904459 -0.11699261 0.08469989 0.0123465955
000300 b9 67 68 bb eb b8 fc bd b5 39 83 3d 00 00 71 b9
       -0.0035462214 -0.12339958 0.06407491 -0.00022983551
000310 1a d6 57 3d a5 61 d7 bc 54 ed 26 3b e2 8b db bd
       0.052694418 -0.026291678 0.0025471048 -0.1072004
000320 35 9c ba bd d0 9a 1a bc 82 71 01 bd 17 d5 af 3d
       -0.091118254 -0.009436324 -0.03160239 0.085855655
000330 2d f4 49 3d f2 f8 1b bd d3 e1 cc bd 61 45 8a 3c
       0.04930513 -0.03807921 -0.1000401 0.016878786
000340 6f 88 e7 3c 31 ea 06 bc 39 78 14 bd bc 2d b8 3d
       0.028263299 -0.0082345465 -0.036247466 0.08993098
000350 b4 0b 10 be c9 b3 04 bd 82 03 a2 3d 56 e6 c5 bd
       -0.14066964 -0.03239802 0.07910825 -0.09663074
000360 83 92 4c bd 2c ff b0 3c 66 92 90 bd ec 2c 88 3c
       -0.049944412 0.02160605 -0.07059173 0.016622983
000370 37 09 2e bd 6f af 0d bd 4c 13 fe bd 78 08 9f bd
       -0.042489257 -0.034591135 -0.12406024 -0.07765287
000380 34 d9 d1 bc 96 0b b1 bc 4e f5 83 3c e4 46 42 bb
       -0.025616266 -0.02161197 0.016108181 -0.0029644305
000390 ac f3 8d 3d 0c b3 6d 3d e0 25 10 be ba 8d bc 3d
       0.06931242 0.05803208 -0.14076948 0.0920672
0003a0 a2 1d 74 bb 24 53 8e 3c 54 a6 9a 3c a8 c7 5d bb
       -0.0037249108 0.017373629 0.01887814 -0.0033840928
0003b0 dc c4 3e 3d 03 4c 94 bd ab 80 c6 bb 2e 40 fd bc
       0.04657446 -0.072410606 -0.006057819 -0.030914392
0003c0 21 d5 d5 3d a8 91 d2 bc 61 f9 49 bd e8 32 de 3c
       0.10441042 -0.02570422 -0.049310092 0.027123883
0003d0 50 95 8b 3d f6 83 d9 3c 01 a8 a2 3d 77 64 c2 bb
       0.068155885 0.026552182 0.079422005 -0.0059323865
0003e0 c1 f7 98 3b 82 6b f1 bd 8b f0 a8 bd d2 57 9e bd
       0.0046682064 -0.117880836 -0.08249005 -0.07731594
0003f0 2e 76 af 3c c5 e7 ca 3d 9a b4 d2 3d 7f a4 9c 3d
       0.021418657 0.09907488 0.10288353 0.07648563

layer2.bias f4 [200]
000000 a3 9a 5b bc fc 3a 99 bc a6 46 9d 3c 91 ad 32 bb
       -0.0134035675 -0.018704884 0.019198727 -0.0027264098
000010 fb d2 4c bc cf 53 31 3b 65 e2 29 bc f9 cb 81 bc
       -0.012501474 0.002705801 -0.010368918 -0.015844332
000020 b6 85 0e 3c 5d 49 af 3b b8 a1 a1 3c 29 e0 be bb
       0.008698871 0.0053493218 0.019730434 -0.005825062
000030 80 0f a2 ba 6d 66 b3 3c 9c 98 50 bb da 70 fb bb
       -0.0012364239 0.021899426 -0.0031829244 -0.007673365
000040 ab be d3 bb 11 de 87 bc 18 31 30 bc 96 a0 89 bc
       -0.0064619384 -0.016585382 -0.010753892 -0.016800206
000050 5f 72 12 bb 70 26 2b 3c ce be 69 3c f5 9a 96 bc
       -0.0022346003 0.010446176 0.014266683 -0.018384436
000060 2a f1 54 39 06 1f c9 bb 39 a5 aa 3b 70 cf 5c bc
       0.00020307736 -0.0061377315 0.0052076844 -0.013477191
000070 28 8b 59 bc 36 a6 1f 3c 0d 13 80 3b 86 55 62 3c
       -0.013277806 0.009744218 0.003908521 0.013814336
000080 35 c5 be 3b 15 13 91 bb 23 1b 66 bc 94 26 19 bc
       0.0058218488 -0.0044273236 -0.014044556 -0.009347577
000090 d1 70 8a 3c 93 bf 6a bc 56 79 c4 3c 97 17 33 3c
       0.016899498 -0.014327901 0.023983639 0.010930917
0000a0 f5 ef 27 3b 44 34 58 bc d7 6d b6 3b 2a 81 37 bc
       0.0025625203 -0.013196055 0.005567293 -0.011200229
0000b0 91 08 68 3c 66 af a4 3c d7 fd 3c bc f0 71 42 3c
       0.014162199 0.020103168 -0.0115351295 0.011867985
0000c0 19 78 a5 bc 04 ac 9c 3b 00 00 00 00 47 ae 63 bc
       -0.020198869 0.004781248 0.0 -0.013896531
0000d0 78 01 30 3c 3d 4b 2a bc a5 83 99 bc 6d 7f 5b 3c
       0.010742538 -0.010393915 -0.01873953 0.01339708
0000e0 10 42 ab ba 40 85 7b bc 37 a3 08 bc ab 80 ac 3b
       -0.0013065953 -0.0153515935 -0.008339695 0.005264362
0000f0 42 8c 28 3c 00 00 00 00 c2 2c 9f 3c 8d 9a c2 3c
       0.010287346 0.0 0.019430522 0.023755336
000100 30 0f 95 ba 7a 21 13 bc c7 55 05 bc f8 dc 9e 3b
       -0.0011372324 -0.008980149 -0.008138127 0.004848119
000110 74 e2 fe bb 78 6e 02 3d d9 bd c0 3b f7 9b bf bb
       -0.00777846 0.031843632 0.0058820066 -0.00584745
000120 2e e6 98 3c e1 1a 6f 3b a8 33 32 bc 0a ad f9 3b
       0.018664446 0.0036484527 -0.010876574 0.007619505
000130 e7 6f a5 3b 70 91 23 bc c6 f9 4e 3c ce 5d b5 bc
       0.00504874 -0.0099834055 0.012632793 -0.022139456
000140 73 f8 2a bc 9f af 35 bb 74 c3 1b bc 82 f7 4d 3c
       -0.0104352115 -0.0027723087 -0.009507049 0.0125712175
000150 d7 39 58 bc 0c 7f 80 3b 00 00 00 00 c8 89 70 3b
       -0.013197384 0.003921395 0.0 0.0036703218
000160 ae 17 23 3c 69 46 c2 3c 41 0b 31 3c b6 b3 50 bc
       0.009954376 0.023715215 0.010805906 -0.012738159
000170 55 4d 0e bc 23 ce 7f 3c 9b c9 e7 bb 9f 59 a4 bb
       -0.00868543 0.015613112 -0.007073594 -0.0050155665
000180 09 d7 4f bc 96 a1 3d bc af 8c 16 3c 82 c0 61 bc
       -0.012685546 -0.01157417 0.009188815 -0.013778808
000190 22 4a 78 bc ac f4 9a bc 33 a5 28 3b 76 66 17 bc
       -0.015154393 -0.018915497 0.0025733232 -0.009240737
0001a0 0d 5a 34 3c b6 6a bc 3c 2a 19 26 bc 8a b6 a3 bc
       0.011007798 0.023000102 -0.0101378355 -0.019984502
0001b0 dd 69 4b 3c 2d a2 ab 3c 40 30 9a 3b f5 7a 40 3c
       0.0124153765 0.020951355 0.004705459 0.011748065
0001c0 7c 4b 75 bb 3a ba 5a bc 61 da 71 bc 81 6d 38 bc
       -0.0037429025 -0.013350064 -0.014761538 -0.0112565765
0001d0 5d 41 29 3c 2b 3d cb bc c9 a6 20 bb 1a 64 36 3c
       0.010330525 -0.02480944 -0.0024513474 0.0111322645
0001e0 35 df 6b bc 36 45 3b bc ec e2 90 bc 2b d1 85 3c
       -0.014396478 -0.011430075 -0.01768633 0.01633509
0001f0 29 13 a4 3c 8f 27 b4 3c c6 9b f7 bb 5a 1f 99 bc
       0.020028668 0.02199152 -0.0075564114 -0.018691707
000200 77 89 e3 3a 10 5f 0a 3c ec 17 9f 3c e1 d2 b4 3c
       0.0017359693 0.008445516 0.019420587 0.022073211
000210 86 92 27 3c 32 3c 41 3c 3b 63 2a 3c fc e3 a1 bc
       0.010227805 0.011794137 0.010399635 -0.019762032
000220 02 67 60 3c ad c1 89 3c e7 41 60 bc f8 25 c7 bb
       0.013696434 0.016815985 -0.013687587 -0.0060775243
000230 de b0 27 3c 7e 5d 7c bb 5e dc a4 3c d6 28 58 bc
       0.0102350395 -0.0038507874 0.02012461 -0.01319333
000240 ad 86 ca 3c d8 68 ed bc aa 7c 81 bc 46 19 ac 3a
       0.024722422 -0.028980657 -0.015806515 0.0013130091
000250 66 ea 66 bc ae 7e c7 3b e1 64 3c bc bc a3 c4 ba
       -0.014093971 0.0060880994 -0.011498661 -0.001500241
000260 bd df 7b ba 4b e8 2b 3c 2c 0f 34 3b 3a 39 58 bc
       -0.000960823 0.010492395 0.0027474863 -0.013197238
000270 c4 5c b1 bb f7 96 36 bc fe 23 d9 bb 8b 71 fa ba
       -0.00541267 -0.011144391 -0.006626605 -0.0019107325
000280 79 c2 35 3c bd ba 13 bc 6c c0 0a bb bf 2b 29 3c
       0.011093729 -0.00901669 -0.0021171821 0.010325371
000290 4a b0 d3 bb e4 c7 02 3c c0 c0 68 3b 88 d2 1c 3b
       -0.0064602243 0.007982228 0.0035515279 0.0023929197
0002a0 4d 04 97 3c 71 f3 b0 3c c8 ea 2f bc e3 57 5b 3c
       0.018434668 0.021600457 -0.010737129 0.013387653
0002b0 c1 c4 12 bc 39 13 95 3c 02 d2 c1 bc 20 10 42 3c
       -0.008958043 0.018197643 -0.02365971 0.011844665
0002c0 1e e0 c8 3b 30 c4 2d bc b3 a4 13 3c ff 91 8d bc
       0.0061302325 -0.010605857 0.009011435 -0.01728153
0002d0 d2 0c 6b bc 71 2c a2 3c ce 0d 8f bc f7 e0 c3 bc
       -0.014346318 0.019796582 -0.017462637 -0.023910983
0002e0 13 ae ac bb 13 41 ee bb b7 82 b1 3c b8 20 6f 3c
       -0.0052697747 -0.007270941 0.021668775 0.014595203
0002f0 7d 21 15 bc 30 e3 d8 bb d1 43 80 bc 16 4b 8f bc
       -0.0091022225 -0.0066188797 -0.015657337 -0.017491858
000300 ca 08 b6 3b 73 98 89 bc a8 5b 51 3c 5e 37 2e bc
       0.005555247 -0.016796326 0.0127782 -0.010633318
000310 54 36 29 bc ef 30 cc bb 96 6c 65 bc 67 56 f5 bb
       -0.010327894 -0.0062314193 -0.01400294 -0.0074871066

mu.weight f4 [4, 200]
000000 88 53 c1 3d 77 59 41 3d d7 0d ba bd a7 89 1e bc
       0.094397604 0.04720446 -0.09084671 -0.009676374
000010 ca 7f 1e be bb 67 32 bd ba 15 ae 3d cf e7 32 3e
       -0.15478435 -0.043555956 0.08500238 0.1747124
000020 42 c0 bd 3d ad 5a 0d be 1b f6 cc bd d5 50 be bd
       0.09265186 -0.13804121 -0.100078784 -0.09292761
000030 fd c1 17 3e 4a 36 a9 3b 32 d8 f7 3d 9b c9 96 bd
       0.14820094 0.0051639425 0.12101783 -0.07362672
000040 ec 4e 23 3e 35 c2 f3 3d 87 15 9f 3d 77 e6 de 3d
       0.15948075 0.119022764 0.07767778 0.108838014
000050 21 72 7e 3d 6c 1e 8c 3d 5d 3a d3 3c ad 13 df bd
       0.06212056 0.0684174 0.025784666 -0.10892425
000060 4e b4 9d 3c 10 b9 7f 3d ef b5 c0 bb 9b 59 f0 3d
       0.019251015 0.06243235 -0.005881063 0.11735841
000070 c2 80 aa bd 18 34 da bd 68 2f 16 3e 75 c3 92 bd
       -0.0832534 -0.10654467 0.14666522 -0.07166187
000080 29 f3 1f be 01 9e 14 bc 25 50 ba 3b a0 c9 1b be
       -0.15620102 -0.009070874 0.0056858235 -0.15213633
000090 ef 90 14 be dc 04 30 3d da d3 a0 bd 55 79 0c bd
       -0.14508413 0.042973384 -0.078529075 -0.0342954
0000a0 a3 71 2f bd fa 62 07 be f2 a3 cb bd d0 fc f8 3d
       -0.04283298 -0.1322135 -0.099433795 0.12157595
0000b0 29 80 9a bd 71 78 07 be 29 f1 22 3d 8c 40 90 bd
       -0.07543976 -0.13229539 0.03978077 -0.07043561
0000c0 7e 77 c9 bd 7c e2 2a bd 0d 0b 2a 3e 16 09 7c bd
       -0.098372445 -0.0417199 0.16605778 -0.061532103
0000d0 e9 ad 72 bd 70 43 a8 3d 5d 18 3f 3d ae ae 14 be
       -0.059247885 0.08215988 0.046654094 -0.1451976
0000e0 ac 3d e2 3d 4a 8a 81 bd d5 b2 29 3d 0a 5a d9 3d
       0.11046919 -0.06325205 0.041430313 0.10612877
0000f0 36 26 18 be 8c 7c 78 3d 98 a3 14 be 05 67 58 bd
       -0.14858326 0.060665652 -0.14515531 -0.052832622
000100 1c 4e b0 bc 08 01 d8 3d 21 f1 ed 3d 7a 88 a4 bd
       -0.02152162 0.10547072 0.11618257 -0.08033843
000110 30 c2 b4 3d d8 2f 2a bd af e9 cf bd 91 c7 ea 3d
       0.08826101 -0.041549534 -0.101519935 0.114638455
000120 2c 0a b5 3a 37 f5 de bc b4 88 4d bd e0 fa 20 3e
       0.0013812236 -0.027216537 -0.0501792 0.15720701
000130 78 91 db bc 6f d6 ab bd 6d 20 0a be f8 01 a0 3d
       -0.026802763 -0.08390509 -0.13488932 0.078128755
000140 d3 c3 90 bd 7c 05 70 3c 63 ca bd 3d 0a fa 0a bd
       -0.070686005 0.014649745 0.09267118 -0.033929862
000150 39 ab cf 3d fa 2a 5d 3c 46 b3 1b be 4c 71 db bd
       0.1014008 0.013499016 -0.15205106 -0.10714969
000160 3f 20 8b 3d 43 a3 0a be 52 7e 9b 3b d0 c9 e8 3b
       0.0679326 -0.13538842 0.004745283 0.007104136
000170 cb 8d 8b 3c f1 af 92 bd 4c 7a c4 bb 23 5f 8a 3d
       0.017035386 -0.071624644 -0.0059960242 0.06756427
000180 00 a2 20 3e 80 0f c5 bd 96 1d ee bd c1 41 e3 3d
       0.15686798 -0.09622097 -0.11626737 0.11096526
000190 97 8a 34 bd 8e 28 06 3e dc 07 e1 3c e0 94 94 bd
       -0.044077482 0.13101408 0.027469568 -0.07254958
0001a0 98 f0 7c bd d8 b1 0a be 88 26 e6 3d 25 ac 18 3e
       -0.061752886 -0.13544405 0.11237818 0.14909418
0001b0 85 54 08 be c7 e9 2d 3c 9a 26 88 b8 ff 11 a9 bc
       -0.13313492 0.010614819 -6.4921755e-05 -0.020638464
0001c0 4e 94 c4 3d f7 16 51 3d 0e d3 83 bc 94 94 2a 3d
       0.095985994 0.05104729 -0.01609185 0.0416456
0001d0 7f 34 e4 bd 47 6a 0b 3c 77 66 dd bd ad 07 0a be
       -0.11142825 0.008509225 -0.10810559 -0.1347949
0001e0 a7 05 5f bd 0c ec 15 3e 3d 52 92 3c e5 57 26 3d
       -0.05444875 0.14640826 0.01786148 0.040611167
0001f0 65 be ec bc 32 e5 83 bd c5 33 b7 bd 95 5b 06 3e
       -0.028899381 -0.064402 -0.08945421 0.13120873
000200 ff 4c 1d 3c 01 65 1c be 5b 86 94 bd 05 c9 17 bd
       0.009600877 -0.15272905 -0.07252189 -0.03705694
000210 43 a6 71 3d 8f 33 0e 3e 50 f0 f1 3d 2c 79 e1 bd
       0.05899645 0.13886856 0.11813414 -0.1100944
000220 7d e8 d3 bd d1 e0 1b be 61 b6 37 3d 52 7a 92 bc
       -0.10347078 -0.1522248 0.044851664 -0.017880592
000230 ee c9 b3 3d 5f 7c 0b 3d 35 06 0e be 30 be d4 bd
       0.087787494 0.034054156 -0.13869555 -0.10387838
000240 52 a5 8f bd 34 ec 82 bc 47 a3 02 3e ad 4b 50 3d
       -0.07013954 -0.015981771 0.12757598 0.05085342
000250 57 50 17 bd 35 f9 10 be e2 13 c6 bd df 57 92 bd
       -0.036941852 -0.14157565 -0.09671761 -0.07145666
000260 08 e4 0f bd 99 10 ad 3b 1f a3 c9 3d a9 d2 57 bc
       -0.035129577 0.0052815196 0.09845566 -0.013172784
000270 c9 6a ed 3d 3e a0 29 3e f5 53 38 3d 06 55 77 bc
       0.11592633 0.16565034 0.045001943 -0.015095955
000280 74 f7 c2 bd 38 30 e9 bd 23 e1 2e be 73 a4 2e 3d
       -0.09519854 -0.1138615 -0.1707807 0.0426373
000290 11 a5 08 3e 90 3a 9e bd 40 92 a4 bc d4 16 bc bd
       0.13344218 -0.07726014 -0.020089269 -0.091840416
0002a0 2c e8 82 3d 73 52 2b bd 55 8b 74 3d bc b2 d1 bd
       0.063919395 -0.041826677 0.05970319 -0.10239169
0002b0 ae a9 08 3e 5d 63 34 be 83 b9 dc bd ea eb 04 3e
       0.13345978 -0.17616029 -0.10777571 0.12980619
0002c0 47 ad de bc 41 9f 06 be 90 e1 1b be ae d9 04 3e
       -0.027182234 -0.13146688 -0.15222764 0.12973663
0002d0 c9 a9 41 bd 99 47 95 3d c7 9a 90 bd 6b 98 c8 3d
       -0.04728106 0.07289047 -0.070607714 0.097946964
0002e0 15 d5 9b 3d c2 f6 0f 3e 8c 60 31 be 6b 00 30 3d
       0.076090015 0.14058974 -0.17321986 0.04296915
0002f0 ba 47 ab 3d 95 8a 1f 3e 3c e2 87 3d 0a d9 c4 3d
       0.0836329 0.15580209 0.06634948 0.096117094
000300 67 91 ae bd 44 72 b4 3d 86 7c cd bd ae 5a 1f bc
       -0.08523827 0.08810857 -0.100335166 -0.00972621
000310 92 be b7 3d a4 f1 7f 3d a0 aa 82 bc eb 2c 02 3e
       0.08971895 0.062486306 -0.015950501 0.12712447
000320 a9 ce 7f 3d fc 6c fc bd 09 85 de 3d 90 9d 84 bc
       0.062452946 -0.123254746 0.10865218 -0.016188413
000330 ff ed cb bd 4d 40 bf 3d 2d b9 e7 bd 09 e0 e7 bd
       -0.099575035 0.09338436 -0.11314616 -0.11322028
000340 4a 1d 98 3d fc 73 0d 3e 19 4e f2 3d 73 7c b5 bd
       0.074274614 0.13813776 0.11831302 -0.088616274
000350 ef 82 09 be 48 99 b7 3d 46 4e cf bd f9 93 0b bd
       -0.13428853 0.08964783 -0.10122351 -0.034076665
000360 fa a8 cb 3d 08 a1 bc bc 86 ce 3b bd 44 9a f2 3d
       0.09944339 -0.023026004 -0.045851253 0.1184583
000370 a1 d2 c1 3d d0 54 a7 3d a9 15 28 3d 73 e9 20 bc
       0.094640024 0.081704736 0.04103628 -0.009821284
000380 66 54 6f bd 8a 06 c9 3d 3a 3a 0c 3e 54 ba 19 be
       -0.058430098 0.098157 0.13694087 -0.15012485
000390 b6 c8 90 bd 7a 46 7a bd 08 50 8b bd dc f5 8a 3d
       -0.070695326 -0.061102368 -0.06802374 0.06785175
0003a0 97 ee 32 3d a0 87 12 be bb 85 13 bd 0e 88 90 bb
       0.04368457 -0.1430955 -0.036016207 -0.00441075
0003b0 d3 ab 0b 3e e6 c6 cd bd 37 e9 cb 3c b2 a7 b2 3d
       0.13639764 -0.100477025 0.024891479 0.087233916
0003c0 9f 5f f5 bd 07 8a 88 bd ff cc a0 3d 0f 33 1b be
       -0.11981129 -0.066669516 0.078516 -0.15156196
0003d0 5d 2c 90 bc 37 e5 02 3e bb 08 1f be 9d 86 d2 3d
       -0.017599279 0.12782751 -0.15530674 0.10279582
0003e0 3e 7c 1f be db 83 91 bd 20 20 33 3c 14 9c 0c be
       -0.15574738 -0.071052276 0.010932952 -0.13731414
0003f0 c7 44 d2 bc 30 ba 68 bd 95 ce 16 3d a3 08 97 3d
       -0.025667561 -0.056818187 0.036818106 0.07374694

mu.bias f4 [4]
000000 33 38 8c bc 0d f5 9a 3c 78 40 90 bc 41 73 da 3a
       -0.017116642 0.018915677 -0.017608866 0.0016666428
