llirl_sumo/saves/120p4k/optimal_policy_period_2.pth (torch, 196916 bytes, 7 tensors)

sigma f4 [4]
0	0xbc7bf1d9	-0.015377485
1	0x3b569b3d	0.0032746338
2	0x3c9d4692	0.01919869
3	0x3be152eb	0.0068763397

layer1.weight f4 [200, 36]
0	0x3d4c1250	0.04982215
1	0x3e18799b	0.14890139
2	0xbb75c112	-0.0037499112
3	0x3cbc4640	0.022982717
4	0x3d1ab4db	0.037770133
5	0x3d6f1d7a	0.05837772
6	0xbd804f3d	-0.062651135
7	0x3d920111	0.0712911
8	0xbd206d41	-0.039166693
9	0x3db28730	0.08717191
10	0xbd05d76d	-0.03267615
11	0x3d6b076b	0.05738012
12	0x3dc94ba4	0.098288804
13	0xbdeb8d7f	-0.115015976
14	0x3d43dc67	0.047817614
15	0x3ce14aa9	0.027501421
16	0xbdfe6262	-0.12421109
17	0xbcddd308	-0.027078167
18	0x3b848f0b	0.0040453724
19	0x3e008c26	0.12553462
20	0xbda164eb	-0.07880577
21	0x3defb2f3	0.11704054
22	0xbd8bf1b0	-0.068332076
23	0x3d8755cc	0.06608161
24	0x3d12bcc4	0.035824552
25	0x3dd472ab	0.10373434
26	0x3dc7da82	0.09758474
27	0xbe1057f0	-0.14096045
28	0xbc1d4541	-0.009599031
29	0xbe1b18a1	-0.15146114
30	0xbc0b6b64	-0.008509491
31	0xbdd43e46	-0.1036344
32	0x3e08a8ee	0.13345692
33	0x3d904e15	0.07046143
34	0xbdad92a4	-0.08475235
35	0x3c904027	0.017608715
36	0xbdb56cb9	-0.08858628
37	0xbe13172e	-0.14364311
38	0x3dbaf8df	0.091295
39	0xbcadce12	-0.021216426
40	0x3b375f36	0.0027980334
41	0x3c0297a7	0.007970727
42	0x3d53a1cc	0.051667973
43	0x3da56381	0.080756195
44	0xbd5ce1de	-0.05392634
45	0xbc2bcf6f	-0.010486468
46	0xbda379e6	-0.07982235
47	0xbd95ca36	-0.07313959
48	0xbd470e44	-0.04859759
49	0x3cdd0b5d	0.026982957
50	0xbdea7e5c	-0.114498824
51	0x3b8f4a81	0.004372895
52	0x3e09136f	0.1338632
53	0xbe09ce10	-0.13457513
54	0x3cccadd8	0.024985239
55	0x3de30b75	0.1108617
56	0x3cb30de7	0.021857215
57	0x3dc588b0	0.09645212
58	0xbdac3fb9	-0.08410592
59	0x3c46f3b6	0.012143066
60	0xbd3288c9	-0.04358748
61	0x3c61099c	0.013735201
62	0xbcca8632	-0.024722192
63	0x3cde258a	0.02711751
64	0x3e18f118	0.1493572
65	0xbd1944a1	-0.037418965
66	0x3cf27efd	0.029601568
67	0xbde16ad1	-0.11006702
68	0x3dba0586	0.09083085
69	0x3d08fc7a	0.033443905
70	0xbdd45695	-0.10368077
71	0x3de3768a	0.11106594
72	0xbdb4a15c	-0.08819839
73	0xbe05311c	-0.13007015
74	0xbe11b931	-0.14230801
75	0xbda8245a	-0.082100585
76	0xbd24b476	-0.040211163
77	0xbd84e3a3	-0.06488731
78	0x3e1d12fc	0.15339273
79	0xbe1abb21	-0.15110447
80	0xbc7aa144	-0.015297238
81	0xbde0d8bc	-0.10978839
82	0x3e17045a	0.14747754
83	0xbd1e945c	-0.038715705
84	0xbe10511e	-0.14093444
85	0x3d83c173	0.06433382
86	0xbd9b790e	-0.07591449
87	0x3dad806a	0.08471759
88	0x3e253545	0.16133602
89	0xbcc1eeb4	-0.023673393
90	0x3acef9d6	0.001579101
91	0xbe09645a	-0.13417187
92	0xbc372d1a	-0.011180187
93	0x3de1abcc	0.11019096
94	0x3ddf3c85	0.10900215
95	0x3d9bb872	0.076035395
96	0xbdf1e6c8	-0.11811596
97	0x3e011e94	0.12609321
98	0x3dbb8222	0.0915568
99	0xbccfea52	-0.025380287
100	0xbe122eae	-0.1427562
101	0x3e031d24	0.12804085
102	0xbc7e8de6	-0.015536761
103	0xbde4e97d	-0.11177347
104	0x3de7b6de	0.11314176
105	0xbe149b47	-0.14512359
106	0xbe1b37af	-0.1515796
107	0x3de86fe6	0.11349468
108	0x3de40b21	0.11134935
109	0xbcb0e742	-0.021594647
110	0xbc915e1a	-0.017745066
111	0xbd6d6622	-0.05795873
112	0xbe04a7d9	-0.12954654
113	0xbdb475a9	-0.088115044
114	0xbdc37dbf	-0.095454685
115	0xbab463fe	-0.001376271
116	0xbd4b82b6	-0.049685203
117	0xbc0c8c3e	-0.008578358
118	0xbdb6dcd7	-0.089288406
119	0x3d9a4329	0.07532341
120	0x3db627b2	0.0889429
121	0xbd249ea6	-0.04019036
122	0x3dee1ba7	0.11626368
123	0x3d05b3bd	0.032642115
124	0xbe064e4a	-0.13115802
125	0xbd714be6	-0.058910273
126	0xbe0c42a0	-0.1369729
127	0xbd0b2251	-0.033968274
128	0x3db42c9c	0.08797571
129	0xbceb6308	-0.028733745
130	0xbd8ec096	-0.069703266
131	0x3beb1fa8	0.0071754046
132	0xbd809400	-0.06278229
133	0xbe2ac992	-0.16678455
134	0xbb56f72e	-0.003280114
135	0xbe231533	-0.15926056
136	0x3cc7c04c	0.024383686
137	0xbd6dbe28	-0.058042675
138	0x3d260201	0.040529255
139	0xbdf4e7e7	-0.11958294
140	0x3cbcf3be	0.023065444
141	0x3ced083c	0.02893459
142	0xbdb6b0c7	-0.08920436
143	0xbc461766	-0.01209054
144	0x3d73b450	0.05949813
145	0xbcbd64f5	-0.02311943
146	0xbd3912dd	-0.045184005
147	0x3dd13f05	0.10217098
148	0x3e14be95	0.14525826
149	0xbda2677e	-0.07929896
150	0x3c9cd412	0.019144092
151	0xbd2977c7	-0.041373994
152	0xbc327779	-0.010892742
153	0x3dc795ce	0.0974537
154	0xbc62d1bc	-0.01384395
155	0xbc70686a	-0.014673332
156	0x3d59ddb1	0.053189937
157	0x3de98430	0.11402166
158	0x3e1223cc	0.14271468
159	0x3d63ceb9	0.055617068
160	0xbdbac61d	-0.09119818
161	0xbd80d7d4	-0.06291166
162	0xbdfca602	-0.12336351
163	0xbe2490d7	-0.16070877
164	0xbe2b34e8	-0.16719401
165	0xbd1b6e1c	-0.037946805
166	0x3d2bfd15	0.041989405
167	0x3e0b3c29	0.13597168
168	0xbb875079	-0.004129466
169	0xbe25f2b0	-0.16205859
170	0xbda4eb65	-0.080527104
171	0x3dde317c	0.10849282
172	0x3e05b43c	0.13057035
173	0x3d158d74	0.036511853
174	0xbcc471cd	-0.023980046
175	0x3de0acd1	0.10970462
176	0x3d197b6a	0.037471212
177	0xbddf458f	-0.10901939
178	0xbdbec609	-0.09315116
179	0xbd3c5db8	-0.045987815
180	0xbd6df7c0	-0.0580976
181	0xbdd8fc76	-0.10595028
182	0xbd4c049c	-0.049809083
183	0x3da651ca	0.08121069
184	0x3da10176	0.07861607
185	0xbd3de258	-0.046358436
186	0x3d9ce202	0.07660295
187	0x3db605eb	0.088878475
188	0xbd980046	-0.07421927
189	0x3de3012e	0.110842094
190	0x3cd68cf0	0.026190251
191	0xbd731d81	-0.05935431
192	0x3e12b655	0.14327367
193	0xbd349810	-0.04409033
194	0xbbb65b77	-0.0055651027
195	0x3d516d1a	0.051129438
196	0x3c7249bb	0.0147880865
197	0x3cdd9741	0.027049663
198	0xbd885f95	-0.06658856
199	0x3d1a9914	0.037743643
200	0x3cce0340	0.025148034
201	0xbcedc6a7	-0.029025389
202	0xbe0e43d9	-0.1389307
203	0xbd5d44cb	-0.054020684
204	0x3e1da5af	0.15395235
205	0x3dd89262	0.10574795
206	0x3d5a8507	0.05334952
207	0xbd86622a	-0.06561692
208	0x3da5b9fc	0.08092114
209	0x3dd4d8b6	0.10392897
210	0xbddb0867	-0.10694962
211	0xbd6b6d21	-0.05747712
212	0xbe08f91a	-0.13376275
213	0xbe2cf6a4	-0.16890961
214	0x3e086c9a	0.13322678
215	0x3cfc92ef	0.030831782
216	0xbcc7b5aa	-0.024378616
217	0xbcd9469e	-0.02652293
218	0xbc5a9f72	-0.013343679
219	0x3e167719	0.1469387
220	0xbe1a8e3b	-0.15093319
221	0x3dd7e7f3	0.10542288
222	0x3d832a7c	0.064045876
223	0xbc436865	-0.011926745
224	0xbda66aef	-0.08125865
225	0xbd436c08	-0.04771045
226	0xbd9f0a21	-0.07765604
227	0x3d2ef0e3	0.042710196
228	0x3de13984	0.10997298
229	0x3dcf9bf3	0.10137167
230	0xbe06d6c2	-0.13167861
231	0x3dad5c7b	0.08464905
232	0x3d0dd728	0.034629017
233	0xbd16e48e	-0.03683906
234	0xbdf587c4	-0.11988786
235	0xbdaba897	-0.08381765
236	0x3e09a13a	0.1344041
237	0x3c9c8c2d	0.01910981
238	0xbdf4df3b	-0.1195664
239	0xbc8507a2	-0.016238991
240	0xbdab4ae6	-0.08363895
241	0xbd32b948	-0.04363373
242	0x3d6c3da2	0.057675965
243	0xbe20e8ff	-0.15713881
244	0xbe03a878	-0.12857234
245	0xbde2a878	-0.11067289
246	0xbdcd9a54	-0.100392014
247	0xbddf927b	-0.10916611
248	0x3dc86efc	0.097867936
249	0x3e13bf6d	0.14428492
250	0xbe0751b8	-0.13214767
251	0xbdb78475	-0.08960811
252	0x3dd2c318	0.102911174
253	0x3daed3bb	0.08536478
254	0xbe033907	-0.12814723
255	0xbd0d6d8b	-0.034528296

layer1.bias f4 [200]
0	0xbb564453	-0.0032694533
1	0xbadd4586	-0.0016881682
2	0x3bfead80	0.0077721477
3	0xba340332	-0.0006866931
4	0x3b61d892	0.0034461361
5	0xbc00e56a	-0.007867197
6	0xbb328dd7	-0.0027245188
7	0xb9c9468d	-0.00038390272
8	0xbc3e4b54	-0.011614639
9	0xbaa62467	-0.0012675644
10	0xbbd420d3	-0.0064736395
11	0xbbd5dd4c	-0.006526625
12	0x3beb3860	0.0071783513
13	0xbae328fb	-0.0017330939
14	0x3bf8f8df	0.007598027
15	0x3b3fbbbb	0.0029256183
16	0x3a78c682	0.0009490029
17	0xbc383009	-0.011241921
18	0x3aa75730	0.0012767073
19	0xbc491983	-0.012274149
20	0x3bb3313a	0.0054685147
21	0xbb944c10	-0.004525669
22	0x3a00d9eb	0.0004915285
23	0xbbb148ad	-0.005410275
24	0xbc11ee0d	-0.008906853
25	0xbc2538f9	-0.010084384
26	0x3b3c2b66	0.002871239
27	0x3c3c1a49	0.011480876
28	0xbc4aaa90	-0.012369767
29	0xbc1529a6	-0.009104168
30	0xbc6a026a	-0.014282802
31	0xbb93abd0	-0.0045065656
32	0x3bf26104	0.007396819
33	0xbba82921	-0.005131856
34	0x3c95a024	0.018264838
35	0xbc2f89f9	-0.010714048
36	0xbc4d0042	-0.0125122685
37	0xbc91cede	-0.017798837
38	0x3c556ef3	0.013026941
39	0x3c2aa9db	0.010416473
40	0xbc819278	-0.015816912
41	0xbb180739	-0.0023197664
42	0xbc2bb9af	-0.010481282
43	0xbbd1241f	-0.00638248
44	0xbc69597f	-0.014242529
45	0xb9a8db07	-0.00032206645
46	0xbb3b7732	-0.0028604981
47	0x3a3e8697	0.000726798
48	0x3c64df94	0.013969321
49	0xbbaef666	-0.0053394316
50	0x3c8adad8	0.016950056
51	0xbbc03359	-0.005865496
52	0xbc19ac29	-0.009379425
53	0xbb130e17	-0.0022438818
54	0x3b427c2c	0.0029676063
55	0xbb74d83f	-0.0037360338
56	0xbc4b763e	-0.012418328
57	0xbc25009c	-0.010070946
58	0x3b13d3c6	0.0022556647
59	0xbc65ee71	-0.0140339
60	0x3bb3d32c	0.00548782
61	0xbb8294c8	-0.0039850213
62	0xbba6a4a4	-0.0050855447
63	0xbb8b29ba	-0.0042469176
64	0xbc0cc762	-0.008592458
65	0xbc63bc06	-0.013899809
66	0x3b6fce7b	0.0036591578
67	0x3b1976fa	0.0023416863
68	0x3c60a9f6	0.013712397
69	0xbb9a596d	-0.0047103674
70	0xbbce4083	-0.0062943115
71	0xbc08c018	-0.00834658
72	0xbc3b5728	-0.011434354
73	0x3bc8f708	0.006132964
74	0x3c6011cc	0.013676118
75	0xbb1c97e5	-0.0023894247
76	0x3aa4546d	0.0012537368
77	0x3a64d5c4	0.00087293633
78	0x3bf78604	0.0075538177
79	0xbc66ce2b	-0.01408724
80	0x3a4190a4	0.0007383919
81	0xbc908265	-0.017640302
82	0xbc351fdb	-0.011054958
83	0x3c501c98	0.01270213
84	0x3c20bcd5	0.009810646
85	0xbc5614c8	-0.013066478
86	0xbb8e678a	-0.004345839
87	0xbc180fed	-0.009281141
88	0xbc432a2b	-0.011911909
89	0xbabeac53	-0.0014547206
90	0xbacfacad	-0.0015844308
91	0xbb9a6910	-0.0047122315
92	0x3a2f98aa	0.0006698469
93	0xbaacbf48	-0.0013179565
94	0x3be06b5a	0.006848735
95	0xbc932c1c	-0.017965369
96	0x3b88f45a	0.0041795196
97	0xbbcb1e10	-0.006198652
98	0xbc549b52	-0.012976484
99	0x3b6a8e05	0.0035790217
100	0xbc26f8c5	-0.010191147
101	0x3c5dbb4f	0.013533427
102	0xbc0f23b4	-0.00873654
103	0xbc0699df	-0.008215397
104	0x3bb3f99d	0.0054924027
105	0xbc847037	-0.01616679
106	0xbbefd900	-0.0073195696
107	0xbc76184e	-0.015020443
108	0x3bc59e3c	0.006030826
109	0x399e0234	0.0003013775
110	0x3c955b7a	0.018232096
111	0x3b24edea	0.0025166222
112	0xbc847de4	-0.01617331
113	0xbc6394fb	-0.0138905
114	0x3c223207	0.009899623
115	0xbb2c7ab8	-0.0026318263
116	0xbb9cd293	-0.0047858446
117	0xbc12785a	-0.008939827
118	0x3b2514cc	0.0025189398
119	0x3c3cafb0	0.011516497
120	0x3c2dac68	0.010600187
121	0x3c652554	0.0139859505
122	0xb9756104	-0.00023401162
123	0xbc41518e	-0.011799229
124	0x3b9652da	0.0045875134
125	0xbb1aec49	-0.0023639372
126	0xbbbc4b66	-0.005746293
127	0xbc2d6838	-0.01058393
128	0x3a4b6183	0.0007758366
129	0x3bf3878e	0.007431931
130	0xbc5bcc1a	-0.013415361
131	0x3c45cff1	0.012073503
132	0xbc95f903	-0.018307215
133	0xbc1de867	-0.009637929
134	0xbb3b3eb7	-0.0028571317
135	0x3b9be5d6	0.004757623
136	0x3c581330	0.013188168
137	0xbc4d0b18	-0.012514852
138	0xbc07987a	-0.008276099
139	0xbb9b15f9	-0.004732844
140	0x3c4b7576	0.012418142
141	0xbbdd7eb0	-0.006759487
142	0xbbe39f71	-0.006946497
143	0x3be72efa	0.0070551606
144	0xbc8635ac	-0.016383015
145	0x00000000	0.0
146	0xbc6f2b58	-0.014597736
147	0xbc0af34d	-0.008480859
148	0xbc880214	-0.016602553
149	0x3c005d97	0.007834814
150	0xbc820d0f	-0.015875367
151	0x3c1aa79a	0.009439373
152	0x3b826920	0.003979817
153	0x3bf21933	0.007388258
154	0xbc45ddcd	-0.012076807
155	0x3b6246bd	0.0034527027
156	0x3c408644	0.011750761
157	0xbcb09289	-0.021554248
158	0x3ba18320	0.0049289614
159	0xbc07174d	-0.008245301
160	0x3b9c653c	0.0047728103
161	0x00000000	0.0
162	0x3c80953d	0.015696162
163	0xbc33ef4f	-0.010982349
164	0x3be78197	0.007065009
165	0xbc54f535	-0.012997915
166	0xbbfce0fc	-0.00771725
167	0xba603eb5	-0.0008554266
168	0x3bffb9dc	0.0078041386
169	0xbbe607ee	-0.0070199883
170	0x3b99f774	0.004698688
171	0x3b0a61a1	0.002111532
172	0x3c120046	0.008911198
173	0x3c0df7fe	0.008665083
174	0xbcb3fe11	-0.021971734
175	0x3a6eb748	0.00091062905
176	0x3c492098	0.012275837
177	0xbc0901c1	-0.008362235
178	0xbb4c52fc	-0.0031177392
179	0x3c40d528	0.01176957
180	0xbc86f9e4	-0.016476579
181	0x3b4b021c	0.00309766
182	0xb9b7b610	-0.00035040127
183	0x3b9cb911	0.004782804
184	0x3b231a0e	0.0024887356
185	0x3c0cb522	0.008588107
186	0xbbecb072	-0.0072231824
187	0xbb97074d	-0.0046090246
188	0xbb83e7aa	-0.0040254192
189	0xbbd6a044	-0.006549867
190	0xbbc92666	-0.0061386107
191	0x3b84c8b7	0.0040522474
192	0x3a86f096	0.0010295089
193	0x3c36ce30	0.011157557
194	0x3bd31725	0.006441968
195	0xbc44a1b2	-0.012001442
196	0x3c157a59	0.009123408
197	0x3c25b5de	0.010114161
198	0xba4994dd	-0.0007689724
199	0x3c260d2d	0.010134977

layer2.weight f4 [200, 200]
0	0x3c8747db	0.016513756
1	0x3d758935	0.059945304
2	0xbdce612b	-0.10077127
3	0xbdd05faa	-0.101744965
4	0x3c2695db	0.010167564
5	0xbccd73f0	-0.025079697
6	0x3d94b4b3	0.07261028
7	0x3c880efe	0.016608711
8	0xbd8dfaad	-0.06932578
9	0xbd9d2ed3	-0.07674947
10	0x3b8219a4	0.0039703418
11	0x3d36615f	0.044526454
12	0xbdfea24a	-0.12433298
13	0x3d59d9a3	0.05318607
14	0x3dd53d82	0.10412122
15	0x3da3a2f9	0.07990069
16	0xbb9636d0	-0.004584171
17	0xbe04e813	-0.12979154
18	0xbd350f04	-0.044203773
19	0x3db558b0	0.088548064
20	0xbdbb0cad	-0.09133277
21	0xbd91d4b8	-0.07120651
22	0xbd4df273	-0.050280046
23	0x3d83ca4b	0.06435069
24	0xbc4407d2	-0.011964755
25	0xbdff7b0f	-0.124746434
26	0x3d09041b	0.03345118
27	0xbc83e2a4	-0.016099282
28	0xbbf2bfaf	-0.0074081044
29	0xbbdd9633	-0.00676229
30	0xbd37c1dc	-0.044862613
31	0xbda05187	-0.0782805
32	0x3d40b6f5	0.04704948
33	0xbdc29b99	-0.09502334
34	0x3c5b8f98	0.013400935
35	0x3cc0ff90	0.023559362
36	0x3db27853	0.08714356
37	0x3da92d5c	0.08260605
38	0xbd65fbe9	-0.056148443
39	0x3ce129d9	0.027485775
40	0x3b41ec7b	0.0029590416
41	0xbc26215c	-0.010139789
42	0x3d5dc1b5	0.05413981
43	0x3dfc106f	0.12307822
44	0x3a857e1e	0.001018468
45	0xbd3e32d2	-0.046435185
46	0xbc4ed33b	-0.012623603
47	0x3d4dd8ad	0.050255466
48	0xbd3f883d	-0.046760786
49	0xbc3961c9	-0.011314818
50	0x3cb776ec	0.022395574
51	0x3d3e0fa2	0.046401627
52	0x3db244bb	0.087045155
53	0xbd273384	-0.040820614
54	0xbddd8c8f	-0.10817825
55	0xbd271ad5	-0.040797073
56	0xbdb0936d	-0.08621869
57	0xbd90079c	-0.070327014
58	0xbceb6cbf	-0.028738378
59	0x3c2528ea	0.010080555
60	0x3d70727e	0.05870294
61	0x3d5d8304	0.054080024
62	0x3d4325e7	0.04764357
63	0xbd992732	-0.07478179
64	0x3d26152b	0.04054753
65	0x3d3b052b	0.045659225
66	0x3df47f2d	0.11938319
67	0x3d9718cb	0.07377776
68	0x38a94a9d	8.072446e-05
69	0x3de38102	0.11108591
70	0x3dbcb46c	0.092141
71	0xbd9bc009	-0.07604987
72	0x3d8b1f65	0.067930974
73	0xbcb6f4f0	-0.022333592
74	0xbdf4bf4f	-0.11950552
75	0xbc399845	-0.011327808
76	0xbddf7a4d	-0.10911999
77	0x3d4feaad	0.050760914
78	0xbb5896e3	-0.003304892
79	0xbc8f307d	-0.017479176
80	0xbc1a67d9	-0.009424173
81	0xbd905929	-0.07048256
82	0xbdf17446	-0.117897555
83	0x3d8efec1	0.06982184
84	0x3cc8dae0	0.02451843
85	0xbdf53bbb	-0.11974283
86	0x3d55a755	0.052161533
87	0xbdbfd757	-0.09367245
88	0xbce0260a	-0.027361888
89	0x3ddd3291	0.108006604
90	0x3be61897	0.0070219743
91	0xbd99178b	-0.074751936
92	0xbddccc35	-0.10781137
93	0x3d82623d	0.06366394
94	0xbda20429	-0.0791095
95	0xbd2c02d8	-0.0419949
96	0xbd98c4c8	-0.07459408
97	0x3d98d236	0.074619696
98	0xbdfda82f	-0.12385594
99	0xbc83b772	-0.016078684
100	0x3b60eda0	0.0034321323
101	0xbd896c3a	-0.06710096
102	0x3dc990f1	0.098420985
103	0xbe037376	-0.12837014
104	0xbd0db0dc	-0.034592494
105	0x3cfd3c48	0.030912533
106	0xbc332e66	-0.010936355
107	0x3d23b41a	0.03996668
108	0xbdade12b	-0.08490213
109	0x3d39655f	0.04526269
110	0xbd87579e	-0.066085085
111	0x3dd1febe	0.10253666
112	0xbdd1e761	-0.1024921
113	0xbd3ad1af	-0.045610126
114	0xbda87de7	-0.08227139
115	0xbdd354ff	-0.10318946
116	0xbc90047a	-0.01758026
117	0xbdb4f505	-0.08835796
118	0xbdd3c86a	-0.1034096
119	0xbd7cb61f	-0.06169712
120	0xbd570caf	-0.05250233
121	0xb99b61cf	-0.00029636777
122	0xbc508870	-0.012727842
123	0x3d7804f8	0.060551614
124	0x3d50f65c	0.051016197
125	0xbd9bc8d2	-0.07606663
126	0xbd30cc8c	-0.04316382
127	0xbd843a7b	-0.06456467
128	0xbd4db5a8	-0.05022207
129	0xbd99c570	-0.07508361
130	0x3c36a79a	0.011148358
131	0x3d8ff1fe	0.07028578
132	0x3c925cd8	0.017866537
133	0xbd5b4ac7	-0.05353811
134	0xbce387f6	-0.027774792
135	0xbdd6027e	-0.10449694
136	0x3d35e67e	0.044409268
137	0x3de5e803	0.11225893
138	0xbd413f9c	-0.047179803
139	0x3db71457	0.089394264
140	0x3b17e38c	0.00231764
141	0xbd54994f	-0.05190402
142	0x3d8ec443	0.06971028
143	0xbca231dc	-0.019799165
144	0x3d800ae8	0.0625208
145	0x3cc6e5f4	0.024279572
146	0xbdb1e97c	-0.08687112
147	0xbcccbaf1	-0.024991484
148	0x3d989949	0.07451112
149	0xbd625396	-0.055255495
150	0xbd256826	-0.040382527
151	0x3da56e56	0.080776855
152	0x3d8c7a14	0.06859222
153	0xbd6314bd	-0.0554397
154	0xbd2bad72	-0.041913457
155	0xbd123478	-0.03569457
156	0xbdf752b0	-0.12076318
157	0xbdfcfbec	-0.12352738
158	0x3d59d949	0.053185735
159	0x3dd9bfa5	0.106322564
160	0x3daefd5a	0.08544417
161	0xbcf001ec	-0.029297791
162	0xbc66ca10	-0.014086261
163	0x3ce0b65c	0.027430706
164	0xbc8ae85d	-0.016956503
165	0x3d1a83d1	0.037723366
166	0x3dfebe79	0.124386735
167	0x3d89063c	0.06690642
168	0x3dca5e17	0.098812275
169	0xbd4e989d	-0.050438512
170	0xbda1f3af	-0.07907807
171	0xbd1eca5a	-0.038767196
172	0xbd9ad7e2	-0.07560708
173	0x3dbc9250	0.092075944
174	0x3dfc9a2d	0.12334094
175	0xbdd4a0f8	-0.10382265
176	0xbd911920	-0.0708487
177	0x3b8f3755	0.0043706098
178	0xbd09fa7c	-0.033686146
179	0xbd23094c	-0.039803788
180	0xbdafa1b1	-0.08575762
181	0x3d23f2ba	0.040026404
182	0x3c5c4a4d	0.013445449
183	0xbe0199cc	-0.12656325
184	0x3de21311	0.11038793
185	0x3dae8d78	0.08523077
186	0xbc304d63	-0.010760638
187	0x3d8fb565	0.0701702
188	0x3daeb155	0.08529917
189	0xbde89828	-0.113571465
190	0x3da8d296	0.08243291
191	0x3c48215e	0.012214987
192	0xbb602b5c	-0.0034205532
193	0xbdf596c8	-0.1199165
194	0x3d8339b5	0.06407491
195	0xb9710000	-0.00022983551
196	0x3d65855c	0.056035385
197	0xbcbc36f7	-0.022975428
198	0x3aaa5e1e	0.001299802
199	0xbdd43781	-0.10362149
200	0xbdb05463	-0.086098455
201	0xbb912289	-0.0044291657
202	0xbcdaea0d	-0.026722932
203	0x3db08dc8	0.086207926
204	0x3d5e7057	0.054306354
205	0xbd079939	-0.03310511
206	0xbdc2ac8d	-0.09505568
207	0x3c97073d	0.018436069
208	0x3d0865c5	0.03330018
209	0xbb520f59	-0.0032052605
210	0xbcffe04f	-0.031234888
211	0x3dc28730	0.09498441
212	0xbe0ae4ee	-0.13563892
213	0xbd009d7a	-0.03140018
214	0x3dac5c1c	0.08416006
215	0xbdbb9215	-0.09158722
216	0xbd38a629	-0.045080338
217	0x3cd9d726	0.026591849
218	0xbd87b3a7	-0.06626063
219	0x3cb14cab	0.021643003
220	0xbd1aa587	-0.037755515
221	0xbcf231ce	-0.029564764
222	0xbdf4079f	-0.11915516
223	0xbda53ace	-0.08067857
224	0xbca89d0b	-0.020582696
225	0xbca1750c	-0.019709133
226	0x3cad1c08	0.02113153
227	0x3ad0a1a9	0.0015917319
228	0x3d983aa6	0.07433061
229	0x3d8126e1	0.06306244
230	0xbe0b105b	-0.13580458
231	0x3db4610c	0.08807573
232	0x3aadc547	0.0013257646
233	0x3cb75ebf	0.022384046
234	0x3cc1b987	0.023648037
235	0xbae505aa	-0.0017473001
236	0x3d529c81	0.051418785
237	0xbd8ab607	-0.06773
238	0xbadc107f	-0.0016789584
239	0xbcd473d4	-0.025934137
240	0x3ddf7c05	0.10912327
241	0xbcba3fcf	-0.022735504
242	0xbd357ac9	-0.04430655
243	0x3d0054ba	0.0313308
244	0x3d90ff47	0.0707994
245	0x3d0134a9	0.03154436
246	0x3d9b65bc	0.07587764
247	0xbbd3ecb2	-0.0064674253
248	0x3bf266b6	0.007397498
249	0xbde72f95	-0.112883724
250	0xbd9ee25a	-0.07758017
251	0xbd9ba05a	-0.07598944
252	0x3cb02afa	0.021504868
253	0x3dd43c5a	0.10363074
254	0x3dcd0ddb	0.10012408
255	0x3da6d94c	0.08146915

layer2.bias f4 [200]
0	0xbc233220	-0.009960681
1	0xbc611f76	-0.013740411
2	0x3c677a41	0.014128269
3	0x3bbe7b57	0.005813043
4	0xbb8e19cf	-0.0043365727
5	0xbc18a56c	-0.009316783
6	0xbb6e678c	-0.0036377637
7	0xbbd1195a	-0.006381196
8	0x3c485f7d	0.012229797
9	0xbb7a86a0	-0.0038227215
10	0x3c2f7b0b	0.010710488
11	0xbb157795	-0.0022806872
12	0x3b46d510	0.0030339397
13	0x3c1ed9c7	0.009695477
14	0xbc0cece3	-0.0086014
15	0xbbc1ccd2	-0.005914309
16	0xbb2be6f6	-0.0026230193
17	0xbc4ee286	-0.01262725
18	0xbaaa870f	-0.0013010221
19	0xbc2ce57c	-0.01055276
20	0xbb73fafe	-0.003722846
21	0x3c6b34fb	0.014355893
22	0x3ca46b51	0.020070704
23	0xbc86bc42	-0.01644719
24	0xbb97ae9e	-0.0046289703
25	0x3bd107bf	0.0063790972
26	0x3bc67fac	0.0060577
27	0xbc34abf8	-0.011027329
28	0xbc3d9d20	-0.011573106
29	0x3b948006	0.004531863
30	0x39fed609	0.00048606124
31	0x3c2945ed	0.010331613
32	0x3b63580f	0.0034689938
33	0x3b742c47	0.0037257837
34	0xbbed5e81	-0.0072439318
35	0xbbd82725	-0.0065964633
36	0x3b49d21c	0.00307954
37	0xbb49e74c	-0.003080803
38	0x3c49e913	0.012323636
39	0x3bcb3c46	0.0062022535
40	0xb90ce71c	-0.00013437535
41	0xbc20c59f	-0.009812742
42	0xbba702a6	-0.0050967513
43	0xbbcbf021	-0.006223694
44	0x3c60b057	0.013713918
45	0x3c4c2aa6	0.01246134
46	0xbbc7aaaf	-0.006093345
47	0xba19e521	-0.00058706297
48	0xbc5b294d	-0.013376546
49	0x3ab96d0c	0.0014146878
50	0x00000000	0.0
51	0xbc199383	-0.009373548
52	0x3c40a4e0	0.011758059
53	0xbbc14989	-0.0058986587
54	0xbc6c4ae6	-0.014422154
55	0x3b521144	0.0032053748
56	0xbb8961d1	-0.004192569
57	0xbc26d98a	-0.010183701
58	0x3a6b5aed	0.00089780876
59	0x3c2a6021	0.0103988955
60	0x3c003d92	0.0078271795
61	0x00000000	0.0
62	0x3c05fd62	0.008178087
63	0x3c3a68fa	0.011377567
64	0x3b705270	0.003667023
65	0xbac5dde0	-0.0015096031
66	0xbb07d22a	-0.0020724633
67	0x3b765e65	0.0037592885
68	0xbab7fa9b	-0.0014036478
69	0x3caa6ead	0.020804727
70	0x3c13fc33	0.009032297
71	0x39827e6b	0.0002488972
72	0x3c272433	0.010201502
73	0xbb86c8b2	-0.00411328
74	0xbbd61154	-0.0065328274
75	0x3c4c003b	0.012451227
76	0x3b758858	0.00374653
77	0xbbffa974	-0.007802183
78	0x3baa6664	0.005200194
79	0xbc83b7e0	-0.01607889
80	0xbbf7af4e	-0.0075587397
81	0x38fbf321	0.00012013899
82	0xbbe23672	-0.006903463
83	0x3c18ae96	0.009318968
84	0xbc20c976	-0.009813657
85	0xbc0d2d35	-0.008616735
86	0x00000000	0.0
87	0x3b252f54	0.0025205212
88	0xbac32b5a	-0.0014890239
89	0x3c4dc78f	0.0125597855
90	0x3c6be107	0.014396912
91	0xbbf966a4	-0.0076111127
92	0xbc05d700	-0.008168936
93	0x3ca651e8	0.020302728
94	0xbc0235a3	-0.007947358
95	0xbaba5ea9	-0.0014218885
96	0xbbaa6c17	-0.0052008736
97	0xbbcdb8b6	-0.006278123
98	0x3ab0777f	0.0013463347
99	0xbc35991b	-0.0110838665
100	0xbb5c0c28	-0.0033576582
101	0xbc4e169d	-0.012578634
102	0xbbe97354	-0.007124344
103	0xbbc1967f	-0.005907833
104	0xbb30d367	-0.0026981474
105	0x3c76e1e5	0.015068506
106	0xbbe60ad8	-0.0070203356
107	0xbb8bc320	-0.004265204
108	0x398f97bd	0.0002738814
109	0x3bfe381a	0.0077581527
110	0xba719a4c	-0.00092164124
111	0x3c528980	0.012850165
112	0xbb14e5ea	-0.0022720047
113	0xbc229299	-0.009922647
114	0xbc2d5f7a	-0.010581845
115	0xbb2481d5	-0.00251018
116	0x3a04603a	0.0005049739
117	0xbc8ec296	-0.01742677
118	0xba916ccc	-0.0011095046
119	0x3c51a2f3	0.012795198
120	0xbc1bf8fb	-0.009519811
121	0xbbfc3800	-0.0076971054
122	0xbc5aa174	-0.0133441575
123	0x3c702cd6	0.014659127
124	0x3be597d2	0.007006624
125	0x3bbe9e7d	0.005817233
126	0xbbbb81ad	-0.0057222457
127	0xbc7a232f	-0.0152671775
128	0x3b8b399c	0.004248811
129	0x3b86e30d	0.004116422
130	0x3b8727a1	0.004124597
131	0x3c5efb2e	0.013609691
132	0x3b6028cb	0.0034204002
133	0xbadb59ea	-0.001673517
134	0x39cf901e	0.00039589492
135	0xbc558d3c	-0.013034161
136	0x3cae5972	0.021282885
137	0x3bdf39c9	0.0068123084
138	0xbc2d175a	-0.0105646495
139	0xba2f02de	-0.00066761475
140	0x3a43ef94	0.00074743596
141	0xbb3f9cb6	-0.0029237694
142	0x3c50ff32	0.012756156
143	0xbc20bdbe	-0.009810863
144	0x3c5c0c13	0.013430613
145	0xbca6a41a	-0.020341922
146	0xbc15156d	-0.009099347
147	0xbbb0a60e	-0.005390889
148	0xbc29a68d	-0.01035465
149	0x3c280854	0.010255892
150	0xbbdfa3b0	-0.006824933
151	0x3ba5736e	0.0050491607
152	0xbc34f1b8	-0.011043958
153	0x3c31876c	0.01083551
154	0x3bbb215c	0.005710764
155	0xbc20c90b	-0.009813557
156	0xbb8d0a39	-0.004304197
157	0xbbd96d34	-0.0066353325
158	0xbb97369d	-0.0046146647
159	0x3b560bf4	0.0032660933
160	0x3a6185fa	0.0008603033
161	0xbbb0a5ae	-0.0053908443
162	0x3bcd275b	0.006260795
163	0x3afbdd31	0.00192157
164	0x3afd1272	0.0019307865
165	0xbb5db1c1	-0.0033827873
166	0x3b6a983d	0.0035796307
167	0xbb8fe55c	-0.0043913554
168	0x3bcc6025	0.0062370473
169	0x3c90522b	0.017617306
170	0xbbb7098a	-0.005585854
171	0x3bb63e29	0.0055616093
172	0xbbb4c315	-0.0055164197
173	0x3c87e08c	0.016586564
174	0xbc85c92c	-0.016331278
175	0x3c161905	0.009161239
176	0xbb8186c8	-0.0039528348
177	0xbbeb16df	-0.0071743573
178	0x3c1130ae	0.008861704
179	0xbc3c598e	-0.011495961
180	0xbc085520	-0.008321077
181	0x3c37448d	0.011185777
182	0xbc37f228	-0.011227168
183	0xbc8b3521	-0.016993107
184	0xbba6f07d	-0.0050945864
185	0xbabde364	-0.0014487323
186	0x3c458818	0.012056373
187	0x3c81c5c1	0.015841367
188	0xbb6a9ccc	-0.0035799025
189	0xbb8ab343	-0.0042327954
190	0xbc5beb84	-0.0134228505
191	0xbc516e8e	-0.012782706
192	0x3c2e19a6	0.010626232
193	0xbc1823f7	-0.009285918
194	0x3b4da3b5	0.0031378095
195	0xbc02d525	-0.007985388
196	0xbbae16aa	-0.0053127604
197	0xbb376343	-0.0027982749
198	0xbc362628	-0.011117496
199	0xbc089488	-0.008336194

mu.weight f4 [4, 200]
0	0x3dc6b2f8	0.09702104
1	0x3d51e7f0	0.051246583
2	0xbdc18805	-0.09449772
3	0xbbd85983	-0.0066024675
4	0xbe20cc61	-0.15702964
5	0xbd25f766	-0.04051914
6	0x3dad1f68	0.08453256
7	0x3e314aa6	0.17313632
8	0x3dca5945	0.09880308
9	0xbe0f7092	-0.14007786
10	0xbdbc09ee	-0.091815814
11	0xbdc52aa0	-0.09627271
12	0x3e16f934	0.14743501
13	0x3c4c4e6b	0.012469868
14	0x3df5c2b3	0.120000266
15	0xbd967f23	-0.07348468
16	0x3e242f0c	0.16033572
17	0x3dfd85ba	0.12379022
18	0x3da743e0	0.08167243
19	0x3dd9e321	0.106390245
20	0x3d79aa65	0.060953517
21	0x3d9a8db9	0.07546563
22	0x3ceaa670	0.028643817
23	0xbdd49581	-0.10380078
24	0x3c95bf4c	0.018279694
25	0x3d900e97	0.07034033
26	0xb786a8fa	-1.605273e-05
27	0x3dfc224b	0.12311228
28	0xbdb77848	-0.08958489
29	0xbde795d9	-0.11307878
30	0x3e13f753	0.14449815
31	0xbd939018	-0.07205218
32	0xbe257ad6	-0.1616014
33	0xbbb785f8	-0.005600687
34	0x3c120ea3	0.0089146225
35	0xbe1c782b	-0.15280215
36	0xbe104e08	-0.14092267
37	0x3d16fc6c	0.036861822
38	0xbda06e8f	-0.078335874
39	0xbd0f7625	-0.03502478
40	0xbd2cd536	-0.04219552
41	0xbe0acdfb	-0.13555138
42	0xbdc04a1d	-0.09389136
43	0x3dfe9d62	0.12432362
44	0xbd9f67b7	-0.07783454
45	0xbe08ab1a	-0.1334652
46	0x3d15cef9	0.036574338
47	0xbd8601e0	-0.065433264
48	0xbdd15680	-0.10221577
49	0xbd0fb47f	-0.035084244
50	0x3e2a0b0d	0.16605778
51	0xbd84dd29	-0.064874955
52	0xbd88d007	-0.06680303
53	0x3dada482	0.08478643
54	0x3d48b0a9	0.0489966
55	0xbe0cc1c8	-0.13745797
56	0x3de23435	0.11045114
57	0xbd896f10	-0.067106366
58	0x3d2ca824	0.04215254
59	0x3de6cfe7	0.11270123
60	0xbe1f574f	-0.1556065
61	0x3d787c8c	0.060665652
62	0xbe0fa56c	-0.14027947
63	0xbd41b27c	-0.047289357
64	0xbcbec79f	-0.023288546
65	0x3dde8266	0.10864715
66	0x3dfa687a	0.122269586
67	0xbda1ffbf	-0.07910108
68	0x3db7c282	0.08972646
69	0xbd480f17	-0.048842516
70	0xbdd9f6a3	-0.10642745
71	0x3dd8845f	0.10572123
72	0x3bf1b16b	0.007375886
73	0xbd0334e3	-0.03203286
74	0xbd593190	-0.053025782
75	0x3e27961b	0.16365854
76	0xbca0397d	-0.019558663
77	0xbdaea72d	-0.0852798
78	0xbe065e8b	-0.13122003
79	0x3dab7eda	0.083738044
80	0xbd995ccc	-0.07488403
81	0x3cb0e97a	0.021595705
82	0x3dc1a4e8	0.094552815
83	0xbd0b1402	-0.033954628
84	0x3dd68564	0.10474661
85	0x3c243831	0.010023163
86	0xbe1bb346	-0.15205106
87	0xbde672c7	-0.11252361
88	0x3d95c096	0.073121235
89	0xbe03ef39	-0.12884225
90	0x3c689d8e	0.01419772
91	0x3c27f93f	0.010252296
92	0x3caa8d6b	0.020819386
93	0xbd869b98	-0.06572646
94	0xbac54213	-0.0015049599
95	0x3d92b098	0.07162589
96	0x3e26756c	0.1625573
97	0xbdc914f4	-0.098184496
98	0xbdf81fa3	-0.12115409
99	0x3dea63a2	0.11444785
100	0xbd23f320	-0.040026784
101	0x3e0c322f	0.13691019
102	0x3cb7662d	0.022387588
103	0xbd9dc02c	-0.077026695
104	0xbd6b8746	-0.057502054
105	0xbe099d4f	-0.13438915
106	0x3ddef6e8	0.108869374
107	0x3e1c13ca	0.15241924
108	0xbe0911dd	-0.1338572
109	0x3c760e18	0.015018009
110	0x3abded23	0.0014490228
111	0xbc826c6d	-0.015920842
112	0x3dc9c2cb	0.09851607
113	0x3d5b4e34	0.053541377
114	0xbc9a7eab	-0.018859228
115	0x3d3cccf0	0.04609388
116	0xbdda14aa	-0.106484726
117	0x3bab5dca	0.0052296864
118	0xbdf9f89f	-0.12205624
119	0xbe00bb0c	-0.12571353
120	0xbd62d517	-0.055379
121	0x3e1200d4	0.14258128
122	0x3c89a882	0.016803984
123	0x3d44750d	0.04796319
124	0xbcca1729	-0.024669247
125	0xbd6fe5e2	-0.058568843
126	0xbdbad731	-0.09123076
127	0x3e09bf1b	0.13451807
128	0x3cb01654	0.021495022
129	0xbe1abb3e	-0.1511049
130	0xbd89c520	-0.06727052
131	0xbd139a55	-0.036035854
132	0x3d8078f8	0.06273073
133	0x3e092742	0.13393882
134	0x3dfb9565	0.12284354
135	0xbdeae6d6	-0.1146981
136	0xbdd9f036	-0.1064152
137	0xbe1b4706	-0.15163812
138	0x3d36dffa	0.044647194
139	0xbcb5afe5	-0.0221786
140	0x3dc5583d	0.09635971
141	0x3d14eb76	0.036357366
142	0xbe09aae0	-0.1344409
143	0xbdcdf368	-0.10056192
144	0xbd8e780b	-0.0695649
145	0xbca79153	-0.020455038
146	0x3e049426	0.12947139
147	0x3d4e47e3	0.050361525
148	0xbd280650	-0.041021645
149	0xbe13988f	-0.14413665
150	0xbdcc2fbe	-0.099700436
151	0xbd8b9241	-0.06815005
152	0xbcf45061	-0.029823484
153	0x3b9daec1	0.004812092
154	0x3dd4ad65	0.10384635
155	0xbc225b5d	-0.009909478
156	0x3df7b940	0.120958805
157	0x3e25934f	0.16169475
158	0x3d50f62a	0.05101601
159	0xbc424b12	-0.0118587185
160	0xbdb87699	-0.09006996
161	0xbdf09a78	-0.117482126
162	0xbe2952b5	-0.16535456
163	0x3d4288e9	0.04749385
164	0x3e0f41d8	0.13989961
165	0xbd94bf8c	-0.07263097
166	0xbcafb79d	-0.021449858
167	0xbdb6c1de	-0.08923696
168	0x3d8d9f0e	0.06915103
169	0xbd21eccd	-0.03953247
170	0x3d7d67f6	0.061866723
171	0xbdd6e743	-0.104933284
172	0x3e0ff894	0.14059669
173	0xbe2f36cc	-0.17110747
174	0xbe02ab5f	-0.12760685
175	0x3e0a8b80	0.13529778
176	0xbcc3333d	-0.023828143
177	0xbe09bc75	-0.13450797
178	0xbe1af878	-0.15133846
179	0x3e038ee5	0.12847479
180	0xbd50101c	-0.050796613
181	0x3da014ae	0.07816444
182	0xbd99eed5	-0.07516257
183	0x3dcbf0ee	0.09958063
184	0x3da84145	0.08215574
185	0x3e158b85	0.14604004
186	0xbe2a0d9d	-0.16606756
187	0x3d4a7a53	0.049433064
188	0x3db9a8c0	0.0906539
189	0x3e252b31	0.16129757
190	0x3d5a7d8e	0.053342395
191	0x3dceac47	0.10091453
192	0xbda4eabc	-0.080525845
193	0x3db62063	0.08892896
194	0xbdb98064	-0.09057692
195	0xbbe199dc	-0.0068847965
196	0x3db5cc68	0.08876878
197	0x3d7d3f6d	0.061828066
198	0xbc3189d3	-0.0108360825
199	0x3dfd5bb8	0.123710096
200	0x3d816b50	0.06319296
201	0xbe02c2c5	-0.12769611
202	0x3dc2cd94	0.09511867
203	0xbd0924cd	-0.03348236
204	0xbdd80596	-0.105479404
205	0x3db93a14	0.09044281
206	0xbdef7297	-0.11691778
207	0xbe012f37	-0.12615667
208	0x3d89ebf7	0.0673446
209	0x3dfccd25	0.12343816
210	0x3e046dea	0.12932554
211	0xbdc393b4	-0.095496565
212	0xbe0ad12e	-0.13556358
213	0x3da2adbb	0.07943293
214	0xbddae1f6	-0.1068763
215	0xbd220e58	-0.03956446
216	0x3dce67f2	0.1007842
217	0xbd0eb5bb	-0.03484128
218	0xbd41d2ac	-0.047320053
219	0x3df25a16	0.11833589
220	0x3dabe66e	0.0839356
221	0x3d8e1959	0.069384284
222	0x3ceeac86	0.029135
223	0xbc677165	-0.014126156
224	0xbd9747c1	-0.07386733
225	0x3dc9e389	0.09857852
226	0x3e0b4d06	0.13603601
227	0xbe1a1e67	-0.1505066
228	0xbd9c2f36	-0.07626192
229	0xbd80f46c	-0.0629662
230	0xbda009d0	-0.078143716
231	0x3d783646	0.060598634
232	0x3d0acc6d	0.033886362
233	0xbe1ba7d5	-0.15200742
234	0xbd0eac90	-0.034832537
235	0xbc1b481f	-0.009477644
236	0x3dfad578	0.12247747
237	0xbdef534e	-0.11685811
238	0x3bc0c675	0.005883033
239	0x3d8bd738	0.06828159
240	0xbe09c4da	-0.13453999
241	0xbd82279e	-0.06355213
242	0x3d9ff4f1	0.07810391
243	0xbe1d46eb	-0.15359084
244	0xbcc28a9a	-0.023747731
245	0x3ddd4833	0.108047865
246	0xbe221b2d	-0.15830679
247	0x3db716f1	0.089399226
248	0xbe232584	-0.1593228
249	0xbd8d70f8	-0.06906313
250	0x3c332020	0.010932952
251	0xbe1162b3	-0.14197807
252	0xbd23e4a4	-0.04001297
253	0xbd7bcf04	-0.061476722
254	0x3ce65c95	0.028120318
255	0x3d94a583	0.07258131

mu.bias f4 [4]
0	0xbc0d6e0b	-0.008632193
1	0x3b83dd2b	0.004024168
2	0xbc7234cf	-0.014783098
3	0x3c319597	0.010838888
