llirl_sumo/saves/120p4k/optimal_policy_period_1.pth (torch, 196916 bytes, 7 tensors)

sigma f4 [4]
000000 00 00 00 00 00 00 00 00 00 00 00 00 00 00 00 00
       0.0 0.0 0.0 0.0

layer1.weight f4 [200, 36]
000000 1c 6c 68 3d c8 fa 1f 3e c0 fc 6d bb d8 f9 f4 3c
       0.056743726 0.15623009 -0.003631398 0.029904291
000010 88 b9 38 3d c0 99 6f 3d 0a e3 6c bd 98 c4 a0 3d
       0.04509881 0.058496237 -0.05783371 0.07849997
000020 f4 2f 1c bd e8 64 bc 3d b8 a0 d0 bc b8 44 6f 3d
       -0.03813167 0.09198934 -0.025467262 0.058415145
000030 5c 29 d3 3d f8 c9 dc bd b4 19 48 3d 50 64 e1 3c
       0.10310623 -0.1078071 0.048852637 0.027513653
000040 c2 20 fb bd 78 a0 d6 bc a0 f5 84 3b f6 2c 02 3e
       -0.122621074 -0.026199564 0.004057601 0.12712464
000050 48 98 9f bd a0 33 ec 3d df 79 8a bd 7a cf 89 3d
       -0.07792717 0.11533284 -0.06761526 0.06729026
000060 20 be 0b 3d 7c ea d5 3d 30 54 ca 3d 9a 17 12 be
       0.034116864 0.10445115 0.09879339 -0.14266816
000070 c0 86 11 bc c8 db 19 be 80 c3 e8 3a 24 65 c2 bd
       -0.008882225 -0.15025246 0.0017758459 -0.09491947
000080 0c a1 0e 3e 90 5e a5 3d 82 b9 9b bd 18 01 c0 3c
       0.13928622 0.08074677 -0.07603742 0.023438022
000090 61 02 c4 bd 65 53 18 be 8e a2 a7 3d b0 24 e8 bc
       -0.09570766 -0.14875562 0.08185302 -0.028337806
0000a0 c0 ae 17 bb 00 d7 c0 ba 04 85 3e 3d 3a 77 a4 3d
       -0.002314493 -0.0014712512 0.046513572 0.08030553
0000b0 2a db 69 bd 48 21 80 bc 2d 66 a4 bd dc 46 9c bd
       -0.057093777 -0.01564087 -0.08027301 -0.07630703
0000c0 0c 2b 5c bd 40 5a d9 3c 02 fb f0 bd 00 1d ae ba
       -0.05375199 0.026532292 -0.11766626 -0.0013283789
0000d0 8a 5f 04 3e 1c 6c 0f be 68 f9 9d 3c ac a3 d9 3d
       0.1292707 -0.14006084 0.019283965 0.10626921
0000e0 80 1d 86 3c 78 e4 bb 3d 3a e3 b6 bd d0 05 03 3c
       0.016371489 0.09174436 -0.08930059 0.007996991
0000f0 3a d1 45 bd 90 ed 0b 3c 28 7d ec bc a8 94 b7 3c
       -0.048295237 0.008540526 -0.028868273 0.022409752
000100 58 9f 13 3e 1c 40 2a bd 84 36 06 3d 74 3e d5 bd
       0.14416254 -0.041565046 0.032766834 -0.104123026
000110 fc d9 be 3d 80 f3 15 3d 38 2a c8 bd 00 4b e8 3d
       0.09318921 0.036609173 -0.097736776 0.1134243
000120 9a 60 be bd 72 2a f6 bd 72 31 1a be 98 e3 b1 bd
       -0.09295769 -0.120198146 -0.15057924 -0.08685988
000130 d0 89 f8 bc 25 d4 95 bd 12 57 1e 3e 71 8d 11 be
       -0.030339152 -0.07315854 0.15462902 -0.14214112
000140 08 c7 ae bc 8e 50 de bd 0a 32 20 3e 90 4f 37 bd
       -0.02133514 -0.10855208 0.15644088 -0.04475361
000150 08 0d 0f be d2 1c 96 3d a6 d6 a7 bd 96 2b 9e 3d
       -0.13969815 0.07329716 -0.08195238 0.07723157
000160 e4 07 22 3e a8 9d ff bc c0 8e c1 bb bb 91 0c be
       0.15823323 -0.031203106 -0.0059069097 -0.13727467
000170 80 45 99 bc 90 74 d0 3d ac 76 d3 3d 0e 87 8a 3d
       -0.018709898 0.101784825 0.10325369 0.06764041
000180 02 8f 01 be 50 77 f6 3d be 50 aa 3d a0 63 0a bd
       -0.1265221 0.12034476 0.083161816 -0.033786416
000190 9a 11 18 be e8 08 f5 3d 58 c8 93 bc 20 50 e5 bd
       -0.14850464 0.11964589 -0.018039867 -0.11196923
0001a0 14 e5 d7 3d 74 2b 17 be 00 6b 1b be 1c 9e d8 3d
       0.1054174 -0.1476267 -0.15177536 0.10577032
0001b0 6c 4b df 3d 40 c0 19 bc 10 a8 18 bc 8c e5 76 bd
       0.109030575 -0.009384215 -0.009317413 -0.060277507
0001c0 e8 4d f0 bd 26 33 a3 bd 23 af db bd 60 6c 14 bc
       -0.117336094 -0.0796874 -0.10726764 -0.009059042
0001d0 ce f6 62 bd b0 0b a7 bc d4 98 c6 bd 1e 89 8e 3d
       -0.055411153 -0.020391315 -0.096971184 0.06959747
0001e0 4e f6 9d 3d 9e 16 44 bd 9c 61 e2 3d 50 ba d7 3c
       0.077129945 -0.047873132 0.11053774 0.026333958
0001f0 ab 91 0f be e2 8e 70 bd 47 b8 12 be d0 2f 30 bd
       -0.14020412 -0.058730014 -0.14328109 -0.043014348
000200 1c 8b b4 3d 20 75 a6 bc 34 b9 76 bd 00 cb cd 3a
       0.088155955 -0.020319521 -0.060235217 0.0015700758
000210 0e b1 5e bd 92 17 21 be 40 94 11 bc 76 77 1a be
       -0.05436807 -0.15731648 -0.008885443 -0.15084633
000220 20 a8 0a 3d e1 59 82 bd 5c ff 0b 3d ee 34 e7 bd
       0.033851743 -0.06364799 0.034179077 -0.112893924
000230 38 a5 cb 3c f0 02 b9 3c ce fd a8 bd 70 b4 28 bc
       0.024859056 0.022584409 -0.082515344 -0.010296926
000240 f0 18 5a 3d 28 a8 e8 bc 2a 0e 52 bd 54 71 c4 3d
       0.05324644 -0.028400496 -0.05128304 0.09591928
000250 2e 56 0f 3e 23 e5 ae bd f0 64 2d 3c 00 7d 38 bd
       0.13997719 -0.08539798 0.010583147 -0.045041084
000260 80 6a 55 bc 66 0d b6 3d 50 73 8f bc b8 ad 89 bc
       -0.01302588 0.08889274 -0.01751104 -0.016806468
000270 e4 cc 36 3d 94 01 e2 3d 9c f4 0f 3e a2 07 84 3d
       0.044628993 0.11035457 0.14058155 0.06446768
000280 a1 97 af bd b6 8b 59 bd be 85 ea bd 98 f9 1e be
       -0.08573843 -0.053111754 -0.114512905 -0.155249
000290 eb 2b 21 be 68 96 f7 bc 5c 23 46 3d 94 ed 0c 3e
       -0.1573941 -0.030223086 0.048373565 0.13762504
0002a0 80 8d 6b 3b 1e 69 1f be 8e 88 a1 bd f0 02 ee 3d
       0.0035942495 -0.15567443 -0.07887374 0.11621654
0002b0 ce 3d 0c 3e 20 53 1c 3d b0 50 d8 bc cc 55 e1 3d
       0.13695452 0.03816521 -0.026405662 0.110026926
0002c0 ac c9 14 3d 47 3d e4 bd 0e 1d be bd 76 0f 41 bd
       0.03632514 -0.111445 -0.092828855 -0.047133885
0002d0 5c d8 2e bd 84 90 a8 bd 82 b7 33 bd 7c e1 c5 3d
       -0.042686805 -0.08230689 -0.04387618 0.09662148
0002e0 68 6d d1 3d 3e 95 25 bd e4 50 b8 3d 78 64 d2 3d
       0.10225946 -0.04042553 0.08999804 0.10273069
0002f0 a6 cb 8a bd 10 70 fe 3d 94 03 24 3d 42 b4 58 bd
       -0.06777124 0.12423718 0.040042475 -0.052906282
000300 c6 6d 20 3e e8 b5 f7 bc 00 74 67 3a 14 c1 57 3d
       0.15666875 -0.030238107 0.0008829236 0.052674368
000310 10 07 98 3c a8 db eb 3c 99 35 85 bd 2c 0a 2a 3d
       0.018558055 0.028791264 -0.065043636 0.041513607
000320 a8 47 dc 3c 78 bb df bc 3b bb 0a be 92 c2 54 bd
       0.026889637 -0.027311072 -0.13547985 -0.05194337
000330 14 67 1f 3e 9c a3 df 3d 40 07 63 3d 5e df 82 bd
       0.15566665 0.10919878 0.055426836 -0.0639026
000340 36 cb ac 3d d4 19 d9 3d 99 bd bb bd 50 14 22 bd
       0.08437197 0.106006294 -0.09167022 -0.039570153
000350 56 8d fe bd 3d 51 1d be ce c2 1a 3e 38 13 25 3d
       -0.124293014 -0.15363021 0.15113375 0.04030153
000360 50 b2 5e bc 70 0c 87 bc c0 d9 95 bb aa 82 21 3e
       -0.013592318 -0.016485423 -0.004573077 0.157725
000370 f7 46 10 be 44 de e9 3d 60 0d 92 3d 10 21 00 bc
       -0.14089571 0.11419347 0.07131457 -0.007820383
000380 5d ff 90 bd 40 a6 25 bd 34 a1 96 bd 04 c8 59 3d
       -0.07079957 -0.04044175 -0.07354966 0.053169265
000390 68 1c f0 3d e0 04 d8 3d f4 41 f8 bd 30 76 b9 3d
       0.11724168 0.10547805 -0.121219546 0.090557456
0003a0 9c 13 19 3d ea 8e 16 bd 0f 6e e9 bd 5c 0a a6 bd
       0.037372217 -0.036757387 -0.11397945 -0.08107445
0003b0 a2 b6 09 3e 80 64 00 3d 46 fb db bd 00 24 b3 ba
       0.13448575 0.031345844 -0.10741286 -0.0013667345
0003c0 b0 3b 92 bd 5c f1 00 bd 2a 94 94 3d 65 61 14 be
       -0.07140291 -0.03148018 0.072548226 -0.14490278
0003d0 fc 6c ee bd 1f 33 c4 bd b6 18 c6 bd 00 d0 cc bd
       -0.11641881 -0.09580063 -0.09672682 -0.1000061
0003e0 4c 3f cf 3d 3c 80 17 3e f7 e0 fb bd 25 b4 b0 bd
       0.10119495 0.14795011 -0.12298768 -0.0862811
0003f0 bc 92 d3 3d 4e 81 99 3d 00 06 01 be 40 ce 0b bd
       0.10330722 0.07495366 -0.12599945 -0.034132242

layer1.bias f4 [200]
000000 00 00 00 00 00 00 00 00 00 00 00 00 00 00 00 00
       0.0 0.0 0.0 0.0
000010 00 00 00 00 00 00 00 00 00 00 00 00 00 00 00 00
       0.0 0.0 0.0 0.0
000020 00 00 00 00 00 00 00 00 00 00 00 00 00 00 00 00
       0.0 0.0 0.0 0.0
000030 00 00 00 00 00 00 00 00 00 00 00 00 00 00 00 00
       0.0 0.0 0.0 0.0
000040 00 00 00 00 00 00 00 00 00 00 00 00 00 00 00 00
       0.0 0.0 0.0 0.0
000050 00 00 00 00 00 00 00 00 00 00 00 00 00 00 00 00
       0.0 0.0 0.0 0.0
000060 00 00 00 00 00 00 00 00 00 00 00 00 00 00 00 00
       0.0 0.0 0.0 0.0
000070 00 00 00 00 00 00 00 00 00 00 00 00 00 00 00 00
       0.0 0.0 0.0 0.0
000080 00 00 00 00 00 00 00 00 00 00 00 00 00 00 00 00
       0.0 0.0 0.0 0.0
000090 00 00 00 00 00 00 00 00 00 00 00 00 00 00 00 00
       0.0 0.0 0.0 0.0
0000a0 00 00 00 00 00 00 00 00 00 00 00 00 00 00 00 00
       0.0 0.0 0.0 0.0
0000b0 00 00 00 00 00 00 00 00 00 00 00 00 00 00 00 00
       0.0 0.0 0.0 0.0
0000c0 00 00 00 00 00 00 00 00 00 00 00 00 00 00 00 00
       0.0 0.0 0.0 0.0
0000d0 00 00 00 00 00 00 00 00 00 00 00 00 00 00 00 00
       0.0 0.0 0.0 0.0
0000e0 00 00 00 00 00 00 00 00 00 00 00 00 00 00 00 00
       0.0 0.0 0.0 0.0
0000f0 00 00 00 00 00 00 00 00 00 00 00 00 00 00 00 00
       0.0 0.0 0.0 0.0
000100 00 00 00 00 00 00 00 00 00 00 00 00 00 00 00 00
       0.0 0.0 0.0 0.0
000110 00 00 00 00 00 00 00 00 00 00 00 00 00 00 00 00
       0.0 0.0 0.0 0.0
000120 00 00 00 00 00 00 00 00 00 00 00 00 00 00 00 00
       0.0 0.0 0.0 0.0
000130 00 00 00 00 00 00 00 00 00 00 00 00 00 00 00 00
       0.0 0.0 0.0 0.0
000140 00 00 00 00 00 00 00 00 00 00 00 00 00 00 00 00
       0.0 0.0 0.0 0.0
000150 00 00 00 00 00 00 00 00 00 00 00 00 00 00 00 00
       0.0 0.0 0.0 0.0
000160 00 00 00 00 00 00 00 00 00 00 00 00 00 00 00 00
       0.0 0.0 0.0 0.0
000170 00 00 00 00 00 00 00 00 00 00 00 00 00 00 00 00
       0.0 0.0 0.0 0.0
000180 00 00 00 00 00 00 00 00 00 00 00 00 00 00 00 00
       0.0 0.0 0.0 0.0
000190 00 00 00 00 00 00 00 00 00 00 00 00 00 00 00 00
       0.0 0.0 0.0 0.0
0001a0 00 00 00 00 00 00 00 00 00 00 00 00 00 00 00 00
       0.0 0.0 0.0 0.0
0001b0 00 00 00 00 00 00 00 00 00 00 00 00 00 00 00 00
       0.0 0.0 0.0 0.0
0001c0 00 00 00 00 00 00 00 00 00 00 00 00 00 00 00 00
       0.0 0.0 0.0 0.0
0001d0 00 00 00 00 00 00 00 00 00 00 00 00 00 00 00 00
       0.0 0.0 0.0 0.0
0001e0 00 00 00 00 00 00 00 00 00 00 00 00 00 00 00 00
       0.0 0.0 0.0 0.0
0001f0 00 00 00 00 00 00 00 00 00 00 00 00 00 00 00 00
       0.0 0.0 0.0 0.0
000200 00 00 00 00 00 00 00 00 00 00 00 00 00 00 00 00
       0.0 0.0 0.0 0.0
000210 00 00 00 00 00 00 00 00 00 00 00 00 00 00 00 00
       0.0 0.0 0.0 0.0
000220 00 00 00 00 00 00 00 00 00 00 00 00 00 00 00 00
       0.0 0.0 0.0 0.0
000230 00 00 00 00 00 00 00 00 00 00 00 00 00 00 00 00
       0.0 0.0 0.0 0.0
000240 00 00 00 00 00 00 00 00 00 00 00 00 00 00 00 00
       0.0 0.0 0.0 0.0
000250 00 00 00 00 00 00 00 00 00 00 00 00 00 00 00 00
       0.0 0.0 0.0 0.0
000260 00 00 00 00 00 00 00 00 00 00 00 00 00 00 00 00
       0.0 0.0 0.0 0.0
000270 00 00 00 00 00 00 00 00 00 00 00 00 00 00 00 00
       0.0 0.0 0.0 0.0
000280 00 00 00 00 00 00 00 00 00 00 00 00 00 00 00 00
       0.0 0.0 0.0 0.0
000290 00 00 00 00 00 00 00 00 00 00 00 00 00 00 00 00
       0.0 0.0 0.0 0.0
0002a0 00 00 00 00 00 00 00 00 00 00 00 00 00 00 00 00
       0.0 0.0 0.0 0.0
0002b0 00 00 00 00 00 00 00 00 00 00 00 00 00 00 00 00
       0.0 0.0 0.0 0.0
0002c0 00 00 00 00 00 00 00 00 00 00 00 00 00 00 00 00
       0.0 0.0 0.0 0.0
0002d0 00 00 00 00 00 00 00 00 00 00 00 00 00 00 00 00
       0.0 0.0 0.0 0.0
0002e0 00 00 00 00 00 00 00 00 00 00 00 00 00 00 00 00
       0.0 0.0 0.0 0.0
0002f0 00 00 00 00 00 00 00 00 00 00 00 00 00 00 00 00
       0.0 0.0 0.0 0.0
000300 00 00 00 00 00 00 00 00 00 00 00 00 00 00 00 00
       0.0 0.0 0.0 0.0
000310 00 00 00 00 00 00 00 00 00 00 00 00 00 00 00 00
       0.0 0.0 0.0 0.0

layer2.weight f4 [200, 200]
000000 cc 40 d8 3c b7 9a 93 3d b4 1f bb bd f6 9b e2 bd
       0.026398085 0.07207244 -0.09136906 -0.110649034
000010 1c ca 9f 3c 88 98 8b bc 7d 55 a8 3d 5c b9 8f 3c
       0.019505553 -0.017040506 0.082194306 0.01754444
000020 ad fa 8d bd 71 29 89 bd 38 ef 61 3c 2a 6e 08 3d
       -0.06932578 -0.066973574 0.013789944 0.033308186
000030 a8 c3 e8 bd 11 5d 81 3d 79 57 e9 3d 79 c0 b7 3d
       -0.113654435 0.06316579 0.11393637 0.08972258
000040 d0 36 96 bb 2d 1a f6 bd 30 d3 0a bd b7 52 c9 3d
       -0.004584171 -0.120167114 -0.03389281 0.0983023
000050 16 61 ab bd 47 e6 7b bd de 17 26 bd 52 eb 69 3d
       -0.08368127 -0.061498906 -0.040550105 0.057109185
000060 40 05 20 bb dc f8 f4 bd 46 5d 31 3d f0 a2 d2 bb
       -0.0024417192 -0.11961529 0.043301843 -0.006428115
000070 40 d3 ec 3a e0 d7 21 3b 3a 34 10 bd e4 8b 8c bd
       0.0018068328 0.0024695322 -0.035206057 -0.068626195
000080 3e c9 64 3d f6 e1 ae bd 4c 34 c1 3c bc 79 c2 3c
       0.055855982 -0.085391924 0.023584507 0.023739688
000090 47 af c0 3d 1f b4 bc 3d c4 58 37 bd f2 eb 0d 3d
       0.094084315 0.09214043 -0.044762388 0.034648843
0000a0 68 6d 4c 3c 94 e8 95 bc 59 94 85 3d c5 c4 ec 3d
       0.012477256 -0.018299378 0.06522436 0.11560968
0000b0 98 f4 34 3c d2 32 3e bd e0 2f 5e bb 2a a4 20 3d
       0.011044644 -0.046435185 -0.0033903047 0.03921906
0000c0 aa 8f 19 bd c0 19 a9 3a ec 76 b7 3c 7a 7e 13 3d
       -0.037490524 0.0012901351 0.022395574 0.03600929
0000d0 bf 79 b3 3d 84 33 27 bd ae c7 cd bd 10 a9 fa bc
       0.087634556 -0.040820614 -0.100478515 -0.030598193
0000e0 0c 93 bf bd 9c 07 90 bd 7c d1 9f bc 30 2c a2 3b
       -0.09354219 -0.070327014 -0.01950907 0.004949115
0000f0 e5 e0 8e 3d 4f ef 82 3d 4a fc 6b 3d 32 27 99 bd
       0.06976489 0.06393301 0.05761365 -0.07478179
000100 32 9f 51 3d 12 77 45 3d b1 e2 dc 3d cb 18 97 3d
       0.05117721 0.048209257 0.107854255 0.07377776
000110 68 af 29 3c f7 63 f7 3d 6d 6d d1 3d 26 f0 aa bd
       0.0103567615 0.12079614 0.102259494 -0.08346586
000120 b1 41 9b 3d 28 28 54 bc 10 f1 e1 bd 00 78 e6 ba
       0.07580889 -0.012949027 -0.11032307 -0.001758337
000130 48 88 c8 bd 26 e9 7a 3d 98 2b 0e 3c e0 6f 4b bc
       -0.097916186 0.061257504 0.008677386 -0.01241681
000140 d4 5e 9f bc 80 36 76 bd 84 83 f7 bd c1 fe 8e 3d
       -0.019454397 -0.06011057 -0.120856315 0.06982184
000150 8c 4b c8 3c bb 3b f5 bd 33 24 80 3d 0d 26 d6 bd
       0.024450086 -0.11974283 0.062569045 -0.10456476
000160 20 7f 90 bc bd 34 f1 3d ac d3 87 3c bc 2b 86 bd
       -0.017638743 0.11777637 0.016580425 -0.065513104
000170 d9 f1 c8 bd 3b e8 95 3d 29 04 a2 bd f4 ef 0a bd
       -0.09811754 0.07319685 -0.0791095 -0.033920243
000180 c8 c4 98 bd 41 53 ad 3d d9 2c ea bd 00 23 03 bc
       -0.07459408 0.08463145 -0.11434335 -0.00800395
000190 a0 ed 60 3b d4 1b 67 bd 6d d1 dc 3d 30 2f f5 bd
       0.0034321323 -0.056423023 0.10782132 -0.11971891
0001a0 14 fc 09 bd 16 bc 2a 3d 40 0f e3 ba 1a b4 23 3d
       -0.033687666 0.04168328 -0.001732327 0.03996668
0001b0 2b e1 ad bd 6a f8 15 3d 1a c9 63 bd 99 e7 d1 3d
       -0.08490213 0.03661386 -0.055611707 0.10249252
0001c0 9e f2 e1 bd c2 49 13 bd a5 ec 93 bd 56 07 c0 bd
       -0.11032604 -0.035959013 -0.07222871 -0.09376399
0001d0 74 95 a0 bc 63 57 a1 bd e9 6e c3 bd 58 8c 7f bd
       -0.019602515 -0.07877996 -0.09542639 -0.0623897
0001e0 98 ff 50 bd a8 05 1b 3c 70 88 50 bc 0f 8f 90 3d
       -0.051025003 0.009461798 -0.012727842 0.07058536
0001f0 fa a9 7b 3d 0e 96 87 bd 4c 22 3d bd 86 87 8b bd
       0.0614414 -0.066204175 -0.046175286 -0.068129584
000200 a2 78 26 bd 12 89 98 bd 94 29 a0 3c 9b 34 a3 3d
       -0.04064239 -0.07448019 0.019551076 0.07969018
000210 c4 4c e0 3c c4 0c 55 bd 6c c6 8b bc fb 13 c2 bd
       0.027380355 -0.052014127 -0.017062388 -0.09476467
000220 da 29 13 3d 81 76 d7 3d 20 89 18 bd b9 b9 c7 3d
       0.035928585 0.1052065 -0.037240148 0.09752221
000230 88 e5 42 3c 1a c4 3d bd db b6 a0 3d 84 0b e5 bc
       0.011895545 -0.046329595 0.07847377 -0.027959593
000240 c1 92 94 3d f4 e5 c6 3c af 81 c5 bd 48 ba 77 bc
       0.072545536 0.024279572 -0.09643876 -0.0151200965
000250 95 9e 93 3d 96 53 62 bd aa 8c 20 bd 75 31 ac 3d
       0.072079815 -0.055255495 -0.039196648 0.08407871
000260 21 bc 9e 3d fc 05 3b bd d0 8b 04 bd 10 f2 d3 bc
       0.077507265 -0.045660004 -0.032359898 -0.02587226
000270 83 8a e3 bd c2 96 e9 bd e2 d9 7e 3d ed 40 ee 3d
       -0.111104034 -0.11405708 0.062219508 0.11633477
000280 3b cb b4 3d ec 01 f0 bc 10 ca 66 bc 92 c5 18 3d
       0.08827826 -0.029297791 -0.014086261 0.037297793
000290 30 32 eb bb be 5e 42 3d 0b 8e ec 3d eb 3e 9c 3d
       -0.0071776137 0.047453634 0.1155053 0.07629188
0002a0 df df d4 3d 04 79 25 bd 94 42 af bd 24 28 f2 bc
       0.103942625 -0.040398613 -0.08557621 -0.029560156
0002b0 c6 41 ad bd 2f 6e d0 3d db ea e9 3d f0 b2 c3 bd
       -0.08459811 0.10177266 0.11421748 -0.09555614
0002c0 10 8e 9d bd 68 d2 4b 3c 94 f9 d6 bc 00 db f8 bc
       -0.07693112 0.0124403015 -0.026242055 -0.030377865
0002d0 65 08 c1 bd d2 25 4c 3d d0 24 8c 3b 14 68 ef bd
       -0.09425429 0.049840756 0.0042768493 -0.11689773
0002e0 2b a8 e6 3d 41 17 c3 3d 80 36 91 ba 65 b5 8f 3d
       0.11262544 0.0952592 -0.0011078864 0.0701702
0002f0 4b 53 98 3d 70 3d d4 bd 05 38 9a 3d 68 b8 4d 3c
       0.07437762 -0.10363281 0.07530216 0.012556173
000300 00 21 41 bb 7a f8 e0 bd b5 39 83 3d 00 00 71 b9
       -0.0029469132 -0.10984893 0.06407491 -0.00022983551
000310 fb a9 86 3d 68 41 5a bc a0 c1 4a bb 0e 17 bf bd
       0.0657539 -0.013321258 -0.0030938163 -0.09330569
000320 82 e8 93 bd 58 3c 1a 3c 08 38 58 bc c3 3b b5 3d
       -0.07222082 0.009413801 -0.013196953 0.08849289
000330 77 8f 8b 3d a8 77 9e bc b3 6b a6 bd 34 75 c1 3c
       0.06814473 -0.019344166 -0.08126011 0.023615457
000340 b2 66 41 3d 58 32 2f 3c 58 5d 8e bc 69 1d df 3d
       0.04721708 0.010693155 -0.017378494 0.108942814
000350 81 4f f9 bd b4 7a f8 bc b3 f0 c8 3d 46 08 9f bd
       -0.12173367 -0.030331947 0.09811535 -0.0776525
000360 2c 67 01 bd 56 67 25 3d 32 81 5d bd 32 7b 11 3d
       -0.031592533 0.040381752 -0.05407829 0.03551788
000370 90 73 c9 bc b8 66 80 bc 5a 32 d8 bd 7c df b7 bd
       -0.024591237 -0.01567398 -0.10556479 -0.08978173
000380 20 ae da bb 80 0c 5e bc 92 6b 0f 3d a8 e0 6a 3c
       -0.0066735893 -0.013552785 0.035014696 0.014335789
000390 bd a2 b4 3d cf 9e 9d 3d 04 fe f9 bd 31 34 9d 3d
       0.08820102 0.07696306 -0.12206653 0.0767597
0003a0 f8 53 7a 3c 7a 6b 14 3d 62 35 17 3d a0 d8 73 3b
       0.015278809 0.03623531 0.036916144 0.0037207976
0003b0 1d d4 84 3d 88 f3 5f bd 98 0a 2e 3c 48 32 47 bc
       0.0648577 -0.05467561 0.010622643 -0.012157984
0003c0 13 5d fa 3d b8 6a 64 bc 60 a1 f9 bc ea 05 31 3d
       0.12224784 -0.013941459 -0.030472457 0.04321853
0003d0 b1 8c 9b 3d 0e c1 39 3d 7f 6a 86 3d e0 ab cd bb
       0.07595194 0.045350127 0.06563281 -0.0062765926
0003e0 5c 67 80 3c f5 e2 ca bd 44 07 83 bd d9 f5 91 bd
       0.015674286 -0.0990657 -0.0639787 -0.0712697
0003f0 f4 d6 b2 3c 9f 4a ee 3d 01 ef bb 3d 37 14 c3 3d
       0.021831013 0.116353266 0.09176446 0.0952534

layer2.bias f4 [200]
000000 00 00 00 00 00 00 00 00 00 00 00 00 00 00 00 00
       0.0 0.0 0.0 0.0
000010 00 00 00 00 00 00 00 00 00 00 00 00 00 00 00 00
       0.0 0.0 0.0 0.0
000020 00 00 00 00 00 00 00 00 00 00 00 00 00 00 00 00
       0.0 0.0 0.0 0.0
000030 00 00 00 00 00 00 00 00 00 00 00 00 00 00 00 00
       0.0 0.0 0.0 0.0
000040 00 00 00 00 00 00 00 00 00 00 00 00 00 00 00 00
       0.0 0.0 0.0 0.0
000050 00 00 00 00 00 00 00 00 00 00 00 00 00 00 00 00
       0.0 0.0 0.0 0.0
000060 00 00 00 00 00 00 00 00 00 00 00 00 00 00 00 00
       0.0 0.0 0.0 0.0
000070 00 00 00 00 00 00 00 00 00 00 00 00 00 00 00 00
       0.0 0.0 0.0 0.0
000080 00 00 00 00 00 00 00 00 00 00 00 00 00 00 00 00
       0.0 0.0 0.0 0.0
000090 00 00 00 00 00 00 00 00 00 00 00 00 00 00 00 00
       0.0 0.0 0.0 0.0
0000a0 00 00 00 00 00 00 00 00 00 00 00 00 00 00 00 00
       0.0 0.0 0.0 0.0
0000b0 00 00 00 00 00 00 00 00 00 00 00 00 00 00 00 00
       0.0 0.0 0.0 0.0
0000c0 00 00 00 00 00 00 00 00 00 00 00 00 00 00 00 00
       0.0 0.0 0.0 0.0
0000d0 00 00 00 00 00 00 00 00 00 00 00 00 00 00 00 00
       0.0 0.0 0.0 0.0
0000e0 00 00 00 00 00 00 00 00 00 00 00 00 00 00 00 00
       0.0 0.0 0.0 0.0
0000f0 00 00 00 00 00 00 00 00 00 00 00 00 00 00 00 00
       0.0 0.0 0.0 0.0
000100 00 00 00 00 00 00 00 00 00 00 00 00 00 00 00 00
       0.0 0.0 0.0 0.0
000110 00 00 00 00 00 00 00 00 00 00 00 00 00 00 00 00
       0.0 0.0 0.0 0.0
000120 00 00 00 00 00 00 00 00 00 00 00 00 00 00 00 00
       0.0 0.0 0.0 0.0
000130 00 00 00 00 00 00 00 00 00 00 00 00 00 00 00 00
       0.0 0.0 0.0 0.0
000140 00 00 00 00 00 00 00 00 00 00 00 00 00 00 00 00
       0.0 0.0 0.0 0.0
000150 00 00 00 00 00 00 00 00 00 00 00 00 00 00 00 00
       0.0 0.0 0.0 0.0
000160 00 00 00 00 00 00 00 00 00 00 00 00 00 00 00 00
       0.0 0.0 0.0 0.0
000170 00 00 00 00 00 00 00 00 00 00 00 00 00 00 00 00
       0.0 0.0 0.0 0.0
000180 00 00 00 00 00 00 00 00 00 00 00 00 00 00 00 00
       0.0 0.0 0.0 0.0
000190 00 00 00 00 00 00 00 00 00 00 00 00 00 00 00 00
       0.0 0.0 0.0 0.0
0001a0 00 00 00 00 00 00 00 00 00 00 00 00 00 00 00 00
       0.0 0.0 0.0 0.0
0001b0 00 00 00 00 00 00 00 00 00 00 00 00 00 00 00 00
       0.0 0.0 0.0 0.0
0001c0 00 00 00 00 00 00 00 00 00 00 00 00 00 00 00 00
       0.0 0.0 0.0 0.0
0001d0 00 00 00 00 00 00 00 00 00 00 00 00 00 00 00 00
       0.0 0.0 0.0 0.0
0001e0 00 00 00 00 00 00 00 00 00 00 00 00 00 00 00 00
       0.0 0.0 0.0 0.0
0001f0 00 00 00 00 00 00 00 00 00 00 00 00 00 00 00 00
       0.0 0.0 0.0 0.0
000200 00 00 00 00 00 00 00 00 00 00 00 00 00 00 00 00
       0.0 0.0 0.0 0.0
000210 00 00 00 00 00 00 00 00 00 00 00 00 00 00 00 00
       0.0 0.0 0.0 0.0
000220 00 00 00 00 00 00 00 00 00 00 00 00 00 00 00 00
       0.0 0.0 0.0 0.0
000230 00 00 00 00 00 00 00 00 00 00 00 00 00 00 00 00
       0.0 0.0 0.0 0.0
000240 00 00 00 00 00 00 00 00 00 00 00 00 00 00 00 00
       0.0 0.0 0.0 0.0
000250 00 00 00 00 00 00 00 00 00 00 00 00 00 00 00 00
       0.0 0.0 0.0 0.0
000260 00 00 00 00 00 00 00 00 00 00 00 00 00 00 00 00
       0.0 0.0 0.0 0.0
000270 00 00 00 00 00 00 00 00 00 00 00 00 00 00 00 00
       0.0 0.0 0.0 0.0
000280 00 00 00 00 00 00 00 00 00 00 00 00 00 00 00 00
       0.0 0.0 0.0 0.0
000290 00 00 00 00 00 00 00 00 00 00 00 00 00 00 00 00
       0.0 0.0 0.0 0.0
0002a0 00 00 00 00 00 00 00 00 00 00 00 00 00 00 00 00
       0.0 0.0 0.0 0.0
0002b0 00 00 00 00 00 00 00 00 00 00 00 00 00 00 00 00
       0.0 0.0 0.0 0.0
0002c0 00 00 00 00 00 00 00 00 00 00 00 00 00 00 00 00
       0.0 0.0 0.0 0.0
0002d0 00 00 00 00 00 00 00 00 00 00 00 00 00 00 00 00
       0.0 0.0 0.0 0.0
0002e0 00 00 00 00 00 00 00 00 00 00 00 00 00 00 00 00
       0.0 0.0 0.0 0.0
0002f0 00 00 00 00 00 00 00 00 00 00 00 00 00 00 00 00
       0.0 0.0 0.0 0.0
000300 00 00 00 00 00 00 00 00 00 00 00 00 00 00 00 00
       0.0 0.0 0.0 0.0
000310 00 00 00 00 00 00 00 00 00 00 00 00 00 00 00 00
       0.0 0.0 0.0 0.0

mu.weight f4 [4, 200]
000000 fe e5 d1 3d 20 64 80 3d 76 7b aa bd 80 e5 b4 ba
       0.10248946 0.06269097 -0.083243296 -0.0013801306
000010 83 c2 28 be 24 72 3b bd 9e 22 a0 3d 65 73 2c 3e
       -0.1648045 -0.04576315 0.07819103 0.16840895
000020 0e 84 d0 3d b6 1a 17 be 55 bc 99 bd 09 38 c5 bd
       0.101814374 -0.14756283 -0.075066246 -0.096298285
000030 83 76 0c 3e 40 8f 07 3c e2 39 e6 3d 59 bd 86 bd
       0.13717084 0.0082739 0.11241509 -0.06579084
000040 81 9d 28 3e bf e7 03 3e ee 71 9b 3d 0e 2c d0 3d
       0.16466333 0.12881373 0.0759009 0.10164653
000050 b4 e3 84 3d e8 4e 93 3d 88 14 ac 3c 9d 49 bb bd
       0.064887434 0.071927845 0.021005884 -0.091449
000060 60 ee d7 3c fe 3d a2 3d 60 75 a1 bb e9 06 01 3e
       0.026358783 0.0792198 -0.0049273223 0.12600292
000070 27 14 d6 bd 1c 28 dd bd 61 05 19 3e bf 37 87 bd
       -0.104530625 -0.10798666 0.14943458 -0.066024296
000080 5d 17 26 be 00 b8 d2 39 a0 9f a5 3c 74 c5 19 be
       -0.1621985 0.00040191412 0.020217717 -0.15016729
000090 ee d5 14 be a0 71 ed 3c 6a 65 97 bd c8 48 1f bd
       -0.14534733 0.028984845 -0.0739239 -0.03888777
0000a0 7c 05 16 bd d0 bf 14 be 39 ca c4 bd 9b 84 02 3e
       -0.036626324 -0.14526296 -0.096088834 0.12745897
0000b0 1c 49 ad bd 4a 4e 0b be 08 d7 de 3c ec 71 78 bd
       -0.0846121 -0.13604084 0.027202144 -0.06065552
0000c0 9f 4f e5 bd 48 3b fe bc 0d 0b 2a 3e fe 91 94 bd
       -0.11196827 -0.031034127 0.16605778 -0.07254408
0000d0 da ff 9c bd 12 ab ae 3d c4 33 2e 3d da 5f 08 be
       -0.07665987 0.08528723 0.042529836 -0.13317814
0000e0 0a e9 df 3d 72 d9 9c bd 28 6d 19 3d ce 1c e3 3d
       0.109331205 -0.07658662 0.037457615 0.110894784
0000f0 ee 13 2c be 8c 7c 78 3d c5 14 13 be 6c 74 39 bd
       -0.16804478 0.060665652 -0.14363392 -0.045277044
000100 a8 3c df bc 7a ef cb 3d 15 bd 04 3e e2 1e 9b bd
       -0.027250603 0.09957786 0.12962754 -0.0757425
000110 7a 6d a9 3d f2 39 52 bd 22 56 f2 bd f6 bd ed 3d
       0.08272834 -0.051324792 -0.11832835 0.11608498
000120 40 f7 25 3c 60 54 bc bc 30 71 64 bd fb 3b 26 3e
       0.01012975 -0.022989452 -0.055772007 0.16233818
000130 10 8e 47 bc ba 89 b8 bd ac cd 06 be e6 77 ca 3d
       -0.012179866 -0.09010644 -0.13164395 0.0988615
000140 5d 4a af bd f0 dd 05 3d 32 73 b2 3d ac 81 20 bd
       -0.085591055 0.03268236 0.08713378 -0.039186165
000150 5a 72 ea 3d 10 0f 79 3c 46 b3 1b be e4 c0 03 be
       0.11447592 0.015201345 -0.15205106 -0.1286655
000160 c8 1f a0 3d c7 12 01 be d0 ed 73 3c 20 1e 89 3c
       0.07818562 -0.12604819 0.014888242 0.016737998
000170 a8 dc 1e 3d b6 36 5b bd c0 56 23 3b 76 aa a4 3d
       0.038784653 -0.053518973 0.0024923533 0.08040325
000180 e5 12 24 3e dd 1d c1 bd 54 2b 07 be e9 78 00 3e
       0.16022833 -0.09429524 -0.13200122 0.12546124
000190 88 30 26 bd 2b 23 1a 3e 70 12 75 3c 7e 92 b2 bd
       -0.040573627 0.15052478 0.014958009 -0.087193474
0001a0 a4 02 5c bd 07 d0 05 be da 7c c2 3d a1 1c 17 3e
       -0.053713456 -0.13067637 0.0949647 0.14757015
0001b0 e4 f8 09 be 50 79 9d 3c 60 5b 07 bc e0 41 50 bc
       -0.1347385 0.019222885 -0.008261532 -0.012711018
0001c0 82 88 ca 3d 4c 02 7b 3d 20 d0 de bc f0 bd 49 3d
       0.09889318 0.061281487 -0.027198851 0.049253404
0001d0 5a 44 d6 bd 80 5c 1c 3b 99 50 f1 bd 2a 1d e1 bd
       -0.10462256 0.0023858845 -0.11782951 -0.10991891
0001e0 3a c9 50 bd 33 cd 07 3e a8 d2 94 3c 58 5b 5c 3d
       -0.050973155 0.13261871 0.018166855 0.05379805
0001f0 30 21 e6 bc 2e 21 5f bd e0 38 c3 bd c3 06 08 3e
       -0.028091997 -0.054475002 -0.095323324 0.1328383
000200 78 c2 f2 3c eb f9 17 be b3 7f 80 bd b0 20 a5 bc
       0.029633746 -0.1484143 -0.06274357 -0.020157188
000210 74 71 8b 3d aa b2 fa 3d 36 4f f5 3d 0c e1 f5 bd
       0.06808749 0.12241109 0.11977999 -0.12005815
000220 e8 81 ce bd f4 e7 21 be b8 33 24 3d 30 fb a0 bc
       -0.100833714 -0.1581114 0.040088385 -0.019651026
000230 2a f8 bc 3d 98 03 37 3d 46 e8 06 be d4 28 ba bd
       0.09227021 0.04468116 -0.13174543 -0.090898186
000240 a3 32 88 bd 9c 4e 0a bd 67 96 09 3e b8 aa 79 3d
       -0.06650283 -0.033766374 0.1343628 0.060953826
000250 42 dc 53 bd ee 93 0f be 76 4c d7 bd 45 da 97 bd
       -0.051723726 -0.14021274 -0.10512631 -0.074146785
000260 18 d0 e6 bc c0 69 72 3b 2a 1d e0 3d 00 74 bf b9
       -0.028175399 0.0036989301 0.109430626 -0.00036516786
000270 e3 7f 00 3e 2b 18 1d 3e 4a d4 88 3d 20 3d 38 bc
       0.12548785 0.1534125 0.06681116 -0.011245042
000280 69 ec b0 bd 2e f8 f5 bd 37 90 1c be 78 8c 2f 3d
       -0.08638842 -0.12010227 -0.15289389 0.04285857
000290 df 45 0c 3e 3f b7 98 bd f0 af cd bc 82 7b b4 bd
       0.13698529 -0.074568264 -0.025108308 -0.0881262
0002a0 c2 36 86 3d 44 30 11 bd 7c 2b 62 3d 41 57 d9 bd
       0.06553413 -0.03544642 0.05521725 -0.106123455
0002b0 01 83 17 3e a1 11 22 be ba 7a 15 be cb db 06 3e
       0.14796068 -0.15827037 -0.14597598 0.13169782
0002c0 70 25 f7 bc 9e f7 12 be 00 00 24 be d6 cc fa 3d
       -0.030169219 -0.14352271 -0.16015625 0.122461006
0002d0 9e 61 76 bd 28 36 9e 3d 8d 6f a7 bd 9a 05 d9 3d
       -0.06015169 0.07725173 -0.081755735 0.105967715
0002e0 3e 5e be 3d b7 ae 12 3e 1f 9d 26 be dc 0f 3a 3d
       0.09295319 0.14324461 -0.16270874 0.04542528
0002f0 8a f5 b5 3d eb e8 20 3e 38 9c 45 3d 46 f4 e9 3d
       0.088847235 0.15713851 0.048244685 0.114235446
000300 8a 59 b1 bd fa a3 a7 3d 0a a3 ad bd 20 c7 50 bc
       -0.08659656 0.08185573 -0.08478363 -0.012742788
000310 be 17 a2 3d 1c 24 78 3d c0 2a 9c bb 96 ff ea 3d
       0.07914685 0.06058131 -0.0047658384 0.114745304
000320 fe fb 87 3d 96 7f 0f be 32 b7 be 3d 9c 73 34 bd
       0.066398606 -0.14013514 0.093122855 -0.044055566
000330 a6 aa e8 bd fe 4d ad 3d 2a 8b 01 be 13 a6 04 be
       -0.113606736 0.084621415 -0.12650743 -0.12953977
000340 58 ca 7c 3d 56 ba fc 3d cd 8d 03 3e 6a 23 d8 bd
       0.061716408 0.12340228 0.12847061 -0.1055363
000350 7a 3c 0c be 66 4e a2 3d d2 cc f0 bd a4 37 46 bd
       -0.13694945 0.079251096 -0.117578164 -0.048392907
000360 fa ed d5 3d 2c 4b 21 bd fc a6 5d bd b6 5d f2 3d
       0.10445781 -0.03937833 -0.054114327 0.1183428
000370 6a 92 ac 3d 4e 2e 83 3d b0 54 cd 3c d8 1c bb bc
       0.08426364 0.06405316 0.025064796 -0.022840902
000380 ab 81 a0 bd e2 4e be 3d 3d 5c 04 3e b0 7e 21 be
       -0.07837232 0.092923895 0.12925811 -0.15770984
000390 1c 2b b2 bd 98 ab 6f bd 3e 3d b6 bd b8 ff 62 3d
       -0.08699629 -0.058513254 -0.088984 0.055419654
0003a0 40 39 8f 3c 86 22 25 be 60 5a f0 bc a8 92 9d bc
       0.017483354 -0.16126451 -0.02933997 -0.01923497
0003b0 f2 3e f2 3d f4 71 fa bd 80 de 2a bb 44 6b 6c 3d
       0.11828412 -0.12228766 -0.0026072562 0.057719484
0003c0 48 98 10 be de 93 5e bd 9e aa 8e 3d e0 c3 26 be
       -0.1412059 -0.054340236 0.069661364 -0.16285658
0003d0 d4 cc 07 bd 22 21 cc 3d e1 de 25 be da 83 ac 3d
       -0.033154324 0.09967257 -0.16198303 0.08423586
0003e0 86 0d 29 be 25 83 96 bd 20 20 33 3c 66 1f 1b be
       -0.16509065 -0.073492326 0.010932952 -0.15148696
0003f0 0c 88 4d bd a7 45 8f bd 48 3b ab 3c b8 58 85 3d
       -0.050178573 -0.06995707 0.020902291 0.065110624

mu.bias f4 [4]
000000 00 00 00 00 00 00 00 00 00 00 00 00 00 00 00 00
       0.0 0.0 0.0 0.0
