llirl_sumo/saves/120p4k/optimal_policy_period_4.pth (torch, 196916 bytes, 7 tensors)

sigma f4 [4]
-0.032401063 0.016771011 0.029467745 0.00026664257
00000000: fab6 04bd 5c63 893c 5766 f13c 29cc 8b39

layer1.weight f4 [200, 36]
0.052091714 0.1570224 -0.003810183 0.025252277 0.045891173 0.058317453 -0.061724845 0.07495778
-0.04160068 0.0880982 -0.029009467 0.054946132 0.09921509 -0.11134929 0.045383625 0.02789185
-0.13013454 -0.027773462 0.004435802 0.119611174 -0.07950107 0.120655954 -0.07000321 0.066913694
0.039439958 0.1020632 0.09841682 -0.13734508 -0.011270168 -0.15062907 -0.0034135738 -0.09042481
0.13191672 0.075557336 -0.07154276 0.016068494 -0.071496494 -0.13108271 0.092980586 -0.0041266424
0.01535842 0.009656317 0.06508336 0.09279843 -0.046222195 0.0029289178 -0.067780115 -0.06543544
-0.035182197 0.039025173 -0.10679467 0.0070858593 0.13509932 -0.13074778 0.0276982 0.112097874
0.025684573 0.10115666 -0.07976399 0.01871624 -0.038882937 0.018077124 -0.018149018 0.031822056
0.1536991 -0.03084579 0.045018304 -0.099775024 0.10024482 0.04886064 -0.09338877 0.12047991
-0.09477446 -0.14508352 -0.15140222 -0.088676654 -0.05522453 -0.073981516 0.14462228 -0.16324385
-0.01998139 -0.11855882 0.13533816 -0.043399848 -0.14970489 0.05219442 -0.080598645 0.08028421
0.15504867 -0.028238105 -0.00285427 -0.14045922 -0.015744898 0.10640052 0.10235967 0.0725695
-0.1219064 0.119450726 0.088090904 -0.029170725 -0.14939867 0.12457495 -0.015377133 -0.11246834
0.114124954 -0.14496396 -0.15227447 0.11447787 0.10157811 -0.034453887 -0.025166217 -0.06772998
-0.1424058 -0.0955362 -0.09654073 0.0011819799 -0.05233816 -0.009664387 -0.08673015 0.072670445
0.08785686 -0.03763211 0.113610715 0.06140846 -0.119648136 -0.04319369 -0.108206585 -0.022458404
0.10369231 -0.0137299225 -0.05508277 0.015895473 -0.047778472 -0.15216406 0.005439956 -0.1442567
0.039004184 -0.049322605 0.04479316 -0.10823342 0.028605135 0.03319849 -0.07785484 -0.0065508536
0.042553224 -0.030083599 -0.05985954 0.085226074 0.1382941 -0.09397451 0.010073732 -0.039789632
-0.022552608 0.08838332 -0.012259587 -0.026333194 0.044119585 0.11560603 0.13105482 0.04031505
-0.09871513 -0.07214036 -0.1386655 -0.16822574 -0.17642272 -0.053791326 0.034802083 0.13132791
-0.01997399 -0.16924596 -0.08517088 0.0926483 0.12338301 0.031868074 -0.027820595 0.09875585
0.03783185 -0.11285995 -0.10409993 -0.045627177 -0.029720476 -0.08447755 -0.021442944 0.1095878
0.1000888 -0.0179923 0.10584269 0.110794105 -0.045308895 0.14008182 0.048105862 -0.030443931
0.1725134 -0.022174723 0.023345279 0.045571566 0.006845474 0.02206588 -0.07214644 0.029801033
0.020164251 -0.032580085 -0.14719203 -0.055685874 0.15039761 0.0974866 0.05168433 -0.069171615
0.07265979 0.10226377 -0.10281698 -0.050630454 -0.12104101 -0.16477694 0.14007342 0.043553527
-0.008049311 -0.020305842 0.001853363 0.16326801 -0.14471611 0.12061992 0.075354666 -0.014291651
-0.0686894 -0.036401656 -0.080020934 0.055279452 0.12128178 0.09900677 -0.119109355 0.08951981
0.02599249 -0.026138654 -0.11501708 -0.09245417 0.14510453 0.042585663 -0.10815484 -0.006661621
-0.060163096 -0.03222215 0.067253344 -0.13366292 -0.11716079 -0.10109551 -0.08992369 -0.09782391
0.108187996 0.15475325 -0.120805494 -0.07928805 0.08666055 0.079162754 -0.1497598 -0.050778918
00000000: 1f5e 553d 7bca 203e 43b4 79bb dddd ce3c
00000010: 62f8 3b3d 48de 6e3d 31d3 7cbd 7783 993d
00000020: 7a65 2abd d46c b43d 43a5 edbc 320f 613d
00000030: 4831 cb3d 190b e4bd 2ee4 393d 737d e43c
00000040: fd41 05be 2c85 e3bc 345a 913b b4f6 f43d
00000050: 75d1 a2bd 781a f73d d85d 8fbd 0c0a 893d
00000060: cb8b 213d 8306 d13d c28e c93d 30a4 0cbe
00000070: 83a6 38bc 823e 1abe 44b6 5fbb a530 b9bd
00000080: 2d15 073e cebd 9a3d 0385 92bd 13a2 833c
00000090: c16c 92bd 8c3a 06be 9b6c be3d c938 87bb
000000a0: e2a1 7b3c 8735 1e3c 6d4a 853d 1a0d be3d
000000b0: 7c53 3dbd 16f3 3f3b 4dd0 8abd 0403 86bd
000000c0: 351b 10bd dcd8 1f3d 2ab7 dabd 7f30 e83b
000000d0: 7a57 0a3e bfe2 05be 56e7 e23c 9293 e53d
000000e0: 7468 d23c 392b cf3d 4e5b a3bd cd52 993c
000000f0: b743 1fbd 7a16 943c 40ad 94bc d857 023d
00000100: 4c63 1d3e 4fb0 fcbc 1d65 383d d956 ccbd
00000110: 284d cd3d 1822 483d 9d42 bfbd 2cbe f63d
00000120: 1d19 c2bd c690 14be 2f09 1bbe 1b9c b5bd
00000130: 1e33 62bd 9f83 97bd dd17 143e 6529 27be
00000140: 03b0 a3bc f7ce f2bd 1696 0a3e 0ac4 31bd
00000150: 3d4c 19be d1c9 553d e710 a5bd 0c6c a43d
00000160: 14c5 1e3e 9953 e7bc b40e 3bbb 8bd4 0fbe
00000170: 72fb 80bc 84e8 d93d f2a1 d13d 519f 943d
00000180: 10aa f9bd 95a2 f43d 0169 b43d 72f7 eebc
00000190: f7fb 18be 2721 ff3d 5ff0 7bbc cd55 e6bd
000001a0: 58ba e93d 6f71 14be d7ed 1bbe 6073 ea3d
000001b0: 2f08 d03d 851f 0dbd 6229 cebc 04b6 8abd
000001c0: d3d2 11be 7ca8 c3bd 25b7 c5bd aaec 9a3a
000001d0: 8a60 56bd 6157 1ebc 949f b1bd 3ed4 943d
000001e0: 4cee b33d 2124 1abd bcac e83d 7087 7b3d
000001f0: 150a f5bd deeb 30bd 6a9b ddbd b0fa b7bc
00000200: a25c d43d 78f3 60bc 789e 61bd 3937 823c
00000210: 5cb3 43bd e5d0 1bbe a941 b23b 07b8 13be
00000220: dac2 1f3d 8006 4abd 0879 373d 7ca9 ddbd
00000230: 5155 ea3c 24fb 073d 5c72 9fbd 8ba8 d6bb
00000240: 4a4c 2e3d e171 f6bc 472f 75bd 028b ae3d
00000250: f89c 0d3e b575 c0bd 4b0c 253c 74fa 22bd
00000260: 3fc0 b8bc 5002 b53d 6fdc 48bc b6b8 d7bc
00000270: bdb6 343d dbc2 ec3d 3c33 063e 6521 253d
00000280: 282b cabd 53be 93bd 54fe 0dbe 5e43 2cbe
00000290: 28a8 34be 4b54 5cbd a18c 0e3d d37a 063e
000002a0: 7ea0 a3bc d04e 2dbe 126e aebd 64be bd3d
000002b0: 3bb0 fc3d 1988 023d 04e8 e3bc 8240 ca3d
000002c0: 92f5 1a3d 1e23 e7bd 5832 d5bd 90e3 3abd
000002d0: 5b78 f3bc 9102 adbd 1da9 afbc 926f e03d
000002e0: 5bfb cc3d 9764 93bc 0dc4 d83d 05e8 e23d
000002f0: d295 39bd 9c71 0f3e a70a 453d 8d65 f9bc
00000300: 5aa7 303e c4a7 b5bc 993e bf3c 40a9 3a3d
00000310: ff4f e03b 81c3 b43c 83c1 93bd 4c21 f43c
00000320: 802f a53c b272 05bd 82b9 16be df16 64bd
00000330: d501 1a3e 0ea7 c73d f3b2 533d d9a9 8dbd
00000340: a8ce 943d ab6f d13d b591 d2bd e161 4fbd
00000350: 59e4 f7bd 49bb 28be 686f 0f3e 2f65 323d
00000360: 42e1 03bc 7058 a6bc 8bec f23a bb2f 273e
00000370: 7630 14be 9407 f73d 8c53 9a3d 8727 6abc
00000380: 07ad 8cbd e719 15bd 04e2 a3bd b56c 623d
00000390: 9562 f83d 10c4 ca3d 9bef f3bd 2a56 b73d
000003a0: 34ee d43c bb20 d6bc 138e ebbd 9d58 bdbd
000003b0: 4896 143e 4e6e 2e3d 4980 ddbd ba49 dabb
000003c0: 946d 76bd 60fb 03bd 1fbc 893d efde 08be
000003d0: fff1 efbd 2a0b cfbd e929 b8bd e757 c8bd
000003e0: ab91 dd3d a377 1e3e df68 f7bd c661 a2bd
000003f0: 167b b13d 1520 a23d a25a 19be 8efd 4fbd

layer1.bias f4 [200]
-0.0012768545 0.0036909892 0.00018131982 -0.0067699146 -0.0015904775 -0.003946009 0.002844118 -0.008524851
-0.019750364 -0.013184484 -0.021769525 0.005085478 0.008363574 -0.010479805 -0.005998312 -0.013646317
-0.004057233 -0.0008071174 -0.012568705 -0.018944236 0.02197916 -0.012315776 -0.004849949 -0.016888425
-0.008593406 -0.015083683 -0.0024554178 0.011903977 0.0008673018 -0.018320875 -0.020979479 -0.009544151
0.005084908 -0.002085179 0.023543961 -0.026022917 -0.021054614 -0.040778793 0.009484351 0.02810707
-0.025203882 -0.003971695 -0.0043443255 -0.0077486364 -0.014833145 -0.0021036612 -0.008109985 -0.0011270314
0.025695164 -0.0070233983 0.03151898 -0.019676434 -0.013711933 -0.011808333 0.003647074 -0.017621415
-0.014184427 -0.014781221 -0.01152246 -0.02017703 -0.010151641 -0.00904358 0.012185269 -0.006518746
-0.018098423 -0.034616645 0.0038206175 -0.005973179 0.013589842 -0.020141441 0.0059691686 -0.00052977545
-0.025462797 0.0047852444 0.02322266 0.016396666 0.0069925627 0.0006739898 0.021708552 -0.020918315
0.010309462 -0.024711885 0.0015086585 0.016913788 0.025850926 -0.015253945 -0.014825613 -0.022996433
-0.02178748 0.005857148 0.00314888 -5.5729983e-05 -0.007806512 -0.010828602 0.014374101 -0.023415502
-0.009424264 -0.011649239 -0.017404366 0.0008307619 -0.014927294 0.011512841 -0.014015692 0.01348993
0.013310591 -0.018712565 -0.0038851183 -0.025533253 0.011378248 -0.0046111178 0.034127306 0.01938146
-0.03058736 -0.0047698463 0.01900833 0.013142777 0.0015978313 -0.011367261 0.017901435 0.01677805
0.023040552 0.0113790175 -0.000943404 -0.012894519 0.0062323324 0.013284859 0.014203452 -0.015309239
0.0126688555 0.006962196 0.007169558 0.026944833 -0.01076747 0.014802942 -0.012047196 0.004458855
0.0023127154 -0.018965062 -0.01414426 0.006777826 -0.00022884153 0.0077649145 0.0028739017 0.0058555533
-0.019950317 0.0 -0.024570398 -0.019612135 -0.019720264 0.01724622 -0.018712021 0.010766574
0.017546969 0.00875541 -0.01852039 0.02335313 0.013070658 -0.00824104 0.008618089 -0.013817536
-0.011286317 0.0 0.023163972 -0.022097033 0.018555233 -0.015802935 -0.022580085 0.016035274
0.018939158 -0.018997137 -0.006203625 0.010438236 0.03291769 0.015365566 -0.035526287 0.0023718337
0.021071563 -0.022759201 -0.020908574 0.013232668 0.004902403 -0.00259941 -0.010111599 0.030770816
-0.020655163 0.01904121 0.012285103 -0.011084845 -0.0009494573 -0.0024695809 -0.011335074 0.015683774
-0.008523672 0.00871212 0.003611762 -0.01777407 0.015540176 0.022798114 -0.014757848 0.0019973852
00000000: 215c a7ba 86e4 713b ab20 3e39 29d6 ddbb
00000010: 9277 d0ba 864d 81bb 6264 3a3b d1ab 0bbc
00000020: 84cb a1bc bc03 58bc 0156 b2bc 15a4 a63b
00000030: 5f07 093c 7db3 2bbc 7d8d c4bb cd94 5fbc
00000040: 8af2 84bb bb94 53ba f8ec 4dbc f130 9bbc
00000050: a40d b43c 1cc8 49bc 52ec 9ebb 9859 8abc
00000060: 5bcb 0cbc 8d21 77bc 13eb 20bb e608 433c
00000070: a35b 633a a915 96bc 28dd abbc 125f 1cbc
00000080: 4d9f a63b 80a7 08bb 44df c03c 032e d5bc
00000090: ba7a acbc aa07 27bd 4064 1b3c cc40 e63c
000000a0: 5f78 cebc fe24 82bb d85a 8ebb 46e8 fdbb
000000b0: b806 73bc 94dd 09bb bedf 04bc e6b8 93ba
000000c0: aa7e d23c 8924 e6bb 0c1a 013d 7930 a1bc
000000d0: 04a8 60bc bd77 41bc c003 6f3b c95a 90bc
000000e0: cd65 68bc ef2c 72bc b3c8 3cbc 4c4a a5bc
000000f0: 1253 26bc 862b 14bc b9a4 473c 349b d5bb
00000100: 2543 94bc 2fca 0dbd 5363 7a3b a8ba c3bb
00000110: eea7 5e3c aaff a4bc 0499 c33b a1e0 0aba
00000120: 5b97 d0bc 8acd 9c3b 733d be3c 4d52 863c
00000130: de21 e53b b1ae 303a 22d6 b13c e35c abbc
00000140: 05e9 283c 9470 cabc 2ebe c53a c98e 8a3c
00000150: 52c5 d33c afeb 79bc 21e7 72bc 0463 bcbc
00000160: a87b b2bc 52ed bf3b 715d 4e3b 9dbf 69b8
00000170: c5cd ffbb 736a 31bc 5981 6b3c ded1 bfbc
00000180: 3a68 1abc 73dc 3ebc 9a93 8ebc 7dc7 593a
00000190: 9c91 74bc 5ba0 3c3c 13a2 65bc de04 5d3c
000001a0: aa14 5a3c 184b 99bc 789d 7ebb 1d2b d1bc
000001b0: d56b 3a3c dc18 97bb 13c9 0b3d dec5 9e3c
000001c0: 5892 fabc 5f4c 9cbb 5bb7 9b3c cd54 573c
000001d0: 526e d13a c03d 3abc 08a6 923c 1f72 893c
000001e0: 8abf bc3c 0f6f 3a3c c54e 77ba 8843 53bc
000001f0: 9838 cc3b bda8 593c 98b5 683c 9ad3 7abc
00000200: 0891 4f3c 2223 e43b 9dee ea3b 69bb dc3c
00000210: 0b6a 30bc 0a88 723c 9a61 45bc 961b 923b
00000220: ed90 173b 9e5c 9bbc 54bd 67bc 8718 de3b
00000230: 2ef5 6fb9 d370 fe3b 1258 3c3b f1df bf3b
00000240: d96e a3bc 0000 0000 dc47 c9bc a1a9 a0bc
00000250: 648c a1bc f247 8d3c f449 99bc 4966 303c
00000260: a9be 8f3c da72 0f3c 13b8 97bc 104f bf3c
00000270: 5026 563c 6d05 07bc e332 0d3c f262 62bc
00000280: 3fea 38bc 0000 0000 5fc2 bd3c d604 b5bc
00000290: 2501 983c 2875 81bc dff9 b8bc 685c 833c
000002a0: 4b26 9b3c e29f 9bbc c747 cbbb 2305 2b3c
000002b0: b3d4 063d dbbf 7b3c 0384 11bd c470 1b3b
000002c0: 459e ac3c 8171 babc 7548 abbc d5cd 583c
000002d0: 56a4 a03b dd5a 2abb 1fab 25bc 1413 fc3c
000002e0: 0435 a9bc 50fc 9b3c 7547 493c 369d 35bc
000002f0: 00e5 78ba b1d8 21bb bfb6 39bc 427b 803c
00000300: dfa6 0bbc 48bd 0e3c 50b3 6c3b ed9a 91bc
00000310: 399c 7e3c 1cc3 ba3c e7ca 71bc 90e6 023b

layer2.weight f4 [200, 200]
0.011911433 0.054218844 -0.10510557 -0.09776721 0.0058680982 -0.028642451 0.06823904 0.016282693
-0.06932578 -0.08129667 -0.000597797 0.049727123 -0.12936373 0.04853822 0.09955595 0.075329214
-0.004584171 -0.13424589 -0.04892067 0.08401445 -0.09462671 -0.07554458 -0.054799955 0.06739173
-0.016371625 -0.1267765 0.028866533 -0.02058332 -0.01164251 -0.011003852 -0.04934007 -0.08256952
0.043038778 -0.099490665 0.0086512985 0.02349787 0.084227994 0.07819426 -0.061542857 0.024453841
-0.0014420074 -0.0065641366 0.048938822 0.12631325 -0.0036618535 -0.046435185 -0.01683332 0.055312254
-0.050995518 -0.017298382 0.022395574 0.051215637 0.08684182 -0.040820614 -0.11149856 -0.045566965
-0.083101675 -0.070327014 -0.032943506 0.012110766 0.053595357 0.04949301 0.042994626 -0.07478179
0.03560659 0.04472785 0.12477767 0.07377776 -0.0047314987 0.10658136 0.08741211 -0.07288339
0.064512104 -0.026658673 -0.12368205 -0.015752595 -0.11441601 0.045856968 -0.009008486 -0.01947762
-0.004818737 -0.07535043 -0.11584463 0.06982184 0.024541661 -0.11974283 0.047296118 -0.08865473
-0.031877194 0.10346952 0.0026131182 -0.079000756 -0.112307295 0.059272636 -0.0791095 -0.045599397
-0.07459408 0.06994572 -0.128248 -0.01968179 0.0034321323 -0.07210931 0.0940907 -0.13228825
-0.03455999 0.02594431 -0.015126045 0.03996668 -0.08490213 0.049020816 -0.07100538 0.102551654
-0.09907215 -0.050088383 -0.08695859 -0.10751847 -0.015956176 -0.092776984 -0.10682275 -0.060674913
-0.05267291 -0.0048310333 -0.012727842 0.055866227 0.046129752 -0.08065145 -0.04163638 -0.063222006
-0.054644343 -0.07529188 0.007363516 0.0659729 0.013473295 -0.054078158 -0.032698598 -0.10901809
0.048141457 0.11522278 -0.05181154 0.08578557 -0.0021109926 -0.054141372 0.06574142 -0.016206544
0.057847753 0.024279572 -0.08262286 -0.029581698 0.07539599 -0.055255495 -0.040798675 0.078653015
0.064518556 -0.05996911 -0.04633573 -0.040265888 -0.12524523 -0.12790273 0.049099296 0.101649895
0.0844002 -0.029297791 -0.014086261 0.022835054 -0.021504415 0.033219248 0.12888011 0.062605284
0.09678258 -0.055116426 -0.07633515 -0.042997934 -0.07161614 0.08757283 0.12734644 -0.107542306
-0.06836637 0.0007866211 -0.036867738 -0.04414976 -0.082012385 0.03546009 0.017600823 -0.13104743
0.10975281 0.080555946 -0.015231525 0.0701702 0.09030806 -0.11818439 0.085447825 0.012388624
-0.003583418 -0.124619246 0.06407491 -0.00022983551 0.051525604 -0.027452568 0.0029602044 -0.10845124
-0.09287851 -0.011192237 -0.03331353 0.08573239 0.047552053 -0.039823536 -0.10178674 0.016383724
0.026496993 -0.00999823 -0.038005278 0.08815886 -0.14243364 -0.032747727 0.07733671 -0.098399386
-0.051650155 0.019857612 -0.07210768 0.0148625495 -0.044149157 -0.036353763 -0.12578036 -0.07664134
-0.027381448 -0.022227824 0.014346578 -0.004561189 0.067552626 0.05626804 -0.1425106 0.093465045
-0.005496027 0.015616561 0.017205918 -0.0039501362 0.044875734 -0.07405159 -0.007591635 -0.03266088
0.10275794 -0.026742198 -0.05106473 0.025650317 0.06722895 0.024801515 0.080657154 -0.0057458607
0.0037397516 -0.11963325 -0.084211856 -0.07778081 0.02139319 0.097477295 0.10382064 0.074737996
00000000: 2c28 433c 9414 5e3d 9741 d7bd 2d3a c8bd
00000010: 2d49 c03b 93a3 eabc e9c0 8b3d 4863 853c
00000020: adfa 8dbd de7e a6bd 7ab5 1cba abae 4b3d
00000030: ed77 04be 03d0 463d fde3 cb3d 3446 9a3d
00000040: d036 96bb c177 09be 0a61 48bd c50f ac3d
00000050: a6cb c1bd 1eb7 9abd eb75 60bd ad04 8a3d
00000060: c91d 86bc b3d1 01be 8279 ec3c 5a9e a8bc
00000070: 3ac0 3ebc 8049 34bc d018 4abd 351a a9bd
00000080: 6e49 303d c3c1 cbbd 2dbe 0d3c 9b7e c03c
00000090: ba7f ac3d 5024 a03d 5d14 7cbd 6c53 c83c
000000a0: bd01 bdba f817 d7bb 1374 483d 4358 013e
000000b0: b5fb 6fbb d232 3ebd 08e6 89bc 1a8f 623d
000000c0: ade0 50bd 56b5 8dbc ec76 b73c 7dc7 513d
000000d0: 20da b13d 8433 27bd 5b59 e4bd 6da4 3abd
000000e0: 3631 aabd 9c07 90bd c5ef 06bd 3c6c 463c
000000f0: ce86 5b3d 2fb9 4a3d 221b 303d 3227 99bd
00000100: 37d8 113d 8d34 373d 6f8b ff3d cb18 973d
00000110: b00a 9bbb 5447 da3d 1f05 b33d e343 95bd
00000120: ec1e 843d 4a63 dabc 044d fdbd 960b 81bc
00000130: f152 eabd 84d4 3b3d 5498 13bc 888f 9fbc
00000140: 7fe6 9dbb 5451 9abd f33f edbd c1fe 8e3d
00000150: 980b c93c bb3b f5bd 93b9 413d 9c90 b5bd
00000160: a991 02bd d4e7 d33d d940 2b3b 26cb a1bd
00000170: 5e01 e6bd ddc7 723d 2904 a2bd 6fc6 3abd
00000180: c8c4 98bd b43f 8f3d 7253 03be b53b a1bc
00000190: a0ed 603b 0cae 93bd a0b2 c03d 9276 07be
000001a0: c78e 0dbd 2989 d43c 3bd3 77bc 1ab4 233d
000001b0: 2be1 adbd 0dca 483d 456b 91bd 9a06 d23d
000001c0: 57e6 cabd 7a29 4dbd 5817 b2bd a532 dcbd
000001d0: 87b6 82bc dc01 bebd e3c5 dabd 4286 78bd
000001e0: 8dbf 57bd a54d 9ebb 7088 50bc fcd3 643d
000001f0: 8df2 3c3d 962c a5bd e98a 2abd 8a7a 81bd
00000200: bfd2 5fbd a132 9abd a649 f13b cd1c 873d
00000210: 18bf 5c3c 0f81 5dbd f7ee 05bd e044 dfbd
00000220: fa2f 453d ecf9 eb3d 5638 54bd 58b0 af3d
00000230: 9458 0abb 58c3 5dbd 70a3 863d 96c3 84bc
00000240: c4f1 6c3d f4e5 c63c 2d36 a9bd 5155 f2bc
00000250: 3669 9a3d 9653 62bd 831c 27bd d514 a13d
00000260: 4e22 843d 2ba2 75bd 89ca 3dbd d8ed 24bd
00000270: 4940 00be eff8 02be 581c 493d d22d d03d
00000280: 03da ac3d ec01 f0bc 10ca 66bc 9410 bb3c
00000290: 072a b0bc e810 083d 26f9 033e 3337 803d
000002a0: f235 c63d c3c1 61bd 9a55 9cbd 9a1e 30bd
000002b0: 7cab 92bd 6259 b33d 1b67 023e 243f dcbd
000002c0: ab03 8cbd 4035 4e3a a002 17bd 61d6 34bd
000002d0: 1cf6 a7bd 993e 113d 9a2f 903c 4c31 06be
000002e0: 15c6 e03d 84fa a43d a58d 79bc 65b5 8f3d
000002f0: 6ff3 b83d a80a f2bd 45ff ae3d a8f9 4a3c
00000300: c7d7 6abb 6038 ffbd b539 833d 0000 71b9
00000310: 830c 533d 35e4 e0bc fdff 413b af1b debd
00000320: 1737 bebd a55f 37bc c573 08bd 7794 af3d
00000330: f1c5 423d 011e 23bd 9175 d0bd 2937 863c
00000340: 3910 d93c 9ecf 23bc 6cab 1bbd a28c b43d
00000350: 20da 11be 7b22 06bd b662 9e3d 9e85 c9bd
00000360: 1d8f 53bd 6eac a23c 31ad 93bd 0d82 733c
00000370: bfd5 34bd afe7 14bd 91cc 00be 23f6 9cbd
00000380: 0f4f e0bc 2017 b6bc e90d 6b3c 0776 95bb
00000390: 0859 8a3d 5179 663d 4cee 11be 9a6a bf3d
000003a0: 0418 b4bb 9bdc 7f3c 6df3 8c3c 2570 81bb
000003b0: 9ecf 373d 5ca8 97bd 40c3 f8bb 6ac7 05bd
000003c0: c172 d23d 7412 dbbc 4029 51bd 9d20 d23c
000003d0: 55af 893d 8c2c cb3c 942f a53d c647 bcbb
000003e0: 9f16 753b 4702 f5bd 4477 acbd 8c4b 9fbd
000003f0: c540 af3c 2da2 c73d ea9f d43d 3c10 993d

layer2.bias f4 [200]
-0.01461088 -0.020445848 0.017998055 -0.008626886 -0.008464935 0.009458101 -0.013208304 -0.020621186
0.005441119 0.008706297 0.025899518 -0.007949663 -0.0037849895 0.026956504 0.0019449258 -0.008612774
-0.00780818 -0.01318607 -0.016263532 -0.018974124 -0.0044744518 0.0073250555 0.011156017 -0.021897659
0.0031125068 -0.013577631 0.0048471307 -0.013809536 -0.013739421 0.012874514 -8.195237e-06 0.01661144
0.0053939493 -0.007816594 -0.016429389 -0.0103058405 0.021996621 -0.020294864 0.02708564 0.00828997
0.005567682 -0.0143824965 0.01305199 -0.012945425 0.014353229 0.019783905 -0.013443482 0.015834311
-0.022591356 0.0067482647 0.0 -0.0154826315 0.0075866953 -0.012314298 -0.016843336 0.017330192
0.0023891926 -0.017163893 -0.013552511 0.0014275151 0.0119327 0.0 0.02357842 0.027412385
-0.004220138 -0.013150012 -0.010254642 0.0059561147 -0.009805754 0.0379275 0.0058973962 -0.0049475865
0.02283252 0.008063057 -0.012399847 0.004550028 0.006383627 -0.011369149 0.015048783 -0.024264744
-0.011443944 -0.0037866381 -0.005954048 0.013574189 -0.014383997 0.0103109395 0.0 0.003942765
0.017304685 0.026177142 0.011902853 -0.014559814 -0.0039277524 0.0122383265 -0.0063967076 -0.0062758066
-0.014822958 -0.014284712 0.011926214 -0.011448809 -0.019315016 -0.021137703 0.010571181 -0.010409536
0.017532207 0.024500497 -0.013047249 -0.027822295 0.015354763 0.026570743 0.010426068 0.0088669155
-0.004258722 -0.014551864 -0.015696075 -0.016111152 0.017925447 -0.027398394 -0.0051038126 0.009527367
-0.015996326 -0.012739171 -0.019209055 0.01396753 0.02453881 0.028059835 -0.007778797 -0.014832546
0.0034077642 0.010369613 0.025808986 0.020928081 0.014955911 0.018289642 0.015263417 -0.022121398
0.009227781 0.018468378 -0.015556844 -0.008357697 0.017359516 -0.0045321835 0.019769548 -0.014379418
0.02573296 -0.032010123 -0.0181406 0.0017880497 -0.01540529 0.0025659217 -0.013137663 -0.00509708
0.005407074 0.006746956 -0.0018406997 -0.014383831 -0.00405467 -0.012771138 -0.0074252947 -0.0023296117
0.016079785 -0.010288221 -0.005827975 0.015387928 -0.010308087 0.013497226 0.003541673 0.0052797506
0.022807142 0.023458024 -0.012732515 0.014181805 -0.010141096 0.020677825 -0.027761912 0.011456998
0.014254447 -0.011809065 0.008940005 -0.019803893 -0.016459264 0.023310909 -0.019649321 -0.026336977
-0.0040519824 -0.009291371 0.023107726 0.0124517195 -0.011471856 -0.0051048365 -0.017627144 -0.019143263
-0.0004321857 -0.01934797 0.01935105 -0.0120907 -0.010848124 -0.00743451 -0.015374004 -0.001975735
00000000: 7962 6fbc 0d7e a7bc a870 933c c857 0dbc
00000010: 83b0 0abc 27f6 1a3c a467 58bc c3ed a8bc
00000020: 6a4b b23b dba4 0e3c 3a2b d43c 4e3f 02bc
00000030: 960d 78bb e3d3 dc3c e1ec fe3a 981c 0dbc
00000040: c3db ffbb 630a 58bc 193b 85bc 9f6f 9bbc
00000050: 6c9e 92bb 0507 f03b bac7 363c b862 b3bc
00000060: 33fb 4b3b b674 5ebc aed4 9e3b 6441 62bc
00000070: 4f1b 61bc a0ef 523c 467e 09b7 b714 883c
00000080: babf b03b 2c11 00bc ed96 86bc d4d9 28bc
00000090: 4232 b43c 6a41 a6bc b4e2 dd3c a8d2 073c
000000a0: 1a71 b63b 90a4 6bbc 04d8 553c 0c19 54bc
000000b0: ce29 6b3c db11 a23c 0d42 5cbc f5b6 813c
000000c0: 8211 b9bc 8c20 dd3b 0000 0000 ddaa 7dbc
000000d0: d099 f83b e9c1 49bc 09fb 89bc 0cf8 8d3c
000000e0: 0094 1c3b 4b9b 8cbc 5a0b 5ebc 751b bb3a
000000f0: 5f81 433c 0000 0000 8827 c13c f08f e03c
00000100: 1549 8abb 2673 57bc 1603 28bc 832b c33b
00000110: 50a8 20bc de59 1b3d f23e c13b 5d1f a2bb
00000120: 440b bb3c ea1a 043c ba28 4bbc 6718 953b
00000130: bf2d d13b ab45 3abc 2c8f 763c dbc6 c6bc
00000140: 617f 3bbc 3f29 78bb 2d1a c3bb 4666 5e3c
00000150: dbaa 6bbc 37ef 283c 0000 0000 4f32 813b
00000160: 8ec2 8d3c 7271 d63c 2f04 433c 498c 6ebc
00000170: 60b4 80bb 4383 483c 799b d1bb 48a5 cdbb
00000180: fedb 72bc 6d0a 6abc 2b66 433c c993 3bbc
00000190: 863a 9ebc fa28 adbc bf32 2d3c c28c 2abc
000001a0: b49f 8f3c 44b5 c83c 21c4 55bc 95eb e3bc
000001b0: 8b92 7b3c e3aa d93c 19d2 2a3c 8a46 113c
000001c0: c08c 8bbb f16a 6ebc 0e95 80bc 89fb 83bc
000001d0: 63d8 923c 9972 e0bc e23d a7bb ac18 1c3c
000001e0: ba0a 83bc f5b7 50bc 4f5c 9dbc 11d8 643c
000001f0: 9d05 c93c bddd e53c 47e5 febb 3504 73bc
00000200: cc54 5f3b 4fe5 293c 5e6d d33c 5e71 ab3c
00000210: a309 753c 29d4 953c 6913 7a3c ef37 b5bc
00000220: 1e30 173c ff4a 973c 22e2 7ebc b9ee 08bc
00000230: 8b35 8e3c b682 94bb bff3 a13c a797 6bbc
00000240: eecd d23c 0c1d 03bd 989b 94bc fe5c ea3a
00000250: 7866 7cbc 0629 283b 5a3f 57bc 6805 a7bb
00000260: d32d b13b 9215 dd3b a243 f1ba 29aa 6bbc
00000270: 0add 84bb 093e 51bc e34f f3bb 66ac 18bb
00000280: c1b9 833c ed8f 28bc 99f8 bebb a61d 7c3c
00000290: 40e3 28bc 7823 5d3c 6a1b 683b c201 ad3b
000002a0: 0bd6 ba3c 0b2b c03c 0a9c 50bc cd5a 683c
000002b0: d726 26bc 8b64 a93c f36c e3bc 22b6 3b3c
000002c0: 7c8b 693c cf7a 41bc 1979 123c c63b a2bc
000002d0: 94d5 86bc 85f6 be3c 9df7 a0bc a5c0 d7bc
000002e0: 7ec6 84bb d63a 18bc 6a4c bd3c 4c02 4c3c
000002f0: 74f4 3bbc 7946 a7bb cd66 90bc 55d2 9cbc
00000300: fc96 e2b9 a27f 9ebc 1886 9e3c 1218 46bc
00000310: 54bc 31bc 319d f3bb 3fe3 7bbc 557b 01bb

mu.weight f4 [4, 200]
0.09349069 0.045786966 -0.09134934 -0.012859409 -0.15727966 -0.04054172 0.08515253 0.17635548
0.09197762 -0.13465096 -0.10013975 -0.091154955 0.14865535 0.006152293 0.12741761 -0.073447324
0.15918101 0.11907543 0.076127306 0.109626316 0.05912526 0.06568004 0.022981187 -0.11021483
0.022160502 0.059711732 -0.00827529 0.115421176 -0.081105605 -0.1109036 0.14550112 -0.069169275
-0.1494309 -0.009740423 0.004554106 -0.15188397 -0.14398035 0.04406204 -0.073601976 -0.03791049
-0.038476896 -0.13104598 -0.1016064 0.1206124 -0.07296513 -0.13084911 0.040905207 -0.069688424
-0.09702464 -0.0438146 0.16605778 -0.060364537 -0.056510285 0.08137617 0.05048672 -0.14444713
0.11310841 -0.061900552 0.038096685 0.106435485 -0.14558296 0.060665652 -0.14305061 -0.05184067
-0.020141408 0.10326434 0.1140562 -0.08058029 0.08777321 -0.036377013 -0.098554105 0.1198672
-0.0005638553 -0.021312486 -0.049181633 0.1560373 -0.029433161 -0.083404444 -0.13030806 0.07616652
-0.069213845 0.012218741 0.09446168 -0.030434992 0.100229986 0.017110907 -0.15205106 -0.105222985
0.069592886 -0.13489522 0.001145481 0.005970303 0.020699361 -0.07389572 -0.007532419 0.06614046
0.15487392 -0.094377056 -0.11261282 0.110522114 -0.04527008 0.12895425 0.02933262 -0.07097954
-0.057650287 -0.1304756 0.113299794 0.14674819 -0.13006917 0.012248631 0.0045264857 -0.019472016
0.095098905 0.05022572 -0.015115739 0.039357893 -0.11328607 0.009659288 -0.09682838 -0.13742727
-0.054130144 0.14775032 0.018232191 0.037181173 -0.027464086 -0.06213796 -0.08944677 0.13456859
0.011245378 -0.15172048 -0.07051605 -0.035343885 0.060947996 0.1406958 0.11960509 -0.10847997
-0.101860665 -0.14965051 0.044961706 -0.016209487 0.08804434 0.03333226 -0.13973765 -0.10503702
-0.068966895 -0.014413196 0.12691133 0.05206514 -0.035511155 -0.14121589 -0.09567163 -0.07262715
-0.033921566 0.004966819 0.09648673 -0.014309477 0.1166901 0.16703011 0.04292875 -0.015998604
-0.093634084 -0.112591825 -0.17255569 0.043970924 0.13115902 -0.07383679 -0.019613024 -0.093010426
0.06457302 -0.041525546 0.05894872 -0.10154433 0.13070492 -0.1779544 -0.099369474 0.12889086
-0.027385857 -0.13048011 -0.15320899 0.1300734 -0.046048213 0.07228625 -0.069010474 0.09737407
0.07415227 0.13856702 -0.17222206 0.04060407 0.079278536 0.15452906 0.07157704 0.09443603
-0.085811965 0.088099 -0.09991704 -0.010591995 0.09016432 0.06268552 -0.017728152 0.1322436
0.06219653 -0.12169725 0.113591515 -0.008135436 -0.0974737 0.09093323 -0.111867 -0.10747901
0.07541459 0.13586043 0.10809921 -0.08720326 -0.13361982 0.08778771 -0.100699574 -0.03174085
0.09897333 -0.022850288 -0.04540093 0.11849532 0.099453405 0.08510835 0.045695137 -0.008335228
-0.05981078 0.09802328 0.13748758 -0.15005516 -0.068658985 -0.054903887 -0.06359845 0.06492112
0.03957136 -0.13967621 -0.036431145 -0.0026272566 0.13659365 -0.09303689 0.02352905 0.09192352
-0.12012211 -0.0677466 0.07910511 -0.15085045 -0.0164296 0.13010709 -0.15425465 0.10180196
-0.15449356 -0.071545646 0.010932952 -0.13568513 -0.019634958 -0.054664146 0.036198765 0.07291416
00000000: 0c78 bf3d 1d8b 3b3d 5d15 bbbd 45b0 52bc
00000010: eb0d 21be 130f 26bd 7364 ae3d 8896 343e
00000020: c35e bc3d f1e1 09be 1216 cdbd 73af babd
00000030: 1c39 183e 2d99 c93b c379 023e 8d6b 96bd
00000040: 5900 233e d2dd f33d a2e8 9b3d c383 e03d
00000050: 542d 723d 4283 863d 0b43 bc3c 50b8 e1bd
00000060: f189 b53c 4a94 743d 1595 07bc f061 ec3d
00000070: b21a a6bd 6d21 e3bd 3ffe 143e 9fa8 8dbd
00000080: 6a04 19be 4c96 1fbc 9c3a 953b 7987 1bbe
00000090: 966f 13be 667a 343d a2bc 96bd 0848 1bbd
000000a0: f399 1dbd eb30 06be 0417 d0bd a203 f73d
000000b0: be6e 95bd 4ffd 05be 388c 273d ceb8 8ebd
000000c0: dbb4 c6bd f076 33bd 0d0b 2a3e ce40 77bd
000000d0: 5477 67bd 8da8 a63d 2acb 4e3d f3e9 13be
000000e0: 62a5 e73d 6f8b 7dbd 450b 1c3d d9fa d93d
000000f0: b313 15be 8c7c 783d dc7b 12be e256 54bd
00000100: 98ff a4bc 417c d33d 4c96 e93d 4707 a5bd
00000110: 71c2 b33d 1000 15bd bcd6 c9bd ef7c f53d
00000120: b0cf 13ba 8697 aebc ae72 49bd 3ec8 1f3e
00000130: d01d f1bc f3cf aabd 7a6f 05be 31fd 9b3d
00000140: fdbf 8dbd 1d31 483c 2075 c13d ce52 f9bc
00000150: 6145 cd3d 2c2c 8c3c 46b3 1bbe 267f d7bd
00000160: b786 8e3d f921 0abe f723 963a 88a2 c33b
00000170: b591 a93c a456 97bd 83d2 f6bb a674 873d
00000180: 4597 1e3e c248 c1bd 8da1 e6bd 6b59 e23d
00000190: 1f6d 39bd 950c 043e f64a f03c b95d 91bd
000001a0: b522 6cbd 659b 05be b909 e83d 2845 163e
000001b0: da30 05be 7bae 483c ea52 943b c783 9fbc
000001c0: 37c3 c23d 7cb9 4d3d 01a8 77bc be35 213d
000001d0: 8702 e8bd fe41 1e3c f54d c6bd bcb9 0cbe
000001e0: 92b7 5dbd dc4b 173e ad5b 953c 494b 183d
000001f0: 5dfc e0bc 6084 7ebd de2f b7bd 59cc 093e
00000200: 893e 383c 9d5c 1bbe b86a 90bd c0c4 10bd
00000210: 9ba4 793d 8f12 103e 83f3 f43d bf2a debd
00000220: 539c d0bd fc3d 19be c429 383d c2c9 84bc
00000230: 9750 b43d 6887 083d 6317 0fbe a61d d7bd
00000240: 843e 8dbd 5325 6cbc 0bf5 013e 4242 553d
00000250: 2574 11bd e69a 10be 7def c3bd 8bbd 94bd
00000260: 57f1 0abd b3c0 a23b d69a c53d 4c72 6abc
00000270: 38fb ee3d f109 2b3e 0fd6 2f3d 810f 83bc
00000280: 3ac3 bfbd 8b96 e6bd 70b2 30be db1a 343d
00000290: 8d4e 063e be37 97bd 7eab a0bc 407c bebd
000002a0: dc3e 843d b116 2abd 3774 713d 79f6 cfbd
000002b0: 83d7 053e ae39 36be 3982 cbbd f7fb 033e
000002c0: 4e58 e0bc 949c 05be d1e2 1cbe f631 053e
000002d0: 0d9d 3cbd d00a 943d 5d55 8dbd 0e6c c73d
000002e0: 25dd 973d 83e4 0d3e fb5a 30be 7450 263d
000002f0: c95c a23d de3c 1e3e fc96 923d ad67 c13d
00000300: 2fbe afbd 406d b43d 4ea1 ccbd 0c8a 2dbc
00000310: 12a8 b83d 4461 803d a13a 91bc de6a 073e
00000320: cac1 7e3d 683c f9bd aba2 e83d 7e4a 05bc
00000330: 4ba0 c7bd 343b ba3d 871a e5bd f51d dcbd
00000340: f772 9a3d ff1e 0b3e 1e63 dd3d 9f97 b2bd
00000350: a2d3 08be 0bca b33d 943b cebd b202 02bd
00000360: 87b2 ca3d 8730 bbbc 53f6 39bd adad f23d
00000370: 3aae cb3d 494d ae3d d32a 3b3d 7b90 08bc
00000380: 26fc 74bd 6ec0 c83d 8bc9 0c3e 0fa8 19be
00000390: 159d 8cbd e6e2 60bd e73f 82bd 5df5 843d
000003a0: 9415 223d 4807 0fbe d338 15bd 0d2e 2cbb
000003b0: 35df 0b3e 208a bebd ffbf c03c 6642 bc3d
000003c0: 9502 f6bd bbbe 8abd dc01 a23d 8a78 1abe
000003d0: 5e97 86bc cb3a 053e eef4 1dbe 8c7d d03d
000003e0: 8f33 1ebe 8686 92bd 2020 333c 0bf1 0abe
000003f0: 7ed9 a0bc 83e7 5fbd 2845 143d 0554 953d

mu.bias f4 [4]
-0.019148765 0.023778075 -0.016839024 -0.004827253
00000000: dfdd 9cbc 3dca c23c fef1 89bc ef2d 9ebb
