llirl_sumo/saves/sumo_single_intersection/env_model_init.pth (torch, 295502 bytes, 6 tensors)

layer1.weight f4 [200, 160]
00000000: 008b 30bf c660 213f 1d05 86bf 08ce 17bf
00000010: 9dc0 313f 57b0 78bf 6c58 6fbf e8ee 633e
00000020: 5e47 73bf fba5 81bf 3d69 b53e 8ca1 73bf
00000030: a089 87bf e100 373e 13a2 8cbf da6d 15bf
00000040: cade 09bf 2235 4ebf 4407 43bf 7a05 04bf
00000050: 0f04 4ebf f8db 18bf 73e2 14bf c273 2dbf
00000060: 5546 16bf d1cf 3fbf 648f 61bf 2af1 1abf
00000070: e4f7 24bf db5d 28bf 61ca 72bf 836d 8abf
00000080: 3267 60bf a679 81bf e1b3 8abf e724 6bbf
00000090: c273 38bf a425 273f e9d5 79bf 7e4b 34bf
000000a0: a560 013f edfe 46bf 4aba 85bf d815 343e
000000b0: 3cb5 86bf 184e 86bf d230 d13e b5bc 85bf
000000c0: 2e81 71bf c8f4 bf3e 1741 6fbf 17bc 3cbf
000000d0: 40ad 53bf 8ceb 21bf 69e8 54bf 8c75 34bf
000000e0: 539b 28bf d74d 22bf f7ee 4bbf 1c8d 2bbf
000000f0: 546d 57bf 7a30 3fbf 46f0 39bf f9e2 21bf
00000100: bcbb 22bf 7897 33bf 06c2 30bf 8a35 51bf
00000110: 5cee 19bf d95b 6bbf b8b9 53bf 7b39 17bf
00000120: be49 6fbf 5753 ad3e 8d12 65bf 9aeb 61bf
00000130: b644 c93e 0f1f 86bf 1d47 85bf 331b 303e
00000140: 2a1f 90bf 3aed 8fbf 7c97 1c3e b46b 91bf
00000150: 5de6 93bf 830b a73e 561a 6ebf 6a2f 36bf
00000160: f6df 65bf 512f 333e 1341 21bf ab03 31bf
00000170: ae00 2b3e f3dd 29bf 07da 6cbf 1450 44bf
00000180: 9196 29bf a5cd 71bf fdb0 4bbf b173 41bf
00000190: b0e5 7abf 95ed 4abf e25a 4fbf ae9b 81bf
000001a0: 7bcb 57bf c8f8 78bf 0a54 83bf 30bd 23bf
000001b0: 7f73 81bf a3c1 b73e 959c 03bf 01fb 96bf
000001c0: f0ef 8f3e 7f8d 03bf fdb6 89bf ec38 8e3e
000001d0: 6f81 45bf 7fc0 9bbf 4222 943e bcc0 10bf
000001e0: 5e9a 8abf 5039 143e 48be 21bf 2f9b d5be
000001f0: a89e 29bf 43b6 f53e d03d f6be 2473 35bf
00000200: 2d4c b63e 1cd5 d9be 1e7c 69bf b1cd cfbe
00000210: db71 d2be 104b 5cbf 2375 9cbe 6c53 e2be
00000220: eaed 42bf 95fb c9be 6aeb 72bf 02bc 8abf
00000230: 9863 08bf e05d 3fbf 8d74 5bbf 6f27 e1be
00000240: 209a 0fbd 46f7 9b3d 2e04 603c f9c2 96bd
00000250: d57e b43c 4f31 b4bd e93b 0e3e c4af 983d
00000260: 6c6c edbd d602 423b a534 8dbd f883 f63c
00000270: 7a77 a43d a993 613d d243 b33d 0d1b 14ba
00000280: ed59 e1bd a87d 02be b3a3 e1bd 378a cfbd
00000290: f4b3 a73d b8a7 9c3c 8073 fdba 7e55 bd3d
000002a0: 804a ba3d e26c d1bd a52f 86bd 2c74 e3bd
000002b0: 226c ec3d e476 2abd e50e 003e e8e9 70bd
000002c0: f6ca 883d 20af 8cbb c252 60bd e40f d53d
000002d0: 2a5a a5bd b082 9bbc b89d b53c 8290 823d
000002e0: 76d7 a9bd 16aa 5fbd 9a5f 7abd 243f 2e3d
000002f0: 5e23 debd 54e8 aebd 4034 f4bc b0b6 be3c
00000300: ba15 2ebd aaff f33d 9205 823d b04a f3bd
00000310: 6423 453d b29c 81bd 96bb 863d e001 d53c
00000320: 0c18 c2bc 0099 7bba d853 82bc ba0c b43d
00000330: ce99 b4bd 78e0 82bc 9c21 e43d 2044 6b3c
00000340: 582f 283d 80f9 56bb 0c1c 29bd 50c8 793c
00000350: 21ca d9bd 1063 cabd 742f 0f3d 60a0 e73c
00000360: 610a e9bd 0cbd 8e3d be3b d2bd 30dd 1f3c
00000370: 24e8 e43d 9ab8 2fbd e2c8 6cbd 144e 153d
00000380: b777 f8bd faa5 f53d ea29 c5bd 087d b33c
00000390: e032 7b3d 74dd ae3d b2a7 87bd e005 25bd
000003a0: 80b3 a2bd 3852 9ebd 9cbb f6bc a088 eb3d
000003b0: 9e65 fcbd 845c c93d 2eef 823d 2e1c dabd
000003c0: c829 12bc 5c49 eebd c4d9 c8bd 1aea b5bd
000003d0: 0eef da3d 5067 a4bd b8ca f7bc 6225 bfbd
000003e0: 9d7e a3bd 28f4 72bd 1812 6fbc 00c4 083b
000003f0: e699 c93d 90d6 9b3d 8086 a93b f53e eabd
-0.689621 0.6303829 -1.047031 -0.59298754 0.6943453 -0.97144073 -0.93494296 0.22259104
-0.9503077 -1.0128778 0.35431853 -0.95168376 -1.0588875 0.17871429 -1.0986961 -0.58370745
-0.53855574 -0.80549824 -0.7618296 -0.51570857 -0.8047494 -0.59710646 -0.58158034 -0.6775476
-0.5870107 -0.7492648 -0.8810942 -0.6052424 -0.6444075 -0.6576821 -0.94840056 -1.081467
-0.87657464 -1.0115249 -1.0836145 -0.91853184 -0.7205163 0.6529181 -0.97592026 -0.7042769
0.5053809 -0.77732736 -1.0447476 0.17586458 -1.0524058 -1.0492582 0.4085756 -1.0448214
-0.9433774 0.3749144 -0.93458694 -0.737245 -0.82686234 -0.6325004 -0.8316713 -0.7049186
-0.65862006 -0.63400024 -0.79661506 -0.6701219 -0.84151196 -0.74683344 -0.72632253 -0.6323696
-0.6356771 -0.70153 -0.69046056 -0.8172232 -0.6012933 -0.91937023 -0.8270526 -0.59072083
-0.93471897 0.33852646 -0.8948143 -0.88250124 0.39310235 -1.0478228 -1.0412327 0.17197876
-1.125951 -1.1244271 0.15292162 -1.1360993 -1.1554676 0.3262597 -0.93008935 -0.711661
-0.8979486 0.17498519 -0.6298992 -0.6914622 0.16699478 -0.6635429 -0.92520183 -0.7668469
-0.6624537 -0.94454414 -0.7956694 -0.75567156 -0.98006725 -0.7926877 -0.8099805 -1.0125635
-0.8429486 -0.9725461 -1.0260022 -0.6396055 -1.0113372 0.3588992 -0.514108 -1.179535
0.28112745 -0.5138778 -1.0758969 0.27777803 -0.77150625 -1.216812 0.28932387 -0.5654409
-1.0828359 0.14474988 -0.6318097 -0.41719958 -0.66257715 0.47990617 -0.48094034 -0.70878816
0.35604993 -0.42545402 -0.9120501 -0.40586618 -0.4110249 -0.86052036 -0.30558118 -0.4420427
-0.7614428 -0.39449754 -0.94890463 -1.0838625 -0.5327697 -0.74752617 -0.8572472 -0.43975398
-0.035059094 0.07615523 0.0136728715 -0.07361407 0.022033134 -0.08798467 0.13890041 0.074554
-0.115929455 0.002960374 -0.06894807 0.030092224 0.08030601 0.05507246 0.0875317 -0.0005649783
-0.1100348 -0.12743247 -0.11017551 -0.10133784 0.0818862 0.019122943 -0.001933679 0.09244822
0.09096241 -0.10225846 -0.06552056 -0.111061424 0.11544062 -0.04161729 0.12505682 -0.05881682
0.06679337 -0.0042933375 -0.054766424 0.104034215 -0.08073838 -0.018983215 0.022169933 0.06375219
-0.08293049 -0.054605566 -0.06112633 0.042540684 -0.108465895 -0.08540407 -0.029810071 0.023280472
-0.04250119 0.119139984 0.06348719 -0.1187948 0.048129454 -0.063287154 0.06578748 0.02600187
-0.023693107 -0.0009597689 -0.01590912 0.0879149 -0.088183984 -0.015976176 0.11139223 0.014359504
0.041060776 -0.0032802522 -0.041286513 0.015245512 -0.10634256 -0.09882176 0.034957364 0.028274715
-0.11378933 0.069696516 -0.10265301 0.009757325 0.1117709 -0.04290066 -0.057808764 0.036451414
-0.12132209 0.11994548 -0.09627135 0.021910205 0.061327815 0.085383326 -0.06623782 -0.040288806
-0.07944393 -0.07730526 -0.030118756 0.115006685 -0.123240694 0.09832099 0.06393276 -0.10649906
-0.008921094 -0.11635086 -0.098071605 -0.08882542 0.10690127 -0.08027518 -0.030248031 -0.09333302
-0.07983134 -0.059314877 -0.014591716 0.0020868778 0.09843807 0.07609284 0.0051735044 -0.11437789

layer1.bias f4 [200]
00000000: 974d 2abd 0000 0000 dd33 41bd 5f45 48bd
00000010: a301 a6bd 691a 44bd cf71 bfbc f337 d2bc
00000020: e745 4ebd 7a09 1ebd 560f 21bc bf4d 06bd
00000030: af3d 14bd 0cec 7bbc 0240 2cbd 0000 0000
00000040: e118 0cbd 0000 0000 5b20 2dbd 3d6b 37bd
00000050: 3c5c a83d ec0f 28bd 511a 06bd 8340 3cbb
00000060: 5379 2cbd ce52 36bd 9de4 c1bc e71a 35bd
00000070: 5dc7 28bd 217b 32bd 285a cfbc 2425 0dbd
00000080: 6799 92bc 7ef9 28bd 2f5d f5bc 2366 21bd
00000090: e58a 46bd 8710 35bd 0000 0000 4ba3 1bbd
000000a0: 0000 0000 1ff6 06bd 912b a7bc 2892 a5bc
000000b0: 4ffc 13bd ab7c 1ebd d025 25bd ef2e 1cbd
000000c0: 0af5 09bd 0e56 24bd 3ea0 25bd 275a 4dbd
000000d0: f5cf 9abc 53d7 d7bc f025 16bd 1841 36bd
000000e0: 8257 1fbd 8045 06bd e682 3bbd f180 1cbd
000000f0: 0000 0000 f6df 3bbd 699b 2a3e 6211 a9bc
00000100: 0000 0000 50c2 37bc d7c9 c4bb 0000 0000
00000110: f5fa 56bd 3738 12bd 02e1 18bd 0000 0000
00000120: a4b1 b63d 9a48 5cbc f4e6 c7bc 0000 0000
00000130: 171b 82bd 5881 44bd 7652 2fbd 6821 a9bb
00000140: 3341 4ebd d1a4 75bc 59a0 71bd 4e83 5fbd
00000150: 40af 01bd acd5 25bd 5221 0cbd 5b65 94bc
00000160: dccc 64bd 31be 27bd 0b09 02bd fcd2 3dbd
00000170: 536f e4bc 50b4 43bd fab6 00bc 2057 1dbd
00000180: 9439 b7bc fded babc 8704 4abd 4c16 ebbc
00000190: 26be 0abd 65fa a7bb 737f 103e afd5 9cbc
000001a0: 17cb f9bc 6464 2a3e ffd0 64bd 37f1 5a3e
000001b0: dbe5 43bd ca1d 84bb a619 3dbc f785 30bd
000001c0: 8df2 2abd 7971 00bd 52a9 58bc e754 55bd
000001d0: 4ada 21bd ba8d 0fbd b144 64bd 7945 14bd
000001e0: e324 6ebd 46f3 4cbd 3702 43bc 3883 14bd
000001f0: 012a c8bc cd48 86bc 991c 49bd 4afa 8abd
00000200: 0000 0000 6003 29bd 7914 4bbd aea8 01bd
00000210: e9a7 39bd 0cb9 cfbc d81e 05bd ef32 a0bc
00000220: 5993 45bd fcfc 38bd 2ab8 bdbc 4e0d 35bd
00000230: 077c dcbc d9eb ecbb 0000 0000 2363 4fbd
00000240: 84a8 b9bc 21a7 38bd 3736 bebc 3a76 8cbc
00000250: 0dd2 4cbd 1035 9bbc 237b b7bc b5b7 d0bc
00000260: 4aef 1abd 2db6 3bbd 93a7 f2bc 0d09 4bbd
00000270: b569 35bd bff4 2d3e 4500 35bc 05bf 253e
00000280: b916 4ebd 7103 17bd 5e9b 65bd 0000 0000
00000290: d79a 2bbd 6e6a 2abd 959c 21bd 3910 f1bb
000002a0: 5177 e3bc d47c 1cbd 015e 0fbd 5822 1bbc
000002b0: 055a e2bb 2fe7 03bd 77b4 87bc 579d 15bd
000002c0: 0000 0000 f05e 26bd 2b8d 093e 12dc 27bd
000002d0: 65d7 043e 32d9 3cbd 5b29 33bd bb18 06bc
000002e0: 4058 28bd 7e2f 3abd e0f7 34bd 3d34 6dbd
000002f0: 0000 0000 9e13 37bd d79d 2fbd 1023 38bd
00000300: f790 f9bc 7000 b4bc b3ce cfbc 9a5d 23bd
00000310: 1853 0cbd a5fd c9bc d5d5 4dbd 9356 89bd
-0.0415779 0.0 -0.0471686 -0.048894282 -0.08105781 -0.04787675 -0.023369698 -0.025661444
-0.050359633 -0.038583256 -0.0098303165 -0.03278899 -0.03619164 -0.015376102 -0.04205323 0.0
-0.034203414 0.0 -0.042267185 -0.044780005 0.08220717 -0.04103081 -0.03273994 -0.0028724975
-0.04210789 -0.044512562 -0.023668582 -0.04421511 -0.041205753 -0.043574456 -0.025311545 -0.03445925
-0.017895414 -0.04125356 -0.02995166 -0.039404046 -0.048472304 -0.044205215 0.0 -0.037997525
0.0 -0.032949563 -0.020406516 -0.020211294 -0.036129292 -0.03869311 -0.040319264 -0.038130697
-0.033680953 -0.04012113 -0.040436022 -0.050134804 -0.01889799 -0.026347792 -0.036657274 -0.044495672
-0.038901813 -0.032781124 -0.04577913 -0.038208906 0.0 -0.045867883 0.16660847 -0.020638172
0.0 -0.011215761 -0.0060055065 0.0 -0.052485425 -0.035698142 -0.03732396 0.0
0.08920601 -0.013445044 -0.02440212 0.0 -0.06352823 -0.047974914 -0.04280325 -0.005161453
-0.050355148 -0.014992909 -0.05899081 -0.05456858 -0.031661272 -0.040486977 -0.034211464 -0.018114736
-0.05585943 -0.040952865 -0.031746905 -0.04634379 -0.027885115 -0.04777938 -0.007856125 -0.038413167
-0.022366323 -0.02281856 -0.049320724 -0.028697155 -0.033872746 -0.005126285 0.14111118 -0.019144861
-0.030492349 0.16639858 -0.055863377 0.21381079 -0.04782663 -0.0040318714 -0.01154176 -0.04309651
-0.04173522 -0.031358216 -0.013223963 -0.052082922 -0.039514817 -0.03504727 -0.05572957 -0.036199067
-0.058140647 -0.05003669 -0.0119023835 -0.036257952 -0.024434092 -0.016392136 -0.04909954 -0.0678602
0.0 -0.041262984 -0.04958007 -0.031655006 -0.045326147 -0.025356792 -0.032500118 -0.019555537
-0.048236225 -0.04516314 -0.023159105 -0.04420214 -0.02691461 -0.0072302637 0.0 -0.050631654
-0.022663362 -0.04508126 -0.023219211 -0.017146219 -0.050005008 -0.0189462 -0.022397583 -0.025478223
-0.03782586 -0.045828033 -0.029620921 -0.04956918 -0.044290263 0.16987894 -0.011047428 0.1618615
-0.05031464 -0.036868516 -0.056056373 0.0 -0.041895714 -0.041605406 -0.03945597 -0.00735667
-0.027766855 -0.038204983 -0.03500176 -0.009468637 -0.006907704 -0.032202896 -0.016565545 -0.036527004
0.0 -0.040617883 0.13432758 -0.04098136 0.12972791 -0.04610557 -0.04374061 -0.008184607
-0.041099787 -0.04545545 -0.044181705 -0.057911146 0.0 -0.044696443 -0.042875137 -0.044955313
-0.030464632 -0.021972865 -0.025367117 -0.039884187 -0.034258932 -0.02465708 -0.050252754 -0.06705966

layer2.weight f4 [200, 200]
00000000: 892b 483e 483e 0fbc 4be4 233e 28a2 453e
00000010: c971 f43d 6759 8a3e 3640 893e c128 5c3d
00000020: 83bd d83d a5cb 853e 40c8 863d cb49 353e
00000030: 4025 3e3e f6bf 98bd 2f7a d13e 94e3 d0bc
00000040: 1afb a53e 60e8 cabb 3549 ee3d 0b87 0f3e
00000050: 813d b1bd cd98 983e d20f d33e 2273 1fbd
00000060: 0f3e 103d 279b 713e 3fdd 493e 6d4c 953e
00000070: 2f83 b83e 556d 1f3d b0ce 0b3f 39a6 e93d
00000080: d4f8 943e 8af6 553e b185 ae3e b946 6c3e
00000090: d050 e93c 294d 823e 8835 4d3c c2ca 823e
000000a0: 2dff e73d 0549 a33e 3b7f f43d 2681 903e
000000b0: dfd7 9d3e e615 1b3e bc07 2d3d 38e7 303b
000000c0: cd24 b13e 3759 973d ec6a 523e 6ac2 8d3e
000000d0: 641b a23e 81aa b33d 64ee 773e 760d 613e
000000e0: 4096 26bd c3e9 63bd ae3c 953c 189b a03e
000000f0: 64d9 92bd 7628 0a3f aad7 efbe f35f 003f
00000100: 93c4 c13d 0c8a cd3d 082f 493d deac e4bd
00000110: 1595 313e c35f 45bc b182 fc3d fc3e c63c
00000120: 8c88 74be b2f3 cb3c f401 c53e 3071 9ebc
00000130: 6e63 2d3e 9f2c 813d 6528 7b3e feb1 edbc
00000140: 65de 9a3c 3d62 ebbc f55e 8f3d 10a7 5f3e
00000150: 7c01 1b3e 6592 7b3e e7d2 d83d bb59 c13e
00000160: bc55 c03e 6918 073e ad07 0b3d 38de 9e3d
00000170: 3e8b 513e 63bd 5d3e 5471 c83e 150b 663e
00000180: a172 b03e 0ac5 483e 2678 533e 447a 893d
00000190: 3977 f83d 43d6 39bd 2550 d6be cbee 993e
000001a0: 3c03 8b3e c81c e4be 958a 973e f7f2 bdbe
000001b0: 0adf cf3e e891 fd3d 0c22 77bd a67e 093e
000001c0: 15cc 363e 183b d33e f0f9 9d3d 2cbb 4f3e
000001d0: 473b ae3e 3592 1a3e ec7e 1f3e b0a1 723e
000001e0: 934d 6e3e b478 853e 93db ba3c 7a6b dc3e
000001f0: 1848 c43e 6cdc 913e 7494 163e c6a2 053e
00000200: 0c0d ca3c 9f57 8b3e c3a2 453e bf8b e83e
00000210: 7da1 a13e 4a98 893e ecc3 353e 64c0 b7bd
00000220: a160 da3d 0f81 30bc ea9a a23e e6bd 8d3e
00000230: c887 603e 0966 9e3d 4618 4a3d 250e 8b3d
00000240: 8e4e f93d f7e6 c73d 8a36 2e3e 3f6a 7f3e
00000250: f615 743e e798 f73e 5878 b03e 1ff2 8f3e
00000260: 5ae8 083e ef9f 7b3e 7354 8e3e 9ef6 743d
00000270: 644a 133e b3ae e4be 85b4 cd3c 9117 9dbe
00000280: 6088 473e 52ab 903e 027c 0e3e 00c8 c2b9
00000290: 758c 493e d8e9 243e 7951 a33e 48fa 3cbd
000002a0: 1a35 023d 24b3 6f3e 52c3 253e 6afc b23e
000002b0: 5d66 88bc 9640 903e 3604 bbbc 1ae4 a63e
000002c0: b2e4 f9bd 3d92 3a3e 905a 8fbe ddd6 e53d
000002d0: 0134 a6be cb2d 283d 5bc3 c53e de18 813d
000002e0: 3458 633e 1dfd b03d f778 6f3d c27b 783e
000002f0: 0448 c13c 1f85 723e 02a1 9e3d aec5 f53e
00000300: 83fb 153e e435 683e ff96 e63e 8f7d ac3e
00000310: 7281 e23e 6f9b 9d3e 2243 d63d 36a8 643e
00000320: b918 8d3e c1f7 bd3d f348 4c3e e8de 3e3e
00000330: 3722 963d 6866 3d3e 1297 9d3e 3255 e2bd
00000340: a908 ba3d b95f 993e 8ed9 09be de67 193e
00000350: e803 083e 2f27 ae3d c527 a33e dfdc babd
00000360: 328d cb3d 9c43 acbc 99f9 5b3e edb9 123d
00000370: 7cca 64be 10db 603e 8264 e83e 7d6b 103e
00000380: 6ac9 463e ebb3 483d f255 cb3e d6a6 8a3e
00000390: 778d cd3e 3f60 403e 3aea d93e eb0b ac3e
000003a0: 4bca 913e 3ca8 d83d 186c bf3e 4f87 823e
000003b0: 4a4b b33d e25d ec3d 3576 8b3d f2c9 573e
000003c0: ac85 b1bd 3e90 893e 4b9d d53d 4226 953e
000003d0: 892e a83e ac43 113e f0dd 3b3e 2f90 123e
000003e0: c38e a93e e059 583e 0ae9 e03d a3a8 ab3d
000003f0: 352b 953e 03d0 b2bd 1df4 1f3e 08d8 453e
0.19547857 -0.008742876 0.16005056 0.19300139 0.11935765 0.27021334 0.26806802 0.053749803
0.105830215 0.2613193 0.065811634 0.17703931 0.18568897 -0.07458489 0.4091353 -0.025499143
0.32418138 -0.006192252 0.11635057 0.14016359 -0.08654309 0.29804078 0.41223007 -0.03892816
0.035215434 0.23594342 0.19713305 0.2915987 0.36037585 0.038922627 0.54612255 0.114086576
0.2909609 0.20894828 0.34086373 0.23073854 0.028480917 0.25449494 0.01252497 0.25545317
0.11327968 0.31891647 0.1193833 0.28223532 0.3082876 0.15145072 0.042243704 0.0026993286
0.3459839 0.07390063 0.205486 0.2768739 0.31661522 0.087727554 0.24212033 0.21977791
-0.040670633 -0.055642854 0.01821741 0.31368327 -0.0717037 0.5396799 -0.46844226 0.50146407
0.09461322 0.10036096 0.049117118 -0.11165784 0.17342027 -0.012046757 0.12329615 0.024199955
-0.23880213 0.024896476 0.38478053 -0.019341081 0.1693246 0.06307339 0.24527128 -0.029015537
0.018904874 -0.028733367 0.070005335 0.21841073 0.15137285 0.24567564 0.105871014 0.3776377
0.3756541 0.13192905 0.033942867 0.077572286 0.20463273 0.21654277 0.39148962 0.22465165
0.34462455 0.19606414 0.20651302 0.067127734 0.12132115 -0.04537035 -0.4185802 0.30064997
0.27150905 -0.44553208 0.29597917 -0.3709943 0.40599853 0.12381345 -0.060335204 0.13427219
0.17851289 0.41256022 0.077136874 0.20286244 0.340296 0.15094836 0.1557576 0.23694491
0.2327178 0.26068652 0.02280978 0.43050748 0.38336253 0.2848848 0.14705068 0.13050374
0.024664424 0.27215287 0.1930037 0.45419118 0.31568518 0.26874 0.1775052 -0.089722425
0.10662962 -0.0107729575 0.31758815 0.27683944 0.21926796 0.077343054 0.049339555 0.06789807
0.12173186 0.0976085 0.17012993 0.24942873 0.23836502 0.48358843 0.34466815 0.2811441
0.13369885 0.24572729 0.27798805 0.059805505 0.14383847 -0.44664535 0.025110492 -0.30682042
0.19485617 0.28255707 0.13914493 -0.00037151575 0.19682486 0.1610483 0.31898096 -0.046137124
0.031788923 0.2340818 0.1618779 0.34958202 -0.016650373 0.28174275 -0.022829156 0.32595903
-0.12201823 0.18219848 -0.2799878 0.112226225 -0.3246155 0.041059297 0.38625607 0.06303571
0.22201616 0.086420275 0.05846497 0.2426596 0.02359391 0.23683594 0.077455536 0.4800238
0.14646725 0.22676808 0.45037076 0.33689544 0.44239384 0.3078265 0.10462023 0.22329792
0.27557924 0.09275771 0.19949703 0.1863972 0.07330745 0.18496096 0.3077932 -0.11051406
0.09083683 0.29955843 -0.13461897 0.14981028 0.1328274 0.085035674 0.3186628 -0.09124159
0.0993904 -0.021028332 0.21481933 0.035821844 -0.22342867 0.21958566 0.4538918 0.14103504
0.19412771 0.04899971 0.3971401 0.2708041 0.40146992 0.18786715 0.42561513 0.33602843
0.2847465 0.10578963 0.37387156 0.25493857 0.087545946 0.11541344 0.068096556 0.2107313
-0.08668074 0.2686786 0.10430392 0.2913075 0.32848004 0.14185971 0.18346381 0.14312814
0.3311673 0.21128035 0.10981949 0.08381774 0.29134527 -0.08731081 0.15620466 0.1932069

layer2.bias f4 [200]
00000000: 0518 99bd 215e 95bd 8dcc 0e3d fe84 b1bd
00000010: 567c debc 5838 ddbb 3b01 75bc 8f87 17bd
00000020: 292d 5abc d4dd 62bc 9eb1 39bd 445d 8bbc
00000030: db9d c4bc 0000 0000 53fb 56bd 3110 51bc
00000040: edc3 98bd 432f 8c3d 50c1 9abd 6beb 1e3e
00000050: 5f8c 06bd 630e 22bc afd0 8fbd f024 8a3e
00000060: 7402 a4bc 4bfe 0d3d 98ed 283c e552 3a3d
00000070: 294c 87bc ecc0 96bd 509a b2bc cefd 163d
00000080: b060 aebd ac20 b4bc 575f 2e3d 4f97 e8bc
00000090: f9de 4c3d a714 99bd 6210 60bc 710f 4fbd
000000a0: 908b 8abc 24e9 073e 5627 b6bb d8e9 8bbc
000000b0: 9ce5 3bbc 844d 51bc 32b1 9a3c 6c89 87bd
000000c0: 7b28 bfbd a261 31bc c434 2dbd b9ee aabd
000000d0: 8342 2abc 39a7 babc 917b 3cbd cb87 01be
000000e0: 4250 53bc df0a 9bbd 27d7 fdbd 592b ffbc
000000f0: e9a4 c73c d29d cdbd ff90 39bc 1e08 f1bc
00000100: 0000 0000 514c 84bd 1e0b 4fbb 378b 69bc
00000110: 7d1a 25bd 233a b1bc f423 51bd 9016 0bbe
00000120: 8042 acbc 8199 77bd d044 043e ad76 8bbc
00000130: 0919 9dbc 6ff0 40bd 06d0 0e3d 4a68 a0bd
00000140: 8314 1bbc 57cd 3e3c 0000 0000 ca2d 2fbd
00000150: b3a1 5ebd 98b2 6cbc 0000 0000 b5e1 383e
00000160: 62d9 42bc dcc2 9dbd b5c0 8abd bd47 9fbd
00000170: 5ebe 903e 7fbd 983c 9165 603d 5956 b6bd
00000180: 822e 223e 5ca3 bebc 2fdd 863c 0000 0000
00000190: e78d 6dbc a0a5 103e cb7c 473d 627b b8bc
000001a0: e68f 57bd 3a59 2d3d 1178 7c3d 7e30 09bc
000001b0: 0ff7 c53c a392 323d 094f fc3d 76d7 23bc
000001c0: c405 22bc dd0d 5ebd 2cc9 cdbb 7224 9bbc
000001d0: c294 5fbc 202d 14bc d57f 4d3b fd9e 0dbc
000001e0: b48c 60bc 45e4 52bc 0f35 b73d 0000 0000
000001f0: 8156 d13a efcc e6bd a666 abbd 249e 2abc
00000200: 28b0 94bc 0000 0000 e0a6 72bd 2187 1ebd
00000210: 03b8 24bd eced b5bc 8af9 a5bc 6a28 2b3d
00000220: 0000 0000 0f34 833d 0f98 743d 870c b9bd
00000230: bb5e 7ebc 9c6c 5c3d be9c f63b da0e 79bd
00000240: b7dd 13bd bdfd 08bc 521e 47bd 5205 78bc
00000250: 7908 edbb a611 f4bb e40f ddbc b406 a73b
00000260: 78df 64bc 0000 0000 1074 78bc b359 1d3e
00000270: 81bb 44bd 2abb 47bd 7ac0 babd 177f e5bc
00000280: eeda 77bc 4a96 39bd 0afa 22bd 344a 89bd
00000290: 14d3 0abc f93a 303d 6ac6 d73d 0644 58bc
000002a0: 3147 0fbd 9a1e 8c3c 69b9 b13e f4ba 11bc
000002b0: 3bfe f33d 0000 0000 7092 1f3e db0a 50bc
000002c0: 510b 70bc f7ba 1d3e 7535 5c3d 1042 a1bc
000002d0: 08e8 36bc d3f6 a03c 3aef b3bc adc6 05bc
000002e0: 2512 a7bb 53f1 fcbb b211 26bc d4fe 1ebd
000002f0: 0000 0000 a1dc 583d 6e73 8e3d bfa9 6abc
00000300: c2bf 96bd 1784 41bd 3958 1bbd 1095 063e
00000310: 1c77 56bc bda8 cabb f253 14bc c3a3 05bc
-0.074752845 -0.07293344 0.034863044 -0.08667944 -0.027158897 -0.0067511015 -0.014953907 -0.036994513
-0.013316431 -0.013846833 -0.045335405 -0.017012246 -0.024001053 0.0 -0.052485775 -0.012760208
-0.07459245 0.06844952 -0.07556403 0.15519492 -0.032848712 -0.009891125 -0.07022225 0.26981306
-0.020020701 0.03466634 0.010310553 0.04548921 -0.016515808 -0.07361016 -0.021802098 0.03686314
-0.085145354 -0.021988235 0.042571392 -0.028392462 0.05001733 -0.07474642 -0.013675781 -0.050551835
-0.016912252 0.1327253 -0.0055588884 -0.017079279 -0.011468317 -0.012774829 0.018883321 -0.06618008
-0.09333893 -0.0108265 -0.04228665 -0.08346314 -0.010391834 -0.022784816 -0.04601628 -0.12649457
-0.012897553 -0.07570433 -0.12394553 -0.0311486 0.024370627 -0.100398675 -0.011326074 -0.029422816
0.0 -0.06459869 -0.003159232 -0.014254383 -0.040308464 -0.021634167 -0.05105968 -0.13582826
-0.021027803 -0.060449127 0.12916875 -0.017024362 -0.019176977 -0.047104295 0.034866355 -0.078323916
-0.00946534 0.0116456365 0.0 -0.042768277 -0.054353427 -0.014446877 0.0 0.1805485
-0.011892648 -0.07703182 -0.06775037 -0.07777355 0.2827024 0.018645046 0.05478436 -0.08903188
0.15838054 -0.023271255 0.01646289 0.0 -0.014499164 0.14125681 0.048702996 -0.022519771
-0.052627467 0.04232142 0.06163794 -0.008373378 0.024165658 0.043596875 0.12319762 -0.0100001
-0.00988907 -0.05421244 -0.006280085 -0.018938277 -0.0136463065 -0.009043962 0.0031356711 -0.008643863
-0.013705421 -0.0128718065 0.08945667 0.0 0.0015971215 -0.11269557 -0.08369188 -0.01041368
-0.018150404 0.0 -0.059241176 -0.038703088 -0.04021455 -0.022208177 -0.020260591 0.04178659
0.0 0.06406414 0.059715327 -0.090355925 -0.015525515 0.053814515 0.0075260093 -0.06080518
-0.036100116 -0.008361277 -0.0486129 -0.015137987 -0.007233676 -0.007448393 -0.026985116 0.0050972346
-0.013969295 0.0 -0.01516439 0.15366249 -0.04803038 -0.048762478 -0.09118743 -0.028014703
-0.0151278805 -0.045309342 -0.039789237 -0.06703606 -0.0084731765 0.04302499 0.10535891 -0.013199812
-0.034980003 0.017104436 0.3471177 -0.008894671 0.11913725 0.0 0.15583205 -0.012697901
-0.014651136 0.15403353 0.053761918 -0.019684821 -0.011163719 0.019648945 -0.021964658 -0.008165044
-0.0050985985 -0.007719198 -0.010136055 -0.03881724 0.0 0.052944783 0.0695561 -0.014322697
-0.07360794 -0.04724511 -0.037925933 0.131428 -0.013089921 -0.006184666 -0.009053217 -0.00815672

mu.weight f4 [4, 200]
00000000: 4733 35be 1014 8cbe 8fb6 8abe a653 61be
00000010: dbf3 d3be fa78 a03d 2443 acbe 4abe b1be
00000020: 40cf 013e 840c 26be 3b3d 8abe a052 163e
00000030: dceb bc3d 839b 29be 942d a0be 0129 433d
00000040: 330c b5be 148a c9be 55cb 1fbe 9109 f83b
00000050: b766 bcbd 3e4c fa3d bc75 0dbe fe13 ebbe
00000060: b4c3 f43d 1cb6 98be a8a7 84be f632 5fba
00000070: 0352 7b3d ccba 29be b417 13bd af77 77be
00000080: 2c2f e3be c315 f9bc f9a3 edbd 42f1 3ebd
00000090: 91d0 b13e 1548 30be 56c6 6abe 1393 70be
000000a0: 6719 f73d 01aa a83d 9200 71bd e5b2 c6be
000000b0: 197f 9fbd 6c32 a3be 67a3 97be a329 a6be
000000c0: 6966 3abe 001e 02be 08b5 92be 1a48 94be
000000d0: 55c2 073e aa03 94be e488 0dbe 8926 32be
000000e0: f543 a63d 9e13 3fbe ed9c 64be 11df 7ebe
000000f0: a929 ccbe db7c 5cbe 3fbf f73d 1e82 c6be
00000100: 1222 c13d 5400 7abe 7766 07bd c1bb beba
00000110: 3341 cebe 945f d63d 39ba cfbe f96a 83be
00000120: f2ec d23d 04f9 a5be fb5c 933d d99c debd
00000130: 965b babc 085a d5be 4c7f 0a3e 642b 39be
00000140: 1e1b 1abe 5e7f adbe ba3d edbd 4909 c13d
00000150: 6272 44be 8337 f5bd 1d2d 2cbe 0e69 00bf
00000160: 22e6 873d 04ab 24be 31a7 a0be 6f47 34be
00000170: eb0c 27bf 96ee 21be 17fc 7e3e 97a6 2fbe
00000180: fb8d 883d f30b d5be 7369 8fbe d8a5 d2bc
00000190: e1a2 06be 7f46 8a3e 3826 2b3e 6001 0c3e
000001a0: 860f b0be bb4e 90be 3135 84be 68b0 35be
000001b0: 2c7e c6be c41f c1bd d062 b6be 2730 8f3c
000001c0: 3b7c 32bd 1857 a9be ed33 9d3d 0e66 c03d
000001d0: e1aa 02bd 458d afbe 3a75 5ebe 8503 d13d
000001e0: b603 e63d f51c 493d a784 6b3e d017 5e3d
000001f0: 60c5 703e fb33 d1be dcf9 27be f84b 623c
00000200: f6fc 20be 4bc7 2a3e d70d b5be b37b e1be
00000210: e2b2 8ebe 825e 32be c065 2fbe 6745 923e
00000220: e0d2 33bc 61ff bebe 1415 bdbe c9b2 58be
00000230: 28fc b93e b824 adbe 5b6a 0e3d 8220 33be
00000240: e2fe 21bd 3a7d 943d b712 81be a12a 193e
00000250: ece8 88be a9f6 c53d 2541 7c3c ec99 f3bd
00000260: 06a9 833d 58f3 a13c 3946 0e3c 3001 99be
00000270: c02d 49be 6f3b a7be 7ee3 83be 5203 0e3e
00000280: d114 cabc 751e 87be 0ddb c1be 2faf b3be
00000290: 9968 023e 0651 93be 8c3a 183f d93f 0ebe
000002a0: a7a3 aabe 4247 9fbe 295c 51bf 47d4 16bd
000002b0: 32df 803e 70ad 6c3d 0068 f73d da84 003e
000002c0: eb5f cd3d 1817 363d b55e 9bbe 9c9d f6bd
000002d0: fed7 cb3d 5ceb b7be 2f73 a0bd 5f7a 43bd
000002e0: db51 4ebe 6605 c9bd 1989 4d3d 6b94 dcbe
000002f0: be69 4abd fbc5 b2be fdbb cdbe 5272 1c3e
00000300: be64 1abe 52a8 61be ce4b 8abe b97e 993e
00000310: ba23 3ebe 8848 08bc 16fc 3ebe 11bd 31bd
00000320: ca2a b4be d5f9 c6be b065 0cbe 9eac b0be
00000330: 624a 09be 9b4f abbd ea9f b7be 972b b4be
00000340: b898 9b3d 1e95 c43d f6de 66be 0217 023d
00000350: a651 68bd 0ad2 ea3d 95c3 5ebe 815d 233e
00000360: 2247 5cbe 2b4e 16be 65e7 debe 038a e23e
00000370: d595 cbbe 5257 153e c9ed 7bbe d9b1 2fbf
00000380: d428 04be d88b 75be 5311 b7be fa1c 75be
00000390: 5a78 69bc d9a5 e4be 86da b33d 0535 cebe
000003a0: dd7e b8be 336c d3bd 3119 4abe efc2 493d
000003b0: e413 d83e c657 dbbe 45f1 72be ce00 cbbe
000003c0: ee15 0abe 5d5e 9c3e 6800 f0bd 60a2 cbbe
000003d0: dd51 f83d cef0 97be e3ef afbe a58a a6be
000003e0: dc58 abbe 00d3 0b3e a6c2 85be 4b8c d9be
000003f0: bd38 e23d 7a0b 05be dde7 0dbe ccaa f6be
-0.17695342 -0.27359056 -0.27092406 -0.22004566 -0.41396984 0.078355744 -0.33644974 -0.34715492
0.12676716 -0.16215712 -0.2699984 0.14679956 0.09224674 -0.1656323 -0.31284773 0.047646526
-0.3536087 -0.39363158 -0.15604909 0.0075695 -0.09199279 0.12221573 -0.13814443 -0.4591369
0.1195139 -0.29826438 -0.25909162 -0.00085143687 0.06135751 -0.16575164 -0.035911277 -0.2416675
-0.44371927 -0.030405885 -0.11603541 -0.0466168 0.34729436 -0.17214997 -0.22927222 -0.23493604
0.12065392 0.08235551 -0.058838435 -0.3880836 -0.07787914 -0.31874406 -0.29616854 -0.3245364
-0.18203129 -0.12706757 -0.2865374 -0.2896126 0.13257726 -0.28909045 -0.13821751 -0.17397512
0.081184305 -0.18659827 -0.22325487 -0.2488978 -0.39875534 -0.21532004 0.12097024 -0.38771147
0.094303265 -0.24414188 -0.033056702 -0.0014551805 -0.40284118 0.10467449 -0.40571764 -0.2566755
0.102991 -0.32416546 0.07195469 -0.1086976 -0.02274875 -0.4167025 0.13525122 -0.18082958
-0.15049407 -0.33886236 -0.11584039 0.09425599 -0.19184259 -0.11973479 -0.16814084 -0.501603
0.06635691 -0.16080862 -0.31377557 -0.17605375 -0.65254086 -0.1581367 0.24900852 -0.17153393
0.066677056 -0.4161068 -0.2801014 -0.025713846 -0.13148071 0.2700691 0.16713798 0.136724
-0.34386843 -0.28185067 -0.25821832 -0.17743075 -0.38768137 -0.09429887 -0.35622263 0.017479016
-0.043575507 -0.3307426 0.0767592 0.093944654 -0.031901244 -0.34287468 -0.21724406 0.102057494
0.112311766 0.04909988 0.22999822 0.054221928 0.23512793 -0.4085997 -0.16403908 0.013812058
-0.15721497 0.16677587 -0.3536212 -0.44039688 -0.27870852 -0.17418864 -0.17128658 0.28568575
-0.0109755695 -0.37304214 -0.36930144 -0.21161951 0.36325192 -0.33817077 0.034769397 -0.1749287
-0.039549716 0.072504476 -0.2520959 0.14957668 -0.26740205 0.09666187 0.015396391 -0.11894593
0.06428723 0.019769356 0.008683735 -0.29883718 -0.19646358 -0.32662532 -0.257595 0.13868454
-0.02466813 -0.26390424 -0.37862435 -0.35094592 0.12735213 -0.28772753 0.59464335 -0.13891543
-0.33327982 -0.31109053 -0.8178125 -0.036823537 0.25170285 0.05778259 0.12080383 0.12550679
0.100280605 0.044455618 -0.30345693 -0.1204178 0.099533066 -0.35921752 -0.078344695 -0.047724124
-0.20148413 -0.09815483 0.050179575 -0.43081984 -0.04941725 -0.34916672 -0.40182486 0.15277985
-0.15077493 -0.22036865 -0.2701096 0.29979494 -0.18568316 -0.008318074 -0.1865085 -0.0433932
-0.35188895 -0.38862482 -0.13710666 -0.34506696 -0.13407281 -0.08364793 -0.35864192 -0.35189506
0.07597488 0.09598754 -0.2254599 0.031760223 -0.05671849 0.11465843 -0.21754296 0.15953638
-0.2151151 -0.14678256 -0.43535915 0.4424592 -0.3976275 0.14584091 -0.24602427 -0.6863075
-0.129062 -0.23979127 -0.35755405 -0.23936835 -0.014249885 -0.44657782 0.087819144 -0.40274826
-0.3603429 -0.10323372 -0.19736172 0.04925817 0.42202675 -0.42840403 -0.2372485 -0.3964905
-0.13484928 0.30540743 -0.117188275 -0.3977232 0.12124989 -0.29675907 -0.34362707 -0.32527652
-0.33466232 0.13654709 -0.26125067 -0.42489848 0.11045978 -0.12992659 -0.1385798 -0.48177183

mu.bias f4 [4]
00000000: 1f90 94bd 9cc1 d8bc 213f 35bd bf98 7cbd
-0.072540514 -0.026459508 -0.044249658 -0.061669108
