llirl_sumo/saves/sumo_single_intersection/env_models.pth (torch, 491174 bytes, 13 tensors)

layer1.weight f4 [200, 160]
00000000: fa37 0fbe 2029 aa3e f970 d4be a417 7abd
00000010: 8652 cc3e aec4 d2be f1d7 78be 185f ad3e
00000020: 7e35 c3be 022e a2be 7c47 9b3e ca1e 99be
00000030: d2ed ffbd 96bc 2c3e 1203 79be e8c7 c5be
00000040: 3c32 cabe bc17 bebe 197b cbbe b185 9abe
00000050: f591 b4be 56e6 bdbe 1568 6fbe 15c6 eebe
00000060: 862f dbbe 91b8 67be 6270 a0be 591c 75be
00000070: eb27 cdbe ee35 c3be a62c 91be faa9 b6be
00000080: 8e50 b3be 2289 d0be de23 95be 0a24 c3be
00000090: b775 54be cd1b 9b3e cff0 b8be 2026 31be
000000a0: bdde a73e 4558 a7be c4ba 8ebe a4b6 443e
000000b0: d7d7 7cbe aee4 21be 40a9 603e 7f76 aebe
000000c0: dc0a 83be 5437 853e a8ea 7bbe 8e24 94be
000000d0: 7d6b 9dbe 76f3 97be c2bd c0be 7b98 d3be
000000e0: 13e5 afbe 08f2 d8be cdcb 76be 280a 8cbe
000000f0: cd08 92be f06c 9dbe d91a ccbe 10ba c1be
00000100: 647f b9be 707a 8cbe f9f4 bfbe 27bb 8fbe
00000110: 574f 71be bfd7 7dbe a99f 91be f8aa e0be
00000120: cd9e 5fbe a2b5 4d3e b8c9 92be 7471 2ebe
00000130: ba02 683e f560 cbbe 7955 9dbe fea1 683e
00000140: 28cc b5be 16bd 87be b374 163e 14de c9be
00000150: d8ed 9ebe e02a 963e af88 e8be 8113 d0be
00000160: fdcd dabe fbc9 1dbe dc50 9cbe 1e85 92be
00000170: 777e 48be 4f69 9dbe 10a5 b0be 5c2f 62be
00000180: 7ca0 91be 5f04 dabe 7098 d9be 97ca cfbe
00000190: 1e03 e1be b14e bcbe 941a 8bbe d25d 9dbe
000001a0: 6e4d 63be c5de 7fbe e877 99be 8fb4 c6be
000001b0: 78e5 77be f739 ae3e 6a7b a1be 4bb0 51be
000001c0: 5e92 ae3e 4c72 a9be 4675 87be 1fc0 6c3e
000001d0: 0c83 63be 15e6 94be c2c4 a63e 1014 a2be
000001e0: f849 8fbe 7880 0e3e 8d0c 86be 656f 67be
000001f0: 049d aabe e706 743c 1cff b5be 0f2e 94be
00000200: b218 adbc d4ef c3be cb0b a3be 9018 e1be
00000210: 0852 8bbe 8ba3 dfbe c9ad 8bbe e482 5ebe
00000220: 478f 9ebe 5122 8bbe df28 9dbe 05ee 60be
00000230: 364a c5be d4cd aabe 3a74 65be 9874 c3be
00000240: a1a2 9b3c 7d1e a6bd 2e5b b23d e49d 023e
00000250: 6903 cbba 525e 2e3d 043c 2f3e 2ac9 e63d
00000260: 60c8 36bd e526 62bc 7e11 6cbd d4c9 c9bd
00000270: de64 563d 030c cd3d 472c 103e 4e4d d13d
00000280: ed7c 69be 833d 893e 94a2 94be af4b 97be
00000290: 00ca c53e 35db cebe d0af d7be 08ba 0e3e
000002a0: 9a85 03bf b980 8bbe a968 063e bed0 e4be
000002b0: f91c 4abe 8939 8f3e 556b dfbe 7519 97be
000002c0: da5d cbbe dfe1 00bf 7572 04bf 2f94 a2be
000002d0: 6520 e9be b83d dabe e9e4 b7be 2424 b2be
000002e0: 71fd eabe 9872 03bf 2dd4 00bf 2ba4 f8be
000002f0: 357e bfbe 5883 99be b126 bbbe ca6f 9fbe
00000300: 7744 b0be 77b3 debe 9cdf b2be bad5 ebbe
00000310: e7c9 70be 9939 b03e b467 d8be d022 85be
00000320: 2ede bf3e 054f 9dbe 8273 d7be 1072 4e3e
00000330: ad28 8fbe e814 dbbe d7ef 083e 3147 e1be
00000340: b6f4 6abe f6fe a53e b057 94be 3080 b8be
00000350: 1408 90be b12b 8ebe 7cb2 f9be 6509 afbe
00000360: 5f71 febe cd7c f4be f1e0 98be 7ccd b5be
00000370: b66c 7ebe 1575 f1be 2c83 a5be 90f5 a4be
00000380: 3e68 dcbe bc4e eebe 12d8 f6be 4321 c5be
00000390: 8a8f febe 75af cdbe f4a5 e3be 71da e0be
000003a0: a024 b9be 7511 d03e 104f 92be 2ad0 abbe
000003b0: 7501 763e 5c1b abbe 0caa b9be 5366 143e
000003c0: 8aa7 e4be 941d e7be 50f4 873e c1de d0be
000003d0: 892b d0be 3118 b03e 7ccb 9dbe a999 b8be
000003e0: 06cd eabe ef13 a7be 8638 dfbe 1495 03bf
000003f0: 3fcf 3ebe dfda 8ebe dab3 cdbe 4309 01bf
-0.13986197 0.332345 -0.4149244 -0.0610577 0.3990671 -0.4116568 -0.24301125 0.33861613
-0.3812675 -0.31675726 0.30327976 -0.29906303 -0.124965325 0.16868815 -0.24317577 -0.3862908
-0.3949145 -0.37127483 -0.39742354 -0.30180123 -0.35267606 -0.37089795 -0.23379548 -0.466355
-0.42809695 -0.22629 -0.3133574 -0.23936595 -0.40069517 -0.38127083 -0.28354377 -0.35676557
-0.35022396 -0.40729624 -0.29128927 -0.38113433 -0.2074803 0.30294648 -0.36121222 -0.172997
0.32787123 -0.32684532 -0.27876866 0.19210297 -0.24691711 -0.1580989 0.21939564 -0.3407478
-0.25594223 0.26018775 -0.24601233 -0.2893414 -0.3074607 -0.29677933 -0.37644774 -0.4132727
-0.34354457 -0.42372155 -0.24101181 -0.273515 -0.2852234 -0.30747175 -0.39864233 -0.37837267
-0.36230004 -0.27437162 -0.37491587 -0.28072473 -0.23565422 -0.24789332 -0.28442124 -0.4388044
-0.21837921 0.20088819 -0.28669524 -0.17035466 0.2265729 -0.3972241 -0.30729273 0.22718045
-0.3550732 -0.2651145 0.14692955 -0.39427245 -0.31040835 0.29329586 -0.4541678 -0.4063988
-0.42735282 -0.1540908 -0.3053044 -0.28617185 -0.19579493 -0.30744407 -0.34500933 -0.22088379
-0.28442752 -0.4258146 -0.42499113 -0.4058425 -0.4394769 -0.36778787 -0.27168715 -0.30735642
-0.22197506 -0.24987324 -0.29974294 -0.3880963 -0.24208629 0.340286 -0.3153947 -0.20477407
0.34096044 -0.33095014 -0.2645666 0.23120163 -0.22217959 -0.2908179 0.3257199 -0.3165593
-0.2798612 0.13916194 -0.2618145 -0.22601087 -0.33322918 0.014894224 -0.35546196 -0.2894139
-0.02112994 -0.38268912 -0.31844935 -0.43964052 -0.27211022 -0.4367946 -0.27281025 -0.21729618
-0.30968687 -0.2717462 -0.30695245 -0.21965797 -0.3853318 -0.3336016 -0.22407618 -0.3817489
0.018998446 -0.08111284 0.087087974 0.12755543 -0.0015488687 0.04257042 0.17112738 0.11268838
-0.044624686 -0.0138032185 -0.05763387 -0.09852949 0.05234229 0.10012057 0.1407939 0.10219823
-0.22801562 0.26804742 -0.29030287 -0.2954993 0.38630676 -0.40401617 -0.42126322 0.13938153
-0.51375735 -0.27246645 0.13125862 -0.44690508 -0.19737615 0.27973583 -0.43636575 -0.2951161
-0.3972004 -0.5034465 -0.5173715 -0.3175368 -0.45532528 -0.42625213 -0.35916832 -0.34793198
-0.45896485 -0.5134673 -0.50323755 -0.4856275 -0.37400976 -0.2998302 -0.36552957 -0.31139976
-0.34427235 -0.43496296 -0.34936225 -0.46061498 -0.2351452 0.34418944 -0.4226662 -0.26003122
0.37474197 -0.3072435 -0.42080313 0.20160699 -0.2796072 -0.42789388 0.13372742 -0.43999627
-0.22944912 0.32421082 -0.2897315 -0.360353 -0.28131163 -0.2776771 -0.48768985 -0.34186855
-0.4969587 -0.47751465 -0.29859117 -0.35508335 -0.24846157 -0.4715964 -0.3232664 -0.322186
-0.4304828 -0.46544445 -0.48211724 -0.3850194 -0.49718887 -0.40172926 -0.4446255 -0.43916658
-0.36160755 0.4063832 -0.28575945 -0.33557254 0.24023993 -0.3341931 -0.36262548 0.14492159
-0.44659072 -0.45139754 0.26553583 -0.40794948 -0.40658215 0.34393457 -0.3081931 -0.36054733
-0.45859545 -0.32632396 -0.4359781 -0.5139935 -0.18633746 -0.2790136 -0.40176278 -0.5040476

layer1.bias f4 [200]
00000000: 840a fa3c 4f84 a73b 42fe fd3c ecc5 a23c
00000010: cbd9 d43c b30c fc3c 26ad d53c 7d5b f43c
00000020: 026a ae3c cca0 823d 2b6c 853c ca81 a33c
00000030: 29f7 703d 51d6 0d3d 0000 0000 b2b2 e33c
00000040: 2bac ea3c d54f 063d 1b40 e53c c25c 013d
00000050: 5d72 d13c b83c abbb 394a ef3c 559f ed3c
00000060: 6bb8 4c3d 7797 fc3c c96e c83c d41e 993c
00000070: 923d 0c3d a4ae ee3c cc5d ba3c c2e3 f43c
00000080: 8b57 c23c 4493 813c de86 ef3c 8a80 893d
00000090: c21f 793d d032 f03c 7903 d13c 017a 993c
000000a0: f3ed ee3c 51e4 283d c4aa 82bb 5885 a03c
000000b0: 0000 0000 cb3b f33c 5e14 2e3d 6ab3 e93c
000000c0: af79 ed3c 0000 0000 5a94 41bb 39ca d13c
000000d0: fc05 fa3c 0970 f73c 75a4 e73c 5ed4 b13c
000000e0: acb7 193d 3d68 57bc 0000 0000 a6f4 973c
000000f0: 9b2c 9e3c 64a2 133d 3031 0ebc b1ea 0c3d
00000100: a597 27ba 79fe 633c 6148 1bbc a16f fa3c
00000110: 2929 e83c cba3 83ba dd06 5939 a92c 9d3c
00000120: 893b 0e3c ed40 103d 81d6 fd3c 04b2 013d
00000130: dcd1 b73c 1154 8a3c 0000 0000 8638 70bb
00000140: d0b8 a43c 4f4d d83c 7e28 78bb af80 82bc
00000150: f0f1 9fbc d04c 5c3d 0000 0000 4283 ee3c
00000160: dd44 023d 0000 0000 146f e93c 0000 0000
00000170: 68c6 f03c 9392 31bb 11f9 a53c 3b60 483c
00000180: 4eab f73c e15d ee3c 0000 0000 033f f43c
00000190: 4da1 f53c 0000 0000 aca0 f33c 0000 0000
000001a0: 3832 a0bb 9324 bd3c b999 073d 7af1 c63c
000001b0: d567 423d 5927 b6bb 2301 65bc 0dba 9c3c
000001c0: 8b77 c63c e81b d53c ea3f a23c aa83 4f3d
000001d0: c7c2 173d 2305 033c 516e f53c 5ce9 2b3d
000001e0: e723 e23c 0000 0000 0000 0000 3e9a dd3c
000001f0: a74e 763c 75bd f93c b8b8 0d3d a02f 003d
00000200: 0000 0000 ba47 fb3c a658 dd3c 15c9 f13c
00000210: fb91 f83c 0e13 0b3d 3e27 f53c 7107 123c
00000220: 0000 0000 2321 833a a0e3 523d 6965 ee3c
00000230: 0000 0000 8c18 da3c bfdf 3b3d b6f5 a23c
00000240: 2f01 80ba 3746 bb3c eab6 043d b915 f03c
00000250: 4e16 a63c 582e b63b b9c6 f43c 22e2 f93c
00000260: 775a fb3c 7947 edbc a29b ee3b 3226 e93c
00000270: 216f ef3c 2cb6 3c3d a112 0b3d b823 60bb
00000280: 0000 0000 61c9 b93c 8b2d 253d 018b bd3c
00000290: 36c1 f83c 78c6 f33c d3f0 fa3c 2c18 d83c
000002a0: b09d 283d 5295 b03c c85f d03c d75f 85bc
000002b0: 9f0c f53c 26af db3c 1ef0 ef3c 0000 0000
000002c0: 4369 f33c 0000 0000 0000 0000 38a8 f83c
000002d0: 8aab 57bc d637 153d c5c7 f53c 1530 4d3c
000002e0: 4e42 68bb 8934 d63c 3fbb 5f3c 47ce 1f3d
000002f0: 9dca ff3c 06d8 223d 5601 ad3c edc5 e73c
00000300: 0d37 d43c e64e cc3c 47bc ee3c 0000 0000
00000310: afd2 f33c f866 f5bc 03ae ea3c f4bc 193d
0.030522592 0.005112208 0.031005029 0.019869767 0.025982758 0.030767774 0.02608354 0.029828781
0.021290783 0.06378326 0.01628693 0.01995935 0.05882946 0.034628216 0.0 0.02779517
0.02864655 0.032790978 0.02798467 0.0315826 0.025567228 -0.005225744 0.029210197 0.02900664
0.049980562 0.030833943 0.024466889 0.018691458 0.034238406 0.02913601 0.022749804 0.02989376
0.023723384 0.015817292 0.029239114 0.0671397 0.060821302 0.029321104 0.025514351 0.018734934
0.029166197 0.041233364 -0.003987642 0.019594833 0.0 0.029691597 0.042499892 0.028527934
0.028988687 0.0 -0.0029537887 0.025609123 0.030520432 0.03020479 0.028276661 0.02170771
0.03752868 -0.013147411 0.0 0.018549275 0.019308379 0.03604354 -0.008678719 0.034403507
-0.0006393141 0.0139156515 -0.009477706 0.030570807 0.02833994 -0.0010043321 0.0002069729 0.019186335
0.0086811865 0.035218168 0.030986072 0.03166391 0.022438936 0.01688579 0.0 -0.0036654784
0.020107657 0.026404051 -0.0037865932 -0.015930502 -0.019524544 0.05378419 0.0 0.029115323
0.031803954 0.0 0.028495349 0.0 0.029391482 -0.0027095422 0.020260366 0.012229974
0.030233052 0.0290975 0.0 0.029815203 0.02998414 0.0 0.0297397 0.0
-0.004888799 0.023088729 0.033105586 0.024285067 0.047462303 -0.00555889 -0.013977322 0.019131685
0.024226924 0.026014283 0.019805867 0.050662674 0.03705099 0.00799683 0.02995983 0.041970596
0.02760501 0.0 0.0 0.027051087 0.015033401 0.030485848 0.03459999 0.03129542
0.0 0.03067385 0.02701981 0.029514829 0.030343046 0.03395372 0.029925939 0.008912907
0.0 0.0010004382 0.05148661 0.02910109 0.0 0.026623033 0.045867678 0.019892555
-0.0009765978 0.02286063 0.032401003 0.029307233 0.020274308 0.005559724 0.029879915 0.030503336
0.030682785 -0.028964745 0.0072817365 0.028460596 0.029227795 0.04607217 0.033953313 -0.0034200978
0.0 0.022679033 0.040326636 0.023137571 0.030365568 0.029757723 0.030632412 0.026378714
0.041166008 0.021555576 0.025436297 -0.016281052 0.029913245 0.026816916 0.029289301 0.0
0.029713279 0.0 0.0 0.03035365 -0.013163457 0.036430202 0.030002484 0.012523671
-0.0035439911 0.026148098 0.013655483 0.03901508 0.031224543 0.039756797 0.021118801 0.02829262
0.025905157 0.024939965 0.029142512 0.0 0.029763548 -0.029956326 0.028647428 0.037533715

layer2.weight f4 [200, 200]
00000000: 0304 193a 5b49 0dbe dc64 253d 8940 b03d
00000010: 4354 7e3d d782 72bd 7025 abbd 3553 5d3d
00000020: a56f cb3c a7c1 a13d 78e9 bdbd 582b 00be
00000030: dfee 9abc d500 82bd 0b1b 853d 15b2 853d
00000040: 63f5 1ebe 6f52 f4bd 2777 a63d 22ce b23d
00000050: 9a58 083d 6067 b7bd c3ba 70bc 628f c4bd
00000060: 5c8a b33d 4950 ea3c a71f 4ebd 15b9 5abd
00000070: a9cd ac3c d365 043d 9250 2c3d b8b2 e9bd
00000080: 0e47 ddbd a40c 02be b09f 4e3d a5dd 9c3c
00000090: e787 28bd 19e9 863d 00c0 873d d455 83bc
000000a0: 1069 adbd 8637 cf3c 03b8 df3d db31 f6bb
000000b0: c6c7 79bd 9be7 d7bd 55d8 d8bd 54f3 aabc
000000c0: 0ef0 18be 5644 83bd a390 cf3d b0eb fabd
000000d0: d257 dc3c 8cd3 b73d 62f0 d6bd 53cb 593d
000000e0: f353 eebc 6beb 55bd 606d d5bd 4418 343d
000000f0: 02a9 f1bd fc86 d3bc afcf 66bd e353 8b3d
00000100: 5405 80bc fb6f adbd 3a55 5bbd 9e4c 37bd
00000110: 140a 603d b7ff f33d 3338 7e3d cd27 8e3d
00000120: 878e 02be c62b d63d 986d 3fbd 9ab1 06ba
00000130: 28d8 b73c f5a8 3f3d 2844 0c3c 1654 553d
00000140: a76b d0bd f100 a7bd beff 243d 6805 81bd
00000150: 5bf9 a23d 826e d7bc e466 e9bd 4425 9e3d
00000160: 9aec 463d 88cc 05bd 4002 8cbb d72c a33d
00000170: 5eec 79bd 810a 11be 554d fe3c d205 d0ba
00000180: a875 12bd fabc 17be 9d49 e23d 8771 18bc
00000190: 4b62 99bd 58be d1bd 7f2c 023d 08a0 a3bd
000001a0: 6a23 313c 554f 5bbd 2e62 ee3b f93b c2bd
000001b0: 9d5b b13d 5a0e a0bd f739 3cbd d17d 0cbd
000001c0: dae3 903d 03c4 61ba 7448 0cbe 4696 913d
000001d0: 1c34 00be eeec fcbd d9e5 423d 6267 7a3d
000001e0: e552 efbd bb26 f63d a33a d03d cd37 25bd
000001f0: c8fa cbbd 3f02 ba3c 9abc a1bc 4aa1 c3bd
00000200: 2233 a1bd 2c85 f0bd 3f44 713d 3c7d 97bc
00000210: 443b 733d 3728 8fbd 189b d9bd 32d1 8dbd
00000220: faa5 e0bd 2352 16be badb 95bc d4ec 863d
00000230: ea7e 013d 0b69 c8bc d94a ecbd 2a55 613c
00000240: 02b6 88bd bcb0 77bd ecf5 783d 751d fcbd
00000250: 52b5 82bd 0c12 04be 6e7c d8bd 06fc 17be
00000260: d613 cdbd 6f22 d9bd 8445 4fbd f47e 19bd
00000270: 4730 ae3c d616 983c 9b6e cfbd 25ee b83d
00000280: b4fc b73c 5134 64bb aef6 deb6 700b aebc
00000290: 1d17 a93c 00d1 963c 4839 bfbd a6a8 693d
000002a0: 7058 febc ccd1 89bd ab5d afbc b314 e63d
000002b0: c37b 383d 9411 90bd 173c 14bd ecf2 9f3c
000002c0: 1e78 1abe c419 c0bc a0d0 4a3b ea18 0cbe
000002d0: 714b 30ba e0e0 f83c bab1 1cbe 3f24 483a
000002e0: 8ad4 25bd d831 7e3c 151b 93bd fd72 fabd
000002f0: 9db2 0a3d 40c5 9c3d e5ce b2bd 1b68 973d
00000300: 6e17 663d cce8 a13d 468e 8bbd 000e 413a
00000310: 62b9 9d3d f8cd a83d f08c 263c 47c4 04bd
00000320: 1cbc b9bc 6411 a0bc 6bf9 8e3d 93e0 853d
00000330: 00a0 7537 a0e2 56bb e4a2 d13c 4a44 1e3d
00000340: 10ce d6bd 09c7 7ebd 93d5 cd3d b496 bdbc
00000350: 2475 e0bc 481b 5c3c 3228 433d f71d 9fbd
00000360: 00cc 69ba ba5e cbbd c046 dfbc e4f2 91bd
00000370: 4f1e 76bd 14f8 b23c 39e2 a93d 3e20 c9bd
00000380: cf83 803d 7bad d73d 7825 84bc d0b9 a1bd
00000390: 18a7 b0bd f005 d2bc 509b c73b 5082 40bc
000003a0: 48fa 363c 95d7 87bd b03d 44bd c382 bf3d
000003b0: e189 e5bd ab6e 973d ee6c 173d 9394 923d
000003c0: 6477 b9bd 2217 473d 3c9e e23c a3e0 d1bd
000003d0: 38e0 b8bc 3229 96bd 23b2 cd3d 502c 92bd
000003e0: f4b8 ad3c eddd 883d 2610 5b3d d274 203d
000003f0: 0c05 c7bd b3e1 883d 86f7 cdbd 9067 75bd
0.00058370846 -0.13797514 0.04037939 0.08606059 0.062092077 -0.05920681 -0.0835675 0.05403443
0.02483351 0.078982644 -0.09273046 -0.12516534 -0.01891273 -0.06347815 0.06499299 0.06528107
-0.15523295 -0.119297855 0.08128195 0.08730723 0.033287622 -0.08955264 -0.014692965 -0.095976606
0.08766624 0.028602736 -0.050323155 -0.053399164 0.02109416 0.03232367 0.042069025 -0.11411041
-0.10804568 -0.12700135 0.05044526 0.019148657 -0.04114523 0.065874286 0.06628418 -0.016032137
-0.08467305 0.02529503 0.10923769 -0.0075132675 -0.060981534 -0.10542222 -0.10588137 -0.020867981
-0.14935324 -0.064095184 0.10135009 -0.12251985 0.026897345 0.08975896 -0.10495068 0.05317242
-0.029092764 -0.052226465 -0.10421252 0.043968454 -0.11799814 -0.025821202 -0.056350406 0.068031095
-0.01562754 -0.08468624 -0.053548075 -0.044750802 0.05469711 0.11914008 0.062065315 0.06941185
-0.12749682 0.10457568 -0.046735376 -0.0005138159 0.022441939 0.04679199 0.008561172 0.052082144
-0.10176783 -0.081544764 0.040282957 -0.06299859 0.07957717 -0.026297811 -0.11396578 0.077219516
0.048565485 -0.03266576 -0.004272729 0.07967537 -0.061016433 -0.14164163 0.031042734 -0.0015870875
-0.035756737 -0.14818183 0.11049197 -0.009304411 -0.07489451 -0.10241383 0.031780716 -0.07989508
0.010811666 -0.053542454 0.0072748875 -0.09484095 0.08660052 -0.07815237 -0.045953717 -0.034299675
0.07074709 -0.0008612277 -0.13699514 0.071087405 -0.12519878 -0.12349878 0.04758248 0.06113375
-0.11685733 0.12019106 0.10167434 -0.04033642 -0.09959942 0.02270615 -0.019743253 -0.09552248
-0.07871081 -0.117441505 0.058902975 -0.018492334 0.059382692 -0.06990092 -0.10625285 -0.069246665
-0.109691575 -0.1467977 -0.01829325 0.0658814 0.031615175 -0.02446415 -0.115377136 0.013753215
-0.0667534 -0.06047128 0.060781404 -0.12310306 -0.0638224 -0.1289751 -0.10570608 -0.14842233
-0.10013549 -0.10602271 -0.050603405 -0.037474588 0.021263255 0.018565577 -0.10128518 0.090297975
0.022459365 -0.0034821222 -6.644833e-06 -0.021245688 0.020640904 0.018410206 -0.093370974 0.0570456
-0.03104803 -0.06729469 -0.021406969 0.11234417 0.045039903 -0.07034603 -0.03619012 0.019525014
-0.15084884 -0.023449786 0.0030947104 -0.13681379 -0.0006725109 0.030380666 -0.15302172 0.00076347956
-0.040485896 0.015514813 -0.071829 -0.122289635 0.033861745 0.0765481 -0.08730868 0.073929034
0.056174688 0.079057306 -0.06814246 0.0007364452 0.077013746 0.082424104 0.010165438 -0.032413747
-0.022672705 -0.019539542 0.069811665 0.06536975 1.4640391e-05 -0.0032788888 0.025590368 0.038639344
-0.10488522 -0.062201533 0.10050502 -0.02314315 -0.027399607 0.013434239 0.047645755 -0.07769387
-0.0008918643 -0.09930177 -0.027255416 -0.07126406 -0.0600875 0.021846808 0.08295102 -0.09820603
0.062751405 0.10531136 -0.016131148 -0.07896769 -0.086256206 -0.025637597 0.0060915127 -0.011749819
0.01116807 -0.06632916 -0.047910392 0.09351113 -0.11207939 0.07394155 0.036969118 0.071572445
-0.09055975 0.048606046 0.027663343 -0.10247924 -0.022567853 -0.07332076 0.100437425 -0.07137358
0.021206357 0.06682954 0.053482197 0.03917391 -0.097177595 0.06683674 -0.10056977 -0.059913218

layer2.bias f4 [200]
00000000: 938c 05bd 0000 0000 d739 e83c 4fe9 22bc
00000010: c4d7 d63c 0adb ce3c 9b9b cb3c 4a11 d53c
00000020: 69c8 8a3c c3ad c83c 6187 d83c b656 08bc
00000030: 6545 e33c d0d2 e53c c0d2 963d 3798 b43b
00000040: 701b 9f3c 3a7f 6fbc 5147 91bb 0000 0000
00000050: 7cdf da3c db15 e53c 5ad9 863c d62b f83b
00000060: 898b c13a c61a aa3c a8ef cf3c fe15 d13c
00000070: 1969 d63c 8d93 9cbc 2f33 2fbc c145 61bb
00000080: 0000 0000 f8f5 74bb ce37 23bc a01a b73b
00000090: 5e9f 14bc 0000 0000 b190 cf3c 912c 1bbc
000000a0: 1759 85bc afa7 be3c c4a9 0e3c a5c6 d13c
000000b0: 4312 d83c 232d d23c 13a8 f13c a561 99bc
000000c0: 78a0 ca3c 0000 0000 7253 d23c 89c1 e13c
000000d0: ff8c d13c 0f58 92bc 4bad 38bc 0ed6 cdbb
000000e0: 238c d13c c4eb 11bd 0000 0000 e9eb e83c
000000f0: 2331 4bbc 8bd2 113c 64ed ce3c 0000 0000
00000100: d9ba d43c f32e d03c 289e b93c b61e e93c
00000110: 8aac 51bc 1aa3 003d 99bb 89bb 8351 d03c
00000120: c118 eb3b fae2 cd3c 1c6f 87bc 523a ed3c
00000130: bd8b eb3c 3843 dd3c de3e dc3c b363 dd3c
00000140: 6d16 903b 0946 d63c ac2f e73c 1b93 673c
00000150: d737 92bc 0000 0000 b8e6 ddbb c5ee 503c
00000160: ab0b 66bc 20bb b0bb aa47 95bc f1ca 82bc
00000170: e9e0 2dbc 4ee8 023d aa32 33bc 8359 53bc
00000180: be1a dabb a42d 7dba 6866 17bc 8f67 dc3c
00000190: dd6a 183c a243 ce3c 3a9c 733c b1d0 dd3c
000001a0: 0000 0000 5665 17bb 7d3f 57bc 5b94 413b
000001b0: 1e78 813c 8a2a d63c 4463 99bb dac9 c4bb
000001c0: 9646 28bc f24c df3c 5622 09bc 0e06 6d3b
000001d0: bd26 d43c dcb9 71bc 4366 4c3c f9fd d6bb
000001e0: e18d d0bb 0000 0000 ec47 f73c 2cd2 d13c
000001f0: 20d4 bdbb 5af8 81bc 0000 0000 5057 04bc
00000200: 6440 a9ba d043 ec3c e295 13bc 502e adbb
00000210: 6d8d cd3c 0fa6 4fbc 0000 0000 bcc3 d63c
00000220: cfcb fcbc 0d97 8cbc 9eac 98bc 1cec 023d
00000230: ef28 d93c 5cfb cd3c 9df4 75bb 0e65 4abc
00000240: 3acd f3bb f7f0 c63c 14cc dd3c f155 e13c
00000250: 7a86 9b3c 787d 79bc 0000 0000 a331 dd3c
00000260: 0000 0000 0000 0000 1a4d a5ba bb97 6dbc
00000270: 0b8a 3cbc 53e5 0dbc 82fd 2dbc 0000 0000
00000280: 7e8d 9a3c 98af cc3c fd4d 1cbc 0000 0000
00000290: 020d db3c 76a2 d13c ff50 e43c 0da5 a7bb
000002a0: 58f4 7dbc 1d45 a4bc 0000 0000 d2c9 c4bb
000002b0: 434d f13c 117f fb3c 0000 0000 21e4 2dbc
000002c0: 23c6 e13c 53d6 1ebc 0000 0000 542b de3c
000002d0: ee16 3ebc 3c6f d53c 0bc4 773b 7d40 5dbc
000002e0: e383 d03c 5436 afbb bf9f d73c 761a f43c
000002f0: a220 ca3c dddd cfbb 496c 90bc 5208 c83c
00000300: 9a6f 4cbc 13e2 1fbc d3a9 b5bc e4a8 27bc
00000310: 5999 983c 9349 de3c 3995 e63c 1ec7 b1ba
-0.032604765 0.0 0.028347893 -0.00994332 0.026225932 0.02525093 0.024854472 0.02600922
0.016941266 0.024496919 0.026431741 -0.008321455 0.02774305 0.028054625 0.07364416 0.0055113095
0.019422263 -0.0146177355 -0.0044335504 0.0 0.026717894 0.027964523 0.016461063 0.007573585
0.0014766316 0.02076472 0.025382832 0.025523182 0.026173161 -0.019113326 -0.010693355 -0.0034373852
0.0 -0.0037378054 -0.009962035 0.0055878907 -0.009071199 0.0 0.025337549 -0.009471075
-0.016277833 0.023273317 0.0087074675 0.025607416 0.026375895 0.025656288 0.02949909 -0.018723318
0.02473472 0.0 0.025674555 0.027558105 0.025579927 -0.017864255 -0.011271785 -0.006281621
0.025579518 -0.035625234 0.0 0.028432803 -0.012401852 0.008900295 0.025259681 0.0
0.025968002 0.025413012 0.022658423 0.028457027 -0.012797484 0.031405546 -0.0042032716 0.025429493
0.0071745818 0.025132645 -0.016532473 0.028958473 0.028753156 0.027009591 0.026885446 0.02702508
0.0043972046 0.026156442 0.028220974 0.014134194 -0.017848892 0.0 -0.0067718886 0.01275224
-0.014040868 -0.005393401 -0.018222649 -0.01596591 -0.010612705 0.031959824 -0.010937372 -0.012899759
-0.00665602 -0.0009657985 -0.009240724 0.02690485 0.009302822 0.025178734 0.01486879 0.02707705
0.0 -0.0023101172 -0.013137695 0.002953789 0.015804347 0.026143331 -0.004681023 -0.006005508
-0.010270735 0.02725837 -0.008370003 0.003616694 0.025897378 -0.014753785 0.012475553 -0.0065610376
-0.0063645695 0.0 0.030185662 0.025612913 -0.0057931095 -0.015865494 0.0 -0.008077458
-0.0012912867 0.02884093 -0.009007903 -0.005285062 0.025091851 -0.012673869 0.0 0.02621638
-0.030858902 -0.01716187 -0.018636998 0.031963453 0.026508776 0.025144272 -0.0037529834 -0.012353195
-0.0074402364 0.024284823 0.027074851 0.0275068 0.018985022 -0.015227668 0.0 0.027001208
0.0 0.0 -0.0012611479 -0.014501507 -0.011507521 -0.008660632 -0.010619523 0.0
0.018866297 0.024986073 -0.009540078 0.0 0.026739601 0.025590163 0.027870653 -0.005116111
-0.015500151 -0.020052487 0.0 -0.006005504 0.029455787 0.030700238 0.0 -0.010613472
0.0275603 -0.009694654 0.0 0.02712027 -0.011602147 0.026054017 0.003780606 -0.013504145
0.025453513 -0.0053470526 0.02632129 0.029797774 0.024673764 -0.006343587 -0.01762976 0.02441803
-0.01247778 -0.00975849 -0.022175705 -0.010233138 0.01862781 0.027134692 0.028147327 -0.001356337

mu.weight f4 [4, 200]
00000000: 16b5 303d a07e f93c 3aff 4ebe 9c68 1d3e
00000010: c22e 92be 7206 28be 140a fdbd eaf4 8dbe
00000020: f181 86bd 26e7 ffbd 29c6 2dbe 717f 0c3e
00000030: 270c 54be 1714 75be 1e0d 4a3d fcf0 89be
00000040: bcce 39be 0366 c83d 6234 21be e760 aabd
00000050: 6399 53be 1bfa 72be 8d1d 31bc db4b 05be
00000060: 7cd3 3cbd 6443 5c3d 8c85 06be 5d48 1bbe
00000070: 7ec3 af3c af7d 11bd b489 13be 0bef 91bc
00000080: f761 95bd f0ce e43d 92d9 1b3e 0912 0fbe
00000090: f4b9 ee3d b548 043e f5a2 40be 27e1 f33d
000000a0: 59b8 873b 0d36 94bd 2bf3 31be ea9e 81be
000000b0: 1f58 afbd 0c14 f8bd 272a 44be a1c8 073e
000000c0: 7f0a c6bd 6284 1dbe 2680 08be 3244 8bbe
000000d0: 8c47 49be ac06 8f3d 61d0 26be 213f 0f3e
000000e0: d581 2bbe 18f2 3bbd 667e 86bd 2a56 7cbc
000000f0: 131d 9f3d 2569 8b3d 885e 8ebe 5019 273d
00000100: dc32 8ebe 4ee0 00be d4ec 76be 673d a6bd
00000110: 2ab2 073e 1d83 cbbd 2a9c d9bb 021b 7cbe
00000120: a516 0c3e 1c07 96bc c586 b73d 8f4b 54be
00000130: 3d2a f0bd 1bf1 95bd 8a83 81be 61ac 33be
00000140: 86a0 16be 1ae7 43be 7136 1abe dba2 843d
00000150: a550 223c 73da acbd 8536 253e a4d9 063e
00000160: ae09 243e 1d98 fb3d 50e6 ebbd 586c ee3d
00000170: ba85 d0bd add9 d3bd 30c9 873d 7bac 063e
00000180: bc37 ff3d edfd cfbb 1f67 bd3c 723f 7bbc
00000190: bf54 49bd e4bb 1fbe 18c4 153c 2a8a 60bd
000001a0: e2a1 13be 5a0a 1fbe 439f 20bb c4bb 02be
000001b0: 5c6b c9bd 84e8 5bbe afcb 983c 265d 573d
000001c0: 8ebb 15be 3845 39be b1cc d13d a3e9 193e
000001d0: 7431 22be 05a8 b4bd 6c1a a3bd beda 0f3e
000001e0: a02b 783d 66a5 07be 2c77 26be 8aca 84be
000001f0: 3310 c93c ff2d c2bd 888c a63c 09b8 203e
00000200: be8b 8fbd eaf0 27be f86a 25be a634 fa3d
00000210: e9fb aebd 91ea 893c 6cd1 cdbd 16ec 89be
00000220: fd7c 0abe 5e98 083e 43d5 193e 0453 f3bd
00000230: 2097 033d 5c71 08be 65f7 27be 5067 933d
00000240: 6adf 84bd 2e20 e1bd 5e66 6bbe 5c62 82be
00000250: 7b21 2f3e 664f 3fbd a458 1ebe 9639 2ebe
00000260: f055 083d 69fd 023e 87be 823d a7be 91ba
00000270: f07c 7a3d 6e8b 8fbd 78f8 e33d bd23 29be
00000280: cfad 29be 2bd9 5c3d 1d79 ca3d 60e6 79bc
00000290: 2f0e 54be 2f2d 58be 1ca6 5abe 0055 b0bd
000002a0: 8e35 2bbe d7dc 913d 0a17 76bd 7eaf a1bd
000002b0: b33f 85bc 9e92 1bbe 00ed 1fbd a8c6 1f3e
000002c0: f40b bdbd b38c 023e e6e4 dc3d 5839 8cbe
000002d0: e74d 063e 5dfc 6abe fedd 383e ba31 67bd
000002e0: bc20 03be 382b edbd c4a9 59be 91e2 eebb
000002f0: c2f4 36be a154 2e3c 6216 3cbe b419 0fbe
00000300: 1293 b53d 3fad 19be 476f 193e 97a3 f03d
00000310: c321 18bd 360d 0ebe dfa2 e9bd 392a 1b3e
00000320: d5b8 c23c b097 383c 1756 61be 3d0c b73d
00000330: 190b 86be 4d04 cbbd ca07 26bd 3c2a 75bd
00000340: 1871 2b3e 5351 4a3d 2b57 8bbe c559 643d
00000350: f51b 5cbe f1b2 1abd a4b0 3c3e 9430 eabd
00000360: 8251 0abc 06d8 a03d a19b ff3c 3149 253e
00000370: b868 70be af73 59be 792c 89be 7d20 443d
00000380: 8785 f73d d7a9 75be 6d73 8fbd 0072 2bbd
00000390: 06ca 19be 3b12 843d 436e 183e 2b71 203e
000003a0: a9b9 a0bd 09e5 18be a949 f53d 3d68 8cbe
000003b0: 9178 cd3d 602d ce3b 704c 4bbe cdd0 0abc
000003c0: 1f69 d0bd 36c0 61be 7819 12bd c816 25bd
000003d0: b98f 0cbc ff19 07be c953 ecbd c7f5 103e
000003e0: 0ecb 23be 9044 493d 1198 50be 212a ffbc
000003f0: 500c 87be ed46 0abc 5418 0abc 96ab 1abe
0.043141447 0.030455887 -0.20214549 0.15371937 -0.28551298 -0.16408709 -0.12355438 -0.27725917
-0.06567753 -0.1249526 -0.16970123 0.1372049 -0.20707761 -0.23933445 0.049328916 -0.2694167
-0.18145269 0.09785082 -0.15742639 -0.08319264 -0.20663981 -0.2372822 -0.010810268 -0.13017218
-0.046100125 0.053775206 -0.13136882 -0.15164323 0.021455523 -0.03552025 -0.14407998 -0.01781418
-0.07294076 0.11172283 0.15219715 -0.13971724 0.116565615 0.1291836 -0.18812163 0.11908179
0.004141849 -0.07236872 -0.17377917 -0.25316554 -0.0856173 -0.12113199 -0.19156705 0.13260128
-0.09669971 -0.15382531 -0.13330135 -0.27200466 -0.19656199 0.069836944 -0.16290428 0.13988926
-0.16748746 -0.045885175 -0.06567077 -0.0154014025 0.07769217 0.06807164 -0.27806497 0.040795624
-0.27773178 -0.12585565 -0.2411378 -0.0811718 0.13251558 -0.09937117 -0.0066409307 -0.24619678
0.13680513 -0.018313937 0.08961252 -0.20731948 -0.11726806 -0.07321378 -0.2529567 -0.17546226
-0.14709672 -0.19131127 -0.1505983 0.06476375 0.0099069225 -0.084401034 0.16134079 0.13168961
0.16019318 0.12284873 -0.11518538 0.11641759 -0.10181756 -0.10344253 0.0663017 0.13151734
0.12461802 -0.006347409 0.023120461 -0.015334951 -0.049153086 -0.15599018 0.009140991 -0.054819264
-0.14417222 -0.15531293 -0.002450899 -0.1276694 -0.0983493 -0.21475416 0.018651811 0.052579068
-0.14622328 -0.18092811 0.1024412 0.15030532 -0.15839177 -0.0882111 -0.07964024 0.14048287
0.06058848 -0.13246688 -0.16256398 -0.25935775 0.024543857 -0.09481429 0.020330682 0.15695204
-0.070090756 -0.16400495 -0.16154087 0.12217073 -0.08544142 0.016835483 -0.1004971 -0.26937932
-0.13524242 0.13339373 0.15022759 -0.11881068 0.032126546 -0.13324493 -0.16402967 0.0719744
-0.06487925 -0.10992466 -0.22988269 -0.25465667 0.17102616 -0.04670658 -0.15463501 -0.17014155
0.03328508 0.12791981 0.063839965 -0.0011119441 0.061154306 -0.07009016 0.11131376 -0.1651754
-0.16570209 0.053918045 0.09886382 -0.01525268 -0.20708536 -0.21110986 -0.21352428 -0.086099625
-0.16719648 0.071222 -0.060080566 -0.078948006 -0.016265726 -0.15192649 -0.03904438 0.15603125
-0.092307955 0.12748985 0.107858464 -0.273875 0.13115655 -0.22947831 0.18053433 -0.056443907
-0.12805456 -0.11580509 -0.21256167 -0.0072901924 -0.17866805 0.010640294 -0.18367913 -0.13974649
0.08865942 -0.15007494 0.14983855 0.11749952 -0.037141573 -0.13872227 -0.11408018 0.15152825
0.023769775 0.011266634 -0.22005497 0.08937881 -0.26180342 -0.0991293 -0.040534772 -0.05985473
0.1674236 0.049393963 -0.2721494 0.055749673 -0.2149504 -0.037768308 0.18426758 -0.11435047
-0.008442285 0.07853703 0.03120214 0.16141202 -0.23477447 -0.21235536 -0.26791742 0.047882546
0.12086015 -0.2399057 -0.070044376 -0.041856766 -0.15018472 0.0644879 0.14885812 0.1566817
-0.07847912 -0.1493112 0.1197694 -0.27423277 0.10032762 0.00629203 -0.19853377 -0.008472634
-0.101763 -0.22045979 -0.03566882 -0.04030493 -0.008579188 -0.1319351 -0.11539418 0.14156257
-0.15995428 0.049137652 -0.20370509 -0.031148018 -0.2637658 -0.008439762 -0.008428652 -0.15104517

mu.bias f4 [4]
00000000: 9bfa d5bc a711 c6bc b792 9bbc f422 e8bc
-0.026120475 -0.02417834 -0.018990858 -0.02833698

sigma f4 [4]
00000000: 78c1 f5bc 527d abbc 1923 47bc 2dd7 c9bc
-0.02999948 -0.02093378 -0.012154364 -0.024638737

layer1.weight f4 [200, 36]
00000000: 7fda 693d 665c 293e f5d1 55bb b3d6 f73c
00000010: 1640 5e3d 681c 713d f9b0 6bbd fcdc ad3d
00000020: 94a8 1abd ecfd bc3d 3b3f 9cbc 18cc 703d
00000030: 60c2 d33d 94b1 cfbd 14a1 493d e9b7 e13c
00000040: 7fc5 fabd 081c d6bc f843 863b 975a 023e
00000050: 3077 9fbd a32c ec3d 3d3c 8abd 45e6 893d
00000060: 2cb0 0b3d 1e28 d63d fb6a ca3d 1b1b 12be
00000070: 7c99 0fbc 61d0 19be fa3b f13a f5c2 c0bd
00000080: 32af 0e3e 7380 a53d 5317 9abd 4972 c03c
00000090: 8df3 c3bd e414 18be e0b4 a73d 99e9 e7bc
000000a0: 5d10 08bb b23f bcba 768f 3e3d 41ac a43d
000000b0: 09c6 69bd 690c 80bc 2631 a4bd 4c3c 9cbd
000000c0: 9a20 5cbd 692e da3c 72f0 f0bd ed5a acba
000000d0: 8da0 043e e868 0fbe 8b15 9e3c 9925 da3d
000000e0: 2037 863c dfe4 bb3d a742 b6bd 4c43 033c
000000f0: 7dd0 45bd 33f2 103c 645e ecbc 2696 b73c
00000100: a2ef 133e bb30 2abd 3a44 063d b308 d5bd
00000110: b9d9 be3d 3601 163d 77f4 c7bd bd4a e83d
00000120: a16a bebd 20cc f6bd ec35 1abe 9fed b1bd
00000130: 7810 fbbc 13dd 95bd 944b 1e3e c824 12be
00000140: 3813 afbc 8967 debd b39a 1f3e b675 37bd
00000150: 8618 0fbe 2bee 943d b4e9 a7bd 1a23 9e3d
00000160: 61a6 213e 54d9 ffbc 2416 c2bb 3ef3 0cbe
00000170: 2c81 99bc 296c d03d c0b0 d23d 5b77 8a3d
00000180: 3993 01be 64b1 f53d 0b41 aa3d 7a74 0abd
00000190: 9874 18be 35f9 f43d 03cd 93bc 6353 e5bd
000001a0: bedd d73d 082c 17be a76c 1bbe c696 d83d
000001b0: 6c4b df3d 40c0 19bc ebcf 18bc 8ce5 76bd
000001c0: e84d f0bd 2638 a3bd a9ae dbbd e660 14bc
000001d0: 4cee 62bd c409 a7bc 6297 c6bd 658d 8e3d
000001e0: c8f6 9d3d c313 44bd e365 e23d 50ba d73c
000001f0: ab91 0fbe 0696 70bd 47b8 12be d02f 30bd
00000200: 7d87 b43d 2075 a6bc 34b9 76bd 6aa3 cd3a
00000210: 0eb1 5ebd 9217 21be 3099 11bc 7677 1abe
00000220: 20a8 0a3d 7e5a 82bd 5cff 0b3d ee34 e7bd
00000230: 06c6 cb3c f002 b93c cefd a8bd d972 28bc
00000240: db3d 593d db7f 0bbd fe0a 53bd c403 c43d
00000250: 3e8b 093e 9263 afbd c22f 2a3c e886 48bd
00000260: 1e9a 59bc bea6 b53d 1f87 afbc 7fc5 8bbc
00000270: 91ff 353d a4fc d93d 9bb1 0f3e 7cfd 833d
00000280: d574 b0bd 01be 59bd e48f eabd 3968 1fbe
00000290: 8138 21be 5cb8 f7bc 968f 433d 7cde 0c3e
000002a0: 067e 6a3b 0c0e 20be b7a6 a1bd 74fa ed3d
000002b0: e098 0b3e d016 1c3d 1597 d8bc 0044 e03d
000002c0: 7f8e 143d d44e e4bd da2e bfbd a34a 41bd
000002d0: 43a7 2dbd 4759 9abd b534 32bd 0c7a c63d
000002e0: a5a4 df3d 7112 24bd 18e4 b83d 95a1 db3d
000002f0: 52e3 89bd 4403 ff3d c37d 363d 9de3 56bd
00000300: 5eb7 203e 7cc1 d2bc e2ce ad3a 9c21 583d
00000310: dc54 a33c aba3 ec3c 5405 85bd 11b1 2f3d
00000320: ab0f dd3c 4d13 dfbc 461c 09be 7354 54bd
00000330: 157c 1f3e 89e1 e23d 5f75 633d 4db5 82bd
00000340: 2309 b03d e450 d93d 01a0 bbbd e924 20bd
00000350: fb5c febd 7142 1dbe a33e 1b3e ea73 253d
00000360: 92b4 5ebc 4e0e 87bc cad9 94bb 8182 213e
00000370: 3347 10be 42ee e93d 220b 923d 3191 00bc
00000380: 3af1 90bd c7aa 25bd 39af 96bd 40e4 593d
00000390: 2a1a f03d dbf6 d73d d133 f8bd 8276 b93d
000003a0: c014 193d a47d 16bd bd6d e9bd c509 a6bd
000003b0: f0ba 093e 8064 003d 46fb dbbd a93a b0ba
000003c0: b03b 92bd 5cf1 00bd ce9f 943d 6561 14be
000003d0: fc6c eebd 7b27 c4bd b618 c6bd 00d0 ccbd
000003e0: 3f52 cf3d 3c80 173e f7e0 fbbd 32a1 b0bd
000003f0: 60cc d33d 6185 a53d 73e2 00be f35a 0bbd
0.05709314 0.16539153 -0.0032626365 0.030253744 0.054260336 0.05886498 -0.05754182 0.08489415
-0.037758425 0.09228119 -0.01907312 0.05878839 0.103398085 -0.10141292 0.04922588 0.027553516
-0.12244701 -0.026136413 0.004097458 0.1272987 -0.07786405 0.11531951 -0.06749771 0.067333736
0.034103557 0.104568705 0.09883686 -0.14268152 -0.008764621 -0.15020896 0.0018404715 -0.09412185
0.13934019 0.0808114 -0.0752398 0.023491995 -0.09567938 -0.14851719 0.08188796 -0.02830963
-0.0020761706 -0.0014362244 0.046523534 0.08040667 -0.057073627 -0.015630918 -0.08017187 -0.07628688
-0.05374203 0.026633458 -0.11764611 -0.0013149657 0.1295187 -0.14004862 0.019297382 0.106517024
0.016383708 0.09174513 -0.08899432 0.00801165 -0.048294533 0.008846807 -0.028853603 0.022410464
0.14446881 -0.04155038 0.03277991 -0.1040205 0.09318871 0.03662225 -0.09763425 0.1134238
-0.092976816 -0.120506525 -0.15059632 -0.08687901 -0.030647501 -0.07317557 0.15458518 -0.14271843
-0.021371469 -0.108595915 0.15586357 -0.044789992 -0.13974199 0.072719894 -0.08198872 0.07721539
0.15786125 -0.03123156 -0.0059230495 -0.13764665 -0.018738352 0.1017688 0.10287619 0.067610465
-0.12653817 0.11996725 0.08313187 -0.033802487 -0.14888227 0.11961595 -0.018042093 -0.111975454
0.10540341 -0.1476289 -0.15178166 0.10575633 0.109030575 -0.009384215 -0.009326915 -0.060277507
-0.117336094 -0.07969694 -0.10726673 -0.0090563055 -0.05540304 -0.020390399 -0.09696843 0.069605626
0.077130854 -0.04787041 0.110545896 0.026333958 -0.14020412 -0.058736823 -0.14328109 -0.043014348
0.08814905 -0.020319521 -0.060235217 0.001568896 -0.05436807 -0.15731648 -0.00888662 -0.15084633
0.033851743 -0.06364916 0.034179077 -0.112893924 0.024874698 0.022584409 -0.082515344 -0.010281288
0.053037506 -0.03405748 -0.051524155 0.09571031 0.13432023 -0.085639134 0.010387363 -0.04895678
-0.013281373 0.08869694 -0.021426735 -0.017061947 0.04443318 0.106438905 0.14032595 0.06444833
-0.08616034 -0.053159717 -0.11453226 -0.15567102 -0.15744211 -0.030239277 0.047744356 0.13756746
0.0035780682 -0.15630358 -0.078931265 0.11620036 0.13632536 0.038107693 -0.026439229 0.1095047
0.036268707 -0.11147848 -0.09335108 -0.04719032 -0.04239584 -0.075365596 -0.043507297 0.09691247
0.10920075 -0.04005665 0.090278804 0.10724179 -0.06732811 0.12451795 0.04455353 -0.052463163
0.15694949 -0.025727026 0.0013260508 0.052766427 0.019937925 0.028886637 -0.06495157 0.042893473
0.02698501 -0.027230883 -0.13389692 -0.05183835 0.15574677 0.11078174 0.055531856 -0.06382237
0.08595493 0.10611132 -0.09161378 -0.0390977 -0.12420078 -0.15357377 0.15160613 0.040393747
-0.013592856 -0.016486313 -0.004542564 0.1577244 -0.1408966 0.11422397 0.0713103 -0.007847116
-0.0707726 -0.04044607 -0.0735764 0.05319619 0.117237404 0.10545131 -0.12119258 0.09055807
0.037373304 -0.036740914 -0.11397884 -0.08107332 0.13450217 0.031345844 -0.10741286 -0.0013445216
-0.07140291 -0.03148018 0.07257043 -0.14490278 -0.11641881 -0.09577843 -0.09672682 -0.1000061
0.10123109 0.14795011 -0.12298768 -0.086244956 0.10341716 0.08082081 -0.12586384 -0.034022283

layer1.bias f4 [200]
00000000: 192a 0f3c d84b a139 2507 26ba 369a d537
00000010: 456e b8bb ace6 e93b 6929 7e37 4cf2 cd3b
00000020: f2f9 fdb9 ee22 1c39 ecfb 9539 db35 943b
00000030: a841 15ba 672a 6eb7 710a 2e3b b302 fd38
00000040: d1a1 b3b9 ceee afbb 8193 7f3b 0cf1 ab3b
00000050: b6e1 a5bb 1b79 a0b9 9ac1 f53a 4e06 963a
00000060: 7acd 243a 9ec2 d537 8616 c93b a8d7 c13a
00000070: 9614 eab6 22e7 bb3a 2e6a c8bb 8833 52b9
00000080: 3c4e 90ba 0e8b aabb 1a51 7dbb 9a20 d437
00000090: d182 3e3a be89 fdba e3b2 4839 ca04 fcb9
000000a0: a31d 943a 0109 953a e607 5839 1dee 82b6
000000b0: 40e5 c83a a0aa abbb 27bb 403b ea97 6eba
000000c0: 22e8 2638 fa86 8cb8 fc66 4cbb 34cd 67b8
000000d0: 2f06 3235 98c1 dd3b 458c fdba 1f8d 5c38
000000e0: c923 cd3b 44b2 3bba b380 56bb 7292 37bb
000000f0: c699 313b 2338 833a 4c14 e93a 9cb9 a7bb
00000100: c17c 3637 2ea2 a4bb 4f6b 0f3b cc1e efba
00000110: a2b8 e0b8 dbdd e337 bd58 fe3b db64 9abb
00000120: 5b4e 493b cc6b c3ba 9652 65ba 2de9 70b9
00000130: cf70 ac36 1e8f d838 00e2 24b8 1f03 b336
00000140: 1c04 733b 3390 f939 e5dd cc3b 0359 363b
00000150: 1060 0139 aa56 d139 c9d5 8739 904f 1cba
00000160: 37e2 4f39 c124 a3ba 7cf7 36b8 21eb 05b9
00000170: dbdd 5fb7 9a25 e3b8 a2d6 fb3a 8ea0 673a
00000180: b760 de34 80c4 c43a c7a4 c8ba 6ba6 843a
00000190: 460c 2c39 220c 07ba 1bdc 1c3c c56f c2bb
000001a0: ccdb fcba 4763 1d3b 90c0 deb7 0ce8 943a
000001b0: d909 b53b dd59 b4b7 8478 183b ec8f 01b7
000001c0: 231e f438 3523 2039 6551 f3b9 f91b 9739
000001d0: 30f5 a2b6 6340 b639 34ed 90bb 7bd4 203b
000001e0: 04bd 7939 eacb db3a d393 a838 963f 9b3a
000001f0: 7eb5 e537 1a4f 133a 1d88 fab6 7e19 e439
00000200: bb52 02bb 3278 d437 9bee 2bbc 027b 41bb
00000210: 9333 98bb c86d 4eb8 577e 30ba 483d b438
00000220: 0d7d 933b 31cd 3ab5 2ca3 413a 4393 aebb
00000230: 36f6 073b c481 d1ba 3ba5 4db6 8a6a c536
00000240: 2931 503b 2e4a 5538 42cd 2238 4b90 38b8
00000250: d064 f5ba 840e 743b 8afa 603b 0e76 b53a
00000260: fc74 63ba af85 44bb c6c1 193a 923b 3ebb
00000270: e406 b03b 9cf7 863b b620 b6bb 53fb 843a
00000280: 7cef 0dbb 31ba e13a d258 f5ba cd2e 063c
00000290: cdc4 00b8 6777 1a3b 080a adbb 46a5 90ba
000002a0: 0475 313b d3ec 2737 0aa7 85b9 012d 8139
000002b0: a07c b9ba 31f2 a2bb 2b80 5bbb f616 073c
000002c0: 5499 feba 5bb3 2b3b a28c 9f38 09d3 70b8
000002d0: e500 5c3a beb7 b83b 66fe a237 003d 4eba
000002e0: 1d7a 1a3b f51c 5d3a 77c7 3aba aabe 3aba
000002f0: dffd 19ba c030 6fbb 14d1 86bb 1fa6 b539
00000300: b85c 25bb 7d11 2838 3434 b33a 0000 0000
00000310: 15b2 f23b 5dc6 7dbb 4e0c ac3a e76e 993a
0.008738064 0.0003076482 -0.0006333462 2.5463389e-05 -0.0056283795 0.007138094 1.5149221e-05 0.0062849876
-0.00048442144 0.00014890332 0.0002860719 0.0045230216 -0.00056936825 -1.4195778e-05 0.0026556517 0.00012064483
-0.00034262103 -0.005369044 0.0038997831 0.005247241 -0.005062307 -0.0003060781 0.0018749714 0.0011445971
0.0006286722 2.5482204e-05 0.006136718 0.0014789002 -6.97614e-06 0.0014335851 -0.006116173 -0.00020046358
-0.0011009644 -0.005204565 -0.0038653077 2.528755e-05 0.0007267418 -0.0019343419 0.00019140127 -0.00048068754
0.0011300336 0.0011370481 0.00020602308 -3.902022e-06 0.0015327111 -0.005238846 0.0029408426 -0.00091016165
3.9793675e-05 -6.7008616e-05 -0.0031189313 -5.5265802e-05 6.6319166e-07 0.006767463 -0.0019344172 5.2583517e-05
0.0062603694 -0.00071600475 -0.003273052 -0.0028010872 0.0027099713 0.0010011237 0.0017782538 -0.005118562
1.0877092e-05 -0.005024216 0.002188403 -0.0018243431 -0.00010715543 2.7163818e-05 0.0077620433 -0.00471173
0.003071687 -0.0014909445 -0.0008747963 -0.00022975048 5.139132e-06 0.0001032634 -3.9311126e-05 5.334979e-06
0.0037081307 0.00047600418 0.006252038 0.0027824051 0.00012338185 0.00039928156 0.0002590849 -0.00059627835
0.0001982533 -0.0012446867 -4.362267e-05 -0.00012771461 -1.33434905e-05 -0.00010831207 0.0019213746 0.0008835875
4.1421092e-07 0.0015012175 -0.0015307897 0.0010120397 0.0001640777 -0.0005151649 0.009573962 -0.005933734
-0.0019291579 0.0024015473 -2.6554131e-05 0.0011360659 0.0055248556 -2.1499518e-05 0.0023265192 -7.722509e-06
0.0001164044 0.00015271905 -0.00046409215 0.00028821806 -4.85652e-06 0.00034761717 -0.004422808 0.002454071
0.00023816904 0.0016769145 8.038399e-05 0.0011844512 2.7383441e-05 0.0005619392 -7.4664263e-06 0.00043506542
-0.0019885737 2.532834e-05 -0.0104939 -0.0029522781 -0.00464482 -4.921647e-05 -0.00067326933 8.5944834e-05
0.004500991 -6.958899e-07 0.000738668 -0.0053276136 0.0020746118 -0.0015984108 -3.0643557e-06 5.8834603e-06
0.0031767583 5.0852243e-05 3.881497e-05 -4.4003402e-05 -0.0018722061 0.0037240097 0.003432902 0.0013844387
-0.0008676795 -0.0029986908 0.00058653613 -0.0029027206 0.005371915 0.004118873 -0.0055580987 0.0010145701
-0.0021657636 0.0017221627 -0.0018718487 0.008189869 -3.0700863e-05 0.0023569704 -0.005280737 -0.0011035583
0.0027077803 1.0009116e-05 -0.0002549219 0.00024638328 -0.0014151521 -0.004972719 -0.0033493142 0.00824522
-0.0019424357 0.0026199433 7.607906e-05 -5.7417e-05 0.0008392467 0.005637138 1.9430368e-05 -0.0007867366
0.002357132 0.0008434796 -0.00071250595 -0.0007123748 -0.00058743166 -0.0036497563 -0.0041142795 0.0003464678
-0.0025232267 4.007061e-05 0.0013672174 0.0 0.007406483 -0.003872297 0.0013126226 0.0011706025

layer2.weight f4 [200, 200]
00000000: 0242 da3c dbc4 933d db19 bbbd f69b e2bd
00000010: 25e3 9f3c bede 8abc 3855 a83d 579f 8f3c
00000020: f4b5 8dbd 7141 89bd ac3e 633c 3efa 083d
00000030: 0d6d e8bd 7e5d 813d 5440 e93d 21d0 b73d
00000040: 8a2a 96bb cfe1 f5bd cda6 0abd 8269 c93d
00000050: 8724 abbd 82fe 7abd b709 26bd fcfe 693d
00000060: 32d5 11bb dcf8 f4bd 442b 323d b69e cfbb
00000070: 432e 0a3b 264f 223b aaa4 0fbd 058b 8cbd
00000080: 5a87 643d cdc6 aebd 0538 c13c 2a7a c23c
00000090: 1daf c03d 69ea bc3d f856 37bd 299e 0e3d
000000a0: 78a9 4d3c ed09 96bc 8695 853d f9c4 ec3d
000000b0: b5e7 343c b784 3ebd 374a 5cbb 9b8c 203d
000000c0: 498f 19bd 6ea7 b23a 3af2 b83c 9d7f 133d
000000d0: bf79 b33d 912b 27bd 84ac cdbd c1a6 fabc
000000e0: 6a43 bfbd da12 90bd 10e0 9ebc ac9b a23b
000000f0: 03f9 8e3d 0709 833d 710b 6c3d 14f9 98bd
00000100: 7a9f 513d 1203 463d 5b2c dd3d 8030 973d
00000110: 6dcd 293c 0264 f73d 32bb d13d 93eb aabd
00000120: 1da6 9b3d 085c 53bc 81ec e1bd b9c7 e5ba
00000130: d987 c8bd 61d6 7a3d 1d2d 0e3c b76f 4bbc
00000140: b359 9fbc 0c4c 76bd 2628 f7bd f6c6 8e3d
00000150: 4b65 c83c 3831 f5bd 053e 803d 6725 d6bd
00000160: 9b9b 90bc d4ff f03d 96d3 873c 672b 86bd
00000170: d9f1 c8bd d207 963d 8704 a2bd decf 0abd
00000180: 95c4 98bd 7988 ad3d 661c eabd aa6f 03bc
00000190: 6bbc 5f3b c118 67bd 843b dd3d 4335 f5bd
000001a0: fedb 09bd d835 2b3d 7e0c e3ba 60e8 233d
000001b0: fb56 adbd f212 163d 20a7 63bd ebe7 d13d
000001c0: 4fe4 e1bd dde0 12bd 6b86 93bd 6607 c0bd
000001d0: 7093 a0bc 7356 a1bd db16 c3bd 7c1f 7fbd
000001e0: acf3 50bd fd8a 1c3c 678b 50bc 5195 903d
000001f0: 5cae 7b3d ca3a 87bd 4c22 3dbd ab65 8bbd
00000200: cb0b 26bd 1389 98bd 2d79 a13c 367c a33d
00000210: 0495 e13c b60c 55bd 153d 8bbc 2b13 c2bd
00000220: eb60 133d 8176 d73d d545 18bd 3ed2 c73d
00000230: 5ecd 403c 910a 3dbd e6b6 a03d 840b e5bc
00000240: c7a6 943d 16e4 c63c 5580 c5bd 20b2 77bc
00000250: ddc8 933d 951a 62bd b526 20bd 5b5e ac3d
00000260: 320b 9f3d ac03 3bbd 6ec9 04bd 2d38 d3bc
00000270: ab7f e3bd 7829 e9bd 4426 7f3d 1d4f ee3d
00000280: bcd6 b43d 9bd9 efbc d32d 66bc cc9b 193d
00000290: 3f4e eabb 2d89 433d b691 ec3d 335d 9c3d
000002a0: 2820 d53d b878 25bd e845 afbd 728d f1bc
000002b0: bd19 adbd 62c2 d03d 4a1e ea3d f50f c3bd
000002c0: 404a 9dbd 0a92 493c 88f9 d6bc afd9 f8bc
000002d0: 9f08 c1bd 7f1f 4c3d d148 8c3b e24b efbd
000002e0: a17a e63d f518 c33d 8ac5 6aba f793 8f3d
000002f0: ba4d 983d 1a4c d4bd dd49 9a3d be98 4f3c
00000300: fe30 48bb 1df8 e0bd ae28 833d 0000 71b9
00000310: 64ed 863d df50 58bc c862 45bb dd17 bfbd
00000320: 6cde 92bd 7fa0 1e3c edf1 56bc 493b b53d
00000330: 15d2 8b3d 7fbe 99bc 526c a6bd f722 c23c
00000340: 94d6 413d 3664 2e3c 7c8b 8cbc 39cf e03d
00000350: 1872 f8bd 6e7e f8bc e467 c93d 11b0 9ebd
00000360: f632 01bd d0cc 273d 2a50 5cbd f040 133d
00000370: ad66 c7bc 500c 6fbc 894c d8bd 1d2e b7bd
00000380: 2048 bbbb 7609 5ebc 9071 153d f55d 6f3c
00000390: 58ad b63d 6ace 9d3d 6da1 f8bd 2f38 9d3d
000003a0: f305 783c 5e1e 163d 52fc 163d ffd4 733b
000003b0: a9f9 843d 4d2f 5fbd 0139 2e3c 2e09 35bc
000003c0: 330a fb3d 4bfe 62bc 0272 f9bc b406 313d
000003d0: 6c7d 9b3d 0578 3a3d 5260 873d bc44 cfbb
000003e0: 6368 803c a73f cabd 8b1e 81bd d3f6 91bd
000003f0: d7d6 b23c f709 ef3d b902 bc3d 8b16 c33d
0.026642803 0.072152816 -0.09135791 -0.110649034 0.01951749 -0.016951915 0.08219379 0.017532034
-0.069194704 -0.06701935 0.013869923 0.033441775 -0.11348925 0.0631666 0.11389223 0.08975244
-0.004582708 -0.1200596 -0.03385048 0.09834577 -0.083565764 -0.061277874 -0.04053661 0.057127938
-0.0022252318 -0.11961529 0.043498293 -0.0063360585 0.0021084703 0.0024766414 -0.035069145 -0.06862453
0.055793144 -0.08534012 0.023586283 0.023739893 0.094084 0.09224398 -0.044760674 0.034818802
0.0125526115 -0.01831528 0.0652266 0.11561007 0.011041571 -0.046513285 -0.0033613571 0.03919659
-0.037490163 0.001363022 0.02257644 0.036010373 0.087634556 -0.040813033 -0.1004267 -0.030597093
-0.0933903 -0.07034846 -0.01939395 0.004962405 0.06981089 0.06398206 0.0576281 -0.07469383
0.05117748 0.04834277 0.10799476 0.073822975 0.010363919 0.12079622 0.10240783 -0.083457135
0.07600043 -0.01290036 -0.11031438 -0.0017530835 -0.09791536 0.061239604 0.008677748 -0.012416772
-0.019451952 -0.060131118 -0.120682046 0.069715425 0.024462363 -0.11972278 0.06261829 -0.10456353
-0.017652323 0.11767545 0.016580384 -0.06551247 -0.09811754 0.0732571 -0.0791102 -0.033889644
-0.0745937 0.08473296 -0.11431198 -0.008022228 0.0034139405 -0.05642009 0.10802367 -0.119730495
-0.033657067 0.041799396 -0.0017322449 0.040016532 -0.08463856 0.03663916 -0.055579305 0.10249313
-0.110298745 -0.035858978 -0.072033726 -0.09376411 -0.019601554 -0.07877817 -0.09525844 -0.062285885
-0.051013634 0.009554622 -0.012728549 0.0705973 0.06144558 -0.0660301 -0.046175286 -0.06806501
-0.04053859 -0.0744802 0.019711101 0.07982676 0.027536876 -0.052014075 -0.0169969 -0.09476312
0.0359811 0.1052065 -0.037175972 0.097568974 0.011767713 -0.046152655 0.07847385 -0.027959593
0.07258373 0.024278682 -0.09643618 -0.015118152 0.07216046 -0.05520113 -0.039099414 0.084164344
0.07765807 -0.0456578 -0.03241866 -0.025783623 -0.11108335 -0.11384863 0.062292352 0.116361834
0.0883002 -0.029278567 -0.014049011 0.037502095 -0.007150441 0.047738243 0.1155123 0.07634964
0.10406524 -0.04039833 -0.085582554 -0.029486392 -0.08452175 0.101933256 0.114315584 -0.09524528
-0.07680178 0.012302885 -0.026242033 -0.030377237 -0.094254725 0.049834725 0.0042811413 -0.116843954
0.11253858 0.095262446 -0.0008955827 0.07010644 0.074367 -0.10366078 0.075336196 0.012670694
-0.003054678 -0.10984824 0.064042434 -0.00022983551 0.065882474 -0.013202875 -0.0030118693 -0.093307234
-0.0717133 0.00968182 -0.013119203 0.08849198 0.06827179 -0.018767593 -0.08126129 0.023698313
0.04732378 0.010644009 -0.017156355 0.109770246 -0.12131137 -0.030333724 0.09834269 -0.07748426
-0.03154274 0.04096681 -0.053787388 0.0359506 -0.024340952 -0.014590338 -0.10561473 -0.08944342
-0.005715385 -0.01355206 0.036485255 0.014609803 0.089197814 0.07705386 -0.121401645 0.07676732
0.015138137 0.036650054 0.036861725 0.0037205813 0.064929314 -0.05448847 0.010633708 -0.011049552
0.12257805 -0.0138545735 -0.030449871 0.043219283 0.07592282 0.045524616 0.066101685 -0.0063253324
0.015674775 -0.09875422 -0.06304654 -0.07127156 0.02183096 0.116718225 0.09180207 0.09525784
