llirl_sumo/saves/sumo_single_intersection/optimal_policy_period_4.pth (torch, 196916 bytes, 7 tensors)

sigma f4 [4]
000000 36 18 5f bc 82 ae 0d bd ff 83 ef 3b df 34 b0 bc
       -0.013616612 -0.03459025 0.0073094363 -0.021509586

layer1.weight f4 [200, 36]
000000 a6 c8 69 3d 5a c6 27 3e 1a fa 55 bb f6 b2 f7 3c
       0.05707612 0.16384259 -0.0032650293 0.030236702
000010 ec e7 57 3d e7 19 71 3d 8d af 6b bd 44 41 ad 3d
       0.052711412 0.058862593 -0.057540465 0.08459714
000020 bf a7 1a bd a6 fe bc 3d 1b ae 9e bc ed cc 70 3d
       -0.03775763 0.09228258 -0.01937013 0.058789182
000030 1a c3 d3 3d 4c 4d d0 bd e9 a1 49 3d f6 a0 e1 3c
       0.10339947 -0.10170993 0.049226675 0.027542572
000040 da 2a fb bd 37 f5 d5 bc 2e e8 85 3b ee 27 02 3e
       -0.12264033 -0.026117904 0.004086516 0.12710544
000050 7c 6d 9f bd c5 32 ec 3d 5c 1c 8a bd 79 fb 89 3d
       -0.07784554 0.11533121 -0.0674369 0.06737418
000060 6f bc 0b 3d ff 47 d6 3d 2f 80 ca 3d 07 18 12 be
       0.03411525 0.10462951 0.0988773 -0.14266978
000070 73 9a 0e bc c6 c5 19 be 1a ec f1 3a 51 36 c0 bd
       -0.008703816 -0.15016851 0.0018457205 -0.0938536
000080 30 b3 0e 3e 30 83 a5 3d af 8a 99 bd 2b 92 c0 3c
       0.13935542 0.08081663 -0.07497155 0.023507198
000090 d2 f3 c3 bd b8 18 18 be f6 b5 a7 3d 9d ea e7 bc
       -0.095679894 -0.1485318 0.08189003 -0.028310115
0000a0 c5 05 09 bb a0 fb bb ba 05 95 3e 3d df ad a4 3d
       -0.002090798 -0.0014341958 0.046528835 0.08040976
0000b0 a1 b5 69 bd 4b 01 80 bc 88 2f a4 bd 1a 34 9c bd
       -0.05705798 -0.015625617 -0.08016878 -0.07627125
0000c0 0b 1b 5c bd cc 34 da 3c 40 e8 f0 bd b7 df ac ba
       -0.053736728 0.026636504 -0.11763048 -0.0013189231
0000d0 11 94 04 3e 61 69 0f be 3d 0d 9e 3c a3 0c da 3d
       0.12947108 -0.14005043 0.019293422 0.106469415
0000e0 37 33 86 3c 2c e9 bb 3d c7 f7 b5 bd 05 4d 03 3c
       0.016381843 0.091753334 -0.088851504 0.008013968
0000f0 dd c7 45 bd 30 49 13 3c 89 59 ec bc 5e a7 b7 3c
       -0.048286308 0.008989617 -0.028851287 0.022418674
000100 12 15 14 3e 4d 2e 2a bd 5f 41 06 3d 80 13 d5 bd
       0.14461163 -0.041548062 0.032777186 -0.1040411
000110 77 d7 be 3d 5b fe 15 3d 44 ff c7 bd 7b 48 e8 3d
       0.093184404 0.036619525 -0.09765485 0.113419496
000120 c0 66 be bd 78 a5 f6 bd bb 34 1a be be e9 b1 bd
       -0.09296942 -0.120432794 -0.15059178 -0.08687161
000130 df 75 fa bc ae da 95 bd 49 4d 1e 3e 75 1d 12 be
       -0.030573783 -0.073171005 0.1545917 -0.1426905
000140 95 0a af bc 19 64 de bd 06 a2 1f 3e 61 71 37 bd
       -0.02136735 -0.10858936 0.15589151 -0.04478586
000150 d1 16 0f be d0 fc 94 3d 8c e7 a7 bd ce 21 9e 3d
       -0.13973548 0.07274783 -0.08198461 0.077212915
000160 88 a4 21 3e e6 d5 ff bc f0 2a c2 bb 17 f5 0c be
       0.1578542 -0.031229924 -0.0059255287 -0.1376537
000170 be 7d 99 bc 4f 6c d0 3d 4f c4 d2 3d d9 77 8a 3d
       -0.018736716 0.10176908 0.10291349 0.067611404
000180 23 93 01 be f3 c4 f5 3d 89 41 aa 3d 27 74 0a bd
       -0.12653784 0.12000456 0.08313281 -0.033802178
000190 cd 6a 18 be b3 f9 f4 3d 0c cb 93 bc 04 52 e5 bd
       -0.14884491 0.11961689 -0.018041156 -0.11197284
0001a0 fd de d7 3d c8 2b 17 be f4 6b 1b be 05 98 d8 3d
       0.105405785 -0.14762795 -0.151779 0.105758704
0001b0 6c 4b df 3d 40 c0 19 bc b7 ec 18 bc 8c e5 76 bd
       0.109030575 -0.009384215 -0.009333781 -0.060277507
0001c0 e8 4d f0 bd bd 3b a3 bd e8 ae db bd ac 66 14 bc
       -0.117336094 -0.079703785 -0.1072672 -0.009057682
0001d0 df 04 63 bd b8 0a a7 bc 19 98 c6 bd 1c 82 8e 3d
       -0.055424567 -0.020390853 -0.09696979 0.0695841
0001e0 89 f6 9d 3d 34 15 44 bd 9a 5a e2 3d 50 ba d7 3c
       0.077130385 -0.047871783 0.11052437 0.026333958
0001f0 ab 91 0f be 25 a2 70 bd 47 b8 12 be d0 2f 30 bd
       -0.14020412 -0.058748383 -0.14328109 -0.043014348
000200 6f 81 b4 3d 20 75 a6 bc 34 b9 76 bd 87 61 cc 3a
       0.0881375 -0.020319521 -0.060235217 0.001559303
000210 0e b1 5e bd 92 17 21 be 6c c1 11 bc 76 77 1a be
       -0.05436807 -0.15731648 -0.008896213 -0.15084633
000220 20 a8 0a 3d 8b 5f 82 bd 5c ff 0b 3d ee 34 e7 bd
       0.033851743 -0.063658796 0.034179077 -0.112893924
000230 55 a4 cb 3c f0 02 b9 3c ce fd a8 bd 3c b6 28 bc
       0.024858633 0.022584409 -0.082515344 -0.010297354
000240 fd 63 59 3d f4 48 06 bd 0e e6 52 bd dd 16 c4 3d
       0.053073872 -0.032784417 -0.05148893 0.09574673
000250 f6 d8 0a 3e 18 51 af bd 35 ba 2a 3c c2 d5 46 bd
       0.13559327 -0.08560389 0.010420372 -0.0485437
000260 58 f0 58 bc 10 b8 b5 3d d7 24 ac bc 9e 70 8b bc
       -0.013240896 0.08872998 -0.02101366 -0.017021473
000270 2c 22 36 3d 33 d5 da 3d 36 bc 0f 3e a8 fe 83 3d
       0.044466183 0.10685196 0.1403664 0.06445056
000280 25 53 b0 bd a4 d0 59 bd b8 8e ea bd 5f 57 1f be
       -0.086096086 -0.05317749 -0.11453003 -0.15560673
000290 28 3d 21 be 50 c9 f7 bc e3 69 43 3d af d9 0c 3e
       -0.15745986 -0.03024736 0.047708403 0.13754915
0002a0 76 f6 69 3b 77 17 20 be 58 b0 a1 bd 3a f6 ed 3d
       0.003569988 -0.15633951 -0.07894963 0.116192296
0002b0 75 8f 0b 3e 95 03 1c 3d aa 9a d8 bc 1f 27 e0 3d
       0.13628943 0.038089354 -0.026440937 0.10944962
0002c0 ab 91 14 3d bf 4f e4 bd bb 4b bf bd 77 47 41 bd
       0.036271732 -0.11148023 -0.09340616 -0.047187295
0002d0 7f da 2d bd 76 ed 9b bd 07 56 32 bd 6b 60 c6 3d
       -0.042444702 -0.076136515 -0.043539073 0.09686359
0002e0 76 10 de 3d c3 33 24 bd 0a cc b8 3d f2 2b db 3d
       0.108429834 -0.040088426 0.09023292 0.10701741
0002f0 83 f8 89 bd 36 eb fe 3d 78 92 35 3d fd 0d 57 bd
       -0.06736853 0.12447207 0.044329137 -0.052503575
000300 56 ab 20 3e 11 98 d4 bc ac 82 a8 3a db 05 58 3d
       0.1569036 -0.025951417 0.0012856326 0.05273996
000310 ae 23 a0 3c 10 a7 ec 3c 35 13 85 bd 7a 18 2e 3d
       0.019548263 0.028888255 -0.06497804 0.04250381
000320 10 13 dd 3c 7a 23 df bc 58 58 09 be 53 3f 54 bd
       0.026986629 -0.027238596 -0.13412607 -0.051818203
000330 10 7a 1f 3e 61 69 e2 3d 7f 8a 63 3d 59 b9 82 bd
       0.15573907 0.11055256 0.055552002 -0.063830085
000340 fb 90 af 3d 77 5b d9 3d e9 9e bb bd 9a 7b 1f bd
       0.08572575 0.10613149 -0.09161169 -0.038936235
000350 de 5d fe bd e5 41 1d be f4 68 1b 3e 22 72 25 3d
       -0.124202475 -0.15357168 0.15176755 0.04039205
000360 83 b2 5e bc 53 0d 87 bc ed 06 95 bb a4 82 21 3e
       -0.013592365 -0.016485846 -0.0045479448 0.15772492
000370 12 47 10 be 70 eb e9 3d d2 0b 92 3d 88 78 00 bc
       -0.14089611 0.11421859 0.07131161 -0.007841237
000380 cb f0 90 bd 6a a9 25 bd 26 ac 96 bd 1b e5 59 3d
       -0.070771776 -0.04044477 -0.073570535 0.053197008
000390 da 1a f0 3d ee f9 d7 3d 62 33 f8 bd e8 76 b9 3d
       0.117238715 0.10545717 -0.121191755 0.09055883
0003a0 62 16 19 3d 6e 79 16 bd 57 6d e9 bd f6 08 a6 bd
       0.03737486 -0.036736898 -0.11397808 -0.08107178
0003b0 fd bb 09 3e 80 64 00 3d 46 fb db bd f3 33 b1 ba
       0.13450618 0.031345844 -0.10741286 -0.001351951
0003c0 b0 3b 92 bd 5c f1 00 bd e9 9b 94 3d 65 61 14 be
       -0.07140291 -0.03148018 0.072563 -0.14490278
0003d0 fc 6c ee bd 60 2b c4 bd b6 18 c6 bd 00 d0 cc bd
       -0.11641881 -0.095785856 -0.09672682 -0.1000061
0003e0 38 52 cf 3d 3c 80 17 3e f7 e0 fb bd 39 a1 b0 bd
       0.10123104 0.14795011 -0.12298768 -0.08624501
0003f0 9d f0 d3 3d c3 4a a3 3d 70 cf 00 be 7b 12 0b bd
       0.10348628 0.07973244 -0.12579131 -0.03395317

layer1.bias f4 [200]
000000 bd b7 f6 3b 44 98 d8 39 2e 2f 21 ba 31 ba 85 35
       0.0075292275 0.00041312177 -0.0006148693 9.963461e-07
000010 1c 3e 8f bb 0c 55 d0 3b ff 26 8a 37 c0 8e a7 3b
       -0.0043714177 0.0063577946 1.6469041e-05 0.0051134527
000020 13 37 04 3b 12 87 8d b9 0d 48 54 39 c7 c7 9b 3b
       0.0020174428 -0.0002699425 0.00020244737 0.00475404
000030 b1 28 2a ba 53 71 4c 37 28 af f1 3a 93 a9 eb 39
       -0.0006491049 1.2185733e-05 0.0018439041 0.00044949036
000040 66 2d c8 38 75 56 75 bb 4b c9 31 3b c9 6c 0b 3c
       9.545199e-05 -0.0037435566 0.0027128037 0.008509823
000050 cd ab bb bb 1d 99 8b ba 86 7c e7 3a 04 db 46 3a
       -0.0057272674 -0.001065049 0.0017661012 0.00075857365
000060 c8 63 0e ba 38 84 28 37 2b 96 ad 3b b0 9e c1 39
       -0.00054317387 1.0044365e-05 0.0052974424 0.0003693006
000070 41 56 e5 39 0d 9b a3 3a 82 bf d4 bb 8e d8 47 b9
       0.00043742548 0.0012482122 -0.006492556 -0.00019058792
000080 39 d2 10 bb c1 04 92 bb e6 a3 62 ba c1 7b cd 37
       -0.0022097959 -0.004456133 -0.00086456386 2.4495532e-05
000090 24 80 76 3a 5b 74 19 bb 14 e7 8c 39 d9 30 59 b8
       0.000940325 -0.00234153 0.00026875047 -5.1782325e-05
0000a0 28 39 43 3a e4 87 8e 3b ba 94 35 39 45 f2 1d b6
       0.00074471766 0.0043496955 0.0001731691 -2.3535843e-06
0000b0 a6 98 29 39 ce d4 af bb a4 4e bf 3a 24 5f 62 ba
       0.00016173962 -0.0053659445 0.001459558 -0.0008635393
0000c0 2e 9b df 37 c0 0a 21 39 4e 68 06 bb e1 c0 6c b8
       2.6655933e-05 0.00015358161 -0.0020508948 -5.6446417e-05
0000d0 56 3f 62 35 42 6d 62 3b bf 6d c3 ba 17 15 f1 b8
       8.4283727e-07 0.0034549986 -0.0014910026 -0.00011495704
0000e0 99 04 a8 3b a8 56 2b ba 94 a1 5b bb 9f 24 1e bb
       0.005127501 -0.0006536045 -0.0033513056 -0.0024130715
0000f0 c0 74 4b 3b 06 04 8b 39 fa 4c b2 3a 4b 02 a2 bb
       0.003104493 0.00026515144 0.0013603263 -0.004944121
000100 80 8d 08 36 40 56 6e bb eb 5c 15 bb 69 98 25 3a
       2.0347943e-06 -0.0036367327 -0.002279098 0.00063169614
000110 f7 00 64 b9 11 66 f6 37 a5 bd 94 3b 86 bb 93 bb
       -0.00021744134 2.9373014e-05 0.004539209 -0.0045084385
000120 29 a6 81 3b 00 7f b5 ba 7e 03 6d ba 4c 09 5f b9
       0.0039565754 -0.0013847053 -0.0009041353 -0.000212704
000130 e6 35 d9 36 65 99 0c 3a 23 33 61 37 ba 33 d0 36
       6.4733786e-06 0.0005363434 1.3422951e-05 6.204905e-06
000140 8d 48 0d 3b f9 c7 94 b8 87 43 61 3b 17 9d 6d 3b
       0.0021558136 -7.094438e-05 0.0034372525 0.0036256963
000150 e3 5e 12 b9 ea e8 da b9 ff c5 36 3a 2f 9f 93 38
       -0.00013958993 -0.00041753735 0.0006972253 7.0391565e-05
000160 f2 3e e6 38 39 b1 b4 ba db 37 44 b8 a9 d2 ec 38
       0.00010978979 -0.0013785727 -4.678206e-05 0.000112925954
000170 24 6c 14 b7 36 ec e1 b8 9f 31 f5 3a 60 b0 27 bb
       -8.846666e-06 -0.00010772834 0.0018706805 -0.0025587305
000180 36 40 52 36 23 c0 06 3b f2 88 9f b8 cf d9 d8 3a
       3.1329814e-06 0.00205613 -7.607219e-05 0.0016544404
000190 be 13 e7 38 62 4f c8 b9 93 a2 32 3c 9b 8c b1 bb
       0.000110186156 -0.00038206117 0.0109030185 -0.005418373
0001a0 71 5c 0f bb 0b 4c 8d 3b ae 56 84 b7 b8 f8 6f 3a
       -0.0021875168 0.0043120435 -1.577599e-05 0.00091541884
0001b0 37 b4 45 3b 44 61 52 b8 c8 bb 4c 3b bb 48 bf b6
       0.003016723 -5.0158487e-05 0.0031239856 -5.7007105e-06
0001c0 77 a2 b5 39 0e 77 91 3a 1c 4f ef b8 71 29 35 39
       0.00034644056 0.0011098103 -0.00011411143 0.00017276943
0001d0 3f f1 8c b7 a3 0e 80 3a 7e 97 bd bb c6 17 ea 3a
       -1.680164e-05 0.0009769987 -0.0057858815 0.0017859868
0001e0 e6 b9 bb 39 0a 90 c9 3a e1 81 92 38 fc dd 8a 3a
       0.00035805925 0.001537801 6.986014e-05 0.0010594721
0001f0 2e 42 26 37 07 f6 fb 39 3b 48 59 b6 6a ef 84 3a
       9.90978e-06 0.00048057755 -3.2377563e-06 0.0010142152
000200 6e b9 88 ba 3e f8 66 37 a1 8f 48 bc 63 3c 49 bb
       -0.0010431239 1.3766867e-05 -0.012241275 -0.003070616
000210 62 b2 85 bb bc ee 0a b8 98 f4 ac b9 56 bc 0f 39
       -0.004080103 -3.3124103e-05 -0.00032988633 0.00013707703
000220 75 1b 3c 3b 4a 38 eb b4 8c c0 24 3a 07 5a 43 bb
       0.002870289 -4.3813117e-07 0.0006284795 -0.00298083
000230 59 10 45 3a b4 41 f5 ba 7b 1d b5 b6 f9 66 df b6
       0.00075173896 -0.0018711598 -5.3976523e-06 -6.6579055e-06
000240 ff e0 17 3a dc 45 64 b7 08 3e ba 37 87 66 98 b8
       0.000579372 -1.3606124e-05 2.2201813e-05 -7.267022e-05
000250 60 e3 b7 ba 17 90 09 3b 25 e6 54 3a ea 4b 91 3b
       -0.0014029555 0.0020990425 0.00081214524 0.0044340985
000260 d3 be 2f 39 54 a4 39 bb b1 46 83 3a e1 fc 15 bb
       0.00016760388 -0.0028326707 0.0010015575 -0.0022886323
000270 e6 77 e2 3b 5f 27 4a 3b a6 a9 87 bb 80 26 20 3a
       0.0069112657 0.003084622 -0.0041400967 0.00061092526
000280 bc 01 9b ba 06 b3 3f 3b 89 33 52 ba bc 36 0f 3c
       -0.0011826078 0.0029250993 -0.00080185436 0.008741077
000290 9d ce 33 37 f6 af 72 3b 8d c4 ab bb ad 2d 75 ba
       1.0717337e-05 0.003703115 -0.0052419365 -0.00093528145
0002a0 d6 e9 c1 38 40 08 5d 37 a0 83 10 b9 40 15 cc 3a
       9.2465125e-05 1.3174547e-05 -0.00013781944 0.0015570298
0002b0 46 82 8c ba 2b 1a 9b bb 04 66 53 bb 0a b0 00 3c
       -0.0010719977 -0.004733344 -0.003225685 0.007854471
0002c0 6e 70 9b 3a 75 b8 45 3b f8 b7 5e 38 f2 26 6c b8
       0.0011859068 0.003016976 5.310026e-05 -5.6303055e-05
0002d0 4c ff 2d 3b 37 61 df 3b 9d 75 ee 36 47 a8 0d ba
       0.0026549874 0.006817009 7.1066447e-06 -0.00054037984
0002e0 0f 37 15 3b f9 4d 4e 39 2e dc 2d b9 7e 33 79 ba
       0.0022768413 0.00019674738 -0.00016580589 -0.0009506269
0002f0 2b f8 3c bb e7 0a 09 bb f7 09 9f bb e3 60 c9 39
       -0.0028834443 -0.002091104 -0.004853483 0.00038409894
000300 72 ed 6e bb 44 26 08 38 cd 27 ca 3a 00 00 00 00
       -0.0036457446 3.2460564e-05 0.0015423239 0.0
000310 c8 ee c9 3b 53 44 63 bb ac 4c 7b 3a 3c 66 16 3b
       0.006162498 -0.0034678176 0.0009586315 0.002294912

layer2.weight f4 [200, 200]
000000 de 48 d6 3c d5 b7 93 3d 4e 19 bb bd f6 9b e2 bd
       0.026157793 0.072127976 -0.09135686 -0.110649034
000010 7b 9a 9d 3c ec 65 8d bc 6e 55 a8 3d ac c8 8d 3c
       0.019238701 -0.017260514 0.082194194 0.017307602
000020 dc 25 8e bd 68 3f 89 bd ba f5 62 3c be de 07 3d
       -0.06940815 -0.06701547 0.013852531 0.033171408
000030 01 b9 e8 bd 0d 5d 81 3d da e2 e8 3d 7c cc b7 3d
       -0.11363412 0.06316576 0.113713935 0.08974549
000040 85 2b 96 bb b4 82 f6 bd b6 ec 0b bd d5 d9 c8 3d
       -0.0045828247 -0.120366484 -0.034161292 0.09807173
000050 55 51 ab bd 25 b7 7b bd bc 0b 26 bd ff 8e 69 3d
       -0.08365122 -0.061453957 -0.040538535 0.057021137
000060 5c 44 3b bb dc f8 f4 bd 90 7e 30 3d ca 39 d6 bb
       -0.002857468 -0.11961529 0.04308945 -0.0065376507
000070 8e 64 04 3b ff 34 22 3b 3b 6b 10 bd 4f 8b 8c bd
       0.0020201537 0.0024750826 -0.035258513 -0.068625085
000080 7a 87 64 3d 62 fa ae bd cc 13 c1 3c 43 7a c2 3c
       0.055793263 -0.085438505 0.02356901 0.02373994
000090 46 b5 c0 3d 18 61 bc 3d 84 57 37 bd c8 4f 0d 3d
       0.09409575 0.09198207 -0.044761196 0.034499913
0000a0 f7 f7 4c 3c 09 5e 96 bc 43 95 85 3d d4 c4 ec 3d
       0.012510291 -0.018355386 0.0652261 0.115609795
0000b0 5b a3 34 3c 45 a7 3e bd e9 3e 69 bb 12 8d 20 3d
       0.011025275 -0.04654624 -0.0035590476 0.039197035
0000c0 5a 8f 19 bd fc ca ae 3a 2f 1d b6 3c 4b 7f 13 3d
       -0.037490226 0.001333564 0.022230713 0.036010068
0000d0 bf 79 b3 3d 41 4f 28 bd b4 e7 cd bd 95 a6 fa bc
       0.087634556 -0.041091207 -0.100539595 -0.03059701
0000e0 65 aa bf bd a0 10 90 bd d2 f0 a2 bc 8e c0 a2 3b
       -0.09358672 -0.07034421 -0.019890223 0.004966802
0000f0 84 a6 8e 3d 48 fd 82 3d f3 d2 6b 3d e6 7c 99 bd
       0.06965354 0.06395966 0.057574224 -0.074945256
000100 34 9f 51 3d 28 a3 43 3d 75 68 dc 3d ee fa 96 3d
       0.05117722 0.04776302 0.10762111 0.0737208
000110 ec c3 29 3c 03 64 f7 3d 09 f4 d0 3d 0f 6f ab bd
       0.010361653 0.120796226 0.10202796 -0.08370792
000120 10 79 9a 3d 26 a7 54 bc c0 ed e1 bd 82 99 e5 ba
       0.07542622 -0.012979304 -0.11031675 -0.0017517062
000130 c9 87 c8 bd df d7 7a 3d 55 2c 0e 3c b3 6f 4b bc
       -0.09791524 0.061241027 0.008677562 -0.012416768
000140 03 9c 9f bc 88 42 76 bd 67 b3 f7 bd 94 98 8e 3d
       -0.019483572 -0.060122043 -0.12094765 0.06962696
000150 a6 62 c8 3c 25 2b f5 bd 6d ff 7f 3d 60 27 d6 bd
       0.024461102 -0.1197112 0.062499452 -0.10456729
000160 36 96 90 bc ca be f0 3d 90 d3 87 3c 24 2b 86 bd
       -0.017649751 0.1175514 0.016580373 -0.06551197
000170 d9 f1 c8 bd d2 f9 95 3d 19 05 a2 bd b7 33 0b bd
       -0.09811754 0.0732304 -0.079111286 -0.033984866
000180 93 c4 98 bd 8b 5c ac 3d 54 50 ea bd 43 47 07 bc
       -0.074593686 0.08416089 -0.114411026 -0.008256736
000190 36 85 60 3b af 1a 67 bd 55 f8 da 3d 43 3c f5 bd
       0.0034259087 -0.05642193 0.10691897 -0.11974385
0001a0 bb ed 09 bd 5e b8 27 3d e0 0d e3 ba a8 ea 23 3d
       -0.033673983 0.04094731 -0.0017322861 0.040018708
0001b0 df b4 ae bd 52 16 16 3d d5 e8 64 bd a2 e7 d1 3d
       -0.08530592 0.03664238 -0.05588611 0.102492586
0001c0 eb fa e1 bd 35 62 13 bd 8b a9 93 bd 69 06 c0 bd
       -0.11034187 -0.03598233 -0.07210072 -0.09376223
0001d0 39 93 a0 bc 4b 99 a1 bd f7 6f c3 bd a3 2a 80 bd
       -0.019601451 -0.078905664 -0.0954284 -0.06258132
0001e0 c5 f5 50 bd 32 6c 1a 3c 5b 88 50 bc 91 90 90 3d
       -0.051015634 0.00942521 -0.012727822 0.07058824
0001f0 69 ae 7b 3d 11 26 88 bd 4c 22 3d bd 3a 85 8b bd
       0.061445627 -0.066478856 -0.046175286 -0.0681252
000200 28 50 27 bd 1d 89 98 bd e2 95 a0 3c 45 42 a3 3d
       -0.040847927 -0.07448027 0.01960272 0.07971624
000210 4d 69 e0 3c b6 0c 55 bd fd 61 8b bc b1 13 c2 bd
       0.027393961 -0.052014075 -0.017014498 -0.09476412
000220 d2 40 12 3d 81 76 d7 3d 36 4d 18 bd e5 9c c7 3d
       0.03570635 0.1052065 -0.03718301 0.09746722
000230 a2 fa 3a 3c 6e 30 3d bd e2 b6 a0 3d 84 0b e5 bc
       0.011412295 -0.046188764 0.07847382 -0.027959593
000240 06 9c 94 3d fd e5 c6 3c 77 80 c5 bd da b5 77 bc
       0.072563216 0.024279589 -0.09643643 -0.01511904
000250 f4 7d 92 3d 09 85 62 bd 40 d2 20 bd e8 de ab 3d
       0.0715293 -0.055302653 -0.03926301 0.08392125
000260 0d 77 9e 3d 75 20 3b bd 2c b5 06 bd 9b c1 d3 bc
       0.07737551 -0.04568525 -0.032887623 -0.025849154
000270 d8 2a e4 bd af 4f e9 bd 05 e0 7e 3d 9b 47 ee 3d
       -0.11140984 -0.113921516 0.06222536 0.116347514
000280 d8 65 b4 3d 70 fa f0 bc 79 0a 68 bc 88 88 17 3d
       0.08808488 -0.029416293 -0.014162653 0.03699544
000290 ec 7d ea bb 7d 3a 41 3d da 6c ec 3d b8 5d 9c 3d
       -0.0071561243 0.04717492 0.11544199 0.07635063
0002a0 6b 6b d4 3d ce 78 25 bd ab 43 af bd 58 96 f3 bc
       0.10372051 -0.04039841 -0.085578285 -0.029734775
0002b0 ae 21 ad bd ef c3 ce 3d d0 f2 e9 3d 7a ed c3 bd
       -0.084536895 0.10095965 0.11423266 -0.095667794
0002c0 8b 65 9d bd 72 cc 48 3c 52 f9 d6 bc 64 d9 f8 bc
       -0.076853834 0.012255775 -0.026241932 -0.030377097
0002d0 eb 34 c1 bd 8f 7f 4b 3d e7 53 8c 3b 68 52 ef bd
       -0.094339214 0.049682196 0.004282463 -0.116856396
0002e0 16 5f e6 3d 2f 18 c3 3d ac e9 8e ba b4 8c 8f 3d
       0.11248605 0.09526097 -0.001090338 0.07009259
0002f0 9c 07 98 3d bf c5 d4 bd 79 f6 99 3d 34 de 4e 3c
       0.074233264 -0.103892796 0.07517714 0.01262622
000300 b8 5e 4d bb 35 f8 e0 bd 08 26 83 3d 00 00 71 b9
       -0.0031336974 -0.10984842 0.06403738 -0.00022983551
000310 e5 2b 86 3d af 00 59 bc 82 30 5b bb 4b 55 bf bd
       0.06551341 -0.013244792 -0.003344566 -0.0934244
000320 21 ff 90 bd 7c fc 1c 3c 8f a6 57 bc 27 3b b5 3d
       -0.07079912 0.009581681 -0.013162269 0.08849173
000330 b2 f7 8c 3d dd 84 96 bc 3f 6c a6 bd a9 d3 c5 3c
       0.06883182 -0.018373901 -0.08126115 0.024148779
000340 33 b1 43 3d 16 c1 2e 3c 8b ed 8c bc c6 39 e1 3d
       0.047776412 0.010666152 -0.017203113 0.109973475
000350 7c 26 f8 bd 44 7a f8 bc 7d f4 c9 3d b9 cc 9e bd
       -0.12116715 -0.030331738 0.098610856 -0.077538915
000360 a2 4f 01 bd bd d2 29 3d 5d ca 59 bd 6b 2e 15 3d
       -0.031570084 0.04146074 -0.053171504 0.03642122
000370 66 95 c6 bc 08 3c 6f bc e8 3f d8 bd 86 bf b6 bd
       -0.02424116 -0.014601715 -0.10559064 -0.08923249
000380 2c 41 9a bb 77 07 5e bc bc 69 16 3d 35 8e 74 3c
       -0.004707476 -0.013551584 0.03672193 0.014926483
000390 05 38 b6 3d 93 bc 9d 3d ab 0e f8 bd 06 3a 9d 3d
       0.08897404 0.07701983 -0.12112173 0.07677083
0003a0 ea 05 78 3c d4 ca 15 3d 37 3d 17 3d b8 cd 73 3b
       0.015138129 0.036570385 0.036923613 0.0037201475
0003b0 6c ec 84 3d 6e d5 5c bd 06 39 2e 3c 00 c9 30 bc
       0.064904064 -0.05391448 0.010633713 -0.01079011
0003c0 a5 cb fa 3d a0 6d 61 bc aa 77 f9 bc ff 06 31 3d
       0.12245873 -0.013759047 -0.030452568 0.043219563
0003d0 35 96 9b 3d 60 6b 3a 3d 56 2c 88 3d 92 d1 ce bb
       0.07597009 0.045512557 0.066490814 -0.006311604
0003e0 a1 68 80 3c 67 7c ca bd 4e c1 7f bd 97 f7 91 bd
       0.015674891 -0.09887009 -0.06244021 -0.07127302
0003f0 70 d7 b2 3c 83 1c f0 3d 8a 78 bc 3d 93 15 c3 3d
       0.021831244 0.11724188 0.092026785 0.09525599

layer2.bias f4 [200]
000000 d7 e1 f1 ba 51 41 de 3b 40 0a 08 ba dc 3c c3 3b
       -0.0018454146 0.0067826887 -0.00051895157 0.0059581827
000010 de 15 9a 3b 62 af e1 b9 2c 9f ae 3b 77 3a 54 b7
       0.004702314 -0.00043046015 0.0053290334 -1.2649797e-05
000020 10 31 97 3a 93 ae ca 3a bc b5 1d ba 2b 86 5d 3b
       0.0011535008 0.0015463404 -0.0006016155 0.0033801894
000030 9a 81 45 37 34 26 19 ba 5c 4c a2 ba e6 14 81 39
       1.177229e-05 -0.00058421795 -0.0012382376 0.00024620368
000040 91 66 8b 37 71 dc ac b9 a0 03 3f b7 ac 34 84 bb
       1.6617852e-05 -0.00032970638 -1.1385331e-05 -0.0040345993
000050 3a ad cb ba a2 64 48 bb b4 ee 0f 3b 6e 89 46 3b
       -0.0015539296 -0.003057756 0.0021962347 0.0030294317
000060 9c 3b dd 3b e4 7b 98 3a 25 06 f7 b9 8e c4 45 3b
       0.0067514908 0.0011633602 -0.0004711609 0.003017697
000070 6c 4e 40 3b b3 d2 aa 37 60 01 9f 3b 02 48 b3 b9
       0.0029343618 2.0363694e-05 0.004852459 -0.0003419519
000080 65 c3 9b ba 04 da ce 3b 00 00 00 00 45 e4 cd 39
       -0.0011883794 0.0063126106 0.0 0.0003927072
000090 4f 3c 70 bb d0 45 82 3b 27 84 27 b7 44 46 2d bb
       -0.003665704 0.0039756075 -9.984745e-06 -0.0026439587
0000a0 a5 fe 09 3b 00 00 00 00 65 57 fe bb 83 05 b3 3b
       0.002105632 0.0 -0.007761883 0.0054633035
0000b0 c5 7a e2 3b f6 b9 ca b9 5d 75 94 3b 63 1d e8 bb
       0.006911608 -0.00038666994 0.0045305924 -0.0070835813
0000c0 77 e5 87 3b 92 e8 4d 39 00 00 00 00 0d d6 0a 3c
       0.0041472274 0.00019636963 0.0 0.008473885
0000d0 49 9e 10 3c 47 6f 8d ba e9 8c 17 bb 5a 08 37 bb
       0.008826801 -0.001079061 -0.002312476 -0.0027928562
0000e0 1a 55 12 bb 39 b6 9a b6 78 1b cd 3b 49 02 96 b9
       -0.0022328557 -4.610771e-06 0.006259378 -0.00028611932
0000f0 b2 e2 33 3c 00 00 00 00 b1 16 3d bb ce 12 74 3a
       0.010979341 0.0 -0.0028852636 0.00093106634
000100 6b cc 85 bb f9 f7 88 3b bb 85 c1 38 92 e1 10 3c
       -0.0040832064 0.0041799513 9.2278664e-05 0.008842843
000110 15 62 86 bb d7 92 44 b8 89 47 a1 3b 86 d8 94 3b
       -0.0041010478 -4.6866797e-05 0.0049218577 0.004542413
000120 3b e7 27 bb ee 82 ed 38 fa 0d 16 ba a8 03 2f bb
       -0.0025620002 0.00011325428 -0.00057241286 -0.002670506
000130 2a 5c e1 38 dd 94 68 bb 36 88 53 b9 14 ee ec ba
       0.00010746003 -0.003548912 -0.0002017327 -0.0018076324
000140 ea 70 27 3a ba 9f 04 b9 22 a1 64 b9 26 79 bf b9
       0.000638737 -0.00012648004 -0.00021803801 -0.00036520622
000150 50 2c da 3b aa 34 ae 3a 00 00 00 00 12 ea cb 3b
       0.0066581145 0.0013290842 0.0 0.0062229717
000160 c6 c0 0f bc 06 ef 63 3a 4e 1a a4 b6 1d 50 10 38
       -0.008773988 0.000869498 -4.890643e-06 3.4406887e-05
000170 a1 df 25 3b b8 21 f9 3b 9b 11 99 ba a4 45 38 37
       0.0025310295 0.0076028965 -0.001167822 1.0983469e-05
000180 cd 7a 9a 3b 1b 16 29 b9 2d c5 76 3b 60 79 bb b9
       0.004714346 -0.00016125331 0.0037654147 -0.0003575785
000190 7f 4d 38 3a f1 3e 48 b9 5f ef 27 3a b8 20 be 37
       0.0007030591 -0.00019096934 0.00064062135 2.2665e-05
0001a0 a7 d8 94 b8 5a ca 47 b6 e9 fb 53 3a 17 8d aa 3b
       -7.0975446e-05 -2.9771095e-06 0.0008086549 0.0052048075
0001b0 a2 89 36 37 b7 8f a2 38 c0 ad ec 3b d7 cd ef ba
       1.08800905e-05 7.751531e-05 0.007222861 -0.0018295598
0001c0 df d5 45 36 3e 46 26 b7 a6 55 2b 37 d0 1b 39 bb
       2.9479777e-06 -9.910726e-06 1.0212336e-05 -0.0028245337
0001d0 68 b3 3b bb 92 ce 38 36 ae a3 dc 39 ad cc 26 3c
       -0.002864087 2.7538376e-06 0.0004208362 0.010180634
0001e0 27 f3 5d 3b 5c 72 d0 37 57 aa e0 38 ef d1 85 37
       0.0033866854 2.4848785e-05 0.000107128806 1.5952593e-05
0001f0 da c8 eb ba d6 f3 11 ba c9 61 67 b9 75 f0 95 bb
       -0.0017988936 -0.00055676454 -0.00022066305 -0.004575784
000200 96 80 99 38 d6 4e 6b 3b aa 11 32 bb 05 9c de 36
       7.3195595e-05 0.0035905144 -0.0027171173 6.6342786e-06
000210 ca 81 2b 3b 40 fb 86 bb 84 ca 87 bb 84 37 c1 3b
       0.002616989 -0.004119307 -0.004144015 0.0058965106
000220 e0 98 b6 3b ae 52 f8 37 1f 39 7b 3a d2 69 5c b8
       0.0055724233 2.9602405e-05 0.0009583402 -5.255064e-05
000230 a5 1a 24 bc b3 cb fd b9 01 e5 d0 ba f0 bb cb b9
       -0.010016118 -0.00048407688 -0.0015937389 -0.00038859202
000240 ff 5e ce ba b4 5d 87 37 19 c6 fd b7 b4 98 d2 bb
       -0.0015744864 1.6136888e-05 -3.0252197e-05 -0.006426895
000250 16 25 1e bb 8f 3b 59 3c 15 87 df 3b f4 0e 42 3c
       -0.0024130992 0.013258829 0.006821523 0.011844385
000260 a7 c7 c6 bb 39 d9 95 b5 59 5f a1 b9 00 00 00 00
       -0.006066281 -1.1164585e-06 -0.00030779353 0.0
000270 d8 c8 af 3b 36 a9 a8 ba d2 13 80 36 f2 fd 51 3c
       0.0053645186 -0.0012867812 3.8170047e-06 0.012816893
000280 60 59 a6 3b 6a 28 6f 3b e9 fc a1 3b 3c 87 85 3a
       0.0050765723 0.0036492595 0.0049434793 0.0010187398
000290 42 16 26 38 22 42 41 bc e5 1a 13 b6 0c 4f f1 3b
       3.9598213e-05 -0.011795552 -2.1920362e-06 0.0073641594
0002a0 ca 37 d9 b9 41 99 dc b7 bf 83 8c b9 53 da 9a bb
       -0.0004143103 -2.6297408e-05 -0.0002680104 -0.0047257333
0002b0 61 2c cb bb ab c1 81 39 50 dd ea ba 51 2d f3 bb
       -0.0062003587 0.0002474909 -0.001791874 -0.0074211736
0002c0 e6 1a a7 3a 0b f8 63 ba e4 c3 34 3c bb d3 79 3a
       0.0012749105 -0.0008696324 0.011033032 0.00095301465
0002d0 06 9e 9f 3a 3f e4 bc ba cb 6e 96 bb 88 a6 2e 3a
       0.0012177832 -0.0014411284 -0.0045908443 0.00066623883
0002e0 62 c1 99 b9 1f 63 0d bc 2e e3 f6 ba 53 ca 3f 3a
       -0.00029326516 -0.008629589 -0.0018836015 0.00073162204
0002f0 1f 72 2a 3b 00 d3 30 bc 85 ec 51 bb f8 9d eb 39
       0.0026007963 -0.010792494 -0.0032031846 0.0004494039
000300 c8 f7 56 3b db 16 f5 3a 9d d0 33 3a c6 5d bf 3b
       0.0032801498 0.0018698828 0.0006859394 0.005840036
000310 40 63 27 3c c2 68 61 b4 ce f3 eb b9 b4 56 74 b7
       0.010216534 -2.0992869e-07 -0.00045004342 -1.45637205e-05

mu.weight f4 [4, 200]
000000 d7 91 ca 3d 60 d2 7e 3d 2c 32 ab bd ec b1 5f bb
       0.09891098 0.062212348 -0.08359179 -0.003413315
000010 d1 6f 2a be b8 77 3b bd e7 52 9d 3d 3c b5 2c 3e
       -0.16644217 -0.04576847 0.07681828 0.1686601
000020 5d 87 d0 3d bd 2a 17 be f4 a0 99 bd a7 9d c4 bd
       0.101820685 -0.14762397 -0.075014025 -0.09600382
000030 b6 76 0c 3e c8 46 e1 3b 8c 86 e4 3d e6 73 85 bd
       0.1371716 0.006874893 0.11158475 -0.065162465
000040 2d a0 28 3e 9e b9 01 3e a3 af 9b 3d 25 12 cf 3d
       0.16467352 0.12668464 0.076018594 0.10110883
000050 ed 85 86 3d f0 f3 8b 3d 10 6d a4 3c a6 b1 bc bd
       0.06568513 0.06833637 0.020071536 -0.09213571
000060 99 c6 d3 3c d4 36 a4 3d 22 50 9e bb 58 7e 01 3e
       0.025851535 0.0801827 -0.00483133 0.12645853
000070 e2 2e d8 bd c6 24 dd bd 3e 37 18 3e 97 a9 86 bd
       -0.10555817 -0.107980296 0.14864823 -0.065753154
000080 1a 5f 25 be 00 44 a5 3a a0 9f a5 3c ff 45 1b be
       -0.1614956 0.0012608767 0.020217717 -0.1516342
000090 e2 df 18 be 3a a6 d3 3c ed 64 97 bd df ae 27 bd
       -0.14929155 0.025836099 -0.07392297 -0.040938254
0000a0 5c b8 13 bd d0 bf 14 be 58 55 c8 bd 3a 34 03 3e
       -0.03606449 -0.14526296 -0.09781903 0.12812892
0000b0 93 54 ac bd 20 75 0b be 82 10 e0 3c 06 e7 75 bd
       -0.08414569 -0.13618898 0.027351622 -0.060034774
0000c0 1b bc e9 bd 1f f9 f9 bc 0d 0b 2a 3e 14 7b 98 bd
       -0.114128314 -0.030514298 0.16605778 -0.0744535
0000d0 9c 3b 9e bd b1 c5 af 3d e8 09 2f 3d 5f 98 08 be
       -0.07726213 0.085826285 0.042734057 -0.13339375
0000e0 90 9d dc 3d 23 d9 9c bd c3 06 17 3d ab 31 e3 3d
       0.1077224 -0.07658603 0.036871683 0.11093458
0000f0 f6 97 2d be 8c 7c 78 3d e8 d0 12 be 26 f1 3a bd
       -0.169525 0.060665652 -0.14337504 -0.045640133
000100 5b 25 e5 bc c7 c5 c8 3d a0 bd 04 3e bb d0 99 bd
       -0.027971914 0.09803348 0.12962961 -0.07510515
000110 32 21 a9 3d 59 0e 52 bd 64 7c f1 bd b2 53 ed 3d
       0.08258285 -0.051283214 -0.11791304 0.11588229
000120 c0 b2 24 3c 1d 68 bc bc 5f 3c 64 bd 55 d8 25 3e
       0.010052383 -0.022998864 -0.055721637 0.16195805
000130 61 46 43 bc 96 2b b9 bd f8 cb 06 be fb 32 c8 3d
       -0.011918635 -0.090415165 -0.13163745 0.09775349
000140 53 66 af bd fe db 05 3d 7e 6c b2 3d 88 ac 20 bd
       -0.08564439 0.032680504 0.087120995 -0.03922704
000150 2f 91 ea 3d af f9 7c 3c 46 b3 1b be 4c f0 03 be
       0.11453473 0.015440389 -0.15205106 -0.12884635
000160 7a 67 a0 3d 7a eb 00 be 78 dd 73 3c 0a 9d 89 3c
       0.078322366 -0.12589827 0.014884345 0.016798515
000170 5e bc 1c 3d 37 dc 5c bd 5e dc 00 3b cc aa a4 3d
       0.03826558 -0.05392095 0.00196626 0.080403894
000180 74 d4 22 3e 73 f9 bf bd 5c 21 08 be 41 8f 00 3e
       0.15901357 -0.093737505 -0.13293976 0.12554647
000190 7a 4a 27 bd 6a 1b 1a 3e ee 5d 7c 3c 51 98 b2 bd
       -0.04084251 0.1504952 0.015403254 -0.08720458
0001a0 bd 02 5c bd f4 6c 05 be e5 3f c3 3d 26 28 14 3e
       -0.05371355 -0.13029844 0.09533671 0.1446844
0001b0 c0 f8 09 be 5e 20 a2 3c 88 a0 0c bc a9 5a 4e bc
       -0.13473797 0.019790825 -0.0085831955 -0.012594857
0001c0 bc 87 ca 3d fc fe 7a 3d 94 81 de bc 78 84 40 3d
       0.098891705 0.06127833 -0.027161397 0.047001332
0001d0 7e 0a d6 bd fd 59 1c 3b 17 21 f2 bd b7 52 e4 bd
       -0.1045122 0.0023857348 -0.11822718 -0.11148589
0001e0 61 6e 57 bd 14 ca 07 3e 84 fb 94 3c 59 67 5d 3d
       -0.0525955 0.1326068 0.018186338 0.054053638
0001f0 f8 7e f9 bc ed 87 5e bd 14 13 c3 bd 01 ba 08 3e
       -0.030456051 -0.054328848 -0.09525123 0.13352205
000200 5c d5 f2 3c c8 57 18 be d2 a7 80 bd 7d 73 a4 bc
       0.029642753 -0.14877236 -0.06282009 -0.0200746
000210 ad f2 8c 3d 20 20 fc 3d f6 56 f5 3d f9 2e f6 bd
       0.06882224 0.12310815 0.11979477 -0.12020678
000220 35 c5 ce bd ab bc 21 be df ce 21 3d ff d1 a0 bc
       -0.10096208 -0.15794627 0.03950393 -0.019631384
000230 ec 10 bb 3d 7f 4f 37 3d 7b 95 05 be a4 d0 b9 bd
       0.09134087 0.044753548 -0.13045304 -0.09072998
000240 3b 33 88 bd 25 4d 0a bd 59 96 09 3e 35 b2 77 3d
       -0.066503964 -0.033764977 0.1343626 0.060472686
000250 b9 ba 57 bd b9 1c 10 be f2 d1 d8 bd 54 ea 9b bd
       -0.052668307 -0.14073457 -0.10586919 -0.07613054
000260 07 90 eb bc 83 08 73 3b 22 54 e0 3d 00 74 bf b9
       -0.028755201 0.003708393 0.10953547 -0.00036516786
000270 12 32 fe 3d 74 c0 1c 3e 64 d3 88 3d 44 99 40 bc
       0.12411894 0.1530779 0.066809446 -0.011755291
000280 97 92 af bd d1 ac f5 bd 92 64 1c be df 67 24 3d
       -0.08572882 -0.11995853 -0.1527274 0.04013812
000290 e4 45 0c 3e de 4a 9b bd 66 b0 cd bc ce 6f b5 bd
       0.13698536 -0.07582639 -0.025108527 -0.08859216
0002a0 fc 01 87 3d ee 2b 11 bd dc 8f 60 3d 7f ea de bd
       0.06592175 -0.035442285 0.054824695 -0.1088457
0002b0 e6 54 14 3e de fd 21 be 95 12 15 be 43 6a 04 3e
       0.14485511 -0.15819499 -0.1455787 0.1293116
0002c0 93 fe fd bc 0e 2d 13 be 11 3b 27 be 72 79 f7 3d
       -0.03100518 -0.14372656 -0.16331126 0.12083711
0002d0 c1 23 7a bd b1 93 9c 3d 85 f2 a9 bd 5e 5c d9 3d
       -0.061069254 0.076453574 -0.0829821 0.10613321
0002e0 26 61 be 3d ab 3d 13 3e 19 4d 26 be 66 01 33 3d
       0.09295873 0.14378993 -0.16240348 0.043702506
0002f0 ae 2d af 3d e9 77 20 3e 2b 34 3d 3d 77 e5 e9 3d
       0.085536346 0.15670742 0.04619233 0.1142072
000300 cc 50 b6 bd 28 5b a4 3d 91 9a ad bd ac 4a 6b bc
       -0.089021295 0.08025199 -0.08476747 -0.014361065
000310 ba a0 a0 3d 11 24 78 3d 31 af 7b bb 2b ff ea 3d
       0.07843156 0.06058127 -0.0038403983 0.11474451
000320 a5 0d 6d 3d 1b c6 11 be ea c4 bd 3d bd 6d 5e bd
       0.05787434 -0.14235727 0.09266074 -0.054303873
000330 47 90 f4 bd 1e 38 ad 3d de ab 06 be 7b 4d 05 be
       -0.11941581 0.08457969 -0.131515 -0.13017838
000340 f3 df 6a 3d a0 72 fb 3d 4a 72 03 3e a8 35 d8 bd
       0.05734248 0.12277722 0.12836567 -0.10557109
000350 25 3b 0c be 14 4f 9b 3d 59 dc f5 bd 54 df 46 bd
       -0.13694437 0.07583442 -0.120049186 -0.048552826
000360 d8 eb d5 3d 62 74 50 bd 27 cd 5d bd 6a ca ef 3d
       0.10445374 -0.05089224 -0.054150727 0.11708529
000370 8b 04 ab 3d bb d3 5f 3d bf b6 b3 3c ec 63 ca bc
       0.08350476 0.05464528 0.021937726 -0.02470585
000380 6e 15 a5 bd a7 45 bd 3d 21 34 04 3e 3d 31 26 be
       -0.08060728 0.09241801 0.1291051 -0.1622972
000390 32 0b c3 bd 1b a5 6f bd 04 27 ba bd 40 67 60 3d
       -0.0952362 -0.058507066 -0.09089473 0.054785967
0003a0 cb f3 8b 3c 31 14 27 be 60 5a f0 bc d3 59 e3 bc
       0.017084023 -0.16316296 -0.02933997 -0.027752792
0003b0 9d 12 d7 3d 68 06 06 be be e5 2a bb a3 34 58 3d
       0.10501597 -0.13088381 -0.0026076878 0.052784573
0003c0 cf f2 10 be de 93 5e bd ec 87 7f 3d 34 9c 28 be
       -0.14155124 -0.054340236 0.062385485 -0.16465837
0003d0 99 a5 12 bd 94 e6 cb 3d 59 9f 26 be a6 ef a9 3d
       -0.035802457 0.09956089 -0.16271724 0.082976624
0003e0 96 e1 30 be db b4 96 bd 20 20 33 3c 22 67 22 be
       -0.17273554 -0.07358714 0.010932952 -0.15859655
0003f0 07 7b 58 bd d6 e3 91 bd 53 de a3 3c b1 41 83 3d
       -0.052851703 -0.071235344 0.020003473 0.06409014

mu.bias f4 [4]
000000 d3 31 39 bc 18 c3 45 bd 64 9d ec bc 31 18 63 3c
       -0.011303383 -0.04828176 -0.028883643 0.013860748
