llirl_sumo/saves/sumo_single_intersection/optimal_policy_period_5.pth (torch, 196916 bytes, 7 tensors)

sigma f4 [4]
00000000: 78c1 f5bc 527d abbc 1923 47bc 2dd7 c9bc
-0.02999948 -0.02093378 -0.012154364 -0.024638737

layer1.weight f4 [200, 36]
00000000: 7fda 693d 665c 293e f5d1 55bb b3d6 f73c
00000010: 1640 5e3d 681c 713d f9b0 6bbd fcdc ad3d
00000020: 94a8 1abd ecfd bc3d 3b3f 9cbc 18cc 703d
00000030: 60c2 d33d 94b1 cfbd 14a1 493d e9b7 e13c
00000040: 7fc5 fabd 081c d6bc f843 863b 975a 023e
00000050: 3077 9fbd a32c ec3d 3d3c 8abd 45e6 893d
00000060: 2cb0 0b3d 1e28 d63d fb6a ca3d 1b1b 12be
00000070: 7c99 0fbc 61d0 19be fa3b f13a f5c2 c0bd
00000080: 32af 0e3e 7380 a53d 5317 9abd 4972 c03c
00000090: 8df3 c3bd e414 18be e0b4 a73d 99e9 e7bc
000000a0: 5d10 08bb b23f bcba 768f 3e3d 41ac a43d
000000b0: 09c6 69bd 690c 80bc 2631 a4bd 4c3c 9cbd
000000c0: 9a20 5cbd 692e da3c 72f0 f0bd ed5a acba
000000d0: 8da0 043e e868 0fbe 8b15 9e3c 9925 da3d
000000e0: 2037 863c dfe4 bb3d a742 b6bd 4c43 033c
000000f0: 7dd0 45bd 33f2 103c 645e ecbc 2696 b73c
00000100: a2ef 133e bb30 2abd 3a44 063d b308 d5bd
00000110: b9d9 be3d 3601 163d 77f4 c7bd bd4a e83d
00000120: a16a bebd 20cc f6bd ec35 1abe 9fed b1bd
00000130: 7810 fbbc 13dd 95bd 944b 1e3e c824 12be
00000140: 3813 afbc 8967 debd b39a 1f3e b675 37bd
00000150: 8618 0fbe 2bee 943d b4e9 a7bd 1a23 9e3d
00000160: 61a6 213e 54d9 ffbc 2416 c2bb 3ef3 0cbe
00000170: 2c81 99bc 296c d03d c0b0 d23d 5b77 8a3d
00000180: 3993 01be 64b1 f53d 0b41 aa3d 7a74 0abd
00000190: 9874 18be 35f9 f43d 03cd 93bc 6353 e5bd
000001a0: bedd d73d 082c 17be a76c 1bbe c696 d83d
000001b0: 6c4b df3d 40c0 19bc ebcf 18bc 8ce5 76bd
000001c0: e84d f0bd 2638 a3bd a9ae dbbd e660 14bc
000001d0: 4cee 62bd c409 a7bc 6297 c6bd 658d 8e3d
000001e0: c8f6 9d3d c313 44bd e365 e23d 50ba d73c
000001f0: ab91 0fbe 0696 70bd 47b8 12be d02f 30bd
00000200: 7d87 b43d 2075 a6bc 34b9 76bd 6aa3 cd3a
00000210: 0eb1 5ebd 9217 21be 3099 11bc 7677 1abe
00000220: 20a8 0a3d 7e5a 82bd 5cff 0b3d ee34 e7bd
00000230: 06c6 cb3c f002 b93c cefd a8bd d972 28bc
00000240: db3d 593d db7f 0bbd fe0a 53bd c403 c43d
00000250: 3e8b 093e 9263 afbd c22f 2a3c e886 48bd
00000260: 1e9a 59bc bea6 b53d 1f87 afbc 7fc5 8bbc
00000270: 91ff 353d a4fc d93d 9bb1 0f3e 7cfd 833d
00000280: d574 b0bd 01be 59bd e48f eabd 3968 1fbe
00000290: 8138 21be 5cb8 f7bc 968f 433d 7cde 0c3e
000002a0: 067e 6a3b 0c0e 20be b7a6 a1bd 74fa ed3d
000002b0: e098 0b3e d016 1c3d 1597 d8bc 0044 e03d
000002c0: 7f8e 143d d44e e4bd da2e bfbd a34a 41bd
000002d0: 43a7 2dbd 4759 9abd b534 32bd 0c7a c63d
000002e0: a5a4 df3d 7112 24bd 18e4 b83d 95a1 db3d
000002f0: 52e3 89bd 4403 ff3d c37d 363d 9de3 56bd
00000300: 5eb7 203e 7cc1 d2bc e2ce ad3a 9c21 583d
00000310: dc54 a33c aba3 ec3c 5405 85bd 11b1 2f3d
00000320: ab0f dd3c 4d13 dfbc 461c 09be 7354 54bd
00000330: 157c 1f3e 89e1 e23d 5f75 633d 4db5 82bd
00000340: 2309 b03d e450 d93d 01a0 bbbd e924 20bd
00000350: fb5c febd 7142 1dbe a33e 1b3e ea73 253d
00000360: 92b4 5ebc 4e0e 87bc cad9 94bb 8182 213e
00000370: 3347 10be 42ee e93d 220b 923d 3191 00bc
00000380: 3af1 90bd c7aa 25bd 39af 96bd 40e4 593d
00000390: 2a1a f03d dbf6 d73d d133 f8bd 8276 b93d
000003a0: c014 193d a47d 16bd bd6d e9bd c509 a6bd
000003b0: f0ba 093e 8064 003d 46fb dbbd a93a b0ba
000003c0: b03b 92bd 5cf1 00bd ce9f 943d 6561 14be
000003d0: fc6c eebd 7b27 c4bd b618 c6bd 00d0 ccbd
000003e0: 3f52 cf3d 3c80 173e f7e0 fbbd 32a1 b0bd
000003f0: 60cc d33d 6185 a53d 73e2 00be f35a 0bbd
0.05709314 0.16539153 -0.0032626365 0.030253744 0.054260336 0.05886498 -0.05754182 0.08489415
-0.037758425 0.09228119 -0.01907312 0.05878839 0.103398085 -0.10141292 0.04922588 0.027553516
-0.12244701 -0.026136413 0.004097458 0.1272987 -0.07786405 0.11531951 -0.06749771 0.067333736
0.034103557 0.104568705 0.09883686 -0.14268152 -0.008764621 -0.15020896 0.0018404715 -0.09412185
0.13934019 0.0808114 -0.0752398 0.023491995 -0.09567938 -0.14851719 0.08188796 -0.02830963
-0.0020761706 -0.0014362244 0.046523534 0.08040667 -0.057073627 -0.015630918 -0.08017187 -0.07628688
-0.05374203 0.026633458 -0.11764611 -0.0013149657 0.1295187 -0.14004862 0.019297382 0.106517024
0.016383708 0.09174513 -0.08899432 0.00801165 -0.048294533 0.008846807 -0.028853603 0.022410464
0.14446881 -0.04155038 0.03277991 -0.1040205 0.09318871 0.03662225 -0.09763425 0.1134238
-0.092976816 -0.120506525 -0.15059632 -0.08687901 -0.030647501 -0.07317557 0.15458518 -0.14271843
-0.021371469 -0.108595915 0.15586357 -0.044789992 -0.13974199 0.072719894 -0.08198872 0.07721539
0.15786125 -0.03123156 -0.0059230495 -0.13764665 -0.018738352 0.1017688 0.10287619 0.067610465
-0.12653817 0.11996725 0.08313187 -0.033802487 -0.14888227 0.11961595 -0.018042093 -0.111975454
0.10540341 -0.1476289 -0.15178166 0.10575633 0.109030575 -0.009384215 -0.009326915 -0.060277507
-0.117336094 -0.07969694 -0.10726673 -0.0090563055 -0.05540304 -0.020390399 -0.09696843 0.069605626
0.077130854 -0.04787041 0.110545896 0.026333958 -0.14020412 -0.058736823 -0.14328109 -0.043014348
0.08814905 -0.020319521 -0.060235217 0.001568896 -0.05436807 -0.15731648 -0.00888662 -0.15084633
0.033851743 -0.06364916 0.034179077 -0.112893924 0.024874698 0.022584409 -0.082515344 -0.010281288
0.053037506 -0.03405748 -0.051524155 0.09571031 0.13432023 -0.085639134 0.010387363 -0.04895678
-0.013281373 0.08869694 -0.021426735 -0.017061947 0.04443318 0.106438905 0.14032595 0.06444833
-0.08616034 -0.053159717 -0.11453226 -0.15567102 -0.15744211 -0.030239277 0.047744356 0.13756746
0.0035780682 -0.15630358 -0.078931265 0.11620036 0.13632536 0.038107693 -0.026439229 0.1095047
0.036268707 -0.11147848 -0.09335108 -0.04719032 -0.04239584 -0.075365596 -0.043507297 0.09691247
0.10920075 -0.04005665 0.090278804 0.10724179 -0.06732811 0.12451795 0.04455353 -0.052463163
0.15694949 -0.025727026 0.0013260508 0.052766427 0.019937925 0.028886637 -0.06495157 0.042893473
0.02698501 -0.027230883 -0.13389692 -0.05183835 0.15574677 0.11078174 0.055531856 -0.06382237
0.08595493 0.10611132 -0.09161378 -0.0390977 -0.12420078 -0.15357377 0.15160613 0.040393747
-0.013592856 -0.016486313 -0.004542564 0.1577244 -0.1408966 0.11422397 0.0713103 -0.007847116
-0.0707726 -0.04044607 -0.0735764 0.05319619 0.117237404 0.10545131 -0.12119258 0.09055807
0.037373304 -0.036740914 -0.11397884 -0.08107332 0.13450217 0.031345844 -0.10741286 -0.0013445216
-0.07140291 -0.03148018 0.07257043 -0.14490278 -0.11641881 -0.09577843 -0.09672682 -0.1000061
0.10123109 0.14795011 -0.12298768 -0.086244956 0.10341716 0.08082081 -0.12586384 -0.034022283

layer1.bias f4 [200]
00000000: 192a 0f3c d84b a139 2507 26ba 369a d537
00000010: 456e b8bb ace6 e93b 6929 7e37 4cf2 cd3b
00000020: f2f9 fdb9 ee22 1c39 ecfb 9539 db35 943b
00000030: a841 15ba 672a 6eb7 710a 2e3b b302 fd38
00000040: d1a1 b3b9 ceee afbb 8193 7f3b 0cf1 ab3b
00000050: b6e1 a5bb 1b79 a0b9 9ac1 f53a 4e06 963a
00000060: 7acd 243a 9ec2 d537 8616 c93b a8d7 c13a
00000070: 9614 eab6 22e7 bb3a 2e6a c8bb 8833 52b9
00000080: 3c4e 90ba 0e8b aabb 1a51 7dbb 9a20 d437
00000090: d182 3e3a be89 fdba e3b2 4839 ca04 fcb9
000000a0: a31d 943a 0109 953a e607 5839 1dee 82b6
000000b0: 40e5 c83a a0aa abbb 27bb 403b ea97 6eba
000000c0: 22e8 2638 fa86 8cb8 fc66 4cbb 34cd 67b8
000000d0: 2f06 3235 98c1 dd3b 458c fdba 1f8d 5c38
000000e0: c923 cd3b 44b2 3bba b380 56bb 7292 37bb
000000f0: c699 313b 2338 833a 4c14 e93a 9cb9 a7bb
00000100: c17c 3637 2ea2 a4bb 4f6b 0f3b cc1e efba
00000110: a2b8 e0b8 dbdd e337 bd58 fe3b db64 9abb
00000120: 5b4e 493b cc6b c3ba 9652 65ba 2de9 70b9
00000130: cf70 ac36 1e8f d838 00e2 24b8 1f03 b336
00000140: 1c04 733b 3390 f939 e5dd cc3b 0359 363b
00000150: 1060 0139 aa56 d139 c9d5 8739 904f 1cba
00000160: 37e2 4f39 c124 a3ba 7cf7 36b8 21eb 05b9
00000170: dbdd 5fb7 9a25 e3b8 a2d6 fb3a 8ea0 673a
00000180: b760 de34 80c4 c43a c7a4 c8ba 6ba6 843a
00000190: 460c 2c39 220c 07ba 1bdc 1c3c c56f c2bb
000001a0: ccdb fcba 4763 1d3b 90c0 deb7 0ce8 943a
000001b0: d909 b53b dd59 b4b7 8478 183b ec8f 01b7
000001c0: 231e f438 3523 2039 6551 f3b9 f91b 9739
000001d0: 30f5 a2b6 6340 b639 34ed 90bb 7bd4 203b
000001e0: 04bd 7939 eacb db3a d393 a838 963f 9b3a
000001f0: 7eb5 e537 1a4f 133a 1d88 fab6 7e19 e439
00000200: bb52 02bb 3278 d437 9bee 2bbc 027b 41bb
00000210: 9333 98bb c86d 4eb8 577e 30ba 483d b438
00000220: 0d7d 933b 31cd 3ab5 2ca3 413a 4393 aebb
00000230: 36f6 073b c481 d1ba 3ba5 4db6 8a6a c536
00000240: 2931 503b 2e4a 5538 42cd 2238 4b90 38b8
00000250: d064 f5ba 840e 743b 8afa 603b 0e76 b53a
00000260: fc74 63ba af85 44bb c6c1 193a 923b 3ebb
00000270: e406 b03b 9cf7 863b b620 b6bb 53fb 843a
00000280: 7cef 0dbb 31ba e13a d258 f5ba cd2e 063c
00000290: cdc4 00b8 6777 1a3b 080a adbb 46a5 90ba
000002a0: 0475 313b d3ec 2737 0aa7 85b9 012d 8139
000002b0: a07c b9ba 31f2 a2bb 2b80 5bbb f616 073c
000002c0: 5499 feba 5bb3 2b3b a28c 9f38 09d3 70b8
000002d0: e500 5c3a beb7 b83b 66fe a237 003d 4eba
000002e0: 1d7a 1a3b f51c 5d3a 77c7 3aba aabe 3aba
000002f0: dffd 19ba c030 6fbb 14d1 86bb 1fa6 b539
00000300: b85c 25bb 7d11 2838 3434 b33a 0000 0000
00000310: 15b2 f23b 5dc6 7dbb 4e0c ac3a e76e 993a
0.008738064 0.0003076482 -0.0006333462 2.5463389e-05 -0.0056283795 0.007138094 1.5149221e-05 0.0062849876
-0.00048442144 0.00014890332 0.0002860719 0.0045230216 -0.00056936825 -1.4195778e-05 0.0026556517 0.00012064483
-0.00034262103 -0.005369044 0.0038997831 0.005247241 -0.005062307 -0.0003060781 0.0018749714 0.0011445971
0.0006286722 2.5482204e-05 0.006136718 0.0014789002 -6.97614e-06 0.0014335851 -0.006116173 -0.00020046358
-0.0011009644 -0.005204565 -0.0038653077 2.528755e-05 0.0007267418 -0.0019343419 0.00019140127 -0.00048068754
0.0011300336 0.0011370481 0.00020602308 -3.902022e-06 0.0015327111 -0.005238846 0.0029408426 -0.00091016165
3.9793675e-05 -6.7008616e-05 -0.0031189313 -5.5265802e-05 6.6319166e-07 0.006767463 -0.0019344172 5.2583517e-05
0.0062603694 -0.00071600475 -0.003273052 -0.0028010872 0.0027099713 0.0010011237 0.0017782538 -0.005118562
1.0877092e-05 -0.005024216 0.002188403 -0.0018243431 -0.00010715543 2.7163818e-05 0.0077620433 -0.00471173
0.003071687 -0.0014909445 -0.0008747963 -0.00022975048 5.139132e-06 0.0001032634 -3.9311126e-05 5.334979e-06
0.0037081307 0.00047600418 0.006252038 0.0027824051 0.00012338185 0.00039928156 0.0002590849 -0.00059627835
0.0001982533 -0.0012446867 -4.362267e-05 -0.00012771461 -1.33434905e-05 -0.00010831207 0.0019213746 0.0008835875
4.1421092e-07 0.0015012175 -0.0015307897 0.0010120397 0.0001640777 -0.0005151649 0.009573962 -0.005933734
-0.0019291579 0.0024015473 -2.6554131e-05 0.0011360659 0.0055248556 -2.1499518e-05 0.0023265192 -7.722509e-06
0.0001164044 0.00015271905 -0.00046409215 0.00028821806 -4.85652e-06 0.00034761717 -0.004422808 0.002454071
0.00023816904 0.0016769145 8.038399e-05 0.0011844512 2.7383441e-05 0.0005619392 -7.4664263e-06 0.00043506542
-0.0019885737 2.532834e-05 -0.0104939 -0.0029522781 -0.00464482 -4.921647e-05 -0.00067326933 8.5944834e-05
0.004500991 -6.958899e-07 0.000738668 -0.0053276136 0.0020746118 -0.0015984108 -3.0643557e-06 5.8834603e-06
0.0031767583 5.0852243e-05 3.881497e-05 -4.4003402e-05 -0.0018722061 0.0037240097 0.003432902 0.0013844387
-0.0008676795 -0.0029986908 0.00058653613 -0.0029027206 0.005371915 0.004118873 -0.0055580987 0.0010145701
-0.0021657636 0.0017221627 -0.0018718487 0.008189869 -3.0700863e-05 0.0023569704 -0.005280737 -0.0011035583
0.0027077803 1.0009116e-05 -0.0002549219 0.00024638328 -0.0014151521 -0.004972719 -0.0033493142 0.00824522
-0.0019424357 0.0026199433 7.607906e-05 -5.7417e-05 0.0008392467 0.005637138 1.9430368e-05 -0.0007867366
0.002357132 0.0008434796 -0.00071250595 -0.0007123748 -0.00058743166 -0.0036497563 -0.0041142795 0.0003464678
-0.0025232267 4.007061e-05 0.0013672174 0.0 0.007406483 -0.003872297 0.0013126226 0.0011706025

layer2.weight f4 [200, 200]
00000000: 0242 da3c dbc4 933d db19 bbbd f69b e2bd
00000010: 25e3 9f3c bede 8abc 3855 a83d 579f 8f3c
00000020: f4b5 8dbd 7141 89bd ac3e 633c 3efa 083d
00000030: 0d6d e8bd 7e5d 813d 5440 e93d 21d0 b73d
00000040: 8a2a 96bb cfe1 f5bd cda6 0abd 8269 c93d
00000050: 8724 abbd 82fe 7abd b709 26bd fcfe 693d
00000060: 32d5 11bb dcf8 f4bd 442b 323d b69e cfbb
00000070: 432e 0a3b 264f 223b aaa4 0fbd 058b 8cbd
00000080: 5a87 643d cdc6 aebd 0538 c13c 2a7a c23c
00000090: 1daf c03d 69ea bc3d f856 37bd 299e 0e3d
000000a0: 78a9 4d3c ed09 96bc 8695 853d f9c4 ec3d
000000b0: b5e7 343c b784 3ebd 374a 5cbb 9b8c 203d
000000c0: 498f 19bd 6ea7 b23a 3af2 b83c 9d7f 133d
000000d0: bf79 b33d 912b 27bd 84ac cdbd c1a6 fabc
000000e0: 6a43 bfbd da12 90bd 10e0 9ebc ac9b a23b
000000f0: 03f9 8e3d 0709 833d 710b 6c3d 14f9 98bd
00000100: 7a9f 513d 1203 463d 5b2c dd3d 8030 973d
00000110: 6dcd 293c 0264 f73d 32bb d13d 93eb aabd
00000120: 1da6 9b3d 085c 53bc 81ec e1bd b9c7 e5ba
00000130: d987 c8bd 61d6 7a3d 1d2d 0e3c b76f 4bbc
00000140: b359 9fbc 0c4c 76bd 2628 f7bd f6c6 8e3d
00000150: 4b65 c83c 3831 f5bd 053e 803d 6725 d6bd
00000160: 9b9b 90bc d4ff f03d 96d3 873c 672b 86bd
00000170: d9f1 c8bd d207 963d 8704 a2bd decf 0abd
00000180: 95c4 98bd 7988 ad3d 661c eabd aa6f 03bc
00000190: 6bbc 5f3b c118 67bd 843b dd3d 4335 f5bd
000001a0: fedb 09bd d835 2b3d 7e0c e3ba 60e8 233d
000001b0: fb56 adbd f212 163d 20a7 63bd ebe7 d13d
000001c0: 4fe4 e1bd dde0 12bd 6b86 93bd 6607 c0bd
000001d0: 7093 a0bc 7356 a1bd db16 c3bd 7c1f 7fbd
000001e0: acf3 50bd fd8a 1c3c 678b 50bc 5195 903d
000001f0: 5cae 7b3d ca3a 87bd 4c22 3dbd ab65 8bbd
00000200: cb0b 26bd 1389 98bd 2d79 a13c 367c a33d
00000210: 0495 e13c b60c 55bd 153d 8bbc 2b13 c2bd
00000220: eb60 133d 8176 d73d d545 18bd 3ed2 c73d
00000230: 5ecd 403c 910a 3dbd e6b6 a03d 840b e5bc
00000240: c7a6 943d 16e4 c63c 5580 c5bd 20b2 77bc
00000250: ddc8 933d 951a 62bd b526 20bd 5b5e ac3d
00000260: 320b 9f3d ac03 3bbd 6ec9 04bd 2d38 d3bc
00000270: ab7f e3bd 7829 e9bd 4426 7f3d 1d4f ee3d
00000280: bcd6 b43d 9bd9 efbc d32d 66bc cc9b 193d
00000290: 3f4e eabb 2d89 433d b691 ec3d 335d 9c3d
000002a0: 2820 d53d b878 25bd e845 afbd 728d f1bc
000002b0: bd19 adbd 62c2 d03d 4a1e ea3d f50f c3bd
000002c0: 404a 9dbd 0a92 493c 88f9 d6bc afd9 f8bc
000002d0: 9f08 c1bd 7f1f 4c3d d148 8c3b e24b efbd
000002e0: a17a e63d f518 c33d 8ac5 6aba f793 8f3d
000002f0: ba4d 983d 1a4c d4bd dd49 9a3d be98 4f3c
00000300: fe30 48bb 1df8 e0bd ae28 833d 0000 71b9
00000310: 64ed 863d df50 58bc c862 45bb dd17 bfbd
00000320: 6cde 92bd 7fa0 1e3c edf1 56bc 493b b53d
00000330: 15d2 8b3d 7fbe 99bc 526c a6bd f722 c23c
00000340: 94d6 413d 3664 2e3c 7c8b 8cbc 39cf e03d
00000350: 1872 f8bd 6e7e f8bc e467 c93d 11b0 9ebd
00000360: f632 01bd d0cc 273d 2a50 5cbd f040 133d
00000370: ad66 c7bc 500c 6fbc 894c d8bd 1d2e b7bd
00000380: 2048 bbbb 7609 5ebc 9071 153d f55d 6f3c
00000390: 58ad b63d 6ace 9d3d 6da1 f8bd 2f38 9d3d
000003a0: f305 783c 5e1e 163d 52fc 163d ffd4 733b
000003b0: a9f9 843d 4d2f 5fbd 0139 2e3c 2e09 35bc
000003c0: 330a fb3d 4bfe 62bc 0272 f9bc b406 313d
000003d0: 6c7d 9b3d 0578 3a3d 5260 873d bc44 cfbb
000003e0: 6368 803c a73f cabd 8b1e 81bd d3f6 91bd
000003f0: d7d6 b23c f709 ef3d b902 bc3d 8b16 c33d
0.026642803 0.072152816 -0.09135791 -0.110649034 0.01951749 -0.016951915 0.08219379 0.017532034
-0.069194704 -0.06701935 0.013869923 0.033441775 -0.11348925 0.0631666 0.11389223 0.08975244
-0.004582708 -0.1200596 -0.03385048 0.09834577 -0.083565764 -0.061277874 -0.04053661 0.057127938
-0.0022252318 -0.11961529 0.043498293 -0.0063360585 0.0021084703 0.0024766414 -0.035069145 -0.06862453
0.055793144 -0.08534012 0.023586283 0.023739893 0.094084 0.09224398 -0.044760674 0.034818802
0.0125526115 -0.01831528 0.0652266 0.11561007 0.011041571 -0.046513285 -0.0033613571 0.03919659
-0.037490163 0.001363022 0.02257644 0.036010373 0.087634556 -0.040813033 -0.1004267 -0.030597093
-0.0933903 -0.07034846 -0.01939395 0.004962405 0.06981089 0.06398206 0.0576281 -0.07469383
0.05117748 0.04834277 0.10799476 0.073822975 0.010363919 0.12079622 0.10240783 -0.083457135
0.07600043 -0.01290036 -0.11031438 -0.0017530835 -0.09791536 0.061239604 0.008677748 -0.012416772
-0.019451952 -0.060131118 -0.120682046 0.069715425 0.024462363 -0.11972278 0.06261829 -0.10456353
-0.017652323 0.11767545 0.016580384 -0.06551247 -0.09811754 0.0732571 -0.0791102 -0.033889644
-0.0745937 0.08473296 -0.11431198 -0.008022228 0.0034139405 -0.05642009 0.10802367 -0.119730495
-0.033657067 0.041799396 -0.0017322449 0.040016532 -0.08463856 0.03663916 -0.055579305 0.10249313
-0.110298745 -0.035858978 -0.072033726 -0.09376411 -0.019601554 -0.07877817 -0.09525844 -0.062285885
-0.051013634 0.009554622 -0.012728549 0.0705973 0.06144558 -0.0660301 -0.046175286 -0.06806501
-0.04053859 -0.0744802 0.019711101 0.07982676 0.027536876 -0.052014075 -0.0169969 -0.09476312
0.0359811 0.1052065 -0.037175972 0.097568974 0.011767713 -0.046152655 0.07847385 -0.027959593
0.07258373 0.024278682 -0.09643618 -0.015118152 0.07216046 -0.05520113 -0.039099414 0.084164344
0.07765807 -0.0456578 -0.03241866 -0.025783623 -0.11108335 -0.11384863 0.062292352 0.116361834
0.0883002 -0.029278567 -0.014049011 0.037502095 -0.007150441 0.047738243 0.1155123 0.07634964
0.10406524 -0.04039833 -0.085582554 -0.029486392 -0.08452175 0.101933256 0.114315584 -0.09524528
-0.07680178 0.012302885 -0.026242033 -0.030377237 -0.094254725 0.049834725 0.0042811413 -0.116843954
0.11253858 0.095262446 -0.0008955827 0.07010644 0.074367 -0.10366078 0.075336196 0.012670694
-0.003054678 -0.10984824 0.064042434 -0.00022983551 0.065882474 -0.013202875 -0.0030118693 -0.093307234
-0.0717133 0.00968182 -0.013119203 0.08849198 0.06827179 -0.018767593 -0.08126129 0.023698313
0.04732378 0.010644009 -0.017156355 0.109770246 -0.12131137 -0.030333724 0.09834269 -0.07748426
-0.03154274 0.04096681 -0.053787388 0.0359506 -0.024340952 -0.014590338 -0.10561473 -0.08944342
-0.005715385 -0.01355206 0.036485255 0.014609803 0.089197814 0.07705386 -0.121401645 0.07676732
0.015138137 0.036650054 0.036861725 0.0037205813 0.064929314 -0.05448847 0.010633708 -0.011049552
0.12257805 -0.0138545735 -0.030449871 0.043219283 0.07592282 0.045524616 0.066101685 -0.0063253324
0.015674775 -0.09875422 -0.06304654 -0.07127156 0.02183096 0.116718225 0.09180207 0.09525784

layer2.bias f4 [200]
00000000: a31f 263a 662b 2b3b 0559 37b9 1bff a23b
00000010: c7fd 08bb 06a6 0bba 755f 853b 0a59 fe38
00000020: aa28 393b e52c dd3a 1fff 00ba ce9f 4d3b
00000030: 34e5 56b7 ca53 853b dd10 efba 3124 8a39
00000040: 9b3d e437 53c2 c73a 9509 8db8 b1da 54bb
00000050: b0aa b0ba 27fb 58bb f15d 1a3b eadc 683a
00000060: 748e 293c 4b85 423a cc1d 8fb8 b3b8 913b
00000070: b14c 303a ba40 4f37 daba a03b 1061 7fba
00000080: bde5 bcba 490b c13b 0000 0000 99e3 03bb
00000090: c0d7 13ba 090d 913a 0a57 5db7 1700 bdbb
000000a0: 8188 fb3a 0000 0000 6877 21bc 2c2e 0d3c
000000b0: 8ee8 143c 9ecd 53b9 2c8e 243b e1a0 e6bb
000000c0: 3ec0 373b 9a62 92b8 0000 0000 4a5b ed3b
000000d0: 2aaa fd3b 4d64 9bbb d64d 3ebb 0dc8 3ebb
000000e0: 89a7 2dbb 0679 3db7 c84c bf3b b9f8 4c39
000000f0: 8f38 1a3c 0000 0000 26ac 3dbb 699b ee3a
00000100: cdb4 c5bb 26c1 e23b ae6f 2b39 4aa0 023c
00000110: abc7 b7bb ac4c edb8 f99e 653a 47f2 c53b
00000120: a020 07bb 9181 c739 073d a6b9 9780 04bb
00000130: 8589 feb7 2d05 e1bb e08a 27b9 69d4 7cba
00000140: b352 5e3a 73b1 cc38 3400 9eba 4507 e7b9
00000150: 096f c63b 5fd3 863a 0000 0000 3cdd ea3b
00000160: 5636 cabb 038b a23a aaef 7bb7 c7f1 f637
00000170: 63af 493b 1ff3 f63b cced c0ba e6d5 95b5
00000180: 5d5a 173c d230 5638 218c 393b bd9a 02ba
00000190: 0c67 573a ae2e 7db9 5f18 ff39 f9b1 2137
000001a0: 5315 21b9 6d52 cc3a 630a beba 23c0 aa3b
000001b0: b9b4 7237 509f 1aba 61cc 2a3c 7766 06bb
000001c0: ffeb 92b6 2730 7e38 6d43 8e37 cc9f b1bb
000001d0: 2159 49bb 4581 0c38 a5b9 a2b8 6d05 ee3b
000001e0: 0d52 2a39 369d a036 6e7e c338 608f dcb9
000001f0: caf6 4c3b 9aea 6aba 4652 3ab9 d183 9cbb
00000200: b3dc af38 e115 9d3a c460 4dbb f3ae 0d37
00000210: d9b0 bb3b 1560 8439 09e1 b1bb dada 713b
00000220: 47c3 393b cae2 eeba 7156 95ba 42db 85b8
00000230: 445d e7bb d498 18ba 9ebe d0ba 663f aeb9
00000240: 75e2 9b37 3693 b237 b58a 4f33 6db8 77bb
00000250: 5c13 87bb 95b4 373c 257c ee3b 6d5b 383c
00000260: 0369 d4bb ac49 dd37 1174 58b9 0000 0000
00000270: 4199 193c 9c5a 95bb 2151 b337 2ea7 3e3c
00000280: 72b3 ff3b 4026 1c3b 8415 7d3b 2a4f b83b
00000290: 50dd 5f38 503a 55bc 4de4 ccb5 85df c53b
000002a0: efcc 62ba 3432 e0b8 9ebd 49bb 8e7e c0bb
000002b0: 0b28 cabb cf71 383a a087 23bb f19f d2bb
000002c0: 2a78 073b 2d5b 50ba 302c 2b3c 9be9 d5ba
000002d0: 011e 5838 2f40 603b 1624 dbbb ab98 66bb
000002e0: dcbf 42b9 3b90 0ebc 3c37 4bbb 57a9 5a3b
000002f0: 2602 d93b 552e 36bc fd65 a4bb 1124 c33a
00000300: 8b50 c8b8 604a 043b 855b 063a 1140 9f3b
00000310: 6d92 483c 8860 9136 ffcf 39b9 d7a4 bcb7
0.00063371117 0.0026118397 -0.00017485402 0.0049742586 -0.0020903216 -0.00053271686 0.0040702173 0.000121282486
0.0028252997 0.0016874342 -0.00049208285 0.0031375769 -1.28087595e-05 0.0040688263 -0.0018239279 0.00026348376
2.7208405e-05 0.0015240408 -6.725189e-05 -0.0032478983 -0.0013478603 -0.0033108683 0.0023554529 0.00088830164
0.010348905 0.0007420375 -6.8243215e-05 0.0044470667 0.0006725295 1.2353232e-05 0.004905087 -0.00097419415
-0.0014411729 0.005891238 0.0 -0.0020124672 -0.0005639754 0.0011066507 -1.3192892e-05 -0.005767833
0.0019190462 0.0 -0.009855129 0.008616965 0.0090886485 -0.00020199126 0.0025109155 -0.007038221
0.002803817 -6.9801885e-05 0.0 0.0072435485 0.0077412324 -0.0047421814 -0.0029038093 -0.0029110939
-0.0026497564 -1.1293456e-05 0.0058380105 0.00019547612 0.009412899 0.0 -0.002894172 0.0018204275
-0.006033516 0.0069199977 0.00016349435 0.007972786 -0.005608519 -0.00011315322 0.00087593455 0.0060408446
-0.0020618811 0.00038052772 -0.00031707456 -0.0020218247 -3.0343197e-05 -0.006867072 -0.00015978096 -0.00096446887
0.0008480951 9.7605305e-05 -0.0012054504 -0.0004406517 0.006055717 0.0010286382 0.0 0.0071674865
-0.006171028 0.0012401048 -1.5016567e-05 2.9438072e-05 0.0030774705 0.0075363065 -0.0014719306 -1.1163618e-06
0.009237853 5.1067043e-05 0.0028312283 -0.0004982164 0.00082169543 -0.0002414535 0.00048655548 9.637785e-06
-0.000153621 0.001558853 -0.0014498945 0.0052108928 1.4466402e-05 -0.0005898373 0.010424704 -0.002050785
-4.3786126e-06 6.0603164e-05 1.6959117e-05 -0.0054206606 -0.003072329 3.3498993e-05 -7.759341e-05 0.0072638304
0.0001624303 4.7866733e-06 9.321874e-05 -0.00042068493 0.0031275027 -0.000896135 -0.00017768992 -0.004776456
8.385759e-05 0.001198467 -0.0031338194 8.444988e-06 0.005727869 0.0002524859 -0.0054284376 0.0036904127
0.0028345154 -0.0018225547 -0.0011393559 -6.382774e-05 -0.0070606787 -0.0005821113 -0.0015925949 -0.00033235102
1.8582892e-05 2.1287804e-05 4.8322097e-08 -0.0037799135 -0.004122181 0.011212488 0.007277983 0.011252266
-0.006482245 2.637956e-05 -0.00020642603 0.0 0.0093749175 -0.0045579206 2.1376241e-05 0.011636538
0.007803374 0.002382651 0.003861756 0.0056246715 5.3373456e-05 -0.013014391 -1.5265629e-06 0.0060386085
-0.00086517533 -0.000106905034 -0.0030783187 -0.0058744615 -0.0061693243 0.0007036002 -0.0024952665 -0.006427758
0.0020670989 -0.00079481566 0.010447547 -0.001632023 5.1526356e-05 0.0034217944 -0.0066876514 -0.0035186212
-0.00018572755 -0.008701379 -0.0031008264 0.0033365095 0.0066225706 -0.011119445 -0.0050170408 0.0014888068
-9.5517455e-05 0.0020185933 0.0005125332 0.004859932 0.012241942 4.3325745e-06 -0.0001772046 -2.2488106e-05

mu.weight f4 [4, 200]
00000000: cba4 cb3d 372b 803d 352d abbd 7790 33bb
00000010: 6951 2abe ec2e 3bbd 0d6a 9e3d f5c5 2c3e
00000020: 4076 d13d 45cf 16be ff94 99bd 9b1c c4bd
00000030: 9776 0c3e d8d4 e83b 9272 e43d 7f67 85bd
00000040: 63a1 283e a5ab 023e f0b4 9b3d c5d4 ce3d
00000050: a324 873d bc39 8d3d 5f04 a83c c3b4 bcbd
00000060: a39b d63c b756 a43d 2091 9cbb b028 023e
00000070: 8b6f d7bd 0a1f ddbd 2b6f 183e 05a8 86bd
00000080: 9553 25be e5ff ef3a a09f a53c 1ddf 1abe
00000090: 07b4 17be 3957 d63c 0c63 97bd f52b 26bd
000000a0: aea0 13bd d0bf 14be ec0b c8bd c0e8 033e
000000b0: 3874 acbd df5d 0bbe fe39 e23c 8fe2 75bd
000000c0: 4bc8 e8bd de1f f9bc 0d0b 2a3e 0fea 97bd
000000d0: 882e 9dbd 4897 af3d 7d1a 303d 4441 08be
000000e0: 2c35 dc3d 2cd9 9cbd beb1 183d 8439 e33d
000000f0: 2a0c 2dbe 8c7c 783d 27b5 12be 2278 38bd
00000100: 5a62 e6bc 894c c93d 46bb 043e 6926 99bd
00000110: 502b a93d ce23 52bd 44f1 f0bd b61b ee3d
00000120: 66b1 233c 614a bcbc 8afb 63bd e3d4 253e
00000130: b48c 42bc fb1d b9bd 20cb 06be f704 c83d
00000140: ac7b afbd 32e1 053d 5877 b23d 68e2 20bd
00000150: 6398 ea3d 4760 7e3c 46b3 1bbe b8d7 03be
00000160: 4f0a a13d 714c 00be 1cdc 733c 70bc 893c
00000170: b7da 1d3d e627 5cbd 6c2a 1e3b 36ab a43d
00000180: 952a 233e 27c5 bfbd ccfe 07be 42a0 003e
00000190: 023e 27bd c51a 1a3e c81c 7e3c c694 b2bd
000001a0: 5ffa 5bbd 5261 05be 9da7 c33d aea6 143e
000001b0: a6f8 09be 2663 a33c 09e3 07bc 5a56 4ebc
000001c0: 0689 ca3d 1909 7b3d 7e76 debc 5f35 413d
000001d0: f4ee d5bd 3697 1c3b 52d0 f1bd 7e9e e3bd
000001e0: 505c 57bd 68ca 073e 4c02 953c e887 5d3d
000001f0: cd16 f6bc 8448 5ebd f005 c3bd 3dfd 083e
00000200: aaea f23c abc5 17be 168d 80bd 1f22 a4bc
00000210: e28e 8d3d 5207 fd3d f9ab f53d 16af f5bd
00000220: ba25 cebd 4a96 21be 7d97 233d 7fd4 a0bc
00000230: 8a34 bb3d ce8e 373d 1482 05be bfb4 b9bd
00000240: bf81 87bd 734c 0abd e996 093e 4a6a 783d
00000250: dcd2 57bd ed4f 0fbe bb63 d8bd 5454 9abd
00000260: e5a8 e6bc fdda 723b e8a5 e03d 0074 bfb9
00000270: c035 003e f372 1c3e d9d5 883d 5190 33bc
00000280: aa3a aebd c756 f5bd e818 1cbe 0a9f 283d
00000290: 6e47 0c3e a1a7 9abd e0af cdbc 2dc1 b4bd
000002a0: a72a 873d c52e 11bd 2d60 603d 0155 debd
000002b0: ebdf 143e cafe 21be 7410 15be 37f5 043e
000002c0: ce75 fbbc 5f2c 13be 4e9c 26be 949f f83d
000002d0: f64b 79bd 693a 9e3d bea0 a9bd 0e2b d93d
000002e0: 7d60 be3d 4782 133e 8e42 26be a70b 353d
000002f0: 0ad4 b03d 6378 203e 12e9 3d3d 94cd e93d
00000300: 1a68 b4bd 9ff4 a43d a297 adbd a82b 61bc
00000310: 7fa1 a13d 3924 783d 4403 75bb ccff ea3d
00000320: 8f5e 733d 6293 11be 72ce bd3d 2c91 5abd
00000330: 1dfb f2bd 9035 ad3d 536e 05be 9b3a 05be
00000340: 5556 6b3d f7f4 fb3d 2175 033e e985 d8bd
00000350: 923a 0cbe b3b5 9c3d 4fcc f4bd fbec 47bd
00000360: d3eb d53d 0d28 4cbd 11b8 5dbd 8bc4 ef3d
00000370: b659 aa3d 3b46 673d 067a b83c c98e c8bc
00000380: 4326 a4bd b56c bc3d a936 043e 8927 26be
00000390: 7a5d c1bd 58ad 6fbd 2726 b9bd b5cd 5f3d
000003a0: 5d78 8a3c b9f3 26be 605a f0bc 0023 ddbc
000003b0: efb5 db3d 1069 04be 4622 2bbb a1b1 5b3d
000003c0: 9d27 11be de93 5ebd b66a 813d 75a6 28be
000003d0: c435 13bd 1aed cb3d 581d 26be da20 a93d
000003e0: 0d54 2fbe ac02 97bd 2020 333c 26e4 20be
000003f0: 7440 56bd 0d6e 92bd 2a83 a63c 2305 843d
0.09943541 0.062582426 -0.08358232 -0.002739934 -0.16632618 -0.045699045 0.07735071 0.1687239
0.102276325 -0.14727505 -0.07499122 -0.095757686 0.13717113 0.007105451 0.11154665 -0.06513881
0.16467814 0.1276079 0.076028705 0.10099176 0.06598785 0.068957776 0.020509897 -0.09214165
0.02619726 0.08024352 -0.0047780424 0.12710834 -0.10519322 -0.10796936 0.14886157 -0.06575016
-0.16145165 0.0018310515 0.020217717 -0.15124173 -0.14814769 0.026164638 -0.073919386 -0.040569264
-0.036041908 -0.14526296 -0.09767899 0.12881756 -0.084206045 -0.13610028 0.027615543 -0.060030516
-0.11366328 -0.030410703 0.16605778 -0.0741769 -0.07674891 0.085737765 0.04299401 -0.13306147
0.10752329 -0.0765861 0.037278883 0.110949546 -0.16899171 0.060665652 -0.14326917 -0.045036443
-0.02812307 0.09829051 0.12962064 -0.07478029 0.08260214 -0.051303677 -0.11764768 0.11626379
0.009991026 -0.022984685 -0.05565981 0.16194491 -0.011874367 -0.090389214 -0.13163424 0.09766572
-0.085685104 0.032685466 0.08714169 -0.039278418 0.11454847 0.015525884 -0.15205106 -0.12875259
0.07863294 -0.1252916 0.014884021 0.016813487 0.03853866 -0.053748988 0.0024134172 0.080404684
0.15934213 -0.09363776 -0.13280791 0.12561134 -0.04083062 0.15049274 0.015509792 -0.087197825
-0.05370557 -0.13025406 0.09553454 0.14516708 -0.13473758 0.019944739 -0.0082938755 -0.01259383
0.098894164 0.061287973 -0.02715611 0.04717004 -0.10445967 0.002389384 -0.11807312 -0.11114214
-0.05257827 0.13260806 0.018189572 0.05408469 -0.03004017 -0.054268375 -0.09522617 0.13377853
0.029652912 -0.14821498 -0.0627691 -0.020035801 0.06912018 0.12354912 0.11995692 -0.119962856
-0.100657895 -0.15779987 0.039939392 -0.019632576 0.091408804 0.044813924 -0.13037902 -0.09067678
-0.06616544 -0.033764314 0.13436474 0.06064824 -0.052691326 -0.13995333 -0.10565897 -0.075356156
-0.028156707 0.0037056797 0.10969144 -0.00036516786 0.12520504 0.15278225 0.06681413 -0.010959701
-0.08507283 -0.11979442 -0.15243876 0.041167296 0.13699123 -0.07551504 -0.025108278 -0.08825908
0.06599932 -0.035444994 0.05477922 -0.10856057 0.14538543 -0.1581985 -0.14557058 0.12984167
-0.030695822 -0.14372395 -0.16270563 0.12139812 -0.060863458 0.077259846 -0.08282612 0.10603915
0.092957474 0.14405166 -0.16236326 0.044200566 0.08634193 0.15670924 0.04636485 0.11416164
-0.08808918 0.0805447 -0.08476187 -0.013743319 0.07892131 0.06058142 -0.003738598 0.11474571
0.05941635 -0.14216378 0.09267892 -0.053361103 -0.11864302 0.08457482 -0.13030367 -0.13010637
0.05745538 0.12302583 0.1283765 -0.10572416 -0.13694218 0.07651844 -0.11953031 -0.048809987
0.104453705 -0.049842883 -0.054130618 0.117074095 0.08317892 0.05646346 0.022519123 -0.024482148
-0.0801511 0.09200422 0.12911476 -0.16226019 -0.09441657 -0.058514923 -0.0904048 0.054639537
0.016903097 -0.1630391 -0.02933997 -0.026994228 0.107280605 -0.12930703 -0.0026112958 0.053636197
-0.14175268 -0.054340236 0.063191816 -0.16469748 -0.035939947 0.09957333 -0.16222131 0.08258219
-0.17121907 -0.073735565 0.010932952 -0.15712032 -0.05230756 -0.07149897 0.020326216 0.06446292

mu.bias f4 [4]
00000000: 41cb d5bb bb33 2abd c6ea 3fbd dba4 57ba
-0.006524474 -0.04155324 -0.046854757 -0.00082261645
