llirl_sumo/saves/sumo_single_intersection/optimal_policy_period_1.pth (torch, 196916 bytes, 7 tensors)

sigma f4 [4]
-0.018676918 -0.014963697 0.011214793 -0.0065681306
00000000: 5600 99bc 4b2a 75bc 40be 373c 7939 d7bb

layer1.weight f4 [200, 36]
0.056927584 0.16027904 -0.0033911315 0.03008816 0.049147733 0.058736496 -0.057621293 0.08330618
-0.037816297 0.09220177 -0.020661052 0.058730517 0.10331866 -0.103000894 0.04916801 0.02755287
-0.12214999 -0.02610088 0.0040968186 0.12759572 -0.07782851 0.115384564 -0.066517524 0.067407064
0.034168582 0.10554889 0.09891019 -0.14261648 -0.007784479 -0.1501356 0.0018052964 -0.09451202
0.13936305 0.08077621 -0.07562997 0.02351484 -0.09568509 -0.14847532 0.08188131 -0.028315237
-0.0020342476 -0.0014429288 0.0465362 0.080544524 -0.05705366 -0.015618239 -0.08003402 -0.076266915
-0.053729363 0.026771292 -0.117626145 -0.0013174639 0.12950325 -0.1400426 0.019294878 0.106501795
0.016389733 0.09176424 -0.08889254 0.008017339 -0.04827533 0.00894858 -0.028847914 0.022429647
0.14457062 -0.041544706 0.03277111 -0.104088865 0.093195185 0.03661345 -0.097702615 0.11343028
-0.09295939 -0.12025967 -0.15057836 -0.08686158 -0.03040067 -0.07315763 0.15462981 -0.1422915
-0.021327626 -0.10855129 0.1562905 -0.044746097 -0.13969736 0.0731468 -0.081944875 0.0772298
0.15823133 -0.031204835 -0.0059086685 -0.13727656 -0.018711627 0.10178667 0.10329933 0.06763943
-0.12652025 0.12039039 0.08316084 -0.033784576 -0.14845902 0.11964492 -0.018039422 -0.11196737
0.10540891 -0.14762627 -0.1517735 0.105761826 0.109030575 -0.009384215 -0.009330266 -0.060277507
-0.117336094 -0.07970027 -0.107268415 -0.009061407 -0.055433888 -0.020392101 -0.09697353 0.069574736
0.07712917 -0.047875497 0.110515006 0.026333958 -0.14020412 -0.05873742 -0.14328109 -0.043014348
0.08814856 -0.020319521 -0.060235217 0.0015628207 -0.05436807 -0.15731648 -0.008892698 -0.15084633
0.033851743 -0.06365525 0.034179077 -0.112893924 0.024846254 0.022584409 -0.082515344 -0.010309737
0.053134877 -0.02974657 -0.051422138 0.09580771 0.13863115 -0.08553708 0.010451645 -0.046827927
-0.0132103 0.08876124 -0.019297892 -0.01699088 0.04449749 0.108567744 0.14039715 0.06445105
-0.085857786 -0.053171385 -0.11452954 -0.15536842 -0.15745376 -0.030251574 0.048014 0.13755247
0.0035657606 -0.15603395 -0.0789463 0.11618806 0.136595 0.038092654 -0.026430892 0.109658085
0.036274623 -0.1114702 -0.093197696 -0.047184404 -0.042604946 -0.08063994 -0.043762974 0.09670336
0.103926405 -0.040312327 0.0900919 0.10459494 -0.06763369 0.12433104 0.041906707 -0.052768722
0.15676257 -0.028373875 0.0010204854 0.05270012 0.01879604 0.028847335 -0.06501789 0.041751593
0.026945708 -0.027266573 -0.13498208 -0.051869787 0.15571111 0.109696545 0.055500418 -0.063858084
0.084869735 0.10607987 -0.09165658 -0.03939394 -0.124244764 -0.15361655 0.15130992 0.040349774
-0.013591952 -0.016485179 -0.0045652115 0.15772536 -0.14089544 0.11420133 0.071314946 -0.0078208735
-0.07078939 -0.04044141 -0.07355015 0.05317945 0.11724205 0.10547756 -0.12120937 0.090557374
0.037372045 -0.036750488 -0.11397953 -0.0810746 0.13449265 0.031345844 -0.10741286 -0.001362975
-0.07140291 -0.03148018 0.07255199 -0.14490278 -0.11641881 -0.09579687 -0.09672682 -0.1000061
0.10120818 0.14795011 -0.12298768 -0.086267866 0.10339289 0.07830537 -0.12590568 -0.034046575
00000000: e62c 693d 3020 243e bf3d 5ebb 727b f63c
00000010: 224f 493d ae95 703d 4e04 6cbd 6e9c aa3d
00000020: 43e5 1abd 48d4 bc3d 5e41 a9bc 698f 703d
00000030: bc98 d33d 22f2 d2bd 6564 493d 8eb6 e13c
00000040: c629 fabd 83d1 d5bc 9b3e 863b 74a8 023e
00000050: 8e64 9fbd be4e ec3d 573a 88bd b70c 8a3d
00000060: 5bf4 0b3d 042a d83d 6d91 ca3d 0e0a 12be
00000070: f114 ffbb 26bd 19be b29f ec3a 858f c1bd
00000080: 30b5 0e3e ff6d a53d e3e3 9abd 32a2 c03c
00000090: 8bf6 c3bd ea09 18be 63b1 a73d 5bf5 e7bc
000000a0: 0351 05bb a820 bdba be9c 3e3d 87f4 a43d
000000b0: 19b1 69bd a4e3 7fbc e0e8 a3bd d431 9cbd
000000c0: 5213 5cbd 784f db3c fae5 f0bd c1ae acba
000000d0: 809c 043e 5467 0fbe 4b10 9e3c 9d1d da3d
000000e0: c343 863c e4ee bb3d 4b0d b6bd 285b 033c
000000f0: 5abc 45bd 119d 123c 7652 ecbc 61be b73c
00000100: 520a 143e c82a 2abd 003b 063d 8b2c d5bd
00000110: 1edd be3d fcf7 153d 4f18 c8bd 224e e83d
00000120: 7e61 bebd b44a f6bd 3731 1abe 7ce4 b1bd
00000130: d30a f9bc abd3 95bd 4757 1e3e ddb4 11be
00000140: 46b7 aebc 2450 debd 9e0a 203e af47 37bd
00000150: d30c 0fbe fdcd 953d b7d2 a7bd a82a 9e3d
00000160: 6507 223e 48a1 ffbc 819d c1bb 3a92 0cbe
00000170: 2049 99bc 8875 d03d 998e d33d 8b86 8a3d
00000180: 868e 01be 3d8f f63d 3b50 aa3d b261 0abd
00000190: a405 18be 6508 f53d 69c7 93bc 264f e5bd
000001a0: a0e0 d73d 572b 17be 836a 1bbe a899 d83d
000001b0: 6c4b df3d 40c0 19bc f9dd 18bc 8ce5 76bd
000001c0: e84d f0bd e539 a3bd 8baf dbbd 4c76 14bc
000001d0: a50e 63bd 560d a7bc 0f9a c6bd 337d 8e3d
000001e0: e6f5 9d3d 1919 44bd b155 e23d 50ba d73c
000001f0: ab91 0fbe a696 70bd 47b8 12be d02f 30bd
00000200: 3b87 b43d 2075 a6bc 34b9 76bd 90d7 cc3a
00000210: 0eb1 5ebd 9217 21be aeb2 11bc 7677 1abe
00000220: 20a8 0a3d af5d 82bd 5cff 0b3d ee34 e7bd
00000230: 5f8a cb3c f002 b93c cefd a8bd 2cea 28bc
00000240: f5a3 593d 14af f3bc 05a0 52bd d536 c43d
00000250: 53f5 0d3e 112e afbd 603d 2b3c a4ce 3fbd
00000260: 0470 58bc 74c8 b53d 9d16 9ebc 7530 8bbc
00000270: 0043 363d c458 de3d 45c4 0f3e e9fe 833d
00000280: 35d6 afbd 3dca 59bd 778e eabd e618 1fbe
00000290: 8f3b 21be 26d2 f7bc 54aa 443d 8eda 0c3e
000002a0: 89af 693b 5dc7 1fbe 99ae a1bd 01f4 ed3d
000002b0: 8fdf 0b3e 0b07 1c3d 9985 d8bc 6b94 e03d
000002c0: b394 143d 7d4a e4bd 6fde bebd 6f44 41bd
000002d0: 8682 2ebd 8e26 a5bd ce40 33bd 690c c63d
000002e0: 5ed7 d43d 8a1e 25bd 1a82 b83d df35 d63d
000002f0: 8883 8abd 46a1 fe3d 5ea6 2b3d 0424 58bd
00000300: 5e86 203e 5470 e8bc cfc1 853a 15dc 573d
00000310: 27fa 993c 3f51 ec3c 1928 85bd b803 2b3d
00000320: 3fbd dc3c 265e dfbc be38 0abe 6a75 54bd
00000330: bc72 1f3e 95a8 e03d 6854 633d 07c8 82bd
00000340: 2fd0 ad3d 6740 d93d 72b6 bbbd 8a5b 21bd
00000350: 0a74 febd a84d 1dbe fdf0 1a3e ce45 253d
00000360: c7b0 5ebc ed0b 87bc c597 95bb c282 213e
00000370: e546 10be 63e2 e93d 920d 923d 1f23 00bc
00000380: 07fa 90bd e4a5 25bd 76a1 96bd b2d2 593d
00000390: 9a1c f03d 9e04 d83d 9e3c f8bd 2576 b93d
000003a0: 6e13 193d ae87 16bd 1a6e e9bd 710a a6bd
000003b0: 71b8 093e 8064 003d 46fb dbbd daa5 b2ba
000003c0: b03b 92bd 5cf1 00bd 2396 943d 6561 14be
000003d0: fc6c eebd 2631 c4bd b618 c6bd 00d0 ccbd
000003e0: 3c46 cf3d 3c80 173e f7e0 fbbd 35ad b0bd
000003f0: a7bf d33d 915e a03d 6bed 00be 6c74 0bbd

layer1.bias f4 [200]
0.005036584 0.0003913213 -2.581307e-05 -1.37203615e-05 -0.0016945183 0.0020207984 7.536161e-06 0.0035654488
0.00027651843 -0.00016518342 -0.00036109958 0.0010432625 0.00031684476 -2.9141513e-05 3.703589e-05 2.8330107e-05
-0.0002156157 -0.00090477994 0.001880486 0.0020761658 -0.0008948965 -0.0010141218 0.0010351264 0.0015123801
-2.7174521e-05 -4.3389314e-06 0.0031610818 0.0016685805 0.001535847 7.0424525e-05 -0.0017477442 -0.00011259422
-0.0010126715 -0.003597863 0.0005843138 -2.5655632e-07 0.000223588 -0.0038727173 -2.4054854e-05 -0.00061383226
0.0006381062 -0.00016499957 0.0003054362 -1.14727945e-05 -3.0836185e-05 -0.0023329903 0.0012940454 -0.0003261902
3.9068173e-06 0.00013445476 -0.00092487544 6.4616565e-06 -6.0016e-07 0.0019686178 -9.839954e-05 1.5610454e-05
0.0024516024 0.00020432807 -0.0015215972 -0.00026032084 0.00022768803 -0.00010435361 0.0010879193 -0.004377384
-2.3678785e-08 -0.0033931953 -7.605642e-05 -0.0002126638 -5.5378216e-05 1.3338486e-05 0.0016272509 -0.0016371179
0.0020785304 -0.0014127203 -0.00046996077 2.3644036e-05 -1.3981619e-05 -0.00046607998 -2.7930077e-05 5.7871143e-06
0.00038575535 0.00042865507 0.002241514 0.0025719304 6.8427245e-05 -0.00051925814 -0.0006195853 0.00042539733
8.048911e-05 -0.0023253083 -1.266628e-05 0.00016452227 -6.4672054e-07 -0.00030239057 0.0003567642 -0.0010776924
-2.3556e-05 -0.00051091326 -0.0015541139 0.00038018162 7.800068e-05 -5.3300217e-05 0.0050792033 -0.0022181042
-0.00083952025 0.0006176872 2.2531121e-06 -0.00011251159 0.00212411 0.0002176359 0.0023064616 2.1100352e-06
-0.0010549973 -0.0012553906 -0.0014510299 -5.547408e-05 -3.1100421e-06 0.0005045334 -0.00061063684 0.0014876164
0.00020195138 0.00096567307 1.5296111e-05 0.0001292179 -1.6572683e-07 0.00015301106 7.542496e-07 -2.3483954e-05
0.0005917093 -3.7862371e-06 -0.002772965 -0.00037601785 -0.0014859958 -1.0289111e-05 -6.892733e-05 -3.5046671e-06
0.0033073311 1.1848049e-07 2.1594193e-05 -0.0012113182 0.000857809 -0.0005924902 1.2903226e-07 -1.8920877e-05
0.0001718695 2.8021961e-05 -8.287783e-06 0.00030854644 -0.0014518122 0.001956867 0.0014744947 0.0011520926
0.0012664346 -0.0010279944 0.00048967585 -0.0015846733 0.0035020255 0.0013938792 -0.0017160594 -8.263437e-05
-0.0002608185 0.0005202185 0.0007211602 0.0040717134 0.00014098542 0.0021797847 -0.003936245 0.00012944818
0.00083221914 2.8781054e-05 -0.00022094742 0.0012382629 7.0819035e-05 -0.0025869743 -0.0010557838 0.0025644489
0.0017396024 0.0027529316 2.7541015e-05 -5.8815654e-06 -0.0003292628 0.0027649184 2.4720712e-06 2.1150878e-05
0.00065405533 -0.00020467406 0.0017730036 -0.0008155717 -0.00041711095 -0.0015793766 -0.00024386894 0.0003587292
-0.00069661875 -1.8540193e-06 0.00019311397 0.0 0.004861806 -0.0021450594 -6.6288835e-06 0.00040678802
00000000: ee09 a53b 412a cd39 2589 d8b7 8130 66b7
00000010: 991a deba 5f6f 043b 21df fc36 4eaa 693b
00000020: adf9 9039 1635 2db9 f751 bdb9 15be 883a
00000030: 2f1e a639 ec74 f4b7 fc56 1b38 71a6 ed37
00000040: e616 62b9 c12e 6dba a47a f63a 4810 083b
00000050: 7d97 6aba 48ec 84ba 14ad 873a 0e3b c63a
00000060: d7f4 e3b7 2397 91b6 272a 4f3b 45b4 da3a
00000070: 794e c93a e1b0 9338 9014 e5ba 9020 ecb8
00000080: 9ebb 84ba 20ca 6bbb a32c 193a d5bc 89b4
00000090: f272 6a39 6acd 7dbb 68c9 c9b7 96e9 20ba
000000a0: 9546 273a bc03 2db9 f422 a039 477b 40b7
000000b0: 1a56 01b8 15e5 18bb f59c a93a 8204 abb9
000000c0: 4e17 8336 6dfc 0c39 5773 72ba 35d1 d836
000000d0: ae1a 21b5 ed03 013b da5b ceb8 32f3 8237
000000e0: 10ab 203b e640 5639 5470 c7ba ac7b 88b9
000000f0: 8abf 6e39 6bd8 dab8 8498 8e3a 2970 8fbb
00000100: 3366 cbb2 5f60 5ebb 7b80 9fb8 81fe 5eb9
00000110: e845 68b8 5cc8 5f37 7b49 d53a 9094 d6ba
00000120: f437 083b 072b b9ba 1165 f6b9 2e57 c637
00000130: 9992 6ab7 325c f4b9 624b eab7 ef2e c236
00000140: 353f ca39 1cbd e039 5de6 123b d58d 283b
00000150: 9980 8f38 d31e 08ba aa6b 22ba dd07 df39
00000160: 43cc a838 3364 18bb 4281 54b7 9c83 2c39
00000170: 4c9a 2db5 2d8a 9eb9 150c bb39 5b41 8dba
00000180: 209a c5b7 cfee 05ba 69b3 cbba 1d53 c739
00000190: 4c94 a338 ac8e 5fb8 726f a63b 9d5d 11bb
000001a0: 4013 5cba 49ec 213a 2c34 1736 33f4 ebb8
000001b0: a734 0b3b 3135 6439 0128 173b 219a 0d36
000001c0: d647 8aba eb8b a4ba 7c30 beba d7ac 68b8
000001d0: 1eb6 50b6 aa42 043a 2513 20ba 20fc c23a
000001e0: e9c2 5339 3925 7d3a 2650 8037 aa7e 0739
000001f0: a5f2 31b4 9871 2039 a377 4a35 68ff c4b7
00000200: f01c 1b3a 0f17 7eb6 a2ba 35bb 4324 c5b9
00000210: bfc5 c2ba 659f 2cb7 148d 90b8 b931 6bb6
00000220: cfbf 583b 576f fe33 2d25 b537 18c5 9eba
00000230: 96de 603a 5851 1bba 1e8c 0a34 46b8 9eb7
00000240: de37 3439 b410 eb37 c20b 0bb7 67c4 a139
00000250: bc4a beba c83e 003b d543 c13a d001 973a
00000260: 7efe a53a c5bd 86ba 975d 003a d0b4 cfba
00000270: 3d82 653b d3b2 b63a 66ed e0ba fd4b adb8
00000280: 77be 88b9 465f 083a 3e0c 3d3a 026c 853b
00000290: 7cd5 1339 b8da 0e3b 9efb 80bb 7bbc 0739
000002a0: 4829 5a3a d86e f137 1fae 67b9 354d a23a
000002b0: ae84 9438 3a8a 29bb 3a62 8aba 5010 283b
000002c0: 5f03 e43a 876a 343b e107 e737 435a c5b6
000002d0: e8a0 acb9 a233 353b dce5 2536 2a6d b137
000002e0: e974 2b3a c69d 56b9 2164 e83a 17cc 55ba
000002f0: afaf dab9 1603 cfba 12b7 7fb9 d113 bc39
00000300: 4b9d 36ba 9ed7 f8b5 a37e 4a39 0000 0000
00000310: c94f 9f3b 2094 0cbb ad6d deb6 2a46 d539

layer2.weight f4 [200, 200]
0.026328595 0.072117075 -0.0913647 -0.110649034 0.019424189 -0.017064761 0.082193926 0.017512305
-0.06935025 -0.06699393 0.013823747 0.03326305 -0.11358496 0.06316612 0.11389718 0.08973548
-0.0045838454 -0.12022266 -0.033909436 0.09823349 -0.083686166 -0.061501745 -0.040553167 0.05703575
-0.0025256693 -0.11961529 0.043260258 -0.0064569092 0.0019249547 0.002474137 -0.035295554 -0.06862605
0.055839274 -0.08533575 0.023618428 0.023739608 0.0940724 0.09209671 -0.044762008 0.034613155
0.012483719 -0.018317582 0.0652254 0.11560957 0.011035724 -0.04646473 -0.0035150172 0.039220303
-0.037490424 0.0013340345 0.022282323 0.036009077 0.087634556 -0.04089694 -0.10049755 -0.030597396
-0.093638696 -0.070322126 -0.019523213 0.0049388795 0.069787875 0.06395209 0.05761586 -0.07488927
0.05117712 0.04812229 0.107880615 0.07378425 0.010355654 0.120796174 0.10229869 -0.08357327
0.07571428 -0.012959842 -0.110320136 -0.0017608207 -0.09791559 0.061256293 0.008677393 -0.01241678
-0.019456482 -0.06011735 -0.1209074 0.06979547 0.024454817 -0.11973976 0.06255721 -0.10457046
-0.017642407 0.11769749 0.016580336 -0.06551286 -0.09811754 0.07320973 -0.07910608 -0.033928443
-0.074593805 0.08449639 -0.114323944 -0.008038936 0.0034259218 -0.05641922 0.107527435 -0.119746715
-0.033666983 0.041506413 -0.0017322595 0.039986856 -0.085035935 0.036625423 -0.055681136 0.10249276
-0.11030981 -0.035943612 -0.07219261 -0.09376632 -0.019602224 -0.07882752 -0.09540117 -0.062406678
-0.051028375 0.009494252 -0.012728033 0.07059515 0.061443884 -0.06620187 -0.046175286 -0.068125665
-0.040599287 -0.07448026 0.0195553 0.079748 0.027357612 -0.052014098 -0.017020786 -0.094764516
0.035883468 0.1052065 -0.03720596 0.097527556 0.011767837 -0.046231795 0.0784738 -0.027959593
0.072555736 0.02427933 -0.09643778 -0.01511968 0.07192168 -0.055273067 -0.039206322 0.08404152
0.077457935 -0.045665488 -0.032522086 -0.02579498 -0.11116991 -0.11400383 0.06222672 0.11635152
0.088230014 -0.029350458 -0.014072811 0.037168246 -0.0071837073 0.047365546 0.11552987 0.07631988
0.1039717 -0.0403986 -0.08557328 -0.02957102 -0.08456159 0.101574786 0.1141979 -0.0955311
-0.07684343 0.012420267 -0.02624236 -0.030378066 -0.094238274 0.049862172 0.004275599 -0.11687075
0.11257666 0.0952588 -0.0011207276 0.07013982 0.074395075 -0.10364531 0.075186685 0.012643076
-0.0030369563 -0.109848596 0.0640787 -0.00022983551 0.06572192 -0.013247813 -0.0031720828 -0.093266584
-0.072238326 0.009373793 -0.013207635 0.08849237 0.068118766 -0.01953636 -0.08126009 0.023605317
0.04722817 0.010666851 -0.01741796 0.10865317 -0.12183513 -0.03033218 0.0979647 -0.07766992
-0.031592533 0.040248934 -0.054195065 0.03538561 -0.024609813 -0.015881665 -0.1055715 -0.08982013
-0.0069342083 -0.013552689 0.034530587 0.0142597165 0.08797199 0.07695455 -0.122135304 0.07675927
0.015203135 0.036034293 0.036871772 0.0037208511 0.06484305 -0.054659177 0.010622616 -0.0124524655
0.12213599 -0.0139845265 -0.030473331 0.04321873 0.0759527 0.045195755 0.06558682 -0.0062856604
0.015673924 -0.099099256 -0.064031355 -0.071269654 0.021831013 0.11631736 0.09178357 0.09525335
00000000: 11af d73c 1eb2 933d 6a1d bbbd f69b e2bd
00000010: 7a1f 9f3c 66cb 8bbc 4a55 a83d f775 8f3c
00000020: 8107 8ebd 1d34 89bd ff7c 623c d63e 083d
00000030: 3b9f e8bd 3d5d 813d ed42 e93d 3cc7 b73d
00000040: 1534 96bb 4c37 f6bd 9fe4 0abd a42e c93d
00000050: a763 abbd 41e9 7bbd 141b 26bd 529e 693d
00000060: b385 25bb dcf8 f4bd ab31 313d 7b94 d3bb
00000070: c34e fc3a 2225 223b 1292 10bd d18b 8cbd
00000080: b9b7 643d 82c4 aebd 6f7b c13c 9179 c23c
00000090: 08a9 c03d 339d bc3d 5e58 37bd 86c6 0d3d
000000a0: 8388 4c3c c10e 96bc e594 853d b6c4 ec3d
000000b0: 2ecf 343c cd51 3ebd 345c 66bb 78a5 203d
000000c0: 8f8f 19bd c5da ae3a 6b89 b63c 417e 133d
000000d0: bf79 b33d 8d83 27bd a9d1 cdbd 64a7 fabc
000000e0: a5c5 bfbd 0c05 90bd 25ef 9fbc 53d6 a13b
000000f0: f2ec 8e3d 50f9 823d 9cfe 6b3d 8c5f 99bd
00000100: 1a9f 513d e11b 453d 83f0 dc3d 321c 973d
00000110: c3aa 293c fc63 f73d fa81 d13d 7628 abbd
00000120: 1710 9b3d 8455 54bc 86ef e1bd 57cb e6ba
00000130: f887 c8bd e1e7 7a3d a02b 0e3c c06f 4bbc
00000140: 3363 9fbc 9c3d 76bd 4d9e f7bd edf0 8e3d
00000150: 7855 c83c 1f3a f5bd ff1d 803d 0a29 d6bd
00000160: cf86 90bc 620b f13d 7cd3 873c 9b2b 86bd
00000170: d9f1 c8bd fcee 953d 5e02 a2bd 8df8 0abd
00000180: a3c4 98bd 710c ad3d ac22 eabd beb5 03bc
00000190: 6e85 603b d717 67bd 5837 dc3d c43d f5bd
000001a0: 64e6 09bd a102 2a3d fc0c e3ba 42c9 233d
000001b0: 5227 aebd 8a04 163d e711 64bd b9e7 d13d
000001c0: 1cea e1bd 9c39 13bd b8d9 93bd 8e08 c0bd
000001d0: d894 a0bc 5370 a1bd b061 c3bd 259e 7fbd
000001e0: 2103 51bd c78d 1b3c 3d89 50bc 3194 903d
000001f0: 95ac 7b3d d994 87bd 4c22 3dbd 7885 8bbd
00000200: 704b 26bd 1b89 98bd 7032 a03c eb52 a33d
00000210: 121d e03c bc0c 55bd 2d6f 8bbc e613 c2bd
00000220: 8bfa 123d 8176 d73d 4765 18bd 87bc c73d
00000230: e3cd 403c 8d5d 3dbd dfb6 a03d 840b e5bc
00000240: 1a98 943d 72e5 c63c 2c81 c5bd 89b8 77bc
00000250: ac4b 933d 0366 62bd cf96 20bd f61d ac3d
00000260: 44a2 9e3d bc0b 3bbd e135 05bd fe4f d3bc
00000270: 0dad e3bd d77a e9bd 72e1 7e3d b549 ee3d
00000280: f0b1 b43d 5f70 f0bc a691 66bc bb3d 183d
00000290: 4e65 ebbb 6002 423d ed9a ec3d 994d 9c3d
000002a0: 1def d43d 0179 25bd 0b41 afbd ec3e f2bc
000002b0: a02e adbd 7106 d03d 97e0 e93d cfa5 c3bd
000002c0: 1760 9dbd 607e 4b3c 38fa d6bc 6cdb f8bc
000002d0: ffff c0bd 473c 4c3d 531a 8c3b ef59 efbd
000002e0: 988e e63d 0c17 c33d 61e5 92ba 77a5 8f3d
000002f0: 725c 983d fe43 d4bd 7afb 993d e724 4f3c
00000300: ac07 47bb 4df8 e0bd b23b 833d 0000 71b9
00000310: 3799 863d 5b0d 59bc b8e2 4fbb 8d02 bfbd
00000320: b0f1 93bd 8a94 193c d664 58bc 7d3b b53d
00000330: da81 8b3d b70a a0bc b16b a6bd f05f c13c
00000340: 5372 413d 04c4 2e3c 1cb0 8ebc 8e85 de3d
00000350: b284 f9bd 317b f8bc b7a1 c83d 6811 9fbd
00000360: 2c67 01bd 11dc 243d a5fb 5dbd 80f0 103d
00000370: 859a c9bc 441a 82bc df35 d8bd 9ef3 b7bd
00000380: 5b38 e3bb 190c 5ebc f26f 0d3d 96a1 693c
00000390: a92a b43d 599a 9d3d 1322 fabd f733 9d3d
000003a0: 9216 793c b298 133d db06 173d 86d9 733b
000003b0: 6fcc 843d 4de2 5fbd 7b0a 2e3c 6d05 4cbc
000003c0: 6f22 fa3d 5b1f 65bc 35a3 f9bc 1f06 313d
000003d0: 178d 9b3d 2f1f 393d 6252 863d f1f7 cdbb
000003e0: 9a66 803c 8df4 cabd df22 83bd d3f5 91bd
000003f0: f4d6 b23c cc37 ee3d 06f9 bb3d 3014 c33d

layer2.bias f4 [200]
-0.00040470625 -0.0007611531 0.000735892 0.0021539615 -0.00032295837 -4.367546e-05 0.0015340998 -0.0006452427
0.0003685133 0.00012870712 -0.00024303573 0.002504222 1.4842383e-05 0.0014176029 -0.0019039405 -0.0005769068
1.1278627e-05 -0.00021014079 5.6894743e-05 0.0004400337 -0.0028600523 -0.0024904248 0.0012539754 0.000929145
0.0054076016 -0.00055128086 -0.00034922812 0.001334307 0.0011825707 0.00010432191 0.0009146969 0.00039736842
-0.00016449338 0.000822988 0.0 0.00029414525 0.0018586161 -0.00021760828 2.643895e-06 -0.0030757524
0.0018525259 0.0 -0.003903325 0.00049940887 0.00540273 -0.0019064945 0.0009141101 -0.0051654438
0.0023143871 0.00036545095 0.0 0.0043142014 0.004189532 -0.0032514269 -0.0014449483 -0.001288942
-0.0008812037 0.0 0.002331833 -8.0072954e-05 0.0059889993 0.0 -0.0007443165 0.0015110242
-0.0027747867 0.0028556602 -1.6195769e-05 0.0037758888 -0.0008289749 -4.413387e-05 0.0013327867 0.0020112034
-0.00072428805 3.8671515e-05 -9.404209e-05 -0.0039033073 -0.00017025249 -0.0014770193 -7.611067e-05 -0.0013226942
0.00015555165 9.5981966e-05 -0.000377335 0.000115261944 0.0005720995 0.00032810567 0.0 0.0051339846
-0.003421407 0.0022332838 1.2048704e-06 8.114259e-06 0.0011296775 0.0032034633 -0.00073659164 7.1697214e-06
0.003490672 -8.120375e-05 0.0021862604 0.00026603424 0.00052494876 -0.00021103122 0.0017257556 2.5981102e-05
0.00015368471 0.0010182516 -0.0010642572 0.0009770876 9.786619e-06 0.0005695547 0.0054295743 -0.0016640751
-6.165533e-05 2.6792997e-05 2.5551453e-05 -0.0033858905 -0.0016284814 -2.6773112e-06 -0.0019322246 0.0045367596
0.00036632497 -6.698408e-06 0.00015776034 0.0012365007 0.0023489045 2.7694638e-05 2.0510879e-05 -0.0034586112
3.8032103e-05 0.0017296494 0.0006992315 -1.9456052e-06 0.004397667 -0.00050995674 -9.3450646e-05 0.0028722198
0.0020709778 0.0009700432 -0.0013017319 -7.1911377e-06 -0.0044248016 -8.187343e-05 -0.0011242352 -0.00035295534
0.001188063 4.6017835e-06 5.6742236e-05 -0.0022936272 -0.003729793 0.006455717 0.0044577327 0.0059879865
-0.0027188023 -2.6782498e-06 9.13715e-05 0.0 0.003993012 -0.0035885419 -5.88368e-06 0.0054267203
0.0053738365 -0.0013163129 0.0028792105 0.0030966357 1.8477867e-06 -0.0056328485 6.004067e-07 0.0037738087
3.454659e-05 2.0007248e-05 -0.0026723207 -0.0017868457 -0.0044307043 -0.00019897532 6.723002e-05 -0.0045415787
0.0013634432 0.0007395661 0.0066128266 -0.0024431832 0.00039442955 0.0016188566 -0.0025143316 -0.0034194293
-5.224342e-05 -0.004668181 -0.004937235 0.0016604112 0.003085595 -0.008014942 -0.0026755133 -0.00021073999
0.00016878333 0.00019048719 -4.149384e-06 0.0025296847 0.0054455516 1.7990832e-06 0.00036236574 -5.3439016e-06
00000000: c12e d4b9 1f88 47ba e0e8 403a 7a29 0d3b
00000010: bd52 a9b9 2b30 37b8 d913 c93a 8125 29ba
00000020: 0535 c139 8ef5 0639 68d7 7eb9 e01d 243b
00000030: 8d03 7937 dcce b93a a48d f9ba 8f3b 17ba
00000040: 5639 3d37 3d59 5cb9 44a2 6e38 53b4 e639
00000050: b76f 3bbb 6536 23bb 6f5c a43a de91 733a
00000060: 4032 b13b d583 10ba 9b18 b7b9 eae3 ae3a
00000070: 7d00 9b3a 66c7 da38 45c8 6f3a e355 d039
00000080: db7b 2cb9 cabd 573a 0000 0000 8237 9a39
00000090: cf9c f33a c72d 64b9 c56d 3136 9092 49bb
000000a0: 74d0 f23a 0000 0000 edce 7fbb c3ea 023a
000000b0: 6209 b13b 57e3 f9ba e4a0 6f3a e242 a9bb
000000c0: f9ac 173b ff99 bf39 0000 0000 255e 8d3b
000000d0: 5748 893b e415 55bb 6b64 bdba b7f1 a8ba
000000e0: 9400 67ba 0000 0000 aad1 183b d7ec a7b8
000000f0: 5e3f c43b 0000 0000 3c1e 43ba 8f0d c63a
00000100: 32d9 35bb 0726 3b3b 26dc 87b7 e774 773b
00000110: 904f 59ba 621c 39b8 e7b0 ae3a 65ce 033b
00000120: 26de 3dba 3933 2238 7638 c5b8 a1ce 7fbb
00000130: ce85 32b9 8b98 c1ba 9b9d 9fb8 415e adba
00000140: 941b 2339 ed49 c938 0cd5 c5b9 c9b8 f138
00000150: f3f8 153a 9905 ac39 0000 0000 fc3a a83b
00000160: af39 60bb 495c 123b 08b7 a135 7a22 0837
00000170: b011 943a 32f1 513b d417 41ba 7093 f036
00000180: c2c3 643b ee4b aab8 5d47 0f3b 837a 8b39
00000190: b79c 093a 4348 5db9 c032 e23a fef1 d937
000001a0: 6d26 2139 db76 853a 8c7e 8bba 9f11 803a
000001b0: 3531 2437 2b4e 153a 92ea b13b 181d daba
000001c0: f44c 81b8 86c1 e037 5457 d637 d1e5 5dbb
000001d0: c572 d5ba dbab 33b6 b342 fdba 19a9 943b
000001e0: 4e0f c039 e3c2 e0b6 786c 2539 1412 a23a
000001f0: 14f0 193b c851 e837 c70e ac37 dea9 62bb
00000200: a984 1f38 67b5 e23a a24c 373a 3e91 02b6
00000210: 4e1a 903b 9eae 05ba effa c3b8 da3b 3c3b
00000220: 3eb9 073b 7f4a 7e3a e09e aaba 674b f1b6
00000230: edfd 90bb 77b3 abb8 135b 93ba dd0c b9b9
00000240: c7b8 9b3a 0569 9a36 83fe 6d38 ae50 16bb
00000250: 8b6f 74bb 7b8a d33b 2c12 923b df36 c43b
00000260: ef2d 32bb fbbb 33b6 b39e bf38 0000 0000
00000270: d0d7 823b be2d 6bbb 6d6c c5b6 a1d2 b13b
00000280: 0217 b03b 2288 acba 23b1 3c3b edf0 4a3b
00000290: 7801 f835 c293 b8bb a22b 2135 0152 773b
000002a0: 1ee6 1038 3dd5 a737 1a22 2fbb 9834 eaba
000002b0: 712f 91bb 08a4 50b9 d8fd 8c38 86d1 94bb
000002c0: 90b5 b23a 71df 413a 69b0 d83b d01d 20bb
000002d0: 70cb ce39 d02f d43a 7cc7 24bb 8118 60bb
000002e0: f21f 5bb8 8af7 98bb 87c8 a1bb 28a2 d93a
000002f0: b237 4a3b 1a51 03bc aa57 2fbb 16fa 5cb9
00000300: 6efb 3039 84bd 4739 f03a 8bb6 11c9 253b
00000310: 9970 b23b 0778 f135 e8fb bd39 c44f b3b6

mu.weight f4 [4, 200]
0.099834375 0.062097125 -0.08340195 -0.0042320765 -0.16642015 -0.045743182 0.07713349 0.16847017
0.10082577 -0.1475267 -0.07502419 -0.09642916 0.13717467 0.007472049 0.111739926 -0.065602764
0.1646664 0.12592512 0.07591209 0.10119844 0.06453416 0.06893515 0.020198073 -0.09219385
0.025778646 0.07950847 -0.0048625106 0.1250213 -0.10687912 -0.107990034 0.14895755 -0.06619947
-0.16208367 0.00051523355 0.020217717 -0.15246285 -0.14904368 0.026411671 -0.073924996 -0.04051464
-0.036591902 -0.14526296 -0.098405585 0.12755208 -0.0852875 -0.13632265 0.02706201 -0.06083446
-0.11409216 -0.03084466 0.16605778 -0.07445659 -0.07728463 0.0848482 0.042374622 -0.13345137
0.108470805 -0.07658662 0.03733651 0.11093049 -0.1697668 0.060665652 -0.14348625 -0.04642305
-0.0277279 0.09886754 0.12962514 -0.076165244 0.08267331 -0.05131601 -0.11933455 0.11502306
0.010199606 -0.022988982 -0.05573988 0.16203468 -0.012045664 -0.09048138 -0.13164175 0.09788954
-0.08559896 0.032673594 0.087127835 -0.039261397 0.11432213 0.015227824 -0.15205106 -0.12966458
0.0775646 -0.12642817 0.0148879355 0.016742367 0.03860405 -0.053734537 0.0001607421 0.08040335
0.15868579 -0.09414227 -0.13244423 0.12549724 -0.040589426 0.15050817 0.014719688 -0.08720033
-0.053727515 -0.13055548 0.0951088 0.1446032 -0.13473845 0.019397905 -0.008905324 -0.012748086
0.09889315 0.06127307 -0.02719225 0.047250535 -0.104878105 0.00238688 -0.1178434 -0.11060022
-0.05199455 0.1326088 0.018173872 0.053988494 -0.030835716 -0.054394998 -0.09532104 0.1316033
0.029654391 -0.14969376 -0.06279476 -0.020128097 0.06792039 0.121990226 0.119318716 -0.12096748
-0.10117986 -0.15806586 0.038787425 -0.019651527 0.09128385 0.044650443 -0.13154417 -0.09087512
-0.06680447 -0.03376666 0.13436452 0.06060763 -0.052712977 -0.1414468 -0.106162444 -0.07675662
-0.029333722 0.0036927615 0.10950932 -0.00036516786 0.12353382 0.15312445 0.066809855 -0.012791365
-0.08777475 -0.120263904 -0.1532077 0.039123587 0.13699032 -0.07661093 -0.025108788 -0.08989076
0.06563338 -0.035452694 0.054385047 -0.10826494 0.14471185 -0.15830292 -0.14580788 0.12948436
-0.030727774 -0.14354149 -0.1632468 0.12033881 -0.061203096 0.07593518 -0.08284312 0.10539973
0.0929359 0.14273053 -0.16278593 0.04418739 0.08472467 0.1567324 0.046498142 0.114094496
-0.08982918 0.08083316 -0.084782764 -0.015375595 0.07786083 0.060581315 -0.0046285084 0.11474465
0.06256479 -0.140999 0.092816666 -0.048145454 -0.116342716 0.08459905 -0.12794073 -0.12966704
0.06029099 0.123382494 0.12843226 -0.1057223 -0.13694586 0.07795652 -0.11865789 -0.048398256
0.104454555 -0.04422295 -0.054193363 0.11775871 0.08394766 0.059940398 0.023971824 -0.023691997
-0.07950641 0.09291679 0.1292098 -0.15950757 -0.09057637 -0.05851814 -0.08943443 0.055234138
0.01746397 -0.16144058 -0.02933997 -0.022765478 0.11292042 -0.12596983 -0.0026071202 0.055553548
-0.14118874 -0.054340236 0.06671581 -0.1628937 -0.03414079 0.09943548 -0.16203791 0.0835823
-0.16811201 -0.07339682 0.010932952 -0.15405367 -0.051109325 -0.07069545 0.020713355 0.06515175
00000000: f775 cc3d 8e59 7e3d a4ce aabd 3bad 8abb
00000010: 0b6a 2abe 345d 3bbd 2af8 9d3d 7283 2c3e
00000020: be7d ce3d 3d11 17be 48a6 99bd a77c c5bd
00000030: 8477 0c3e 17d8 f43b e7d7 e43d be5a 86bd
00000040: 4f9e 283e 84f2 003e cc77 9b3d 2141 cf3d
00000050: 7c2a 843d df2d 8d3d 6e76 a53c 21d0 bcbd
00000060: bd2d d33c 56d5 a23d b255 9fbb 9505 003e
00000070: 71e3 dabd e129 ddbd 5488 183e 9693 87bd
00000080: 43f9 25be bd10 073a a09f a53c 391f 1cbe
00000090: e89e 18be 4a5d d83c fd65 97bd aef2 25bd
000000a0: 64e1 15bd d0bf 14be de88 c9bd 039d 023e
000000b0: 36ab aebd 2a98 0bbe 26b1 dd3c 8e2d 79bd
000000c0: 26a9 e9bd f1ad fcbc 0d0b 2a3e b27c 98bd
000000d0: 6747 9ebd e5c4 ad3d 0391 2d3d 7aa7 08be
000000e0: f125 de3d 72d9 9cbd 2bee 183d 862f e33d
000000f0: 59d7 2dbe 8c7c 783d 0fee 12be 1926 3ebd
00000100: 9f25 e3bc 117b ca3d 74bc 043e 86fc 9bbd
00000110: a050 a93d bd30 52bd ac65 f4bd 3691 eb3d
00000120: 401c 273c 6453 bcbc 804f 64bd 6bec 253e
00000130: 2d5b 45bc 4d4e b9bd 18cd 06be 507a c83d
00000140: 824e afbd bfd4 053d 1470 b23d 8fd0 20bd
00000150: b921 ea3d 207e 793c 46b3 1bbe cbc6 04be
00000160: 30da 9e3d 6376 01be 87ec 733c 4a27 893c
00000170: 481f 1e3d bf18 5cbd e18c 2839 83aa a43d
00000180: 877e 223e aacd c0bd 769f 07be 5982 003e
00000190: 1941 26bd d01e 1a3e d92a 713c 1696 b2bd
000001a0: 6211 5cbd 56b0 05be 67c8 c23d dc12 143e
000001b0: e0f8 09be 5be8 9e3c a3e7 11bc 59dd 50bc
000001c0: 7e88 ca3d 78f9 7a3d 48c2 debc c789 413d
000001d0: 55ca d6bd 346d 1c3b e157 f1bd 5e82 e2bd
000001e0: 3df8 54bd 9aca 073e 5fe1 943c 0a23 5d3d
000001f0: 2f9b fcbc 4acd 5ebd ad37 c3bd 04c3 063e
00000200: c4ed f23c 5249 19be 8a9a 80bd aee3 a4bc
00000210: d819 8b3d 03d6 f93d 5f5d f43d ccbd f7bd
00000220: 6337 cfbd 04dc 21be 90df 1e3d 3dfc a0bc
00000230: 07f3 ba3d 62e3 363d 84b3 06be bc1c babd
00000240: c8d0 88bd e94e 0abd da96 093e b53f 783d
00000250: 90e9 57bd 6ed7 10be b26b d9bd 9332 9dbd
00000260: 464d f0bc 4202 723b 6c46 e03d 0074 bfb9
00000270: 4dff fc3d a8cc 1c3e 9bd3 883d e092 51bc
00000280: 40c3 b3bd ec4c f6bd 7be2 1cbe 0e40 203d
00000290: 3147 0c3e 31e6 9cbd f2b0 cdbc a618 b8bd
000002a0: cb6a 863d d836 11bd dbc2 5e3d 02ba ddbd
000002b0: 582f 143e 291a 22be a94e 15be 8c97 043e
000002c0: d0b8 fbbc 8afc 12be 2b2a 27be 3274 f63d
000002d0: 19b0 7abd e783 9b3d a7a9 a9bd d0db d73d
000002e0: 2d55 be3d f427 123e 5bb1 26be d6fd 343d
000002f0: 2184 ad3d 757e 203e d674 3e3d 60aa e93d
00000300: 5cf8 b7bd db8b a53d 96a2 adbd ebe9 7bbc
00000310: 8075 9f3d 1d24 783d beaa 97bb 3eff ea3d
00000320: f821 803d 0b62 10be aa16 be3d 2b34 45bd
00000330: 1745 eebd 4442 ad3d e502 03be 70c7 04be
00000340: aff3 763d f6af fc3d bf83 033e ef84 d8bd
00000350: 893b 0cbe aba7 9f3d e802 f3bd 403d 46bd
00000360: 45ec d53d 2023 35bd dcf9 5dbd 7b2b f13d
00000370: c0ec ab3d 1084 753d 8f60 c43c b815 c2bc
00000380: 42d4 a2bd 284b be3d 934f 043e f455 23be
00000390: 1b80 b9bd b8b0 6fbd 6629 b7bd 313d 623d
000003a0: 9a10 8f3c ae50 25be 605a f0bc ab7e babc
000003b0: d242 e73d 3cfe 00be 38dc 2abb 1e8c 633d
000003c0: c893 10be de93 5ebd 4ca2 883d 9bcd 26be
000003d0: 37d7 0bbd d4a4 cb3d 44ed 25be 322d ab3d
000003e0: 8e25 2cbe 1251 96bd 2020 333c 3fc0 1dbe
000003f0: 0358 51bd c7c8 90bd 0eaf a93c 486e 853d

mu.bias f4 [4]
-0.0131333135 -0.019397724 -0.025205625 -0.003995175
00000000: 1c2d 57bc fae7 9ebc 077c cebc f5e9 82bb
