llirl_sumo/saves/sumo_single_intersection/optimal_policy_period_2.pth (torch, 196916 bytes, 7 tensors)

sigma f4 [4]
-0.016455457 -0.03531883 -0.007243489 -0.031761758
00000000: 98cd 86bc 7aaa 10bd ca5a edbb 9e18 02bd

layer1.weight f4 [200, 36]
0.05693902 0.1632931 -0.0034096802 0.030099602 0.052161872 0.05871795 -0.057649147 0.084971584
-0.037878845 0.092173934 -0.018995661 0.05866797 0.103290826 -0.10133549 0.04910546 0.027546477
-0.12215193 -0.026118953 0.004090423 0.12759377 -0.07784659 0.11536147 -0.066656895 0.06735063
0.034145493 0.10540952 0.09885376 -0.1426396 -0.0079238145 -0.15019208 0.0018063039 -0.09450852
0.13935521 0.0807772 -0.07562647 0.023507005 -0.095687106 -0.14862666 0.08188151 -0.028317263
-0.0021856045 -0.0014427495 0.046528783 0.080404386 -0.05705925 -0.015625661 -0.080174156 -0.0762725
-0.05373678 0.026631126 -0.11763173 -0.0013210133 0.12936935 -0.14005108 0.019291332 0.10636782
0.016381288 0.091758914 -0.08906263 0.008013986 -0.04828069 0.008778502 -0.028851267 0.022424292
0.14440049 -0.041548055 0.032778546 -0.10402722 0.093188964 0.036620885 -0.09764097 0.113424055
-0.092963085 -0.120321535 -0.15059216 -0.086865276 -0.030462543 -0.073171474 0.15460823 -0.14241466
-0.021355586 -0.108572826 0.15616734 -0.04477407 -0.13971893 0.07302364 -0.08197286 0.077217184
0.15796435 -0.031223083 -0.0059212833 -0.13754354 -0.018729875 0.1017715 0.10293079 0.06761142
-0.12653546 0.12002186 0.083132826 -0.033799753 -0.14882755 0.1196169 -0.018040756 -0.11197445
0.105409406 -0.14762759 -0.15178058 0.105762325 0.109030575 -0.009384215 -0.009338691 -0.060277507
-0.117336094 -0.07970868 -0.10726739 -0.009058355 -0.055434715 -0.02039108 -0.09697048 0.06957392
0.0771302 -0.04787245 0.11051419 0.026333958 -0.14020412 -0.0587466 -0.14328109 -0.043014348
0.08813933 -0.020319521 -0.060235217 0.0015601466 -0.05436807 -0.15731648 -0.00889537 -0.15084633
0.033851743 -0.06365795 0.034179077 -0.112893924 0.02484042 0.022584409 -0.082515344 -0.010315566
0.053118616 -0.031823233 -0.05143416 0.095791444 0.13655446 -0.08554914 0.010449411 -0.048254855
-0.013194171 0.08875901 -0.020724826 -0.016974742 0.044495262 0.10714082 0.14041325 0.06444985
-0.0859958 -0.053168047 -0.11453074 -0.15550643 -0.15745035 -0.030247442 0.04786244 0.13757004
0.0035698917 -0.15618548 -0.07892874 0.11619218 0.13644347 0.03811024 -0.02643063 0.109691635
0.036266327 -0.11146993 -0.093164146 -0.0471927 -0.042542543 -0.077094585 -0.043699775 0.09676574
0.107471764 -0.040249128 0.09014223 0.107167214 -0.06755701 0.12438137 0.044478986 -0.052692026
0.15681285 -0.025801595 0.001097184 0.05270983 0.019104691 0.028859561 -0.0650082 0.04206024
0.026957935 -0.027249927 -0.13447821 -0.051871203 0.15572777 0.11020039 0.055499002 -0.06384146
0.08537358 0.10607845 -0.09164288 -0.03929365 -0.12423418 -0.1536028 0.15141013 0.040360354
-0.013592756 -0.016485697 -0.0045614997 0.15772456 -0.14089593 0.11420504 0.07131121 -0.007839707
-0.070778534 -0.040445145 -0.073569 0.053190306 0.11723832 0.10545871 -0.12119851 0.09055776
0.037372723 -0.036744006 -0.113979146 -0.081073895 0.13449907 0.031345844 -0.10741286 -0.0013614888
-0.07140291 -0.03148018 0.07255344 -0.14490278 -0.11641881 -0.095795415 -0.09672682 -0.1000061
0.1012242 0.14795011 -0.12298768 -0.08625185 0.10340686 0.07891735 -0.12588115 -0.034032576
00000000: e438 693d 4e36 273e f174 5fbb 7193 f63c
00000010: b0a7 553d 3c82 703d 8321 6cbd 9505 ae3d
00000020: d926 1bbd b0c5 bc3d ca9c 9bbc d34d 703d
00000030: 248a d33d fb88 cfbd cf22 493d 26a9 e13c
00000040: cb2a fabd 6af7 d5bc f508 863b f1a7 023e
00000050: 086e 9fbd a242 ec3d 6983 88bd 21ef 893d
00000060: 25dc 0b3d f2e0 d73d d773 ca3d 1e10 12be
00000070: e3d2 01bc f4cb 19be 80c1 ec3a af8d c1bd
00000080: 22b3 0e3e 846e a53d 0de2 9abd c391 c03c
00000090: 9af7 c3bd 9631 18be 7eb1 a73d 9bf9 e7bc
000000a0: 5c3c 0fbb a41a bdba f794 3e3d 0eab a43d
000000b0: f6b6 69bd 6301 80bc 5932 a4bd c234 9cbd
000000c0: 191b 5cbd 8529 da3c e8e8 f0bd da25 adba
000000d0: 6679 043e 8d69 0fbe db08 9e3c 5fd7 d93d
000000e0: 0d32 863c 19ec bb3d 7866 b6bd 184d 033c
000000f0: f9c1 45bd b5d3 0f3c 7e59 ecbc 26b3 b73c
00000100: b9dd 133e 4b2e 2abd cc42 063d 390c d5bd
00000110: dbd9 be3d c8ff 153d fdf7 c7bd df4a e83d
00000120: 6e63 bebd 236b f6bd d534 1abe 6ce6 b1bd
00000130: 958c f9bc edda 95bd 9f51 1e3e 26d5 11be
00000140: e9f1 aebc 6e5b debd 55ea 1f3e 0465 37bd
00000150: 7b12 0fbe 6b8d 953d 63e1 a7bd 0b24 9e3d
00000160: 68c1 213e 8dc7 ffbc 5307 c2bb 37d8 0cbe
00000170: 656f 99bc 946d d03d 61cd d23d db77 8a3d
00000180: 8392 01be 05ce f53d 8b41 aa3d 9c71 0abd
00000190: 4066 18be b5f9 f43d 35ca 93bc dc52 e5bd
000001a0: e3e0 d73d b02b 17be 5e6c 1bbe eb99 d83d
000001b0: 6c4b df3d 40c0 19bc 4f01 19bc 8ce5 76bd
000001c0: e84d f0bd 4e3e a3bd 01af dbbd 7f69 14bc
000001d0: 830f 63bd 320b a7bc 7698 c6bd c57c 8e3d
000001e0: 70f6 9d3d e715 44bd 4355 e23d 50ba d73c
000001f0: ab91 0fbe 46a0 70bd 47b8 12be d02f 30bd
00000200: 6582 b43d 2075 a6bc 34b9 76bd d57d cc3a
00000210: 0eb1 5ebd 9217 21be e3bd 11bc 7677 1abe
00000220: 20a8 0a3d 195f 82bd 5cff 0b3d ee34 e7bd
00000230: 237e cb3c f002 b93c cefd a8bd 9f02 29bc
00000240: e892 593d 1459 02bd a0ac 52bd 4e2e c43d
00000250: efd4 0b3e 6334 afbd 0234 2b3c e2a6 45bd
00000260: 5d2c 58bc 49c7 b53d 1cc7 a9bc 9d0e 8bbc
00000270: aa40 363d a56c db3d 7ec8 0f3e 48fe 833d
00000280: 911e b0bd bdc6 59bd 188f eabd 143d 1fbe
00000290: aa3a 21be 7cc9 f7bc 680b 443d 29df 0c3e
000002a0: d8f4 693b 16ef 1fbe 64a5 a1bd 2af6 ed3d
000002b0: d6b7 0b3e 7c19 1c3d 0c85 d8bc 02a6 e03d
000002c0: 008c 143d 594a e4bd d8cc bebd 224d 41bd
000002d0: 1741 2ebd c4e3 9dbd 89fe 32bd 1e2d c63d
000002e0: 281a dc3d 45dc 24bd 7d9c b83d 7c7a db3d
000002f0: 545b 8abd a9bb fe3d 992f 363d 98d3 57bd
00000300: 8c93 203e de5d d3bc 63cf 8f3a 43e6 573d
00000310: 7181 9c3c e36a ec3c 0523 85bd 5c47 2c3d
00000320: e3d6 dc3c 3d3b dfbc a8b4 09be e676 54bd
00000330: 1a77 1f3e beb0 e13d ec52 633d 50bf 82bd
00000340: 58d8 ae3d a93f d93d 43af bbbd 61f2 20bd
00000350: 7d6e febd 0d4a 1dbe 420b 1b3e e650 253d
00000360: 27b4 5ebc 030d 87bc a278 95bb 8c82 213e
00000370: 0647 10be 55e4 e93d 9d0b 923d 1d72 00bc
00000380: 56f4 90bd cfa9 25bd 58ab 96bd 14de 593d
00000390: a51a f03d bcfa d73d ed36 f8bd 5976 b93d
000003a0: 2414 193d e280 16bd e66d e9bd 120a a6bd
000003b0: 20ba 093e 8064 003d 46fb dbbd fc73 b2ba
000003c0: b03b 92bd 5cf1 00bd e696 943d 6561 14be
000003d0: fc6c eebd 6330 c4bd b618 c6bd 00d0 ccbd
000003e0: a24e cf3d 3c80 173e f7e0 fbbd cfa4 b0bd
000003f0: fac6 d33d 6b9f a13d fde6 00be be65 0bbd

layer1.bias f4 [200]
0.007828607 0.00019571377 -0.00046154423 -1.3216603e-05 -0.0035915137 0.005477683 3.3674092e-07 0.0041809725
-0.0017525436 -0.00021905015 -0.0005490822 0.0022022016 -0.0001571954 1.8031393e-06 0.002678661 3.041724e-05
-0.00018845356 -0.00307931 0.0035215043 0.0028747425 -0.0024405778 0.00030286354 0.0009406126 0.0015217107
0.0014518854 -6.354714e-06 0.0057309526 0.0018062422 0.0020635736 0.0005085557 -0.0040511377 -1.46573e-05
-0.0009986239 -0.0033773347 4.229367e-05 1.0721745e-05 0.00053737726 -0.0021970244 3.4411798e-05 -0.00020180839
0.0006550254 -0.0008601778 4.6281148e-05 1.5739629e-06 0.0007590502 -0.0039821994 0.0021598954 -0.00048827234
2.0289981e-05 -7.26316e-05 -0.0016493729 -1.9817306e-05 1.4153695e-06 0.0060516563 -0.00013737241 -0.000109643646
0.004988129 -1.1838018e-05 -0.0031665107 -2.0230107e-05 0.0010942554 0.00027428582 0.0015916314 -0.004547496
-2.477061e-06 -0.004717837 0.0013581846 -0.0005067025 -0.00013715956 2.2483708e-05 0.005969909 -0.0023701754
0.0034578198 -0.0029313867 -0.0006284296 -0.000104167586 2.608287e-06 -0.00030706587 6.648002e-05 8.855942e-06
0.000602013 0.0003722274 0.0053874087 0.0022218893 0.00010986151 0.00022136536 -0.0008434122 -0.0001898988
0.00020022078 -0.0017347932 -2.2424614e-05 -0.00015129294 -1.7053693e-05 1.2161175e-05 0.000994636 0.0006088908
-1.2674499e-05 -0.00014375182 -0.0010078519 0.001193524 0.00010061365 -0.00022189968 0.007406052 -0.0038634266
-0.0010528159 0.0016799313 2.5942927e-07 0.00073589175 0.004492991 7.241303e-05 0.0016587286 -2.1812932e-05
-0.0013785441 -0.0016396764 -0.0017627089 7.312282e-05 -1.4730148e-05 -0.0010773549 -0.0019823797 0.003019212
0.00049320137 0.0015862233 -1.3274928e-05 0.00043039428 -7.4595387e-06 0.0011613261 -7.2651255e-07 -0.0004923568
-0.00097250217 2.002505e-06 -0.007179741 -0.0017052626 -0.003026705 -1.4634096e-05 -0.00067836046 0.00011720873
0.0038852913 -8.601172e-07 7.463006e-05 -0.0033538518 0.00137245 -0.0007634836 2.0815075e-07 -3.3244978e-05
0.0002166472 4.652763e-05 -1.0124583e-06 -0.00030054396 -0.002748275 0.0037529336 0.003153214 -0.0014747647
0.00084860215 -0.0026472956 0.00041664884 -0.0018747023 0.004156258 0.0026032121 -0.0051493794 0.0005017012
-0.0010755288 0.0003596856 0.000850508 0.0063705556 -2.1148102e-05 0.0030399088 -0.003251035 -0.0004982605
0.0026937528 1.4933195e-05 -0.0001743963 -0.0005494048 -0.00058487634 -0.00302913 0.0004988634 0.0072568255
0.0012693731 0.0047330996 7.707517e-05 -5.708228e-06 0.00049499754 0.0051481468 9.092201e-06 -0.00018226205
0.0020066923 0.00082984 0.0011979294 -0.00098102 -0.0001815592 -0.002968969 -0.0017530546 -0.000585672
-0.0006944833 1.3175868e-05 0.00018541263 0.0 0.006862352 -0.001954825 0.001305168 -0.0008386468
00000000: 8f43 003c 8438 4d39 6bfb f1b9 e1bc 5db7
00000010: 9a5f 6bbb 237e b33b 52c9 b434 8a00 893b
00000020: 9bb5 e5ba d4b0 65b9 48f0 0fba d052 103b
00000030: d2d4 24b9 6503 f235 798c 2f3b 8728 ff37
00000040: 9e9b 45b9 40ce 49bb 0ac9 663b 2d66 3c3b
00000050: 1af2 1fbb a8c9 9e39 7193 763a 2374 c73a
00000060: 314d be3a 943a d5b6 b7ca bb3b 6ebf ec3a
00000070: 053d 073b 9850 053a 68bf 84bb a0e8 75b7
00000080: 42e4 82ba 4656 5dbb 7b64 3138 8be1 3337
00000090: c7de 0c3a f4fb 0fbb 6355 1038 879c 53b9
000000a0: 03b6 2b3a 8e7d 61ba 011e 4238 f440 d335
000000b0: fffa 463a 1c7d 82bb 088d 0d3b cefe ffb9
000000c0: 6734 aa37 cb51 98b8 c52f d8ba 573d a6b7
000000d0: baf7 bd35 f94c c63b a00b 10b9 7cf0 e5b8
000000e0: 7573 a33b e69b 46b7 3c85 4fbb d3b3 a9b7
000000f0: 1e6d 8f3a 05ce 8f39 4a9e d03a 2903 95bb
00000100: 953b 26b6 1698 9abb 1d05 b23a 3bd4 04ba
00000110: 7dd2 0fb9 659b bc37 3a9f c33b f254 1bbb
00000120: 979c 623b 821c 40bb 32bd 24ba 8c74 dab8
00000130: 080a 2f36 affd a0b9 306b 8b38 fb93 1437
00000140: 69d0 1d3a 8427 c339 dc88 b03b 1e9d 113b
00000150: 7365 e638 501e 6839 6f18 5dba 921f 47b9
00000160: 5bf2 5139 0062 e3ba 7e1c bcb7 64a4 1eb9
00000170: 870e 8fb7 d907 4c37 725e 823a f89d 1f3a
00000180: 8fa4 54b7 16bc 16b9 e619 84ba 0570 9c3a
00000190: 8b00 d338 bead 68b9 78ae f23b 8b31 7dbb
000001a0: a4fe 89ba 2431 dc3a b047 8b34 dce8 403a
000001b0: f139 933b 73dc 9738 b269 d93a eafa b6b7
000001c0: 44b0 b4ba 69ea d6ba b20a e7ba 8459 9938
000001d0: 8121 77b7 0836 8dba d0ea 01bb f9dd 453b
000001e0: 2f4a 013a d2e8 cf3a 62b7 5eb7 8ba6 e139
000001f0: f34c fab6 a337 983a 9005 43b5 8111 01ba
00000200: 84ef 7eba c662 0636 0844 ebbb 1e83 dfba
00000210: af5b 46bb f784 75b7 00d4 31ba f5cd f538
00000220: 5fa0 7e3b cee2 66b5 b582 9c38 4ccc 5bbb
00000230: c8e3 b33a 8424 48ba 0b80 5f34 8670 0bb8
00000240: ca2b 6339 aa26 4338 cde3 87b5 5492 9db9
00000250: 671c 34bb c7f3 753b 27a6 4e3b e44c c1ba
00000260: ba74 5e3a 407e 2dbb a971 da39 92b8 f5ba
00000270: 3831 883b a79a 2a3b 20bc a8bb 9984 033a
00000280: c2f8 8cba 2f94 bc39 a0f4 5e3a 18c0 d03b
00000290: 3467 b1b7 3539 473b 510f 55bb b29d 02ba
000002a0: ac89 303b 9689 7a37 26de 36b9 ef05 10ba
000002b0: 6352 19ba 5e84 46bb 28c6 023a aaca ed3b
000002c0: 1861 a63a 1e18 9b3b 6ba3 a138 4e89 bfb6
000002d0: b9c2 013a c9b1 a83b b58a 1837 991d 3fb9
000002e0: b682 033b 9f89 593a d703 9d3a 9295 80ba
000002f0: ed60 3eb9 0993 42bb c0c6 e5ba c887 19ba
00000300: fc0d 36ba ec0d 5d37 536b 4239 0000 0000
00000310: 95dd e03b 851c 00bb 2c12 ab3a a2d8 5bba

layer2.weight f4 [200, 200]
0.026671708 0.07210238 -0.091351576 -0.110649034 0.019705748 -0.01680338 0.082195 0.017635433
-0.06930721 -0.06700106 0.013827186 0.033498924 -0.11357891 0.06316629 0.114150524 0.08973559
-0.0045818547 -0.11996643 -0.033545688 0.098457366 -0.08366124 -0.06140432 -0.04053952 0.057126917
-0.0019388091 -0.11961529 0.043623928 -0.0062853293 0.0019101838 0.002483204 -0.035125818 -0.068626076
0.0558375 -0.08524093 0.023635395 0.023739727 0.09408084 0.092324644 -0.044762693 0.034848794
0.012489491 -0.018301738 0.06522522 0.11560954 0.011025544 -0.046414 -0.0033347488 0.039223485
-0.037490454 0.0013406313 0.022472352 0.036009457 0.087634556 -0.040653706 -0.100442864 -0.030597555
-0.09351003 -0.0703323 -0.019136272 0.004930131 0.06990496 0.06396461 0.05760447 -0.074715234
0.05117728 0.04859225 0.10809623 0.0739271 0.010357549 0.12079617 0.10252358 -0.08326181
0.07624569 -0.012883754 -0.1103168 -0.0017571403 -0.09791591 0.061251964 0.0086774 -0.012416786
-0.019465575 -0.060127098 -0.12066181 0.06997096 0.024453629 -0.11974351 0.06254792 -0.10456732
-0.017651603 0.117862634 0.016580313 -0.06551273 -0.09811754 0.07320066 -0.07910204 -0.033924192
-0.07459386 0.084992886 -0.11418262 -0.0077659544 0.003419063 -0.056417562 0.108527586 -0.1197227
-0.033672694 0.04223011 -0.0017321893 0.03999497 -0.08457602 0.036620263 -0.05546209 0.102492936
-0.110346995 -0.035889305 -0.07221875 -0.09376576 -0.01960168 -0.07871513 -0.09529976 -0.062109113
-0.051025208 0.009560941 -0.01272775 0.0705994 0.061443187 -0.0659028 -0.046175286 -0.06812205
-0.04034459 -0.074480236 0.019696105 0.079728805 0.027445044 -0.05201412 -0.01701439 -0.09476423
0.036154516 0.1052065 -0.03720079 0.09762882 0.012209602 -0.046248138 0.07847382 -0.027959593
0.07256378 0.024280027 -0.09643771 -0.015119168 0.07250027 -0.055191852 -0.039158355 0.08414672
0.07774052 -0.0455878 -0.031989112 -0.025800658 -0.11081184 -0.11402047 0.062229138 0.11635963
0.08853716 -0.02923762 -0.013952623 0.037555955 -0.007172193 0.047752507 0.11560358 0.07630433
0.10413761 -0.04039849 -0.08556241 -0.029389562 -0.08454396 0.102472484 0.11430139 -0.09526866
-0.07687693 0.012568963 -0.026241811 -0.030377746 -0.094130285 0.050020352 0.004279506 -0.11684351
0.11267626 0.0952573 -0.0010405916 0.070142336 0.074581414 -0.10341491 0.07541266 0.012598455
-0.0028529065 -0.10984866 0.06406496 -0.00022983551 0.06600239 -0.013256772 -0.0031060544 -0.09322302
-0.07175872 0.009484846 -0.013190358 0.08849239 0.068245865 -0.0190734 -0.08126045 0.023699487
0.047469027 0.010689842 -0.01728481 0.10929361 -0.12139535 -0.03033179 0.098112926 -0.07759979
-0.03158298 0.04072245 -0.05406168 0.035600487 -0.02441606 -0.015100101 -0.10557631 -0.08964347
-0.006097798 -0.013552447 0.035642546 0.0144809 0.088660784 0.07697904 -0.121639825 0.07676498
0.015196926 0.036438193 0.036910567 0.003720564 0.0648756 -0.054456063 0.010629036 -0.011639994
0.122369975 -0.013873164 -0.030471224 0.043219708 0.075939804 0.045327734 0.06582206 -0.0062773484
0.01567449 -0.09900458 -0.06332683 -0.07126915 0.021830972 0.116527975 0.09179526 0.09523854
00000000: a07e da3c 6aaa 933d 8916 bbbd f69b e2bd
00000010: f36d a13c 3ea7 89bc da55 a83d 2f78 903c
00000020: f0f0 8dbd da37 89bd 6c8b 623c 2b36 093d
00000030: 0f9c e8bd 545d 813d c0c7 e93d 4bc7 b73d
00000040: 6223 96bb f6b0 f5bd 3467 09bd 04a4 c93d
00000050: 9656 abbd 1983 7bbd c50c 26bd eafd 693d
00000060: a31f feba dcf8 f4bd 01af 323d 2af5 cdbb
00000070: 225f fa3a 40bd 223b 17e0 0fbd d48b 8cbd
00000080: ddb5 643d cc92 aebd 049f c13c d179 c23c
00000090: 75ad c03d b414 bd3d 1659 37bd 9cbd 0e3d
000000a0: b9a0 4c3c 87ed 95bc cd94 853d b2c4 ec3d
000000b0: 7ca4 343c 9b1c 3ebd cd8b 5abb cea8 203d
000000c0: 978f 19bd 1fb8 af3a f017 b83c a77e 133d
000000d0: bf79 b33d 8084 26bd fdb4 cdbd b9a7 fabc
000000e0: 3082 bfbd 620a 90bd acc3 9cbc f08c a13b
000000f0: 552a 8f3d e1ff 823d aaf2 6b3d 4d04 99bd
00000100: 449f 513d ab08 473d 8e61 dd3d 1767 973d
00000110: b6b2 293c fb63 f73d e2f7 d13d 2b85 aabd
00000120: b326 9c3d 6216 53bc c6ed e1bd d84f e6ba
00000130: 2388 c8bd 57e3 7a3d a72b 0e3c c66f 4bbc
00000140: 4576 9fbc d547 76bd 8a1d f7bd ef4c 8f3d
00000150: fa52 c83c 163c f5bd 2019 803d 6427 d6bd
00000160: 189a 90bc f761 f13d 70d3 873c 8a2b 86bd
00000170: d9f1 c8bd 3aea 953d 4000 a2bd 18f4 0abd
00000180: aac4 98bd c010 ae3d 94d8 e9bd 8c79 febb
00000190: 5c12 603b 1a16 67bd b643 de3d 2d31 f5bd
000001a0: 61ec 09bd 7bf9 2c3d a10a e3ba c4d1 233d
000001b0: 3136 adbd 21ff 153d 372c 63bd d1e7 d13d
000001c0: 9bfd e1bd aa00 13bd 6de7 93bd 4308 c0bd
000001d0: b493 a0bc 6635 a1bd 852c c3bd 2066 7ebd
000001e0: cfff 50bd 7ea5 1c3c 0e88 50bc 6b96 903d
000001f0: daab 7b3d 0cf8 86bd 4c22 3dbd 9383 8bbd
00000200: 5e40 25bd 1889 98bd ba59 a13c db48 a33d
00000210: 6ed4 e03c c20c 55bd c361 8bbc c013 c2bd
00000220: c216 143d 8176 d73d db5f 18bd 9ef1 c73d
00000230: c80a 483c b06e 3dbd e2b6 a03d 840b e5bc
00000240: 529c 943d e8e6 c63c 2281 c5bd 63b6 77bc
00000250: 067b 943d da10 62bd 8364 20bd 1e55 ac3d
00000260: 6c36 9f3d 46ba 3abd 0407 03bd e75b d3bc
00000270: 51f1 e2bd 9083 e9bd fbe3 7e3d f54d ee3d
00000280: f852 b53d bc83 efbc 8b99 64bc 46d4 193d
00000290: b704 ebbb 2298 433d 92c1 ec3d 7245 9c3d
000002a0: 1946 d53d e378 25bd 583b afbd 61c2 f0bc
000002b0: 6225 adbd 18dd d13d d916 ea3d 371c c3bd
000002c0: a771 9dbd 0dee 4d3c 11f9 d6bc c0da f8bc
000002d0: 61c7 c0bd 24e2 4c3d 193b 8c3b a64b efbd
000002e0: d0c2 e63d 4216 c33d 7664 88ba c9a6 8f3d
000002f0: 24be 983d 32cb d3bd f471 9a3d c069 4e3c
00000300: d4f7 3abb 56f8 e0bd 7d34 833d 0000 71b9
00000310: 432c 873d ef32 59bc f28e 4bbb b6eb bebd
00000320: 3cf6 92bd 5466 1b3c 5f1c 58bc 803b b53d
00000330: 7dc4 8b3d d23f 9cbc e16b a6bd 6d25 c23c
00000340: e26e 423d 7224 2f3c e098 8dbc 54d5 df3d
00000350: 209e f8bd 607a f8bc 6eef c83d a4ec 9ebd
00000360: 285d 01bd 95cc 263d c86f 5dbd d1d1 113d
00000370: 3004 c8bc 6a66 77bc 6438 d8bd ff96 b7bd
00000380: 09d0 c7bb 150b 5ebc ebfd 113d 4c41 6d3c
00000390: c993 b53d 30a7 9d3d 4d1e f9bd f536 9d3d
000003a0: 87fc 783c 3740 153d 892f 173d b5d4 733b
000003b0: 80dd 843d 520d 5fbd 6925 2e3c acb5 3ebc
000003c0: 1c9d fa3d 444c 63bc ca9e f9bc 2607 313d
000003d0: 5486 9b3d 93a9 393d b7cd 863d 37b2 cdbb
000003e0: ca67 803c eac2 cabd 7fb1 81bd 8ff5 91bd
000003f0: ded6 b23c 38a6 ee3d 27ff bb3d 6c0c c33d

layer2.bias f4 [200]
0.0012986257 0.0017545482 -0.00012472147 0.0037077796 -0.00354162 3.205687e-05 0.0036113367 3.6942342e-06
0.0024230098 0.0009252887 -0.00029501022 0.0029544386 -2.646744e-07 0.004103425 -0.0013556373 0.00025529505
-1.7686878e-05 0.0019721359 -1.22382935e-05 0.002999042 -0.0028055492 -0.0027052884 0.0015627893 3.3467313e-05
0.010157883 -0.00039733958 -0.00025977983 0.004491241 0.00029543453 0.000106877174 0.004095883 -5.697128e-05
-0.00037786187 0.003929653 0.0 -0.001995181 0.0009670173 0.000117899 -5.641983e-06 -0.006065233
0.0014158179 0.0 -0.008323728 0.005954042 0.008561768 -0.002477031 0.0013140525 -0.007482108
0.001952768 0.00047254554 0.0 0.0059681386 0.0058941864 -0.0039863824 -0.002866383 -0.002924373
0.00040036265 1.029348e-06 0.0035649762 -0.00028077516 0.007480311 0.0 -0.0013886512 0.0019172651
-0.0058107045 0.006592155 9.597415e-05 0.005897015 -0.003184172 8.164492e-06 -0.00013369674 0.00548843
-0.0010813199 0.000109278284 8.547e-05 -0.0036846653 -0.0001606808 -0.0058676847 -1.9154813e-05 -0.00014634339
0.00021832889 -0.00015071109 -0.00035739137 -0.00028025167 0.0034937845 0.0004324645 0.0 0.0063812383
-0.004497666 0.0017990458 6.0448992e-06 1.5223863e-05 0.00297765 0.0048687034 -0.001153346 1.1112544e-05
0.008914536 0.00036889184 0.0013567958 -5.9063135e-05 0.00090062554 -0.00040628616 0.0016966122 3.2927546e-05
9.494444e-05 0.0028726778 -0.0018207054 0.0042430973 1.9701421e-05 -2.2820052e-05 0.009730025 -0.0016952656
-0.0001350536 -2.31057e-05 2.2307444e-05 -0.004990366 -0.002110626 -2.2273856e-05 -0.003708538 0.004715704
-0.000633334 7.358715e-06 0.00011627364 0.0016052376 0.003773345 -8.603723e-05 -0.00014674704 -0.003651271
1.243758e-05 0.0005696393 -0.0007239297 1.33203785e-05 0.00831646 0.001343241 0.0009729625 0.0029479384
0.0017425742 0.0015298381 -0.0015539421 -4.1951535e-05 -0.0048813513 -5.637197e-05 -0.0014955825 -0.00026497166
0.000508972 7.4959047e-07 0.000112104484 -0.002185313 -0.0058445088 0.008737124 0.006208444 0.009052912
-0.00509747 9.654986e-06 -0.00018310822 0.0 0.00917217 -0.0037774364 -1.0145526e-05 0.009140007
0.007897061 -0.0003454536 0.0008722305 0.0062862714 2.185601e-05 -0.010841457 -6.773842e-06 0.0050033075
-0.0009920864 2.6504097e-06 -0.0037249231 -0.0050986186 -0.004997723 0.00017047848 -0.00097148085 -0.0054324935
0.0021710678 3.5365276e-05 0.008854239 -0.0021309203 -0.00047025853 0.0042694155 -0.0058471938 -0.0043095862
2.2326662e-06 -0.0058484543 -0.005147791 0.0036171007 0.0070724483 -0.009928813 -0.0040470227 0.00026570723
-0.001134889 0.0018562253 -8.506075e-06 0.0042007426 0.010794237 5.1826064e-06 -0.0006226807 1.3573698e-06
00000000: a636 aa3a def8 e53a aac7 02b9 38fe 723b
00000010: 861a 68bb cd74 0638 2dac 6c3b 76ea 7736
00000020: 5ccb 1e3b 138f 723a 9aab 9ab9 419f 413b
00000030: 9318 8eb4 0676 863b a4af b1ba 1fd9 8539
00000040: 485e 94b7 f33e 013b 1253 4db7 938b 443b
00000050: 4edd 37bb 354b 31bb 82d6 cc3a 415f 0c38
00000060: 406d 263c 0452 d0b9 0f33 88b9 432b 933b
00000070: 8de4 9a39 3f23 e038 c236 863b 72f4 6eb8
00000080: c31b c6b9 52c4 803b 0000 0000 95c1 02bb
00000090: 6f7f 7d3a 8b40 f738 4450 bdb6 ddbe c6bb
000000a0: f792 b93a 0000 0000 3f60 08bc 201a c33b
000000b0: a846 0c3c af55 22bb 493c ac3a 792c f5bb
000000c0: 05f4 ff3a fdbf f739 0000 0000 6090 c33b
000000d0: 0524 c13b 33a0 82bb edd9 3bbb d6a6 3fbb
000000e0: c4e7 d139 2128 8a35 60a2 693b 0135 93b9
000000f0: 661d f53b 0000 0000 6703 b6ba be4c fb3a
00000100: b967 bebb 0103 d83b bb45 c938 bf3b c13b
00000110: 8bad 50bb 3afa 0837 f230 0cb9 4ad8 b33b
00000120: 13bb 8dba 552c e538 5b3e b338 6d7a 71bb
00000130: 6c7c 28b9 b545 c0bb a6ae a0b7 c173 19b9
00000140: 37ef 6439 3308 1eb9 4260 bbb9 beee 92b9
00000150: faf7 643b 67bc e239 0000 0000 b519 d13b
00000160: 2861 93bb f6cd eb3a 4ad5 ca36 fe69 7f37
00000170: ad24 433b a589 9f3b df2b 97ba 0370 3a37
00000180: 460e 123c d367 c139 83d6 b13a 8fba 77b8
00000190: f517 6c3a ce02 d5b9 dc60 de3a af1b 0a38
000001a0: e81c c738 8943 3c3b bca4 eeba ae09 8b3b
000001b0: 7b44 a537 b06d bfb7 af6a 1f3c ad33 deba
000001c0: 2d9d 0db9 1dd3 c1b7 df20 bb37 3986 a3bb
000001d0: 6e52 0abb bed8 bab7 f10a 73bb 3186 9a3b
000001e0: 5306 26ba e1ea f636 efd7 f338 d666 d23a
000001f0: 394a 773b e36e b4b8 1ce0 19b9 2a4a 6fbb
00000200: 00ab 5037 d953 153a 1ac6 3dba 977a 5f37
00000210: c341 083c b00f b03a 680e 7f3a 3332 413b
00000220: 1667 e43a d984 c83a a5ad cbba 1ef5 2fb8
00000230: bef3 9fbb f170 6cb8 6c07 c4ba e5eb 8ab9
00000240: 886c 053a 7737 4935 a319 eb38 7837 0fbb
00000250: 4b83 bfbb 2726 0f3c 3470 cb3b aa52 143c
00000260: ad08 a7bb d9fb 2137 bd00 40b9 0000 0000
00000270: df46 163c de8e 77bb b436 2ab7 f8bf 153c
00000280: ad62 013c ff1d b5b9 66a6 643a 11fd cd3b
00000290: 6d57 b737 5ea0 31bc dc4a e3b6 c9f2 a33b
000002a0: e508 82ba b1dd 3136 d71d 74bb 5012 a7bb
000002b0: f0c3 a3bb 78c2 3239 faaa 7eba 0f03 b2bb
000002c0: 7948 0e3b 2d55 1438 5f11 113c e9a6 0bbb
000002d0: 088d f6b9 74e6 8b3b d199 bfbb 6e37 8dbb
000002e0: ead4 1536 64a4 bfbb cdae a8bb e10c 6d3b
000002f0: ffbf e73b 76ac 22bc e39c 84bb 9f4e 8b39
00000300: 8ec0 94ba 964c f33a 50b5 0eb7 62a6 893b
00000310: 50da 303c 40e6 ad36 653b 23ba df2e b635

mu.weight f4 [4, 200]
0.10158264 0.06273958 -0.08344606 -0.002409304 -0.1651565 -0.04583906 0.07807961 0.16849247
0.10137674 -0.14758717 -0.075058065 -0.09634868 0.13717306 0.00827754 0.11241352 -0.065666765
0.16466543 0.12834835 0.07593599 0.101373024 0.06480469 0.07085908 0.020624932 -0.09197285
0.026676847 0.07931616 -0.004898006 0.12603228 -0.10531517 -0.1080004 0.14925393 -0.066082485
-0.16204396 0.000278956 0.020217717 -0.15085801 -0.14626902 0.028192254 -0.07392315 -0.039762482
-0.03658005 -0.14526296 -0.097391784 0.12755297 -0.0847436 -0.13628191 0.027153982 -0.060703844
-0.11250751 -0.030926904 0.16605778 -0.072977684 -0.07653961 0.084823534 0.04215134 -0.13361715
0.10878417 -0.07658662 0.03760356 0.110883616 -0.16815117 0.060665652 -0.14365782 -0.045311034
-0.027502542 0.099611364 0.12962765 -0.0754712 0.08260259 -0.051320225 -0.11868592 0.11597611
0.009968082 -0.023006603 -0.055852503 0.16211337 -0.012175654 -0.090698555 -0.13165957 0.09845673
-0.08559687 0.032674912 0.08712712 -0.039201185 0.11423492 0.015279288 -0.15205106 -0.12869693
0.077906586 -0.12595285 0.014888173 0.01675333 0.03904966 -0.053467665 0.0016294407 0.08040341
0.16004823 -0.09418216 -0.13205662 0.12539081 -0.040571865 0.150489 0.014965365 -0.08720072
-0.05373661 -0.13086195 0.09493403 0.14666244 -0.13473839 0.019323155 -0.008091878 -0.012674725
0.09889096 0.061262988 -0.027194168 0.048522923 -0.1049151 0.0023877039 -0.11766573 -0.109772235
-0.051338006 0.13260736 0.01817733 0.05391449 -0.028980192 -0.05448819 -0.09529628 0.13262928
0.029621983 -0.14865139 -0.062930524 -0.020134917 0.068412304 0.12232412 0.11973228 -0.12027005
-0.10061949 -0.15786152 0.039928194 -0.019639092 0.09177433 0.04468143 -0.13148163 -0.09101512
-0.06687068 -0.033765804 0.13436708 0.060713086 -0.052431818 -0.14003435 -0.1053799 -0.074928835
-0.028500315 0.0036926833 0.109396674 -0.00036516786 0.12524584 0.15327637 0.06681097 -0.011617657
-0.08644412 -0.119899146 -0.15292038 0.041720305 0.13698304 -0.07549906 -0.025108017 -0.08871955
0.0655118 -0.035464156 0.05468881 -0.106874205 0.1469376 -0.15829471 -0.14591615 0.13092716
-0.030160507 -0.14360115 -0.16084258 0.12184364 -0.06025219 0.07714128 -0.08187616 0.10542918
0.09294018 0.14316635 -0.1625065 0.04497734 0.08766219 0.15661287 0.04759333 0.11420979
-0.08739785 0.08164148 -0.08478351 -0.013329155 0.07911804 0.06058129 -0.004715076 0.1147453
0.060914498 -0.14162405 0.09276124 -0.051942803 -0.11807674 0.08462103 -0.12892593 -0.12974872
0.058431257 0.12355547 0.12840305 -0.106200635 -0.13694334 0.07747816 -0.11903129 -0.04864579
0.104451485 -0.04787674 -0.054184485 0.11735441 0.082891524 0.05810946 0.023497615 -0.024303336
-0.08001409 0.09224448 0.12915151 -0.16150801 -0.093633205 -0.058511097 -0.089879856 0.054718167
0.016855776 -0.16248722 -0.02933997 -0.025525887 0.1099831 -0.12778005 -0.002604636 0.05461695
-0.14156862 -0.054340236 0.064394124 -0.163827 -0.035881054 0.09920482 -0.16217849 0.082645796
-0.16993876 -0.073559605 0.010932952 -0.15563789 -0.051806707 -0.07169809 0.020696705 0.064842306
00000000: 8f0a d03d 9c7d 803d c5e5 aabd 6ae5 1dbb
00000010: c91e 29be bdc1 3bbd 34e8 9f3d 4a89 2c3e
00000020: 9c9e cf3d 1721 17be 0bb8 99bd 7552 c5bd
00000030: 1877 0c3e 859e 073c 0f39 e63d 4c7c 86bd
00000040: 0e9e 283e c06d 033e 5484 9b3d a99c cf3d
00000050: 52b8 843d 911e 913d 9ef5 a83c 435c bcbd
00000060: 6789 da3c 8370 a23d 747f a0bb 9b0e 013e
00000070: 7baf d7bd 502f ddbd 06d6 183e 4156 87bd
00000080: daee 25be d740 9239 a09f a53c 867a 1abe
00000090: 8cc7 15be 71f3 e63c 0565 97bd fcdd 22bd
000000a0: f6d4 15bd d0bf 14be 5875 c7bd 3f9d 023e
000000b0: 0d8e adbd 7c8d 0bbe 0772 de3c 98a4 78bd
000000c0: 566a e6bd 6b5a fdbc 0d0b 2a3e 5375 95bd
000000d0: cdc0 9cbd f6b7 ad3d e2a6 2c3d efd2 08be
000000e0: 3cca de3d 72d9 9cbd 3106 1a3d f316 e33d
000000f0: d22f 2cbe 8c7c 783d 091b 13be 1098 39bd
00000100: 034d e1bc 0b01 cc3d 1cbd 043e a590 9abd
00000110: 8c2b a93d 2835 52bd 9b11 f3bd e284 ed3d
00000120: 2b51 233c 5878 bcbc 98c5 64bd 0c01 263e
00000130: 657c 47bc 2ac0 b9bd c4d1 06be afa3 c93d
00000140: 694d afbd 21d6 053d b46f b23d 6c91 20bd
00000150: fff3 e93d fb55 7a3c 46b3 1bbe 21c9 03be
00000160: 7d8d 9f3d c9f9 00be 86ed 733c 483e 893c
00000170: 89f2 1f3d e900 5bbd f592 d53a 8baa a43d
00000180: afe3 233e 94e2 c0bd da39 07be 7366 003e
00000190: af2e 26bd ca19 1a3e 4a31 753c 4b96 b2bd
000001a0: eb1a 5cbd ad00 06be c66c c23d ae2e 163e
000001b0: dcf8 09be 984b 9e3c cc93 04bc a6a9 4fbc
000001c0: 5887 ca3d e6ee 7a3d 4ec6 debc f9bf 463d
000001d0: badd d6bd 067b 1c3b bbfa f0bd 44d0 e0bd
000001e0: cd47 52bd 39ca 073e a0e8 943c 71d5 5c3d
000001f0: de67 edbc 022f 5fbd b22a c3bd f8cf 073e
00000200: cda9 f23c 1238 18be b8e1 80bd fbf1 a4bc
00000210: c01b 8c3d 1185 fa3d 3336 f53d 2550 f6bd
00000220: 9711 cebd 73a6 21be bf8b 233d 29e2 a0bc
00000230: 2ef4 bb3d e003 373d 1fa3 06be 2366 babd
00000240: 7ff3 88bd 034e 0abd 8697 093e 49ae 783d
00000250: bfc2 56bd 2a65 0fbe 6bd1 d7bd 4a74 99bd
00000260: 7e79 e9bc f200 723b 5d0b e03d 0074 bfb9
00000270: 7240 003e 7bf4 1c3e 31d4 883d fc57 3ebc
00000280: 9d09 b1bd af8d f5bd 2997 1cbe e9e2 2a3d
00000290: 4845 0c3e 409f 9abd 54af cdbc 98b2 b5bd
000002a0: 0d2b 863d dd42 11bd 6001 603d dde0 dabd
000002b0: cf76 163e 0218 22be 0b6b 15be c511 063e
000002c0: 2b13 f7bc 2e0c 13be ebb3 24be 2989 f93d
000002d0: 00cb 76bd 3ffc 9d3d b0ae a7bd 41eb d73d
000002e0: 6c57 be3d 339a 123e 1b68 26be 293a 383d
000002f0: 3c88 b33d 205f 203e 39f1 423d d3e6 e93d
00000300: a5fd b2bd a633 a73d faa2 adbd 8762 5abc
00000310: a408 a23d 1624 783d ed80 9abb 95ff ea3d
00000320: 7b81 793d e505 11be 9bf9 bd3d fac1 54bd
00000330: 38d2 f1bd ca4d ad3d 2905 04be d9dc 04be
00000340: 9d55 6f3d a60a fd3d 177c 033e b87f d9bd
00000350: e03a 0cbe dfac 9e3d adc6 f3bd cf40 47bd
00000360: a9ea d53d 671a 44bd 8df0 5dbd 8257 f03d
00000370: 08c3 a93d 2f04 6e3d 127e c03c ca17 c7bc
00000380: 6dde a3bd adea bc3d 4b40 043e 5b62 25be
00000390: c4c2 bfbd 55a9 6fbd ee12 b8bd 2820 603d
000003a0: 2015 8a3c 0d63 26be 605a f0bc aa1b d1bc
000003b0: d23e e13d c6d8 02be 8ab2 2abb 06b6 5f3d
000003c0: 5df7 10be de93 5ebd 11e1 833d 44c2 27be
000003d0: 03f8 12bd e62b cb3d 1e12 26be 3342 a93d
000003e0: 6d04 2ebe 6ba6 96bd 2020 333c 8a5f 1fbe
000003f0: 4533 54bd 73d6 92bd 238c a93c 0bcc 843d

mu.bias f4 [4]
-0.0055877566 -0.033111084 -0.04373696 -0.0072615957
00000000: 8019 b7bb 7d9f 07bd 8725 33bd aef2 edbb
