llirl_sumo/saves/sumo_single_intersection/optimal_policy_period_3.pth (torch, 196916 bytes, 7 tensors)

sigma f4 [4]
000000 d6 46 c9 bc 77 69 2d bd c2 c2 3a bb 85 60 b1 bc
       -0.02456991 -0.042336907 -0.0028497432 -0.02165247

layer1.weight f4 [200, 36]
000000 d4 9d 69 3d 37 95 28 3e e9 b9 57 bb 4f 5d f7 3c
       0.057035282 0.16463171 -0.0032917208 0.03019586
000010 56 23 5b 3d ed fd 70 3d 31 be 6b bd 6b ad b1 3d
       0.053500496 0.058835912 -0.057554428 0.08675655
000020 da bd 1a bd 56 f7 bc 3d 71 fd 8c bc d2 b6 70 3d
       -0.037778713 0.09226863 -0.017210694 0.0587681
000030 ca bb d3 3d 25 e1 cb bd ce 8b 49 3d 39 a6 e1 3c
       0.10338552 -0.09955052 0.049205594 0.027545081
000040 06 7c fa bd 5f 01 d6 bc 3c fd 85 3b 55 7f 02 3e
       -0.12230687 -0.0261237 0.004089026 0.12743886
000050 85 70 9f bd b6 39 ec 3d 4e 1d 89 bd 77 ec 89 3d
       -0.07785133 0.11534445 -0.066950426 0.06734555
000060 4e ca 0b 3d 0d 47 d7 3d 2d 71 ca 3d 93 14 12 be
       0.03412848 0.10511599 0.09884868 -0.14265661
000070 1a a2 06 bc 44 cd 19 be 48 5a ee 3a 0c e6 c0 bd
       -0.008217359 -0.15019709 0.0018184865 -0.09418878
000080 15 b6 0e 3e e6 74 a5 3d 6a 3a 9a bd 45 a9 c0 3c
       0.13936646 0.08078937 -0.07530673 0.023518214
000090 b9 f6 c3 bd cb 2a 18 be a0 b7 a7 3d 2e f6 e7 bc
       -0.09568543 -0.14860074 0.081893206 -0.02831563
0000a0 58 8a 0d bb 70 91 bb ba b0 9b 3e 3d c8 d5 a4 3d
       -0.0021597352 -0.0014310312 0.046535194 0.08048588
0000b0 00 a6 69 bd ec e7 7f bc 9f 07 a4 bd 48 2c 9c bd
       -0.057043076 -0.015619259 -0.08009266 -0.076256335
0000c0 60 14 5c bd 72 d4 da 3c 6e e0 f0 bd 5c 5e ac ba
       -0.05373037 0.02671263 -0.117615566 -0.001315068
0000d0 ca 9d 04 3e ce 65 0f be 53 15 9e 3c 1b 20 da 3d
       0.12950817 -0.14003679 0.019297278 0.10650655
0000e0 ee 4f 86 3c b8 eb bb 3d 5f 0a b6 bd fa 3b 03 3c
       0.016395535 0.09175819 -0.08888697 0.008009905
0000f0 bf c2 45 bd 78 b4 12 3c 12 62 ec bc 99 b1 b7 3c
       -0.048281427 0.00895416 -0.028855357 0.022423552
000100 c5 0b 14 3e 90 32 2a bd 3c 42 06 3d 5e 0f d5 bd
       0.14457615 -0.041552126 0.03277801 -0.10403322
000110 6b dc be 3d 38 ff 15 3d 22 fb c7 bd 6f 4d e8 3d
       0.09319385 0.03662035 -0.09764697 0.11342894
000120 7a 5a be bd ea 1e f6 bd c0 2b 1a be 78 dd b1 bd
       -0.09294601 -0.12017615 -0.15055752 -0.0868482
000130 a8 5b f8 bc bc c8 95 bd 92 56 1e 3e cc a0 11 be
       -0.030317143 -0.07313678 0.15462711 -0.14221495
000140 60 ac ae bc 8e 51 de bd af 1e 20 3e 43 42 37 bd
       -0.02132243 -0.10855399 0.15636705 -0.044740926
000150 88 0d 0f be 23 f6 95 3d ff cf a7 bd 09 27 9e 3d
       -0.13970006 0.073223375 -0.08193969 0.07722289
000160 c8 f8 21 3e 7b b8 ff bc 7c d7 c1 bb d7 a0 0c be
       0.15817559 -0.031215897 -0.0059155803 -0.1373323
000170 53 60 99 bc 7d 72 d0 3d 8f 6a d3 3d ed 80 8a 3d
       -0.018722689 0.10178087 0.10323059 0.06762872
000180 0b 90 01 be 33 6b f6 3d 9d 4a aa 3d cb 67 0a bd
       -0.12652604 0.120321654 0.083150126 -0.03379039
000190 ab 17 18 be c7 02 f5 3d d3 c7 93 bc ff 4f e5 bd
       -0.14852779 0.1196342 -0.01803962 -0.11196899
0001a0 7f e3 d7 3d 61 2b 17 be f2 6a 1b be 87 9c d8 3d
       0.10541438 -0.14762641 -0.15177515 0.1057673
0001b0 6c 4b df 3d 40 c0 19 bc 45 07 19 bc 8c e5 76 bd
       0.109030575 -0.009384215 -0.009340112 -0.060277507
0001c0 e8 4d f0 bd 0e 3f a3 bd 4d af db bd f8 6f 14 bc
       -0.117336094 -0.07971011 -0.10726795 -0.009059899
0001d0 12 0f 63 bd 43 0c a7 bc 43 99 c6 bd 00 7d 8e 3d
       -0.055434294 -0.020391589 -0.09697201 0.069574356
0001e0 24 f6 9d 3d 87 17 44 bd 7e 55 e2 3d 50 ba d7 3c
       0.07712963 -0.047874 0.110514626 0.026333958
0001f0 ab 91 0f be 42 9c 70 bd 47 b8 12 be d0 2f 30 bd
       -0.14020412 -0.05874277 -0.14328109 -0.043014348
000200 65 84 b4 3d 20 75 a6 bc 34 b9 76 bd d7 a3 cc 3a
       0.08814315 -0.020319521 -0.060235217 0.0015612793
000210 0e b1 5e bd 92 17 21 be 24 b9 11 bc 76 77 1a be
       -0.05436807 -0.15731648 -0.008894239 -0.15084633
000220 20 a8 0a 3d 82 5e 82 bd 5c ff 0b 3d ee 34 e7 bd
       0.033851743 -0.06365682 0.034179077 -0.112893924
000230 7f 83 cb 3c f0 02 b9 3c ce fd a8 bd e6 f7 28 bc
       0.024842976 0.022584409 -0.082515344 -0.01031301
000240 44 70 59 3d 42 29 03 bd 77 da 52 bd 01 1d c4 3d
       0.05308558 -0.03202177 -0.051477876 0.095758446
000250 e2 a0 0b 3e 4f 4b af bd d2 b2 2a 3c 8f c0 46 bd
       0.1363559 -0.08559286 0.010418611 -0.048523482
000260 6e d3 58 bc 20 b7 b5 3d 6f fa ab bc 2a 62 8b bc
       -0.0132340025 0.08872819 -0.02099344 -0.017014582
000270 58 20 36 3d cf df da 3d 08 be 0f 3e 35 02 84 3d
       0.04446444 0.10687219 0.14037335 0.064457335
000280 de dc af bd f8 c3 59 bd 2b 8b ea bd 3e 1c 1f be
       -0.08587049 -0.053165406 -0.114523254 -0.15538117
000290 f9 39 21 be 70 af f7 bc 21 f2 44 3d 28 e0 0c 3e
       -0.15744771 -0.030235022 0.048082475 0.13757384
0002a0 68 c5 6a 3b 68 b5 1f be 6b a3 a1 bd b2 fc ed 3d
       0.003582323 -0.15596545 -0.07892498 0.116204634
0002b0 84 f1 0b 3e 77 1d 1c 3d 45 9c d8 bc af 18 e0 3d
       0.1366635 0.038114037 -0.026441703 0.10942208
0002c0 08 86 14 3d 27 50 e4 bd 2b 5a bf bd 1a 53 41 bd
       0.036260635 -0.111481 -0.0934337 -0.047198392
0002d0 82 b9 2d bd 11 72 9a bd a2 3a 32 bd e8 70 c6 3d
       -0.042413242 -0.07541288 -0.043512948 0.09689504
0002e0 db 8b df 3d 5e 18 24 bd 9d e7 b8 3d 8f 94 df 3d
       0.10915347 -0.0400623 0.09028552 0.10917007
0002f0 da ec 89 bd c9 06 ff 3d b6 63 3e 3d a7 f6 56 bd
       -0.06734629 0.12452466 0.04648181 -0.05248132
000300 1f b9 20 3e 9e f5 c2 bc 94 6d ab 3a 54 f5 57 3d
       0.15695618 -0.02379876 0.0013078921 0.052724198
000310 06 d6 9e 3c 29 99 ec 3c 7a 1b 85 bd a5 71 2d 3d
       0.019389164 0.028881626 -0.06499381 0.042344708
000320 29 05 dd 3c 0d 29 df bc 5a 8c 09 be af 4a 54 bd
       0.02698 -0.027241254 -0.13432446 -0.051829036
000330 60 79 1f 3e 5d 01 e2 3d 23 7f 63 3d c1 ba 82 bd
       0.15573645 0.11035416 0.05554117 -0.06383277
000340 f7 28 af 3d c5 55 d9 3d 4e a3 bb bd 9b 48 1f bd
       0.08552735 0.10612062 -0.09162007 -0.0388876
000350 87 5a fe bd 13 44 1d be b3 75 1b 3e cf 78 25 3d
       -0.124196105 -0.15358 0.15181617 0.040398415
000360 a4 b1 5e bc 25 0c 87 bc 1c db 94 bb b4 82 21 3e
       -0.0135921575 -0.016485283 -0.0045427214 0.15772516
000370 ec 46 10 be 2e ee e9 3d 82 0c 92 3d 7e 52 00 bc
       -0.14089555 0.11422382 0.07131292 -0.007832168
000380 0e ef 90 bd 09 a8 25 bd 66 a7 96 bd a0 e8 59 3d
       -0.07076846 -0.040443454 -0.073561475 0.053200364
000390 8a 1b f0 3d ae fe d7 3d a5 31 f8 bd 45 76 b9 3d
       0.11724003 0.10546623 -0.12118844 0.09055761
0003a0 cf 13 19 3d 06 74 16 bd fa 6d e9 bd 3e 0a a6 bd
       0.037372407 -0.036731742 -0.113979295 -0.08107422
0003b0 56 bd 09 3e 80 64 00 3d 46 fb db bd a6 d8 b1 ba
       0.13451132 0.031345844 -0.10741286 -0.0013568595
0003c0 b0 3b 92 bd 5c f1 00 bd 55 99 94 3d 65 61 14 be
       -0.07140291 -0.03148018 0.07255808 -0.14490278
0003d0 fc 6c ee bd f4 2d c4 bd b6 18 c6 bd 00 d0 cc bd
       -0.11641881 -0.09579077 -0.09672682 -0.1000061
0003e0 2b 56 cf 3d 3c 80 17 3e f7 e0 fb bd 46 9d b0 bd
       0.10123857 0.14795011 -0.12298768 -0.086237475
0003f0 4e d7 d3 3d 34 ea a2 3d 71 df 00 be 19 45 0b bd
       0.103438005 0.07954827 -0.12585236 -0.034001444

layer1.bias f4 [200]
000000 f4 ec 16 3c dc 08 ce 39 36 3f 1c b9 7c 89 db b6
       0.009211767 0.00039297983 -0.00014900867 -6.542714e-06
000010 eb 9b 79 bb 55 e1 fa 3b 67 4c d4 37 62 fd 9e 3b
       -0.003808732 0.007656256 2.5307947e-05 0.004851983
000020 27 e3 af ba d3 41 0d ba c0 77 79 3a dc 8c 1b 3b
       -0.0013419137 -0.0005388532 0.00095164403 0.0023735082
000030 d9 1a 83 ba 8b 2e 9a b7 64 f3 1c 3b 29 a7 fc 38
       -0.0010002508 -1.8379904e-05 0.0023948783 0.000120474324
000040 74 57 d1 37 0c d7 43 bb f3 84 75 3b be be bf 3b
       2.4955465e-05 -0.0029882817 0.0037463277 0.0058515957
000050 e9 cb 25 bb 95 3f b3 b8 61 f1 aa 3a 93 7f 04 3b
       -0.0025298542 -8.547228e-05 0.0013041907 0.0020217642
000060 b4 03 09 3b 8d 24 8c 36 6a 55 b4 3b 8c a9 e0 39
       0.0020906748 4.17658e-06 0.005503346 0.00042850932
000070 72 e5 89 3a 1a 27 45 3a 22 d7 6f bb 70 60 4d b9
       0.001052065 0.000752078 -0.0036596735 -0.00019586249
000080 40 82 14 bb e1 f2 3d bb 25 c9 b2 ba c7 63 0b 38
       -0.0022660643 -0.0028983878 -0.0013640268 3.3233107e-05
000090 a6 38 1d 3a 44 c3 ff ba 6f 7c 22 39 ca 82 3b ba
       0.0005997516 -0.001951315 0.00015495879 -0.0007152973
0000a0 ca 27 a7 3a d4 1e 43 3a 15 b3 76 36 56 24 59 36
       0.0012752947 0.00074432534 3.6761096e-06 3.235667e-06
0000b0 c4 25 86 39 8b 2f 6e bb f1 02 d4 3a 24 48 35 ba
       0.0002558661 -0.0036344256 0.0016175193 -0.0006915352
0000c0 d4 8a 23 38 c6 0e cc b8 76 d4 ca ba 1d 3a fd b7
       3.8991522e-05 -9.73023e-05 -0.0015474695 -3.0187011e-05
0000d0 78 db 66 b5 2a a2 aa 3b 05 0d 60 ba cc 92 0a 38
       -8.6001046e-07 0.0052073197 -0.0008546862 3.303848e-05
0000e0 e3 db b7 3b 42 5e 5c b9 37 52 3f bb 24 5d d7 ba
       0.0056109293 -0.00021015949 -0.002919329 -0.0016430956
0000f0 9a 9c 1b 3b 06 6e e0 38 ce f4 0e 3b 30 34 97 bb
       0.0023744465 0.00010701646 0.0021813395 -0.0046143755
000100 10 65 8e 35 6d 78 b2 bb 89 7f b6 b9 9c 4f 3f 3a
       1.0609238e-06 -0.005446485 -0.00034808766 0.00072979345
000110 e7 1e 8b b9 f6 6a e3 37 eb 34 c2 3b 9b 28 3d bb
       -0.0002653517 2.7110316e-05 0.0059267185 -0.0028863314
000120 5b 0e 9b 3b 98 2b 3f bb 85 2c b0 ba a7 9a 63 b9
       0.004731936 -0.002917027 -0.0013441002 -0.0002170602
000130 cf 6f 9b 36 df 2c 7b 38 a3 1e 8e 38 b0 5a 22 37
       4.632376e-06 5.9884853e-05 6.776794e-05 9.677067e-06
000140 51 55 92 3a e6 ad 15 b7 4b 78 d2 3b 3a a1 80 3b
       0.0011164342 -8.921581e-06 0.0064230314 0.0039254697
000150 cc db 34 39 0c 8c 28 ba df 69 c1 38 9e ad 90 38
       0.00017248018 -0.000642956 9.222677e-05 6.898794e-05
000160 9b 9e 20 39 fa 05 5e bb 19 fe b5 b7 a5 59 0c 39
       0.00015317874 -0.0033878074 -2.1695205e-05 0.00013384836
000170 69 9e 20 b7 83 5d 86 ba 31 a1 39 3a 9a 70 df ba
       -9.573626e-06 -0.0010251257 0.00070812093 -0.0017047108
000180 25 1c bc b7 c0 1b 20 3b 59 f9 e1 39 25 e6 4c 3a
       -2.2424452e-05 0.0024430603 0.00043101123 0.00078162766
000190 95 26 a9 b8 ad fc be b9 3e 2a 18 3c b4 9e 97 bb
       -8.0657344e-05 -0.00036427882 0.009287415 -0.004627073
0001a0 9b 15 00 bb 33 ae 35 3b 5a b9 92 b6 0f 1d dc 39
       -0.0019544128 0.002772224 -4.372717e-06 0.0004198332
0001b0 e8 b6 8f 3b ce ca 1f 39 94 b5 00 3b e1 14 91 b8
       0.004385818 0.00015238972 0.001963948 -6.918028e-05
0001c0 38 73 9b ba 1b 9f 0b 3a d5 fa a1 ba 5a 90 40 39
       -0.0011859899 0.0005326138 -0.0012358079 0.00018364322
0001d0 aa ab 86 b7 39 fd 53 ba e3 8e 32 bb 92 7c 35 3b
       -1.6053982e-05 -0.00080867443 -0.0027245812 0.0027692658
0001e0 2d c0 ce 39 a0 ff eb 3a 5b 3e 98 b7 8b d8 50 3a
       0.00039434564 0.0018005259 -1.8148849e-05 0.0007966838
0001f0 a9 49 df b6 bf 8d eb 3a cc 21 a1 36 55 c9 a4 b9
       -6.654493e-06 0.0017971321 4.8021084e-06 -0.00031430522
000200 3f b6 06 39 1d 4d b2 36 17 ff 34 bc 95 5c 74 bb
       0.00012847128 5.3137906e-06 -0.011047146 -0.0037286629
000210 37 00 42 bb fc 1f d5 b7 25 e8 c3 b9 b3 7f 08 39
       -0.002960218 -2.5406473e-05 -0.0003736626 0.00013017542
000220 50 41 5e 3b 3b f7 06 b3 d0 55 29 3a 29 21 8c bb
       0.003391344 -3.142416e-08 0.00064596254 -0.004276414
000230 ee f3 ce 39 8e cf b4 ba d1 d5 44 b6 5d 4b 87 b7
       0.00039473124 -0.0013794766 -2.9330733e-06 -1.6128348e-05
000240 4c 2c 73 3a f8 6e 90 38 35 99 0e 36 87 93 f0 b8
       0.0009276315 6.8871246e-05 2.1248827e-06 -0.00011471571
000250 be 4f 1f bb b2 22 5b 3b 28 e7 78 3b 41 d1 f2 3a
       -0.0024309005 0.0033437428 0.0037979577 0.0018525497
000260 67 c2 a6 b8 b5 d8 45 bb e6 52 5e 3a 83 f5 34 bb
       -7.951707e-05 -0.0030188982 0.0008480981 -0.0027612157
000270 49 fa bb 3b 59 00 3a 3b 93 e2 d9 bb 71 13 05 b9
       0.0057366234 0.0028381555 -0.006649324 -0.00012691111
000280 0d cc d6 ba 11 b5 a3 3a 3b dd d7 39 ab 75 ee 3b
       -0.0016387716 0.0012489875 0.00041172825 0.0072772107
000290 93 6c f2 37 4f 5d 78 3b 5c 23 83 bb 9e 89 16 ba
       2.8899207e-05 0.0037897413 -0.004002018 -0.00057425525
0002a0 04 cb d4 3a 7f 13 01 38 a0 a7 21 b9 5b 46 5f 39
       0.001623482 3.0774154e-05 -0.00015416602 0.00021293147
0002b0 79 d6 5f 39 8d 38 6d bb 12 94 40 b9 fa 33 0e 3c
       0.00021346835 -0.0036197037 -0.00018365707 0.008679384
0002c0 bd 2d 79 39 4a 9e c3 3b 64 fb 84 38 37 f7 df b7
       0.0002376353 0.0059697973 6.341076e-05 -2.669879e-05
0002d0 63 5d 4c 3b 93 81 f6 3b 33 01 b0 36 9c 7e 0f ba
       0.0031183593 0.0075227707 5.2453483e-06 -0.00054738834
0002e0 a9 fd 9f 3a 61 74 29 3a 55 5e 02 3b 69 e3 70 ba
       0.0012206334 0.000646418 0.0019892652 -0.000918916
0002f0 6d 52 f4 ba a0 81 29 bb 3c 88 3f bb 30 56 14 ba
       -0.0018640287 -0.0025864616 -0.002922549 -0.0005658595
000300 81 30 b0 ba 71 5c d0 37 54 03 55 39 00 00 00 00
       -0.001344219 2.4838579e-05 0.00020314503 0.0
000310 8c 29 05 3c 98 2b 9d bb d1 91 1f 3a c0 df 62 39
       0.008127581 -0.0047964565 0.0006087097 0.00021636393

layer2.weight f4 [200, 200]
000000 49 fc d7 3c 6d b0 93 3d 7f 17 bb bd f6 9b e2 bd
       0.026365416 0.07211385 -0.09135341 -0.110649034
000010 a2 9a 9f 3c 6d ed 8a bc db 55 a8 3d 58 5f 8f 3c
       0.019482914 -0.016958917 0.08219501 0.017501518
000020 6e 24 8e bd b0 34 89 bd cd ca 62 3c 3e e2 08 3d
       -0.06940542 -0.066995025 0.013842297 0.033418886
000030 d0 b0 e8 bd 06 5d 81 3d a0 80 e9 3d 91 c4 b7 3d
       -0.11361849 0.06316571 0.114014864 0.08973039
000040 ac 29 96 bb a8 08 f6 bd c6 7e 0a bd 5c 5a c9 3d
       -0.0045826044 -0.1201337 -0.033812307 0.09831688
000050 e6 68 ab bd 46 9e 7b bd c1 04 26 bd 93 93 69 3d
       -0.08369617 -0.06143024 -0.040531877 0.057025503
000060 f9 1b 18 bb dc f8 f4 bd b9 21 32 3d 5f b1 d1 bb
       -0.0023210032 -0.11961529 0.04348919 -0.006399318
000070 c7 8f 01 3b ff 83 22 3b 11 54 10 bd 34 8b 8c bd
       0.0019769536 0.0024797914 -0.035236422 -0.068624884
000080 f7 a6 64 3d 1e 8c ae bd 32 79 c1 3c 38 7a c2 3c
       0.055823293 -0.08522819 0.02361736 0.023739919
000090 09 b1 c0 3d f7 ae bc 3d d4 57 37 bd 54 46 0e 3d
       0.09408767 0.092130594 -0.044761494 0.03473504
0000a0 f7 cb 4c 3c d5 02 96 bc 11 95 85 3d be c4 ec 3d
       0.012499801 -0.018311897 0.06522573 0.11560963
0000b0 80 bc 34 3c e1 1a 3e bd de a6 66 bb f7 a7 20 3d
       0.01103127 -0.046412352 -0.0035194675 0.039222684
0000c0 53 8f 19 bd 29 fe ad 3a be 7c b6 3c 0d 7f 13 3d
       -0.0374902 0.0013274598 0.022276279 0.036009837
0000d0 bf 79 b3 3d 18 6d 27 bd a4 e1 cd bd b6 a6 fa bc
       0.087634556 -0.040875524 -0.10052803 -0.030597072
0000e0 dc bb bf bd ef 0b 90 bd cb 2f 9f bc 2a 4b a2 3b
       -0.09362003 -0.07033526 -0.01943197 0.004952808
0000f0 38 06 8f 3d 19 fe 82 3d d0 e8 6b 3d 66 89 99 bd
       0.06983608 0.063961215 0.057595074 -0.0749691
000100 59 9f 51 3d b0 82 45 3d 67 ec dc 3d 50 29 97 3d
       0.051177356 0.048220336 0.10787278 0.073809266
000110 1d c4 29 3c ff 63 f7 3d a6 92 d1 3d 0b ed aa bd
       0.010361698 0.120796196 0.10233049 -0.083459936
000120 9c 8f 9b 3d 30 81 52 bc 63 ee e1 bd 4c c9 e5 ba
       0.07595751 -0.0128481835 -0.11031797 -0.0017531305
000130 db 87 c8 bd 2d e0 7a 3d 83 2b 0e 3c b2 6f 4b bc
       -0.097915374 0.061248947 0.008677366 -0.012416767
000140 16 89 9f bc eb 48 76 bd 1e 6c f7 bd 51 24 8f 3d
       -0.019474547 -0.060128134 -0.120811686 0.06989349
000150 a9 4e c8 3c 5b 37 f5 bd 03 02 80 3d b5 24 d6 bd
       0.02445157 -0.11973449 0.06250384 -0.1045622
000160 39 95 90 bc 1b 42 f1 3d a2 d3 87 3c 63 2b 86 bd
       -0.01764928 0.11780187 0.016580407 -0.06551244
000170 d9 f1 c8 bd 4a f4 95 3d f2 03 a2 bd 23 27 0b bd
       -0.09811754 0.07321985 -0.07910909 -0.03397287
000180 97 c4 98 bd cd 5a ad 3d b6 02 ea bd df 40 01 bc
       -0.074593715 0.084645845 -0.11426298 -0.007889002
000190 77 17 60 3b 91 1a 67 bd 94 c6 dc 3d 03 2f f5 bd
       0.0034193674 -0.05642182 0.10780063 -0.119718574
0001a0 c9 e8 09 bd 9e c5 2a 3d 8b 0d e3 ba 23 cf 23 3d
       -0.033669267 0.04169237 -0.0017322762 0.039992463
0001b0 7d fe ad bd 6c ff 15 3d 4f f8 63 bd a8 e7 d1 3d
       -0.084958054 0.036620542 -0.055656727 0.10249263
0001c0 c3 fb e1 bd 75 2e 13 bd b3 be 93 bd c5 06 c0 bd
       -0.11034348 -0.035932977 -0.07214107 -0.09376291
0001d0 a4 93 a0 bc fc 67 a1 bd 9e 56 c3 bd 73 eb 7e bd
       -0.01960165 -0.078811616 -0.09538005 -0.06223626
0001e0 3f f7 50 bd e6 da 1b 3c 9d 87 50 bc 9c 90 90 3d
       -0.051017042 0.009512639 -0.012727645 0.07058832
0001f0 81 ae 7b 3d 31 80 87 bd 4c 22 3d bd 2b 8d 8b bd
       0.061445717 -0.066162474 -0.046175286 -0.06814035
000200 f5 d0 25 bd 11 89 98 bd 18 b6 a0 3c f9 4a a3 3d
       -0.04048248 -0.07448018 0.019618079 0.07973284
000210 c9 52 e0 3c bc 0c 55 bd 4f 76 8b bc ea 13 c2 bd
       0.027383225 -0.052014098 -0.017024187 -0.094764546
000220 40 28 13 3d 81 76 d7 3d 8b 68 18 bd 26 cc c7 3d
       0.035927057 0.1052065 -0.037209075 0.09755735
000230 a0 e9 43 3c f5 4f 3d bd de b6 a0 3d 84 0b e5 bc
       0.011957556 -0.04621883 0.07847379 -0.027959593
000240 99 9a 94 3d d6 e6 c6 3c 81 80 c5 bd 47 b7 77 bc
       0.0725605 0.024279993 -0.09643651 -0.01511938
000250 02 77 93 3d 35 74 62 bd eb c3 20 bd f8 02 ac 3d
       0.07200433 -0.055286605 -0.039249342 0.08399004
000260 53 f5 9e 3d de e1 3a bd 04 78 04 bd ea 4a d3 bc
       0.07761636 -0.04562556 -0.03234102 -0.025792558
000270 10 6c e3 bd 64 5f e9 bd ad 03 7f 3d 61 47 ee 3d
       -0.11104596 -0.113951474 0.062259365 0.11634708
000280 8b d6 b4 3d 4d 20 f0 bc f4 56 66 bc 31 a0 18 3d
       0.08829983 -0.029312277 -0.014058817 0.037262145
000290 b8 89 ea bb 8d 58 42 3d a0 c4 ec 3d 62 51 9c 3d
       -0.0071575306 0.04744773 0.11560941 0.0763271
0002a0 7c cf d4 3d e1 78 25 bd 82 3e af bd 9c 21 f2 bc
       0.10391137 -0.040398482 -0.08556844 -0.029557042
0002b0 bc 2c ad bd 56 92 d0 3d 7e 24 ea 3d 0d 75 c3 bd
       -0.08455798 0.10184161 0.114327416 -0.0954381
0002c0 10 6c 9d bd db c4 4c 3c 96 f8 d6 bc 88 d9 f8 bc
       -0.07686627 0.012498106 -0.026241582 -0.030377164
0002d0 53 ef c0 bd 2f 6f 4c 3d fc 45 8c 3b 42 4f ef bd
       -0.094206475 0.04991072 0.0042808037 -0.11685039
0002e0 12 ab e6 3d 9a 16 c3 3d 4c 39 93 ba ee 98 8f 3d
       0.11263098 0.09525795 -0.0011232286 0.07011591
0002f0 75 7a 98 3d ba 16 d4 bd 45 1d 9a 3d b5 cc 4e 3c
       0.07445232 -0.10355897 0.07525114 0.012622048
000300 49 4e 40 bb 4c f8 e0 bd 2f 30 83 3d 00 00 71 b9
       -0.0029343537 -0.10984859 0.06405675 -0.00022983551
000310 9e ab 86 3d 86 da 58 bc 91 6a 5c bb f3 fc be bd
       0.06575702 -0.013235694 -0.0033632854 -0.0932559
000320 b8 b7 92 bd 9f 9a 1a 3c 05 11 58 bc 7e 3b b5 3d
       -0.07163948 0.009436279 -0.0131876515 0.08849238
000330 ad 22 8c 3d d2 ba 9b bc 0e 6c a6 bd 3e b3 c2 3c
       0.068425514 -0.019009981 -0.081260785 0.02376711
000340 ee 11 42 3d 1c 56 2f 3c 99 0b 8e bc 74 bf df 3d
       0.04738038 0.010701682 -0.017339515 0.10925189
000350 61 15 f9 bd 4e 7b f8 bc a9 6b c9 3d 0a f9 9e bd
       -0.12162281 -0.030332234 0.09834988 -0.07762344
000360 27 5f 01 bd 7c 03 27 3d bd f7 5b bd cf e3 12 3d
       -0.031584885 0.040774807 -0.05370306 0.035861786
000370 bf 3b c8 bc c6 ca 7b bc 14 37 d8 bd 52 64 b7 bd
       -0.024442552 -0.015368169 -0.1055738 -0.089546815
000380 c2 3f c2 bb dc 0a 5e bc c2 7b 11 3d c8 93 6e 3c
       -0.0059280107 -0.013552394 0.035518415 0.014561601
000390 65 f2 b4 3d b4 a5 9d 3d 36 32 f9 bd 6f 38 9d 3d
       0.088352956 0.07697621 -0.1216778 0.076767795
0003a0 ba 9e 78 3c ad a0 14 3d 83 0a 17 3d 4b cd 73 3b
       0.015174562 0.036286045 0.03687526 0.0037201222
0003b0 50 d7 84 3d 4f ad 5e bd 8e 26 2e 3c 7c 6a 40 bc
       0.0648638 -0.0543645 0.010629309 -0.011744138
0003c0 9c 68 fa 3d f1 7c 64 bc d3 94 f9 bc f8 06 31 3d
       0.12226984 -0.013945804 -0.030466473 0.043219537
0003d0 69 8c 9b 3d 7d ec 39 3d 14 3b 87 3d 61 7b cd bb
       0.075951405 0.04539155 0.06603065 -0.0062708114
0003e0 fa 67 80 3c f8 d7 ca bd 6d f3 81 bd 19 f7 91 bd
       0.01567458 -0.09904474 -0.06345258 -0.07127208
0003f0 e0 d6 b2 3c 33 08 ef 3d 5e 22 bc 3d 96 12 c3 3d
       0.021830976 0.11671486 0.091862425 0.09525029

layer2.bias f4 [200]
000000 68 0c b9 b9 c2 ad 25 3b 43 6c 0a 39 93 40 80 3b
       -0.00035295193 0.002528057 0.00013201036 0.003913948
000010 a1 6d c7 ba 03 8b 4f b9 14 1a 9f 3b 82 1f 8b 39
       -0.0015215167 -0.00019792844 0.0048554037 0.0002653562
000020 21 93 84 3a 00 8b 43 3a d7 d5 e3 b9 b7 ca 5d 3b
       0.0010114649 0.0007459372 -0.00043456137 0.0033842751
000030 e6 fd 86 b7 a0 0f 23 3b bf 93 2e 3a 39 90 89 b9
       -1.6092275e-05 0.002488114 0.0006659589 -0.0002623813
000040 e8 2c 12 b7 65 1e 1f 3b 09 9e 67 38 da c2 49 b9
       -8.712734e-06 0.002427959 5.5221873e-05 -0.00019241442
000050 0a bc 5e bb e3 0e 84 bb c0 ff 4e 3a cc 63 01 3a
       -0.0033986592 -0.004030095 0.0007896386 0.00049358304
000060 74 cc 30 3c 1d db 99 39 5e 30 ac b9 16 8e d9 3b
       0.010790933 0.00029345686 -0.00032842433 0.0066392524
000070 be ea ec 3a d8 2f e3 38 89 a8 98 3b 3e 78 15 39
       0.001807533 0.00010833115 0.004658763 0.00014254541
000080 2c f2 ab ba 55 14 6a 3b 00 00 00 00 3b 76 a9 ba
       -0.0013118437 0.0035717685 0.0 -0.0012928912
000090 43 e8 cf b9 3c 5d f0 3a fa 61 4b b6 6e 66 d3 bb
       -0.00039655165 0.0018338333 -3.0306387e-06 -0.0064514196
0000a0 8e 30 82 3a 00 00 00 00 c0 3e 07 bc c5 e0 0d 3c
       0.0009932683 0.0 -0.008254707 0.008659546
0000b0 4f 66 07 3c 5a 44 59 bb 5f 6a 2e 3b 18 0a 14 bc
       0.008264138 -0.0033152313 0.0026613695 -0.00903561
0000c0 4c 8f a9 3b 13 23 57 39 00 00 00 00 f7 a5 0d 3c
       0.005174553 0.00020517064 0.0 0.008645526
0000d0 ce 4d c6 3b b6 2b 59 bb 3c 72 d5 ba 03 e7 c5 ba
       0.0060517555 -0.0033137626 -0.0016284655 -0.0015098754
0000e0 34 06 94 39 43 21 01 37 16 b4 bb 3b 0f 18 e9 b8
       0.0002823338 7.6967435e-06 0.005728255 -0.00011114787
0000f0 c6 5f 0e 3c 00 00 00 00 00 4f 10 bb 8c 7c d5 3a
       0.008689826 0.0 -0.0022019744 0.0016287728
000100 6a b2 d4 bb c8 60 db 3b 91 f3 8a 38 e9 c7 00 3c
       -0.006490995 0.006694887 6.6257206e-05 0.007860162
000110 ee 41 32 bb d7 f4 d0 b8 03 a1 ae 3a 81 54 d3 3b
       -0.0027199942 -9.963818e-05 0.0013323132 0.0064492826
000120 e2 0c da ba fd 29 75 38 c4 33 9f b9 86 52 94 bb
       -0.001663592 5.8451657e-05 -0.00030365412 -0.004526439
000130 4d 29 6c b9 0e f3 87 bb c1 42 f5 b8 ff 9e 56 ba
       -0.000225221 -0.0041488474 -0.00011694944 -0.00081871444
000140 9d 51 5b 39 6a fa 11 b9 e4 53 e9 b9 47 af 50 b9
       0.00020915871 -0.00013921564 -0.00044503727 -0.00019901722
000150 d8 e3 86 3b 80 d7 95 3a 00 00 00 00 e0 f6 cf 3b
       0.0041165166 0.0011432022 0.0 0.0063465685
000160 83 48 b9 bb d1 73 a2 3a 25 b1 f9 36 18 7f 55 36
       -0.005654396 0.0012394135 7.4414006e-06 3.1813452e-06
000170 21 61 86 3b 1a fc dc 3b cc 72 91 ba 0b 4c f1 35
       0.004100934 0.00674392 -0.0011096834 1.7978031e-06
000180 1e ba 1c 3c 99 84 05 b9 16 f6 43 3b 4f 97 bc b8
       0.009565858 -0.00012733265 0.0029901317 -8.992722e-05
000190 6d 61 86 3a c7 8b e4 b9 5a 57 42 3b 63 f5 bb 37
       0.0010252424 -0.0004359169 0.0029654116 2.2406404e-05
0001a0 03 19 40 37 30 43 66 3a c9 ed bd 38 6b 1d ad 3b
       1.1449915e-05 0.00087838154 9.056513e-05 0.005283048
0001b0 73 de 26 37 00 ca 81 38 e7 30 3a 3c 93 24 e8 ba
       9.946164e-06 6.188825e-05 0.011364198 -0.0017711095
0001c0 1b c4 00 b9 76 71 86 b7 71 25 6b 37 7f 59 9a bb
       -0.00012280086 -1.602688e-05 1.4015809e-05 -0.004710376
0001d0 8a 5e 33 bb b8 89 35 b8 9f 54 4f bb 73 1f f2 3b
       -0.0027369582 -4.3282023e-05 -0.0031636131 0.007389003
0001e0 e8 d1 af 3a 05 1c 61 37 53 da a9 38 11 56 84 3a
       0.0013413997 1.3417569e-05 8.099214e-05 0.001009645
0001f0 a9 56 df 3a b4 c2 39 b9 52 34 4c b9 43 87 0d bb
       0.0017039377 -0.00017715507 -0.00019474447 -0.0021595515
000200 6a 97 5b 37 41 9a 07 3b c7 3c bc b9 5b 2e c6 36
       1.3088671e-05 0.0020691308 -0.00035903437 5.9062563e-06
000210 a2 ce 02 3c 1b 06 2d ba e9 8a 90 3a 98 20 b1 3b
       0.007983835 -0.0006600336 0.0011027727 0.005405497
000220 3c 00 4f 3b ed 42 3a 3a 8f 48 26 ba 7d 71 04 b8
       0.0031585833 0.00071053096 -0.00063432095 -3.1576947e-05
000230 b5 af ff bb e0 a1 e6 b9 2b a5 0d bb 98 6f 36 ba
       -0.0078029283 -0.00043989625 -0.002161334 -0.0006959378
000240 23 e7 a7 ba 53 45 a9 37 a2 8a 2e 38 c1 3a aa bb
       -0.0012809973 2.0178652e-05 4.1613945e-05 -0.0051949923
000250 da 9f e1 bb 7f 6c 27 3c 56 0f bf 3b c2 52 1c 3c
       -0.006885511 0.010218739 0.0058306856 0.009541215
000260 f9 7a 9b bb 6a dd 1d 37 e9 ba 56 39 00 00 00 00
       -0.004744884 9.409481e-06 0.0002047826 0.0
000270 83 d7 23 3c 88 88 3f bb 74 4f e7 b6 d5 ad 2c 3c
       0.0100001125 -0.0029225666 -6.893586e-06 0.010539492
000280 1e d5 12 3c 61 d5 9a b9 c9 36 0e 3b 8a ee b9 3b
       0.008961944 -0.0002953215 0.0021700135 0.005674188
000290 cb da 29 38 f1 51 41 bc 00 f1 23 b7 61 cb e6 3b
       4.0496507e-05 -0.0117993215 -9.771669e-06 0.0070432876
0002a0 ec d1 b1 b9 53 9e 32 b9 62 89 46 bb 7a 94 d6 bb
       -0.00033916475 -0.00017034383 -0.003029429 -0.0065484615
0002b0 12 42 a4 bb e8 4d 57 b8 3a 43 58 ba 0c 5f fd bb
       -0.005012759 -5.133255e-05 -0.00082497636 -0.0077322777
0002c0 48 cc 39 3b c2 6a 0e ba bf 0b 21 3c 89 a6 a6 b9
       0.002835052 -0.0005432778 0.009829461 -0.00031786066
0002d0 31 05 06 ba 39 b6 2a 3b 7f c5 9c bb 5f 93 5f bb
       -0.0005112468 0.0026048555 -0.0047842856 -0.003411494
0002e0 35 8b bc b8 50 f6 df bb 0d 80 b8 bb ca 99 cc 3a
       -8.990468e-05 -0.0068347827 -0.005630499 0.0015609798
0002f0 8a e3 f8 3b df cd 28 bc aa e4 71 bb 32 d9 df 3a
       0.007595484 -0.01030299 -0.0036909976 0.0017078279
000300 4d 59 70 ba 1b 78 24 3b 5b 49 1a 39 e6 9f d9 3b
       -0.000916858 0.0025096003 0.00014713912 0.006641376
000310 3c 51 48 3c d2 84 5f 36 39 7a 2d ba 61 2f 53 37
       0.012226399 3.33069e-06 -0.0006617639 1.2587611e-05

mu.weight f4 [4, 200]
000000 ed 0a ce 3d dd 5c 82 3d f6 ff aa bd 60 02 1b bb
       0.10060678 0.063653685 -0.08349602 -0.0023652539
000010 95 2c 29 be 76 c4 3b bd 05 b3 9e 3d 14 bb 2c 3e
       -0.16520913 -0.045841657 0.07748989 0.1686824
000020 68 49 d1 3d a9 07 17 be 6c a0 99 bd fc 1f c4 bd
       0.10219079 -0.14749016 -0.07501301 -0.09576413
000030 f6 76 0c 3e 78 b8 fd 3b 87 38 e6 3d 8e d3 85 bd
       0.13717255 0.0077429377 0.112412505 -0.065344915
000040 f4 9e 28 3e f0 01 04 3e 32 a1 9b 3d 8e ff ce 3d
       0.16466886 0.12891364 0.07599105 0.10107337
000050 cf 13 87 3d f7 e7 8e 3d 86 1a a6 3c f6 44 bc bd
       0.06595575 0.069778375 0.02027632 -0.09192841
000060 6d c0 d8 3c 1d eb a3 3d 86 94 9f bb 07 57 02 3e
       0.026458943 0.08003829 -0.0048700003 0.12728511
000070 6e c8 d6 bd c8 32 dd bd 7d a1 18 3e b9 6c 86 bd
       -0.10487448 -0.108007014 0.14905353 -0.06563706
000080 39 58 25 be 62 ce 32 3a a0 9f a5 3c 1a 22 1a be
       -0.16146936 0.00068209146 0.020217717 -0.15052071
000090 af e6 16 be a2 a5 e1 3c c9 65 97 bd 43 4f 24 bd
       -0.14736436 0.0275448 -0.07392461 -0.040114652
0000a0 d9 63 13 bd d0 bf 14 be 22 2b c8 bd e0 58 03 3e
       -0.035983894 -0.14526296 -0.09773852 0.12826872
0000b0 6d 5a ac bd 56 31 0b be 6b a2 de 3c 5e b0 75 bd
       -0.08415685 -0.13593039 0.027177056 -0.05998265
0000c0 aa 80 e7 bd 33 d1 fa bc 0d 0b 2a 3e 01 99 97 bd
       -0.113038376 -0.030617332 0.16605778 -0.0740223
0000d0 eb 5e 9c bd f0 97 af 3d 9b bf 2d 3d 2d ee 08 be
       -0.07635292 0.08573902 0.042419057 -0.13372107
0000e0 a9 e4 dd 3d 70 d9 9c bd 23 c2 19 3d a1 2d e3 3d
       0.10834629 -0.076586604 0.03753866 0.110926874
0000f0 a1 87 2c be 8c 7c 78 3d 47 df 12 be 02 3f 37 bd
       -0.16848613 0.060665652 -0.14342986 -0.044737823
000100 6e fc e1 bc 29 ab ca 3d ff bc 04 3e 52 ea 97 bd
       -0.027586188 0.098959275 0.12962721 -0.0741774
000110 66 2f a9 3d 08 24 52 bd f4 fb f1 bd 97 96 ee 3d
       0.08260994 -0.051303893 -0.11815634 0.116498165
000120 e2 4b 23 3c 5b 89 bc bc 58 6e 64 bd b7 2a 26 3e
       0.009966822 -0.023014715 -0.055769295 0.16227232
000130 db dd 43 bc 51 d2 b9 bd 11 cc 06 be 17 6d c8 3d
       -0.01195475 -0.09073318 -0.13163783 0.09786432
000140 f0 5b af bd 74 d7 05 3d fe 69 b2 3d 6f 83 20 bd
       -0.085624576 0.032676175 0.08711623 -0.039187845
000150 a4 8c e9 3d 4a 7a 7c 3c 46 b3 1b be 69 37 03 be
       0.11403778 0.015410015 -0.15205106 -0.12814106
000160 a5 af a0 3d c1 aa 00 be 54 e4 73 3c be 61 89 3c
       0.078460015 -0.12565137 0.014885981 0.01677024
000170 42 39 1f 3d 50 69 5c bd 0d fa 28 3b cf aa a4 3d
       0.038872965 -0.05381137 0.0025783808 0.08040392
000180 28 36 24 3e 3c 40 c0 bd a5 87 07 be b4 7d 00 3e
       0.16036284 -0.09387252 -0.13235338 0.12547952
000190 7a 9f 26 bd ab 18 1a 3e c2 56 7e 3c 28 98 b2 bd
       -0.040679432 0.15048473 0.015523614 -0.08720428
0001a0 b8 22 5c bd f2 93 05 be cb ff c2 3d b0 c3 15 3e
       -0.053744048 -0.13044718 0.09521445 0.1462543
0001b0 bf f8 09 be 62 7d a1 3c 2e 31 06 bc 30 03 4f bc
       -0.13473795 0.019713107 -0.008190436 -0.012635037
0001c0 6a 88 ca 3d 1b e9 7a 3d 54 b0 de bc 6a 66 44 3d
       0.098893 0.061257463 -0.02718369 0.047949232
0001d0 2a d7 d5 bd a3 85 1c 3b 82 e1 f0 bd 0c 4e e1 bd
       -0.1044143 0.0023883365 -0.11761762 -0.110012144
0001e0 f8 9b 53 bd 71 c9 07 3e 25 f3 94 3c 49 9f 5d 3d
       -0.051662415 0.13260438 0.018182347 0.054106984
0001f0 62 d8 f1 bc cc b0 5e bd 84 1e c3 bd 82 30 09 3e
       -0.029522125 -0.054367825 -0.09527305 0.1339741
000200 92 b0 f2 3c e7 03 18 be 64 ad 80 bd 36 c3 a4 bc
       0.02962521 -0.14845239 -0.06283072 -0.020112615
000210 52 a6 8d 3d 23 57 fc 3d ee 8f f6 3d 68 b9 f5 bd
       0.06916489 0.123213075 0.12039171 -0.11998254
000220 8d 13 cd bd 0c 6d 21 be 2e a4 26 3d 17 d5 a0 bc
       -0.10013495 -0.15764254 0.040683918 -0.01963286
000230 2d 16 bb 3d 1b 50 37 3d 2d a2 05 be 75 1f ba bd
       0.09135089 0.04475413 -0.13050146 -0.09088031
000240 ba d8 88 bd b9 4d 0a bd f7 97 09 3e 52 96 78 3d
       -0.06681962 -0.03376553 0.13436876 0.06069023
000250 36 54 55 bd ae c1 0e be eb a9 d8 bd 5e ca 99 bd
       -0.052082263 -0.1394107 -0.10579284 -0.075093016
000260 f5 e9 e6 bc ce 07 73 3b 37 45 e0 3d 00 74 bf b9
       -0.028187731 0.003708351 0.10950702 -0.00036516786
000270 e2 7e 00 3e 54 b5 1c 3e f6 d2 88 3d 4e ad 37 bc
       0.12548402 0.15303546 0.066808626 -0.011210753
000280 94 14 af bd 0c 8e f4 bd 0e 8f 1c be fe 40 2b 3d
       -0.08548847 -0.11941156 -0.15288946 0.04181003
000290 13 45 0c 3e a0 24 9a bd a5 af cd bc 27 b5 b4 bd
       0.13698225 -0.07526517 -0.025108168 -0.088236146
0002a0 d2 fc 86 3d 17 36 11 bd d7 4f 62 3d 1d 5f dc bd
       0.065911904 -0.035451975 0.055251922 -0.10760329
0002b0 24 c4 16 3e 71 0a 22 be f1 2a 15 be 85 bb 05 3e
       0.14723259 -0.15824296 -0.14567162 0.13059814
0002c0 93 e0 f9 bc 2c 1b 13 be a9 6e 25 be c5 3e f9 3d
       -0.030502593 -0.14365834 -0.16155495 0.121701755
0002d0 68 37 76 bd b9 50 9f 3d 83 a0 a7 bd 9c 29 d9 3d
       -0.060111433 0.077790685 -0.08184912 0.106036395
0002e0 d0 59 be 3d 4e d4 13 3e 59 00 26 be c8 d0 35 3d
       0.09294474 0.14436457 -0.1621107 0.044388562
0002f0 16 95 b2 3d 08 70 20 3e b8 00 3f 3d 60 42 ea 3d
       0.08719842 0.15667737 0.046631545 0.11438441
000300 a6 6e b2 bd ce 94 a6 3d 50 a1 ad bd 51 c3 5a bc
       -0.08712511 0.08133851 -0.084780335 -0.013352231
000310 f9 c0 a2 3d 12 24 78 3d f5 f7 83 bb 6a 00 eb 3d
       0.07946963 0.060581274 -0.0040273615 0.11474688
000320 71 41 6c 3d ab 6b 11 be be e7 bd 3d c6 0e 5d bd
       0.057679597 -0.14201228 0.09272717 -0.053969167
000330 93 fc f3 bd 3b 51 ad 3d 1b e2 05 be cd 19 05 be
       -0.11913409 0.08462759 -0.13074534 -0.12998123
000340 79 e8 6d 3d 25 a3 fc 3d ee 7a 03 3e d6 4f d9 bd
       0.05808303 0.12335805 0.12839863 -0.106109306
000350 cd 3a 0c be 55 65 9b 3d be f8 f5 bd e8 42 46 bd
       -0.13694306 0.07587687 -0.120103344 -0.04840365
000360 e1 e9 d5 3d 3d 10 4e bd 1b df 5d bd 21 98 ef 3d
       0.104449995 -0.050308455 -0.054167848 0.11698938
000370 13 fc aa 3d 10 a6 5f 3d 36 a5 b7 3c 98 f2 c7 bc
       0.083488606 0.05460173 0.022417646 -0.02440767
000380 5d 25 a7 bd be 1a be 3d 07 42 04 3e 64 fb 25 be
       -0.08161423 0.092824444 0.12915812 -0.16209179
000390 ce 83 c2 bd 21 ad 6f bd 84 61 b9 bd 5f 19 61 3d
       -0.09497796 -0.058514718 -0.09051803 0.054955836
0003a0 e5 8a 8d 3c f8 fa 25 be 60 5a f0 bc 0c 02 e0 bc
       0.017278144 -0.16209018 -0.02933997 -0.027344726
0003b0 de 85 d7 3d e8 bf 05 be cb d2 2a bb f4 25 5a 3d
       0.1052358 -0.13061488 -0.0026065584 0.05325885
0003c0 7e bb 10 be de 93 5e bd ce 2b 81 3d 83 8c 27 be
       -0.14134023 -0.054340236 0.06307183 -0.16362195
0003d0 5e 7d 13 bd 78 33 cb 3d 69 52 26 be 3e 20 aa 3d
       -0.03600823 0.09921926 -0.16242374 0.08306931
0003e0 fe 12 31 be aa 5c 96 bd 20 20 33 3c 92 1e 22 be
       -0.17292401 -0.07341893 0.010932952 -0.15831974
0003f0 f3 fc 57 bd bf be 90 bd 50 34 a8 3c 2c 50 84 3d
       -0.052731466 -0.07067632 0.020532757 0.06460604

mu.bias f4 [4]
000000 89 38 d9 bb 18 b8 3a bd 5a a2 25 bd 92 12 09 bc
       -0.006629054 -0.04558572 -0.040438034 -0.008366244
