ppo_sumo/saves/120p4k/ppo_policy_final.pth (torch, 196519 bytes, 7 tensors)

sigma f4 [4]
00000000: 6ed7 f0bc d8e4 5bbc a79f f33c 2542 313b
-0.0293996 -0.01342126 0.029739214 0.0027047482

layer1.weight f4 [200, 36]
00000000: 04bf 693d 3e2c 113e bfb7 fbbc 969f f73c
00000010: acff fa3c b49d 003d 3aaa 67bd f53e 9c3d
00000020: 3ea5 37bd 4401 bf3d 48b7 e2bc 6acf 533d
00000030: b6c5 d53d 994f e1bd 6aa4 2c3d e54b 563d
00000040: c249 d8bd 3954 3abd e470 ec3c 7098 133e
00000050: 471a c7bd 16a7 ff3d b29c 48bd 02e7 683d
00000060: d9a4 323d 1616 fc3d 39f8 b43d e95d 08be
00000070: 9bd5 1f3c be89 24be b4cb f5bb ca50 edbd
00000080: b748 0b3e c15e 923d 28a5 c6bd 463e a53c
00000090: 6c03 c2bd 5576 20be 3199 8b3d d128 e0bc
000000a0: 6e1a 28bc 2966 78bc dc8d 053d b268 8d3d
000000b0: 8f8f 81bd a00f f2bc b474 bbbd d5e8 a8bd
000000c0: 1891 8abd 4640 7a3c fe9c fdbd 8dbb 0abb
000000d0: 7d43 023e 92de 11be d183 973c b36b d53d
000000e0: 0415 653c 73ce b33d 4804 b0bd 9ed0 ccb8
000000f0: 43fd 55bd 12e5 423c 7366 17bd 9c3c 973c
00000100: c70e 173e f767 4bbd 95bc 6b3d f111 babd
00000110: 3815 bb3d 9179 7b3d b5fd acbd 3b86 e43d
00000120: 12f7 b3bd 076d d2bd 5c8a 2dbe 107a a7bd
00000130: f827 53bc 1286 bcbd 226f 1c3e 4ed8 1cbe
00000140: da44 83bc 5520 e2bd 2de7 143e 708e 21bd
00000150: f8f4 10be 080e 7f3d 1cf6 9cbd 3626 d43d
00000160: eac4 2a3e ba34 93bc c786 a73c b6d4 03be
00000170: f271 b3bb aa40 ec3d 8b8c e93d e0b5 803d
00000180: f451 e7bd 9046 063e 877f a03d db96 a5bc
00000190: b906 0dbe bb37 eb3d b428 c23b d879 cfbd
000001a0: 7832 fa3d 4642 fdbd d27f 10be 7feb fa3d
000001b0: 77ce c83d 0ed4 a6bc 1966 423c bbef 91bd
000001c0: 7765 03be d1a2 6fbd 23af dbbd 596c 14bc
000001d0: ca1c e4bc b10b a7bc d498 c6bd 61fd c63d
000001e0: 4ff6 9d3d 9f16 44bd eb6a 0d3e 204e b2bc
000001f0: 7e1c 41be 7ece c3bc 54f9 43be a92d bbbd
00000200: eade fb3d 2275 a6bc 34b9 76bd be9b ab3c
00000210: 0db1 5ebd 9217 21be e7e9 2b3c 7677 1abe
00000220: 1fa8 0a3d 4e54 35bd a516 8b3d 1abc a5bd
00000230: e007 733d 60af 663d e809 4fbd 5110 c63c
00000240: 6eaa 8f3d 34ab 42bd 5f85 f4bc 500f e73d
00000250: 9f80 f73d 60ff 82bd 2c70 523b 7ce6 b1bd
00000260: a10d d2bb 51f4 a63d aa09 73bd b2f7 26bc
00000270: c09a 183d 9c59 8c3d ebba 163e 4bc2 543d
00000280: 8b2d d9bd b25b 55bd 1916 02be 82c4 33be
00000290: eb1f 20be b61f 4cbc d1db 473d 18ae 223e
000002a0: 53f8 ae3c 14fb 1ebe 2f0f 6cbd 4832 093e
000002b0: d8ab 0c3e 3155 733d 765c f03b 3f04 cd3d
000002c0: 0824 383d 6223 9fbd 996e d2bd 1fb5 1dbd
000002d0: bb8d 0fbc 68c8 b2bd 27df 8ebc edad 053e
000002e0: 8235 c73d 5335 65bc e9eb d23d b703 e23d
000002f0: e198 8abd 8d85 0c3e 1a42 433d b04e 58bd
00000300: 4ebb 2d3e 0239 b9bc 3a6b 803a bf26 333d
00000310: d27e bc3c 7795 553d c482 97bd 1d46 3c3d
00000320: 77cb 4d3d cc5f 14bc 4bcb f9bd 2556 24bd
00000330: 8818 323e da4e fb3d ddb9 893d e5f8 3abd
00000340: 7e76 c83d 0e50 f13d 0eec b0bd d83a b9bb
00000350: 00da d5bd 62e8 17be 1d7e 3d3e d279 763d
00000360: 3946 d0bc 9ea4 17bd b64b d5bc f264 153e
00000370: 8d4e 25be 0be9 bd3d 2266 b83d eced 8d3c
00000380: 8836 aebd 47e9 b1bc 3143 46bd 9c59 1f3d
00000390: 913a 0b3e 3cc2 053e 8fbc 0abe 7ee9 bd3d
000003a0: 511d 223d 74ae 80bd c2fa e4bd 7a85 a1bd
000003b0: 4f06 de3d d600 f43c 9348 ecbd 9caf cabc
000003c0: b56d 95bd 228c 21bd b069 493d 6efa 15be
000003d0: 49ba febd 8012 f4bd 03da 84bd 04c1 24bd
000003e0: 8029 aa3d 951f 383e 7d71 81bd f2c9 d5bd
000003f0: 9bc8 963d f0ed 3c3d 38a1 29be 38b1 82bd
0.057066932 0.14177033 -0.030727265 0.030227464 0.030639492 0.031400397 -0.056558825 0.076291956
-0.04483532 0.09326413 -0.027675286 0.051711477 0.10438101 -0.1100151 0.042148985 0.052318472
-0.10560943 -0.045490477 0.028862424 0.14413619 -0.09721809 0.12483041 -0.04897756 0.05686093
0.043614242 0.123089 0.08836407 -0.13317074 0.009755517 -0.1606817 -0.00750109 -0.11587675
0.13601957 0.07146979 -0.0969947 0.020171296 -0.09473309 -0.1567014 0.06816328 -0.027363213
-0.010260208 -0.015161076 0.03260599 0.06904735 -0.0632621 -0.029548466 -0.09153119 -0.08247534
-0.06765956 0.015274113 -0.123834595 -0.0021168918 0.12721057 -0.1424506 0.018495472 0.104209326
0.013982061 0.087796114 -0.085945666 -9.766336e-05 -0.052243482 0.011895435 -0.036962938 0.018461518
0.14751731 -0.049659695 0.057552893 -0.09085453 0.091349065 0.06139523 -0.08446828 0.11158415
-0.08787359 -0.102747016 -0.16947311 -0.081775784 -0.012887947 -0.092052594 0.15276769 -0.15316889
-0.016024042 -0.11041323 0.14541312 -0.03944248 -0.14155948 0.06226924 -0.07664129 0.10358851
0.16676679 -0.017969478 0.020450009 -0.12874112 -0.00547623 0.11535771 0.114037596 0.0628469
-0.11294928 0.13112855 0.07836824 -0.020213535 -0.13772096 0.11485239 0.0059252623 -0.10130662
0.122166574 -0.12366156 -0.1411126 0.122519486 0.09805005 -0.020364787 0.011865162 -0.07125803
-0.12831675 -0.058504883 -0.10726764 -0.009059035 -0.027845759 -0.020391317 -0.096971184 0.09716297
0.07712995 -0.047873136 0.13810317 -0.021765769 -0.18858525 -0.023902174 -0.1913808 -0.09139568
0.12298377 -0.020319525 -0.060235217 0.020948287 -0.054368068 -0.15731648 0.010492778 -0.15084633
0.03385174 -0.044269852 0.067914285 -0.08092518 0.059333682 0.056319594 -0.050546557 0.024177702
0.07014929 -0.047526553 -0.029848753 0.112822175 0.120850794 -0.06396365 0.0032110317 -0.086865395
-0.006410316 0.081520684 -0.05933539 -0.010190891 0.037256956 0.06853029 0.14719741 0.051943105
-0.1060439 -0.0520894 -0.12703742 -0.1755543 -0.15637176 -0.012458732 0.048793618 0.15886724
0.021358645 -0.15525466 -0.057631668 0.13398087 0.13737428 0.059407417 0.007335241 0.100105755
0.044956237 -0.077704206 -0.10275001 -0.03850281 -0.0087618185 -0.08729631 -0.017440392 0.13054629
0.09727003 -0.013989764 0.102989025 0.11035865 -0.067674406 0.1372282 0.04767046 -0.052809417
0.16965982 -0.022610191 0.0009797581 0.043738123 0.023009691 0.052144494 -0.073979884 0.045965303
0.050242867 -0.009056043 -0.12196978 -0.040121216 0.1739217 0.12270899 0.06724904 -0.04564752
0.097882256 0.11782847 -0.08638774 -0.0056527667 -0.10441971 -0.14834741 0.1850514 0.06017477
-0.02542411 -0.037022226 -0.026037078 0.14589289 -0.16143246 0.09272965 0.09003855 0.017325364
-0.08506495 -0.02171768 -0.048403922 0.038903818 0.1359656 0.13062376 -0.13548492 0.09273051
0.03957874 -0.06283274 -0.11180641 -0.07886787 0.10841047 0.029785555 -0.1153728 -0.02474194
-0.072963156 -0.03944028 0.049173057 -0.14646313 -0.12437875 -0.11917591 -0.06486895 -0.040223137
0.08308697 0.17980798 -0.06320474 -0.10438909 0.07362481 0.046125352 -0.16565406 -0.06381458

layer1.bias f4 [200]
00000000: 2f44 283b 86a3 05bc d548 f83b 586d 373c
00000010: c0c6 94bc 2e4b 113d 0ad1 3abc 35b8 2bbc
00000020: 7762 84bc 7b2f 93bb 0369 94bc e5cc 3d3c
00000030: 98fd 54ba 8eb4 2b3b db5d 3d3d ea28 0c3c
00000040: ed80 85bc 167d 003c dd35 ba3c e359 81bb
00000050: 73f4 643c fa4f 943b de80 1bbd 613b 1cbc
00000060: f6bd a0bb 84d0 24bc c599 823c 80b9 023b
00000070: eec0 0ebd 1158 7dba 14c8 0fbc 8545 963c
00000080: cbc2 a43b b955 83bb caee 9d3c 19fa 5ebc
00000090: e3ca 96bc f68c c43b debe ed3c b3c9 ca3c
000000a0: a80c e1bc 8291 083b d187 cb3c d805 93bb
000000b0: addd 853c f7ba b6bb 5e76 ac3c cef6 d33c
000000c0: 8f33 063d 9158 b1bc b3e4 2fbd 559c 02bd
000000d0: e168 4ebb 94e2 2e3b 7b8a 0c3c f3da b83c
000000e0: ab00 b33b c2b1 403c 2540 123d 549d eabc
000000f0: 61a4 d13c de7b 90bc 25b5 ae3c 22bb 1eba
00000100: 246a bdbc 843c b5bc dfdc 7f3c 2e86 263b
00000110: 16f2 b93b 7781 923c 1564 9c3c 2d33 cdbc
00000120: f05a f03c 74da babb 5541 85bc c51f f7ba
00000130: 033a febc 05bd 81bc 489f d0bb 2dc4 4e3d
00000140: 5e8c cc3c 6ca4 10bc 9185 e83c be02 cd3c
00000150: 9a82 eebc 1ba4 6cbb 540c 363c 26ee aa3c
00000160: 0f24 1dbd 6780 febb 0f73 4ebb a8f6 ac3b
00000170: 1594 213c dae0 753b 3dd5 483c 1632 7f3c
00000180: 2074 ac3b 2534 093d a77e 59bb 438e 4a3c
00000190: a58f 0c3b c25e 27bd ee04 06bc 3b45 01bd
000001a0: 0a31 79bc e762 193b d8e7 17bc 6b85 143c
000001b0: 8669 b4ba cde5 69bc bebb 1e3d 8480 26bc
000001c0: b1df 73bb 81d3 233c 2359 19bc bdd1 febc
000001d0: c5a8 03bc 95e3 2b3d 4bbf 75bb 1ff4 ef3c
000001e0: 413a 00bc 914a 9dbc 7fdc 1abd a850 8c3c
000001f0: 12c3 ce3b 01d7 143b d4ce febb 8b83 6f3d
00000200: 4f7b 9b3c 0df2 ebbc d795 74bc 234e c4bc
00000210: 2121 b9bb 4703 8bbc 400b 893c a936 20bc
00000220: 4517 ecbb 7ba7 f8ba 93e5 00bd df0c b13b
00000230: 819f 853c 5cd5 25bc 64ef 49bc 3a7f c8bc
00000240: b2a2 a7bc 692c 9bbc 15b6 313c 58ba 9e3c
00000250: 4c71 ebbc 6e9e c7ba aee1 523d 1e66 7cbc
00000260: b16a 973c 19b0 babb e474 583c 1208 3bbc
00000270: 37ef 443d ed03 963c 0c86 0cbd 6ebd 54bc
00000280: 10c1 273b a550 823b 4fa5 173d d80a 95ba
00000290: c144 adbb 11d9 c4bc 59f5 b7bc 8f47 04bc
000002a0: 7e84 d6bc 450a 46bc 791d 2bbc 70b7 013d
000002b0: 18a3 b4bb 8e4b 0c3d 4b34 113d 8b6e 87bc
000002c0: cbec 53bc 8c0e 3b3d b936 54bc 51fd 96bc
000002d0: f0e3 d1bc 436a 0e3c 990e bb3b 2349 d1bb
000002e0: baf6 b73c 01d4 e0bc 38b0 cd3c 0bfb 773c
000002f0: c27c 8d3c 7ca3 463c b95f 853b 694c a1bc
00000300: 2bd1 823c 1c79 86bc 3ba2 373c 0000 0000
00000310: 62f5 a7bc 6012 f5bc ddbd 303c fbee 473c
0.0025675406 -0.008156663 0.0075770416 0.011195503 -0.018161178 0.035472088 -0.011402378 -0.01048093
-0.016160233 -0.004491744 -0.01811648 0.011584495 -0.00081249466 0.0026200148 0.046232086 0.008554677
-0.016296828 0.007842323 0.022730762 -0.003947483 0.013974297 0.0045261355 -0.037964694 -0.009535641
-0.0049054576 -0.01005948 0.015942464 0.0019946992 -0.03485196 -0.0009664307 -0.00877573 0.018343696
0.005028104 -0.0040080217 0.019278903 -0.013609433 -0.01840729 0.005998249 0.029021677 0.02475438
-0.027471855 0.0020838683 0.024845036 -0.0044867806 0.016341055 -0.005576487 0.021052536 0.025874522
0.032764014 -0.021648677 -0.042942714 -0.03188737 -0.0031495618 0.0026685344 0.008577938 0.02256534
0.005462726 0.011761131 0.035705704 -0.028639473 0.025591077 -0.01763719 0.02132661 -0.00060551066
-0.0231219 -0.022123583 0.015616625 0.0025409567 0.005674611 0.017884 0.019090692 -0.025048817
0.029340237 -0.005702311 -0.016266504 -0.0018854073 -0.031033522 -0.015837202 -0.006366644 0.050480057
0.024969276 -0.008828264 0.028384002 0.025025722 -0.02911501 -0.0036108557 0.011111338 0.020865511
-0.038364466 -0.0077667716 -0.0031501686 0.005278427 0.009861966 0.0037518055 0.012257871 0.015575906
0.0052628666 0.033496995 -0.0033187063 0.012363019 0.0021447924 -0.040861852 -0.008179886 -0.031560164
-0.015209446 0.0023404898 -0.009271584 0.009065012 -0.0013764359 -0.01427598 0.038753264 -0.010162476
-0.0037212188 0.009999157 -0.009359631 -0.03110587 -0.008035843 0.041965086 -0.0037498053 0.02929121
-0.007826389 -0.019200595 -0.037807938 0.017128304 0.0063098753 0.002271116 -0.0077761207 0.05847506
0.018979697 -0.028801942 -0.014928303 -0.02396304 -0.005649701 -0.016969336 0.016728997 -0.009778657
-0.0072049224 -0.0018970812 -0.03146894 0.0054031457 0.016311409 -0.01012167 -0.012325142 -0.024474729
-0.020463321 -0.018942075 0.010846634 0.019375965 -0.028740548 -0.0015229711 0.051484756 -0.015405206
0.018483492 -0.005697262 0.013211463 -0.011415498 0.048079696 0.018312419 -0.034307525 -0.012984617
0.0025597252 0.0039768987 0.037022885 -0.001137103 -0.005287737 -0.024029287 -0.022455858 -0.0080737015
-0.026186224 -0.012087409 -0.010444039 0.03166908 -0.0055126064 0.034251742 0.03545026 -0.016532203
-0.012934874 0.04566817 -0.0129525 -0.018431338 -0.025621384 0.008692327 0.0057085273 -0.0063868924
0.022456516 -0.027444841 0.025108442 0.015135537 0.017271403 0.012123939 0.004070249 -0.019689756
0.01596888 -0.016415171 0.011208112 0.0 -0.02050275 -0.029915988 0.010787454 0.0122029735

layer2.weight f4 [200, 200]
00000000: 51aa 183d 4b8a ae3d 4c1c bcbd ab95 91bd
00000010: 2104 e23c f157 043c fc74 9f3d 432a 593d
00000020: 29a0 79bd a5a7 a7bc 78d0 0e3d ed2a 493d
00000030: 378a 81bd 2060 b83d 1a5f 083e d67c 103e
00000040: 5289 243d 40a4 c2bd a6e6 2ebc cbf7 ee3d
00000050: 76dd 8dbd 9a33 5dbd a04d f4bb a1e3 593d
00000060: 4f52 7d3b 75c1 07be 2616 773d 5eb7 b73b
00000070: 8a51 e83c fb25 103d 387c e0bc c0cf 1abd
00000080: 6f5f bf3d dc8b 3fbd 4fab 873d 7547 87bc
00000090: a211 d73d 0afd d73d b0f6 693b 1e80 683d
000000a0: 72cb f13c 6b7a a43c 1671 e03d 0ca6 cf3d
000000b0: 1932 763d cce5 38bc 7b8c 9ebb e200 063d
000000c0: ce60 743b 2a66 cdba 58f3 e13c aff4 b53d
000000d0: 634f ad3d c1e0 cdbc c79a a1bd f96a 0f3c
000000e0: b361 a9bd 0798 16bd addf 103c 5882 f73b
000000f0: 0f6d d03d ea25 b63d c372 8c3d 6598 8dbd
00000100: cd76 b43d 7577 4c3d 96c6 133e 84cd a93d
00000110: edd6 523d 478a 153e 9f93 103e 75f0 b3bd
00000120: dddd c03d a9a1 3e3c 696e a5bd 5b82 213d
00000130: 33b8 c4bd ed02 683d eb69 273d 27d4 f03c
00000140: 0d40 273c 2696 f8bc 4ea8 f6bd 688f c33d
00000150: d648 453d f3d3 abbd 08f1 ae3d e20c f7bd
00000160: 2a59 a5bb c625 123e 5c16 b73b 45c3 54bb
00000170: 75f4 b5bd af45 e33d 29ed 5bbd 52ed 343b
00000180: 76f4 1fbd 15e3 d93d 2687 c5bd aa66 953c
00000190: 8783 5b3d b9d9 65bd 0be7 de3d 282b eabd
000001a0: b86c 29bd 68c6 523d 80b2 c1bb ae30 b63d
000001b0: 309b a0bd 16b9 5e3d 28e1 d3bc 01be 013e
000001c0: a13a 98bd d8af 20bb 9ecc 82bd 0a84 4bbd
000001d0: 9b1f b7bc 652d 5bbd 4390 94bd 70a6 0abd
000001e0: 6dc1 ecbb 0b24 523d 873f b33c e965 f53d
000001f0: 23d3 c43d ac28 c4bc db4a a7bc 24bb 01ba
00000200: d704 7ebb e4be b9bd b037 6d3d 007d f43d
00000210: 77e2 5f3d d746 e0bc d628 cd3c 4eae a8bd
00000220: 3c37 1f3d c5f3 e13d fd30 a6bc 7b97 063e
00000230: 8793 113d fb0d a5bb c619 813d 8b27 19bd
00000240: 3cf3 d23d bca3 2f3d 1407 81bd 98b1 143d
00000250: 3bc1 a03d aabc 5bbd e8ba a13c f09f d23d
00000260: 28d7 9a3d 36ca 12bd 64a8 6cbc 1c1f 8d3c
00000270: 7f49 9dbd 3678 c3bd 038b 8f3d 0de3 0c3e
00000280: e3a3 ab3d a9f8 b1bc 7d7b 773b 1735 3c3d
00000290: 104e 523c c6e1 883d ef17 083e 54be d23d
000002a0: 5c7f 0a3e ab9a 8dbd 15be afbd 6cb7 91bb
000002b0: 4701 3abd 7f04 e53d 2b5b 0e3e f207 a4bd
000002c0: 8bb4 76bc 4543 333d 95f2 39bc 1b95 17bc
000002d0: 3a2b 9ebd 9e01 b43d 222d f93b b251 bcbd
000002e0: ec67 083e 7121 153e c418 853c 5959 cb3d
000002f0: fda3 c83d 3a80 9cbd 95e5 8c3d 4f28 0c3d
00000300: f86d 283c 0c40 e4bd df2a c43d c9ff 70b9
00000310: 240f 9a3d 564d 59ba 8eac 773c 38ce 6cbd
00000320: 4457 b2bd bd03 fdba 7fa6 28bc 36d5 973d
00000330: 4114 cb3d 0944 7bbc f8c7 b4bd 64a5 273d
00000340: 62b7 883d 0a9d 133d c915 8fbb ef6f b63d
00000350: 141d 02be 7c91 2bbd 72ba d93d edf8 93bd
00000360: dea3 22bd 825f 7e3d db97 05bd f9ba 103d
00000370: b005 7ebd cf2a 45bd a40a 07be 3749 b6bd
00000380: faa2 0ebc 32c2 97bc 9d3c c33c d01e 0b3d
00000390: bb83 9a3d 5cab b33d af29 18be 226d c23d
000003a0: 80c7 f93c ae79 4f3d f6e3 513d f0d6 d5bc
000003b0: d25f aa3d 4c9b 0abd a951 683c 6e43 fabc
000003c0: dd06 e43d fd75 d2bb 9c1c eebc 569d 603d
000003d0: 2e1b ff3d accb 823d 4913 a9bb 77e3 a7bc
000003e0: 1552 7c3d 0909 b5bd 7c3b 75bd ca9a babd
000003f0: 8669 6ebc ddf3 0d3e cc5b 193e e084 ea3d
0.0372718 0.08522471 -0.09185085 -0.07108625 0.02758986 0.0080776075 0.07785985 0.05301882
-0.060943756 -0.020465681 0.03486678 0.049113203 -0.063251905 0.090027094 0.13317528 0.14110121
0.04017002 -0.095039845 -0.010675108 0.116683565 -0.06927006 -0.05400429 -0.0074555427 0.0531956
0.0038653796 -0.13257392 0.060323857 0.005606576 0.028359193 0.03519247 -0.027402982 -0.037795782
0.093443744 -0.04676424 0.066244714 -0.016513566 0.1050141 0.1054631 0.0035700016 0.056762807
0.029515956 0.020077905 0.109590694 0.10139093 0.06010637 -0.011285257 -0.004838524 0.032715686
0.0037289145 -0.0015670706 0.027581856 0.0888456 0.084624074 -0.025131585 -0.078908496 0.008753532
-0.08270588 -0.03676608 0.008842391 0.00755338 0.10177051 0.0889395 0.068578266 -0.069138326
0.08811722 0.04991861 0.14431223 0.08291152 0.0514745 0.1460353 0.14118813 -0.08786098
0.09417317 0.0116352225 -0.080777 0.039430957 -0.09605446 0.056643415 0.040872496 0.029398037
0.010208142 -0.030345034 -0.1204382 0.09548837 0.048165165 -0.083900355 0.08542067 -0.12063004
-0.0050460296 0.14272222 0.0055873822 -0.0032465023 -0.08884517 0.110972755 -0.05369297 0.0027607274
-0.039051495 0.106390156 -0.09644918 0.01823743 0.05359223 -0.05611584 0.10883912 -0.11434013
-0.041363448 0.051458746 -0.0059111714 0.08896004 -0.078421 0.05437573 -0.025864199 0.12670137
-0.074330576 -0.0024518874 -0.06386684 -0.04968647 -0.022353938 -0.05351009 -0.07254078 -0.033850133
-0.0072252066 0.051303905 0.021880878 0.119823284 0.09610584 -0.023945175 -0.020421436 -0.00049488456
-0.003876021 -0.090696126 0.057914436 0.11937904 0.054659333 -0.02737753 0.025043886 -0.08236371
0.038871035 0.110328235 -0.020287031 0.13143723 0.035541084 -0.005037067 0.06303744 -0.037391227
0.103002995 0.04288076 -0.06300178 0.03630218 0.07849356 -0.05364672 0.019742444 0.10284412
0.07560569 -0.035837375 -0.014444444 0.017226748 -0.07680034 -0.09544413 0.07008936 0.13758488
0.08380868 -0.021725016 0.0037762814 0.045949068 0.012835994 0.06683688 0.1329038 0.102902085
0.13525146 -0.06914266 -0.08581177 -0.0044469144 -0.045411374 0.11182498 0.13901965 -0.08009328
-0.015057693 0.043765325 -0.01134934 -0.009251858 -0.077230886 0.08789371 0.007604257 -0.0919527
0.13320893 0.14563538 0.01624716 0.09929151 0.09796903 -0.07641645 0.06879727 0.03421813
0.010280125 -0.111450285 0.095784895 -0.00022983471 0.07522419 -0.0008289417 0.015116824 -0.057813853
-0.08708051 -0.0019303482 -0.010293602 0.07413714 0.099159725 -0.015336045 -0.088272035 0.040929213
0.066756025 0.036038436 -0.0043666107 0.089080684 -0.12706405 -0.04188679 0.10631265 -0.07225213
-0.039707057 0.062102802 -0.032615524 0.03533456 -0.062017143 -0.04813653 -0.13187653 -0.089006834
-0.008705849 -0.018525217 0.023832614 0.033964932 0.07544657 0.087729186 -0.14859651 0.09493472
0.030490637 0.050653152 0.05124279 -0.026103467 0.083190575 -0.03383951 0.014179626 -0.030549731
0.111341216 -0.0064227567 -0.029066376 0.054837547 0.12456356 0.063865036 -0.0051597697 -0.020494206
0.061601717 -0.08839614 -0.05987118 -0.09111555 -0.014551526 0.13862558 0.14976424 0.11451125

layer2.bias f4 [200]
00000000: ec42 063d 9b64 053c 3a2c d7bb cb8b a1bc
00000010: c09f 1ebc 206d 0bbc cedd 243d 0d68 a93b
00000020: 5734 84bc e6a3 43bc 361f d3ba 1d9a d63c
00000030: 31d4 963d 0434 1abc 17f3 8e3c 8621 58bc
00000040: dfbf f83c 6f1f 353c 9a20 683c 59c5 0ebc
00000050: a96e 8fbc d513 83bc 2ca5 913c d894 7dbc
00000060: 777c 673d d8fc 9dbc 1147 1cbc 9474 0b3d
00000070: e621 8dbc da9d c5bb 0229 08bc f6f7 3abc
00000080: 3fae 64bc fce1 95bc 7e3e 8bba d73c 89bc
00000090: 8fab bbbc 24b4 013c 9e04 cd3c aeca 66bc
000000a0: 5a19 963c 7776 2dbb ee76 adbc 7d82 b3bb
000000b0: 7bca f03c 5a9e 0ebc 7116 623d 597e 2fbc
000000c0: 5fcc ee3a 7892 db3b d4e4 dcbb 1eec a8bb
000000d0: 040a 35bc e9ec 4fbc 6a8e a8bc 3d77 fcbb
000000e0: b6a1 a1bc 5d9d b4bb dd39 57bc e5ec 1ebc
000000f0: 972e 52bc 99e0 bdbb b8c2 09bc f2eb 7d3c
00000100: 9c90 90bc 7aab 133d 391d b3bb 8c3a b23c
00000110: 22e4 27bc 22e7 4abc 3ac2 73bb 721b 243d
00000120: 45f9 efbb 31cc 093b f889 65bc e6d7 89bc
00000130: e09d 32bc 592e e6bb d56c 6cbb 28f1 8bbc
00000140: 6898 02bc aaa7 e7bb f60b c0bb 33c6 063d
00000150: ebce 36bc b5c6 f13c 26e4 f13b d5d9 003c
00000160: e0ec 34bc bf95 83bc 8fa8 babb b7cb 18bc
00000170: 0121 423d 1fa7 89bb 4fc4 ebbc 9c7e 0ebc
00000180: 726e 1d3d 73bc 09bd 760d 48bc b4bb 41bc
00000190: e603 b33c c5ec d1b4 f210 c43c bcad 71bc
000001a0: 8273 75bc e41c 2abc 6957 62bc b4d9 383d
000001b0: a378 92bb b932 903c 1320 403d a168 8ebc
000001c0: cd67 29bc 15b0 153d 5955 9439 c70c fabc
000001d0: 5c38 19bc 18cb 823b be57 4abc 0563 c33b
000001e0: cd55 be39 05e6 1a3c d29c 43bc 3b4c a7bb
000001f0: 3856 0e3c 6ca3 e8bb affb 21bc 989b 6f3c
00000200: 1161 82bc 38c3 38bc 8517 d6bb 1e09 01bc
00000210: 4ca2 48bc 0cb2 1e3b 17ee 80bc b697 95bc
00000220: 4ad9 34bc cf23 6ebc ae46 a2bc a7b7 97bb
00000230: 5a91 81bc f2a7 acbc 173b 92bb b64d 1cbc
00000240: 2957 40bc 4cf5 83bb 15d9 d4bb b5ce 31bc
00000250: 03cd 4fbc 1cc5 0d3c 441a a7ba 0e30 c73b
00000260: e6e3 93bc 5d0a ffbb eefe 69bc 9419 ccba
00000270: 6271 323d c0dd a1bb d09e 0bbc 044d 843c
00000280: 4a6a eb3c 20d6 41bc c381 53bc 6fff 063d
00000290: 6136 72bc 1878 71bc 7c5d 9cbc 66f4 9c3c
000002a0: fa35 213c 89e1 3abc c7ee 3bbc 3ac6 b5bc
000002b0: 81d2 253c cddc b3ba 807d 73bc 4d65 bdbb
000002c0: 1417 52bc 43ed 54bb 6a90 33bc 0ab5 95bc
000002d0: 721d 98bc 49d8 ba3c 038c 84bc 6415 96bc
000002e0: f40a e33a ea39 9dbc 1131 45bc 1a9f 55bc
000002f0: f957 113d bcfe 803c 89cf 28bc 1785 3fbc
00000300: 1d46 aebc 8201 c23c 1f34 f03b cd80 2f3c
00000310: 2dc8 343a 7bf2 073d 8212 95bc 8727 723d
0.032778665 0.008141662 -0.0065665515 -0.019719979 -0.009681642 -0.008509904 0.040250592 0.0051698745
-0.016138239 -0.011940932 -0.0016107324 0.026196534 0.07364691 -0.009411816 0.017449899 -0.013191586
0.030364929 0.011054858 0.014167929 -0.008714044 -0.017508822 -0.016000668 0.017778955 -0.015477382
0.056515183 -0.019285604 -0.009538428 0.034046724 -0.017228078 -0.0060307803 -0.008310558 -0.011411658
-0.013957559 -0.018296234 -0.0010623483 -0.016752644 -0.022908954 0.007916484 0.025026616 -0.014086409
0.018322635 -0.0026468316 -0.021174874 -0.005478202 0.029393425 -0.008704746 0.055197183 -0.010711276
0.0018218866 0.00670081 -0.0067411456 -0.0051551005 -0.011049751 -0.012690761 -0.02057572 -0.007704644
-0.01973043 -0.005511923 -0.013136354 -0.009700035 -0.012828491 -0.0057945964 -0.008408241 0.015498148
-0.01764708 0.036052205 -0.00546613 0.021756433 -0.010247262 -0.012384208 -0.0037194625 0.040065236
-0.0073234164 0.0021026249 -0.014009945 -0.016826581 -0.010901898 -0.007024568 -0.003607561 -0.017082766
-0.007970907 -0.0070695477 -0.005860801 0.03290386 -0.0111577315 0.029513696 0.0073819337 0.007864435
-0.0110428035 -0.016062615 -0.0056963633 -0.009325913 0.047394756 -0.0042008306 -0.02878013 -0.008697178
0.038435407 -0.033626985 -0.012210241 -0.011824537 0.021852445 -3.9101556e-07 0.023933861 -0.014750894
-0.0149811525 -0.010382865 -0.0138147855 0.045129493 -0.0044699474 0.017602311 0.04690559 -0.017383875
-0.010339689 0.036544878 0.0002829235 -0.03052367 -0.009351816 0.003991496 -0.012350021 0.005962732
0.0003630355 0.009454255 -0.011939244 -0.005105523 0.008687548 -0.0070995595 -0.009886666 0.014624499
-0.015915425 -0.0112770125 -0.0065335655 -0.007875709 -0.012245726 0.002421501 -0.01573853 -0.018260818
-0.011038134 -0.014534905 -0.019809093 -0.0046300474 -0.01581638 -0.021076176 -0.0044626105 -0.009540012
-0.011739531 -0.0040270444 -0.0064956048 -0.010852505 -0.012683156 0.008652952 -0.0012748917 0.0060787266
-0.018053006 -0.007783218 -0.014281971 -0.0015571588 0.04356516 -0.0049397647 -0.008521751 0.016150005
0.028737206 -0.011830837 -0.012909356 0.032958444 -0.014783473 -0.014738105 -0.019087546 0.019159507
0.009839529 -0.011406311 -0.011470503 -0.022189248 0.010120989 -0.001372242 -0.0148614645 -0.0057798983
-0.012822885 -0.0032490052 -0.010959724 -0.018274803 -0.018568728 0.02280821 -0.016180044 -0.018320747
0.001732199 -0.019192655 -0.012035624 -0.013038421 0.035484288 0.015746467 -0.0103033865 -0.011689446
-0.021273667 0.02368236 0.007330432 0.010711861 0.00068962836 0.03319023 -0.018197302 0.059119727

mu.weight f4 [4, 200]
00000000: ad64 0d3e baac a83d 55f7 acbd 5b60 9cbb
00000010: 289a 22be 5bcb 88bc e808 053e cddf 333e
00000020: bde1 be3d d423 0fbe 4f11 8dbd 8a71 97bd
00000030: 444e 2c3e 4b3d 5c3c f39a 0d3e b04d 70bd
00000040: 80a1 383e ba20 f83d aedf bb3d fe22 c43d
00000050: 6afd 793d 29f2 903d 9548 763d 475a b5bd
00000060: f3f1 603d 45c0 9c3d 391a 613c f387 0a3e
00000070: dab3 bbbd b62b d4bd dd80 203e d717 72bd
00000080: 6bb2 1dbe 237f 6abc dd3a 45bb 780f 0dbe
00000090: 6bc1 06be 5092 5f3d b4d3 b0bd 197f 4cbd
000000a0: a170 d7bc 02f4 2abe 5d8d c1bd 7c57 e53d
000000b0: 5d95 5cbd 6eb3 0bbe 96ad ee3d 9449 86bd
000000c0: dc7c cabd 1118 7abd 26d3 293e 0407 72bd
000000d0: 5808 76bd 96ef b83d e2f0 403d 7460 ecbd
000000e0: c61d ba3d 2b8f 59bd f8f5 363d 0bab be3d
000000f0: 0399 22be b3a7 773d 16d2 0abe a774 9dbc
00000100: 9489 20bd 6b28 113e c972 053e 0895 4ebd
00000110: 028a 9a3d 9ada 26bd 272f f0bd 203a 113e
00000120: e69a e73a 402e 3dbc 0202 65bd 046c 393e
00000130: a799 09bc 1c98 9ebd 7fe7 01be d5e7 a73d
00000140: 50e8 a1bd a4b7 063d 925c b93d 5656 a03b
00000150: cedc e13d e3bf 753d add9 09be 0805 01be
00000160: 19b6 8d3d 493a eabd 4586 e03b 93cc d13b
00000170: 3834 9e3d 5783 b0bd 0a76 9239 020c 7c3d
00000180: b2dd 393e 37fe b3bd a1d2 04be a983 ce3d
00000190: 3545 7cbd 55b8 1a3e 2562 8d3c 85cd 8ebd
000001a0: 000a b0bc bc3c fabd f2f8 013e 9244 393e
000001b0: dae7 1bbe 1789 5f3d f272 b33c 5e6c b3bc
000001c0: f171 4e3d c308 133d 4ed1 13ba fa23 183d
000001d0: b404 e3bd 4012 5fbc 469f e8bd 6002 9cbd
000001e0: 414d f7bc d640 363e a686 583c 16f4 693d
000001f0: 224e 01bb e332 17bd a691 d4bd 6298 173e
00000200: b42c ec3c b723 07be b2bb 8cbd cd15 f4bc
00000210: e457 663d 030f ec3d b735 e33d 0fc5 dbbd
00000220: 5fda bcbd fade 0fbe 56e1 193d 5a57 c0bc
00000230: e633 be3d fda5 063d 65e9 eabd 2780 b6bd
00000240: 7a6a 8fbd bb76 14bd f237 013e 2243 5f3d
00000250: db7b 86bd 88ca 00be 1f2a 96bd 2971 6abd
00000260: 68e8 8ebc 0177 c73b 671d fc3d 3859 aabc
00000270: 179f 213e f4f0 0a3e 7de6 383d 3871 923c
00000280: b7e5 81bd 97c0 03be acae 19be 7500 973d
00000290: f41c e53d 6fd2 66bd b7d7 10bd a184 8dbd
000002a0: 69ce a13d f190 1cbd 178e 2e3d 3ef6 d8bd
000002b0: 63b7 2c3e bb0b 1dbe 20f0 1abe d16b 263e
000002c0: 6b9c 9bbc 8791 29be 4b59 26be eba9 ec3d
000002d0: 6eac 83bd 85c9 b83d 10f4 9fbd a0d0 cd3d
000002e0: 34ef fa3d f242 073e 7968 23be c79b 8c3d
000002f0: 0bda bf3d cb2c 3d3e 2bd8 3f3d fcb7 c83d
00000300: a6fa aabd 0fe5 d63d 866d 00be 7dc7 71bc
00000310: d0f6 893d 8055 433d 4365 64bc 4953 fd3d
00000320: 10da 0f3d 935a 31be 6344 9c3d e86b 6abd
00000330: 1fdd 07be 523f bd3d eb71 1dbe a187 0abe
00000340: 956e 423d f32b fd3d 67b9 e63d e4a8 e1bd
00000350: 8285 20be 4518 9e3d 677b 0abe 3143 46bd
00000360: 9461 c03d 4495 5abd 87d4 9bbd 9886 db3d
00000370: 5a85 8e3d de2e 293d 30f2 e6bb 5630 05bd
00000380: 511d bdbd 8d8b b93d d4cc f23d dec0 2abe
00000390: 431a bbbd 1538 54bd 6c87 afbd 5b2c 683d
000003a0: 740a 5e3c 21af 22be ab64 1ebd 7030 e2bc
000003b0: 3195 c13d 70e5 17be 9203 873c acc3 113d
000003c0: 92f1 0dbe 66eb 4cbd b677 733d 5cc8 04be
000003d0: eae3 4ebd 2db3 9f3d 68a0 42be 3858 8a3d
000003e0: 630a 2bbe 01f7 3bbd 91d2 303c 258b 09be
000003f0: c519 92bd 20e0 b3bd 66bd 613c 7fff 9c3d
0.13807936 0.0823607 -0.08445612 -0.0047722287 -0.15879118 -0.01669853 0.12991679 0.17565842
0.093204 -0.13978511 -0.06888067 -0.07394703 0.16826731 0.013442348 0.1382864 -0.05866784
0.18030357 0.12115617 0.09173523 0.09576987 0.06103269 0.070774384 0.060127813 -0.0885511
0.05491824 0.0765386 0.013739162 0.13528423 -0.09165163 -0.103599 0.15674157 -0.059104767
-0.15400092 -0.014312538 -0.00300949 -0.13775432 -0.1315972 0.054582894 -0.08634129 -0.049925897
-0.026298823 -0.16694644 -0.09450791 0.11198327 -0.05385338 -0.13642666 0.11654203 -0.06557003
-0.09887096 -0.061058108 0.16584453 -0.059088722 -0.06006655 0.090300724 0.047104724 -0.115418345
0.0908771 -0.05311505 0.044668168 0.093099676 -0.15878682 0.060462665 -0.13556704 -0.019220663
-0.039193705 0.14175574 0.13032068 -0.050435096 0.07545854 -0.04073582 -0.117277436 0.14182329
0.0017670065 -0.011546671 -0.055910118 0.18107611 -0.00839845 -0.07743856 -0.12685965 0.08198515
-0.07905638 0.032889977 0.090508595 0.0048931045 0.11028443 0.05999745 -0.13461943 -0.12599576
0.06919498 -0.11436898 0.0068519437 0.006402561 0.07724804 -0.08618801 0.00027935236 0.06153489
0.18150976 -0.08788722 -0.12970974 0.10083706 -0.06158944 0.1510938 0.017258713 -0.069727935
-0.021489143 -0.122186154 0.12692621 0.18092564 -0.15225163 0.0545741 0.021905396 -0.02190226
0.05040163 0.035897028 -0.0005638794 0.037143685 -0.110848814 -0.013615191 -0.11358504 -0.076176405
-0.030188205 0.1779817 0.013215696 0.057117544 -0.0019730409 -0.036913764 -0.10379343 0.14804223
0.02882991 -0.13197218 -0.068717375 -0.029795552 0.056236163 0.11526301 0.1109423 -0.10730945
-0.092213385 -0.14049903 0.037568413 -0.023479152 0.092872426 0.032873143 -0.11470298 -0.08911162
-0.07002731 -0.036246043 0.12618998 0.054507382 -0.06566592 -0.1257726 -0.07332253 -0.057236824
-0.017444804 0.0060871844 0.123102956 -0.020794496 0.15783344 0.13568479 0.045141686 0.017876253
-0.06342643 -0.12866436 -0.15008038 0.07373134 0.11187163 -0.05635303 -0.03536197 -0.069100626
0.07900698 -0.038224164 0.042615976 -0.10593842 0.16866831 -0.15336506 -0.15130663 0.16252066
-0.018995484 -0.1655942 -0.16245 0.11555847 -0.06429373 0.09022812 -0.07810223 0.10049558
0.122526556 0.13209131 -0.15957822 0.0686565 0.0936776 0.18474118 0.046837013 0.09800717
-0.08348589 0.10492908 -0.1254178 -0.014757034 0.06736529 0.04768896 -0.013940158 0.12369401
0.03512007 -0.17319708 0.07630231 -0.057231814 -0.13267945 0.09240593 -0.15375488 -0.13528301
0.04746874 0.12361898 0.112658314 -0.110185415 -0.15675929 0.07719473 -0.13523637 -0.048403922
0.093936116 -0.053365007 -0.07608896 0.10719031 0.069590285 0.04130446 -0.007047914 -0.0325168
-0.09234107 0.0905982 0.11855474 -0.16675135 -0.091358684 -0.051811296 -0.085707515 0.056682926
0.013552297 -0.15887119 -0.038670223 -0.027610987 0.09452284 -0.14833617 0.016481195 0.035586998
-0.13861683 -0.05002918 0.059440337 -0.12967056 -0.050510325 0.07797847 -0.19006503 0.06755108
-0.16703181 -0.04588986 0.01079239 -0.13431986 -0.071338214 -0.08782983 0.013778066 0.076659195

mu.bias f4 [4]
00000000: 16d5 9d3c 061f e8bc a938 d4bc 6675 9dbc
0.019266646 -0.028335106 -0.025905924 -0.019221019
