llirl_sumo/saves/120p4k_ultimate/env_model_init.pth (torch, 698644 bytes, 8 tensors)

layer1.weight f4 [256, 160]
0	0x3dbddf0f	0.09271061
1	0x3e7e175e	0.24813601
2	0x3d1867e6	0.03720846
3	0x3e3b0b50	0.18266034
4	0x3e2b5f80	0.16735649
5	0x3e0de832	0.13858107
6	0x3dba7afa	0.09105487
7	0x3e6ef570	0.23335814
8	0x3e07a74f	0.13247417
9	0x3d10985d	0.035301555
10	0x3db06e50	0.086147904
11	0x3dbaf77a	0.09129234
12	0x3cafe870	0.02147314
13	0x3e7943df	0.24342297
14	0xbd23bee2	-0.039976962
15	0x3e2e9559	0.17049159
16	0x3a9215db	0.001114543
17	0x3e1e33d7	0.15449463
18	0x3cf42cc4	0.029806502
19	0x3cf420d5	0.029800812
20	0x3d97c7ff	0.07411193
21	0x3d9866e8	0.07441503
22	0x3e2ccbdb	0.1687464
23	0xbe0b49a3	-0.13602309
24	0x3d863aa7	0.06554156
25	0x3ca5b4f2	0.020227883
26	0xbda75a07	-0.08171468
27	0x3e06e768	0.13174212
28	0x3d9b7cad	0.075921394
29	0xbdfec0df	-0.12439131
30	0x3cfe8d18	0.031073138
31	0x3d99b081	0.075043686
32	0x3d5622c5	0.052279253
33	0x3dc46631	0.09589804
34	0x3deb8a35	0.1150097
35	0x3e070394	0.13184959
36	0x3e2f8ef7	0.1714438
37	0x3e0cfdad	0.13768645
38	0x3d7628e3	0.060097586
39	0x3c1524cc	0.009103011
40	0x3eb1d3f9	0.34732035
41	0xbd3aa0a3	-0.04556335
42	0x3d4eb6ab	0.050467175
43	0x3e8bcc4b	0.273043
44	0x3e24d8db	0.16098349
45	0x3e265ad3	0.16245584
46	0x3e7021a5	0.23450334
47	0x3c8ab332	0.01693115
48	0x3e235c75	0.15953238
49	0x3eacc766	0.3374588
50	0xbcfec35a	-0.03109901
51	0x3e26a1bc	0.16272634
52	0x3de55841	0.11198474
53	0x3ca9f698	0.020747468
54	0x3cc86d6f	0.024466245
55	0x3e31cb51	0.17362715
56	0x3d712cce	0.05888062
57	0x3e02b517	0.12764393
58	0x3dd32fa2	0.103118196
59	0xbd669433	-0.056293678
60	0xbd094e5d	-0.033522
61	0x3e577e7a	0.2104434
62	0xbd67512f	-0.056473907
63	0xbd4ca99d	-0.049966443
64	0x3e6a4fde	0.2288203
65	0xbe1f276e	-0.15542385
66	0x3dda9236	0.10672419
67	0x3dcd1ff0	0.10015857
68	0x3dc4af80	0.096037865
69	0x3e29156d	0.1651208
70	0x3d36cfc6	0.044631742
71	0x3e646dbe	0.22307488
72	0x3c4de30c	0.012566339
73	0x3e2dd9c2	0.169776
74	0x3ddfe740	0.10932779
75	0x3da25a2c	0.07927355
76	0x3e8c0acc	0.27351987
77	0xbc8bf102	-0.017082695
78	0x3e2be4ca	0.16786495
79	0x3e80f1aa	0.25184375
80	0xbcd1fd7c	-0.025633566
81	0x3caccc3e	0.021093484
82	0x3e42732f	0.18989252
83	0x3c5f64de	0.013634888
84	0x3e54166a	0.20711675
85	0x3e9e1379	0.3087423
86	0x3dbad52b	0.0912269
87	0x3e2634ad	0.16231032
88	0x3e287966	0.1645256
89	0x3db581bd	0.08862636
90	0x3daf0d2a	0.08547433
91	0x3e415f67	0.1888405
92	0x3cc41785	0.023936996
93	0xbd73bc29	-0.059505615
94	0x3e456abb	0.19278996
95	0xbdafe604	-0.08588794
96	0xbd944b82	-0.072409645
97	0x3eaf596b	0.34247908
98	0xbddaa1ab	-0.10675367
99	0x3d297f55	0.0413812
100	0x3e2d2481	0.16908456
101	0xbdf9f608	-0.1220513
102	0x3b23c522	0.0024989326
103	0x3d92d2a8	0.07169086
104	0x3c00d881	0.007864119
105	0x3de23434	0.11045113
106	0x3e1a505a	0.15069714
107	0x3dbe31ca	0.0928684
108	0x3e43af4d	0.1910984
109	0x3eb74147	0.3579199
110	0x3def1ac6	0.116750285
111	0x3e5f4aaa	0.21805826
112	0x3ebce761	0.36895278
113	0x3e0f06e9	0.1396748
114	0x3d6bb243	0.05754305
115	0x3eddc1a5	0.43311802
116	0x3e236661	0.15957023
117	0x3cfb7256	0.030694168
118	0x3e51b8d1	0.20480658
119	0x3e11b766	0.14230117
120	0x3dc01b2b	0.09380182
121	0x3eaa3725	0.33245197
122	0x3d4baa99	0.04972324
123	0x3ddcbae1	0.10777832
124	0x3e8c1f2d	0.27367535
125	0x3ddb50a6	0.10708742
126	0x3e7a3e95	0.24437936
127	0x3e46fd4a	0.1943256
128	0x3b9e40c3	0.0048294975
129	0x3df6e837	0.1205601
130	0x3ea700dc	0.32617843
131	0xbe1781f3	-0.14795665
132	0x3c873d03	0.016508585
133	0x3e13c39f	0.14430092
134	0x3d971dff	0.07378768
135	0xbdc217e7	-0.09477215
136	0x3e364b54	0.17802173
137	0x3c747de3	0.014922592
138	0x3b51b775	0.0032000218
139	0x3cf346d5	0.029696861
140	0xbdd015b0	-0.101603866
141	0x3dd7a0d4	0.105287224
142	0x3daf379e	0.0855553
143	0x3d8a67f4	0.06758109
144	0xbc907862	-0.017635528
145	0x3cf57a67	0.029965593
146	0xbe032ab0	-0.12809253
147	0x3d6cd550	0.05782062
148	0x3d45eaa2	0.048319466
149	0x3c917a34	0.017758466
150	0x3d933036	0.0718693
151	0xbd1bcb77	-0.038035836
152	0x3bc7e4ad	0.0061002583
153	0xbbdeb5b0	-0.006796561
154	0xbe25dbd5	-0.1619714
155	0xbd775bd8	-0.060390323
156	0x3cfb94a9	0.030710535
157	0xbb8bf311	-0.004270919
158	0x3d5c403c	0.053772196
159	0x3d85a3cb	0.06525382
160	0x3cab3520	0.020899355
161	0x3ec27278	0.37977958
162	0x3e18bd68	0.14916003
163	0x3e3919db	0.1807627
164	0x3e9dc069	0.3081086
165	0x3e48e1ce	0.19617388
166	0x3e11e3dc	0.14247078
167	0x3e84333e	0.25820345
168	0x3e4c8c58	0.19975412
169	0x3e692104	0.227665
170	0x3ec76d62	0.3895064
171	0x3e26fa02	0.16306308
172	0x3e28c9f9	0.16483296
173	0x3e63a84e	0.22232172
174	0x3e2cfe10	0.16893792
175	0x3e4c0e74	0.19927388
176	0x3dc6ee20	0.097133875
177	0xbc8d8fc1	-0.017280461
178	0x3dbb6172	0.091494456
179	0x3e163924	0.14670235
180	0x3e15c230	0.14624858
181	0xbd9a6fb2	-0.075408354
182	0x3e27734a	0.16352573
183	0xbd32013c	-0.04345821
184	0xbdbc16cf	-0.09184038
185	0x3c950bb1	0.018194051
186	0x3c64661b	0.0139403595
187	0x3da8202f	0.082092635
188	0x3e3b0c54	0.18266422
189	0xbe0d8a40	-0.1382227
190	0x3e0a7670	0.13521743
191	0x3e0a546d	0.13508768
192	0xbc25d69d	-0.010121969
193	0x3d9c6af2	0.07637586
194	0x3cd09b3c	0.025464647
195	0x3e2cb878	0.16867244
196	0x3e356dc5	0.17717655
197	0x3ee66408	0.44998193
198	0x3dbd48b7	0.09242385
199	0x3d3abae8	0.045588404
200	0x3e91c6ec	0.28472078
201	0x3cfd23a4	0.030900784
202	0x3e01c489	0.12672628
203	0x3e991a95	0.29903093
204	0x3df3a32e	0.118963584
205	0x3d5574d5	0.052113373
206	0x3e90c487	0.28274938
207	0x3e3ad656	0.18245825
208	0x3e098ae4	0.13431889
209	0x3e8c08dc	0.2735051
210	0x3e488d87	0.19585238
211	0x3e3b63c6	0.1829978
212	0x3e893dec	0.26805055
213	0x3db9d313	0.09073462
214	0x3df6ccab	0.12050756
215	0x3e68fd6e	0.22752926
216	0x3e466357	0.19373833
217	0x3e23a1c6	0.1597968
218	0x3e3a61ec	0.18201417
219	0xbb0816f7	-0.0020765641
220	0x3e234816	0.15945467
221	0x3e603209	0.21894087
222	0xbe1f9e61	-0.1558776
223	0x3dd4cd49	0.103907175
224	0x3e849764	0.25896752
225	0xbe1f0b31	-0.15531613
226	0x3e47a99e	0.19498298
227	0x3c77fc43	0.0151358275
228	0x3e06cf7b	0.13165085
229	0x3e80c6b7	0.25151607
230	0x3d5d3b98	0.05401191
231	0x3d59cfed	0.05317681
232	0x3dff17fa	0.12455745
233	0x3ede71e1	0.43446258
234	0x3dfc6541	0.12324
235	0x3e5620fc	0.2091102
236	0x3e93bc2c	0.288545
237	0xbc06a030	-0.008216903
238	0x3dc30f28	0.09524375
239	0x3e9ecd3d	0.3101596
240	0x3dd9bc91	0.10631669
241	0x3e0c4c50	0.13700986
242	0x3e9f19d1	0.31074384
243	0x3d892559	0.066965766
244	0x3e061721	0.1309476
245	0x3ed57987	0.4169428
246	0x3e06c940	0.13162708
247	0x3d56c27b	0.052431565
248	0x3e1d33be	0.1535177
249	0x3d59387f	0.053032394
250	0x3e59a544	0.2125445
251	0x3de57a95	0.11205021
252	0x3e03c1ac	0.12866849
253	0x3dc3c1b7	0.095584325
254	0x3e3e8ec2	0.18609145
255	0xbe05ceb8	-0.13067138

layer1.bias f4 [256]
0	0xbe08310f	-0.13299964
1	0xbdce47a0	-0.10072255
2	0xbdd31175	-0.10306064
3	0xbc2ee811	-0.010675446
4	0xbddfc39a	-0.1092598
5	0xbcde93d6	-0.027170103
6	0xbde1cf43	-0.1102586
7	0x3e51c71c	0.2048611
8	0xbdef4713	-0.11683478
9	0xbdf5ea71	-0.12007607
10	0xbde8cf15	-0.11367623
11	0xbddadb0d	-0.10686312
12	0x3e083a22	0.13303426
13	0xbddb48e8	-0.10707265
14	0xbdfb589e	-0.12272762
15	0xbde32012	-0.11090101
16	0xbde6984e	-0.112595186
17	0x00000000	0.0
18	0xbc6a15bc	-0.014287408
19	0xbde16a3f	-0.11006593
20	0x3db89143	0.090120815
21	0xbdecfb0d	-0.11571322
22	0x3ba3ae3e	0.0049951365
23	0x3e578ab5	0.21049006
24	0xbc2479b2	-0.01003878
25	0xbddf1dd2	-0.1089436
26	0x00000000	0.0
27	0xbdd6bb86	-0.10484986
28	0xbdf20461	-0.118172415
29	0xbdf1cd09	-0.118066855
30	0xbde7dc5c	-0.11321327
31	0xbdf8cabd	-0.12148044
32	0xbde0eceb	-0.109826885
33	0x00000000	0.0
34	0x00000000	0.0
35	0xbcb33d14	-0.02187971
36	0xbdb8580e	-0.0900117
37	0xbe0305f3	-0.12795238
38	0x00000000	0.0
39	0xbdc568fa	-0.09639163
40	0xbdf2ee0c	-0.1186181
41	0xbc0636b7	-0.008191756
42	0x3e391885	0.1807576
43	0xbde82970	-0.113360286
44	0xbddf3f57	-0.10900753
45	0xbdf2d7a3	-0.11857536
46	0xbdd2ec79	-0.1029901
47	0xbdec2e58	-0.11532277
48	0xbdd0ef84	-0.10201934
49	0xbde751ba	-0.11294885
50	0x00000000	0.0
51	0xbde3c621	-0.111217745
52	0xbc80d6d5	-0.01572744
53	0xbdfd61ae	-0.123721465
54	0xbdf45591	-0.11930383
55	0xbc861a02	-0.016369823
56	0xbddb3d8f	-0.10705101
57	0xbdf0bdc8	-0.11754948
58	0x00000000	0.0
59	0xbdcc9de4	-0.09991053
60	0xbdd4db7a	-0.10393424
61	0xbdf2ce23	-0.11855724
62	0xbde4d91e	-0.11174224
63	0xbcff03ca	-0.031129736
64	0xbe03c49e	-0.12867972
65	0xbdfaae28	-0.12240249
66	0xbdc9e2e1	-0.09857727
67	0xbddee68d	-0.10883818
68	0x3e27d0c8	0.16388237
69	0xbdca8854	-0.09889284
70	0xbde7dec9	-0.1132179
71	0xbddc504b	-0.10757502
72	0xbdf0a8db	-0.117509566
73	0xbdcf352e	-0.10117565
74	0xbdd469f5	-0.10371772
75	0x3e166110	0.14685464
76	0xbdebc36d	-0.11511884
77	0x3e294413	0.16529875
78	0xbdfc692f	-0.1232475
79	0xbe024c14	-0.12724334
80	0xbde4334e	-0.11142598
81	0x00000000	0.0
82	0xbded4ff7	-0.11587518
83	0xbdcfe2aa	-0.101506546
84	0xbde39792	-0.11112894
85	0xbe0735fd	-0.13204189
86	0x3e576c78	0.21037471
87	0xbdcb73d3	-0.09934201
88	0x3e3afabe	0.18259713
89	0xbdd25546	-0.10270171
90	0xbcb039a2	-0.021511856
91	0xbcdf0832	-0.027225588
92	0xbdc2a223	-0.095035814
93	0xbc5e6f83	-0.013576391
94	0xbdd1e677	-0.10249036
95	0xbdfd15a9	-0.12357647
96	0xbdf365d6	-0.11884658
97	0xbe034205	-0.12818153
98	0xbd9d38b0	-0.07676828
99	0x00000000	0.0
100	0x00000000	0.0
101	0xbdd5e24f	-0.104435556
102	0xbde3a2b2	-0.11115016
103	0xbde50074	-0.11181727
104	0xbdb91d98	-0.09038848
105	0xbdd85c75	-0.1056451
106	0xbdd0877c	-0.101820916
107	0xbdeb83fb	-0.11499783
108	0xbdd3109f	-0.103059046
109	0xbc763064	-0.015026186
110	0xbdfdf757	-0.12400692
111	0xbdfac3ba	-0.12244363
112	0xbde76175	-0.11297885
113	0xbde69655	-0.11259142
114	0xbdef7753	-0.11692681
115	0xbde51075	-0.111847796
116	0xbdd44393	-0.10364451
117	0xbdcd0eda	-0.10012598
118	0xbdefd2e8	-0.11710149
119	0xbe00cfe1	-0.125793
120	0xbdeb2d37	-0.114832334
121	0xbdfd0605	-0.12354664
122	0xbc8ae746	-0.016955983
123	0x3e34144e	0.1758587
124	0xbdeaa25e	-0.1145675
125	0xbdeda0c6	-0.11602931
126	0xbdfbcf51	-0.12295402
127	0xbdd65620	-0.10465646
128	0xbdc4800e	-0.09594737
129	0xbdf0e924	-0.11763218
130	0xbdcd4caa	-0.10024388
131	0xbdf69143	-0.12039425
132	0xbe0503a5	-0.12989672
133	0xbdde62db	-0.10858699
134	0xbdd14679	-0.1021852
135	0xbd5080e8	-0.050904185
136	0xbdbfcc16	-0.09365098
137	0xbdf7bd39	-0.12096638
138	0xbde9f5f2	-0.114238635
139	0xbdc16f1d	-0.09445021
140	0xbc07ad94	-0.00828113
141	0xbde91bf4	-0.11382285
142	0xbdd26376	-0.10272877
143	0xbdfcbf7f	-0.123412125
144	0xbdd94652	-0.10609116
145	0x00000000	0.0
146	0xbdddd22e	-0.10831104
147	0xbe01c57d	-0.12672992
148	0xbc4d17da	-0.012517894
149	0xbd869020	-0.065704584
150	0x00000000	0.0
151	0xbdc59f3c	-0.09649512
152	0xbdc9aa61	-0.0984695
153	0xbdbb14d4	-0.09134832
154	0xbdf44c5d	-0.11928628
155	0xbdfab6fe	-0.12241934
156	0xbdca7515	-0.09885613
157	0x3e1b44a0	0.15162897
158	0xbdf01255	-0.117222466
159	0xbda933c0	-0.08261824
160	0xbe02a8d8	-0.12759721
161	0xbde7b240	-0.11313295
162	0xbc3fb5d2	-0.011701064
163	0xbde6ff3e	-0.11279152
164	0x3e1072d6	0.14106306
165	0xbc82a5e4	-0.015948243
166	0xbdbf9cbd	-0.09356067
167	0xbddfca7d	-0.109272934
168	0xbdf1f714	-0.118147045
169	0xbb47ffc1	-0.0030517431
170	0xbcb3285c	-0.02186983
171	0xbdce6582	-0.10077955
172	0xbca3b02a	-0.019981463
173	0xbdd8009f	-0.105469935
174	0xbdf02ab1	-0.11726893
175	0xbe00e121	-0.1258588
176	0xbdcfacd2	-0.10140385
177	0x00000000	0.0
178	0xbdd5dfdd	-0.10443089
179	0xbddd5c23	-0.10808589
180	0xbde6f2c2	-0.11276771
181	0xbde9b0e8	-0.11410695
182	0x00000000	0.0
183	0xbde32b3c	-0.11092231
184	0xbe002191	-0.12512805
185	0xbde57440	-0.112038136
186	0xbde2d2f8	-0.11075395
187	0xbde5a442	-0.1121297
188	0xbbb6275c	-0.005558891
189	0xbdfbb54f	-0.12290441
190	0x3dce1366	0.10062294
191	0xbc11964c	-0.008885931
192	0xbdd9737d	-0.10617731
193	0xbc4defee	-0.012569411
194	0xbdfea9fe	-0.12434767
195	0xbdcae141	-0.09906245
196	0x3a5009c2	0.00079360243
197	0xbdcc7a83	-0.09984305
198	0xbdb7a83c	-0.08967635
199	0xbdc28b99	-0.094992824
200	0xbbf81699	-0.007571053
201	0xbdca496d	-0.09877286
202	0xbdedb0c2	-0.116059795
203	0xbbdbe1cf	-0.006710268
204	0xbdf02e38	-0.117275655
205	0xbddfd98b	-0.10930165
206	0xbdd85067	-0.105622105
207	0xbba9fd35	-0.0051876553
208	0xbc81ab39	-0.015828716
209	0xbdde7ff7	-0.10864251
210	0xbde752e1	-0.11295105
211	0x00000000	0.0
212	0xbde24746	-0.110487506
213	0x00000000	0.0
214	0xbddb7218	-0.10715121
215	0xbe0a1996	-0.13486323
216	0xbdbb4b0c	-0.091451734
217	0xbc8fa91e	-0.017536696
218	0xbde82910	-0.11335957
219	0xbdca10f9	-0.098665185
220	0x3e1ad114	0.1511882
221	0xbde0392c	-0.10948405
222	0xbdf615be	-0.12015866
223	0xbc65b66e	-0.014020545
224	0xbe012457	-0.12611519
225	0xbd4bb841	-0.049736265
226	0x3ddb6c46	0.10714011
227	0xbdda4e7f	-0.10659503
228	0x3dff0f45	0.12454084
229	0xbdb2f54d	-0.08738194
230	0xbdf96bf8	-0.121787965
231	0xbdbcd7f9	-0.09220881
232	0xbbe25a02	-0.0069077024
233	0xbdf0298f	-0.11726677
234	0x3e211742	0.15731528
235	0xbdcedb89	-0.10100467
236	0xbdcea057	-0.10089176
237	0xbde9e6c4	-0.11420968
238	0xbded9f50	-0.11602652
239	0xbde4d9b1	-0.11174334
240	0xbbf72d7f	-0.0075432654
241	0xbdf9b9cb	-0.1219364
242	0xbddf289c	-0.108964175
243	0xbdd01aaa	-0.10161336
244	0xbde6e4c5	-0.11274103
245	0x3e336bf8	0.17521656
246	0xbdda4eb8	-0.10659546
247	0xbc384372	-0.011246549
248	0xbdd72cd2	-0.10506596
249	0xbde5d2dd	-0.112218596
250	0xbe08da35	-0.1336449
251	0xbc59c789	-0.013292202
252	0xbde38338	-0.11109012
253	0xbddf0c3e	-0.10891007
254	0x3e3d87b4	0.18508798
255	0xbc1bc593	-0.009507555

layer2.weight f4 [256, 256]
0	0x3c7f448a	0.015580306
1	0xbdd9d94d	-0.1063715
2	0x3c09fdd4	0.008422334
3	0x3ddb8f0d	0.10720644
4	0x3d8c392b	0.068468414
5	0x3d86a357	0.06574123
6	0x3d63547b	0.05550049
7	0xbdf1ba4d	-0.11803112
8	0xbd93f80e	-0.07225047
9	0x3d4dec00	0.050273895
10	0xbddf6cee	-0.109094486
11	0x3d8c96a4	0.0686467
12	0xbd7632f6	-0.060107194
13	0xbda2ac29	-0.07942993
14	0xbde25971	-0.11052216
15	0xbcbe1866	-0.023204993
16	0xbd19f97b	-0.03759144
17	0xbd9fed37	-0.07808917
18	0xbbcd1c10	-0.006259449
19	0x3ce8e044	0.02842725
20	0x3d2a0c60	0.041515708
21	0x3c62ddef	0.013846858
22	0x3d66b9eb	0.05632965
23	0xbd8e21e8	-0.06940061
24	0xbcd32b24	-0.025777407
25	0xbddcbe1b	-0.10778447
26	0x3d382bae	0.04496353
27	0xbdd937b9	-0.106063314
28	0xbdf1c4b8	-0.11805099
29	0xbd3c434c	-0.045962617
30	0x3c597f81	0.013275028
31	0x3da1e933	0.07905807
32	0xbd8fc88d	-0.07020674
33	0xbbe82c10	-0.007085331
34	0xbda72356	-0.08161037
35	0x3d52ff12	0.051512785
36	0x3d2c61b2	0.042085357
37	0xbc462a08	-0.012094982
38	0xbbf32780	-0.0074204803
39	0xbbe623d3	-0.0070233135
40	0x3d971e8a	0.07378872
41	0xbcb51b1c	-0.022107653
42	0x3cc3bb9a	0.023893166
43	0x3bd7758b	0.0065752915
44	0x3c074b1a	0.008257652
45	0xbdaeba62	-0.085316435
46	0x3c19ba53	0.009382802
47	0x3d58e951	0.052956883
48	0xbd40e14a	-0.047089852
49	0x3caed714	0.021342792
50	0x3d9fd9bf	0.07805204
51	0xbde11f94	-0.10992351
52	0xbd247a78	-0.040155858
53	0xbdb87a53	-0.090077065
54	0x3ca236cc	0.01980152
55	0xbd4efd21	-0.05053437
56	0x3bc6e276	0.0060694767
57	0xbda7604c	-0.08172664
58	0x3dcb09e3	0.09913995
59	0xbcff5c78	-0.031172022
60	0xbd9ce68b	-0.0766116
61	0xbdc1ebac	-0.09468779
62	0xbdaf55b7	-0.08561271
63	0xbd410a7b	-0.047129136
64	0x3c82d158	0.015968964
65	0xbdec1844	-0.11528066
66	0x3d38716c	0.045030043
67	0xbde27bab	-0.11058744
68	0x3d32ccb6	0.04365226
69	0x3cc446b0	0.023959488
70	0x3dc0b2cd	0.094091035
71	0x3d8fda3b	0.07024046
72	0xbd171dd2	-0.036893673
73	0x3d6733f0	0.056446016
74	0x3d21af33	0.039473724
75	0x3ccfd93c	0.02537214
76	0xbdb4f5cb	-0.08835944
77	0xbd8ee923	-0.06978061
78	0xbda3b21c	-0.07992956
79	0xbca6174d	-0.020274783
80	0x3c8b9b03	0.017041689
81	0x3cc0ebc4	0.023549922
82	0xbdefc572	-0.117075816
83	0x3d717574	0.058949903
84	0xbc8dbb8b	-0.017301342
85	0x3db6b163	0.089205526
86	0x3d8c4ee3	0.06850984
87	0x3dbfda11	0.09367765
88	0x3d8cba87	0.06871515
89	0x3d43d50c	0.0478106
90	0x3d6e6462	0.0582012
91	0x3d01ae36	0.03166028
92	0x3d55ce2f	0.052198585
93	0x3db8af09	0.0901776
94	0xbdca7f65	-0.0988758
95	0xbdce7796	-0.10081403
96	0xbd6a5d75	-0.057218034
97	0x3d58de93	0.05294664
98	0xbd8c5b65	-0.068533696
99	0x3cb0632c	0.021531664
100	0x3dbf3a6b	0.09337314
101	0xbbdaa127	-0.006672043
102	0xbdb6f409	-0.08933265
103	0xbcddb8e1	-0.027065696
104	0xbda90bb5	-0.08254186
105	0x3cfb142c	0.030649267
106	0xbc976b35	-0.018483737
107	0xbdbb18f1	-0.091356166
108	0x3d07a214	0.033113554
109	0xbcb88e10	-0.022528678
110	0xbbcec818	-0.006310474
111	0x3d30476b	0.04303686
112	0x3daccc92	0.08437456
113	0xbdc6f3ba	-0.09714456
114	0xbdb30436	-0.087410375
115	0x3cf30356	0.029664677
116	0x3cb4665d	0.022021467
117	0xbd8ceeed	-0.06881509
118	0x3d7c37e2	0.06157673
119	0xbd0cc82a	-0.03437058
120	0x3dba70f6	0.09103577
121	0xbd862fab	-0.06552061
122	0x3d5f3662	0.054495223
123	0x3d4349b5	0.047677714
124	0x3d25db74	0.04049249
125	0x3ca027dc	0.019550256
126	0x3c9843fd	0.018587107
127	0xbd2c96fa	-0.04213617
128	0x3c0573fa	0.008145327
129	0xbda168e1	-0.07881332
130	0x3d8bfbbd	0.06835125
131	0xbd2404a2	-0.04004348
132	0x3cab8071	0.02093527
133	0x3d159d49	0.036526952
134	0xbd059b66	-0.032618903
135	0x3d99286c	0.07478413
136	0x3c087d09	0.008330592
137	0x3d3e143c	0.046406016
138	0xbd7812f2	-0.060564943
139	0xbdc09741	-0.094038494
140	0xbd8c50c6	-0.06851344
141	0x3cd2be7e	0.0257256
142	0xbc862272	-0.016373847
143	0xbdd53c3d	-0.1041188
144	0x3ce731a7	0.028221918
145	0x3d85ff0f	0.06542789
146	0xbda69c53	-0.08135285
147	0x3d4ba7b0	0.049720466
148	0xbd5eabb3	-0.054362964
149	0xbc52119b	-0.01282158
150	0xbd8aca06	-0.06776814
151	0x3cd124e5	0.025530288
152	0xbb7d57bf	-0.0038657037
153	0xbcfa47cd	-0.030551815
154	0xbd0f133c	-0.034930453
155	0xbd2fcea6	-0.042921685
156	0x3d808b4f	0.06276571
157	0x3d592178	0.053010434
158	0xbd466414	-0.048435286
159	0xbbe11eb7	-0.0068701166
160	0xbda26c9b	-0.07930871
161	0x3db8637d	0.09003351
162	0xbd99765e	-0.0749328
163	0xbd8bcdae	-0.0682634
164	0x3c3d4b28	0.011553563
165	0xbdad4ea3	-0.084622644
166	0xbd0264ba	-0.03183434
167	0xbdf2b743	-0.11851361
168	0x3bee1705	0.0072659277
169	0x39c57f00	0.0003766939
170	0xbd0ae542	-0.033910044
171	0x3db8d70b	0.09025391
172	0xbcab1d38	-0.020887956
173	0x3cede991	0.029042037
174	0xbb921656	-0.004458229
175	0xbdd27922	-0.102770105
176	0xbdc6dbf4	-0.097099215
177	0xbc0d1760	-0.00861153
178	0xbc95e681	-0.01829839
179	0x3c646101	0.013939143
180	0x3cd3f646	0.025874268
181	0x3d0f6358	0.03500685
182	0xbdbb8de4	-0.09157923
183	0xbde9b56a	-0.11411555
184	0xbcedda6e	-0.02903482
185	0xbda83167	-0.08212548
186	0xbcfc4823	-0.030796116
187	0x3dadd647	0.08488136
188	0x3d33f0fe	0.043931
189	0xbc1efbe7	-0.009703613
190	0x3da3658d	0.07978354
191	0xbd982a5e	-0.07429956
192	0xbb6c473c	-0.0036053201
193	0x3dd0463d	0.10169647
194	0xbcc74615	-0.02432541
195	0x3dc1698a	0.09443958
196	0x3d325a3c	0.043543085
197	0x3d804c14	0.06264511
198	0xbcabd5e7	-0.02097602
199	0x3d990b83	0.07472899
200	0x3db60e47	0.08889442
201	0x3d3bb4c8	0.045826703
202	0x3bf94a78	0.0076077543
203	0xbc301840	-0.010747969
204	0xbdb0abcf	-0.0862652
205	0xbc024b68	-0.007952549
206	0xbd768a78	-0.060190648
207	0x3dcfaec9	0.101407595
208	0xbd9fd914	-0.07805076
209	0xbdbf9574	-0.09354678
210	0xbd2d961e	-0.04237949
211	0xbdda3caa	-0.10656102
212	0xbdb3dae4	-0.087819844
213	0x3dd53bbb	0.10411783
214	0xbd52580e	-0.051353507
215	0xbd8a9f51	-0.067686684
216	0xbdd89230	-0.10574758
217	0xbca39648	-0.01996912
218	0xbdc156a2	-0.09440352
219	0xbcda1630	-0.026621908
220	0x3a8fb300	0.001096338
221	0xbdda824f	-0.10669386
222	0x3d9e4102	0.07727243
223	0x3dafc5b7	0.08582633
224	0xbbfd0033	-0.007720971
225	0x3c3db9a6	0.011579907
226	0x3dc1ef13	0.09469428
227	0xbda20681	-0.07911397
228	0xbb793500	-0.0038025975
229	0xbdb1aa8f	-0.086751096
230	0x3db4e2b3	0.08832302
231	0xbc91dc85	-0.017805347
232	0xbcee4d7c	-0.029089682
233	0xbd41a0e0	-0.047272563
234	0x3d7f8b86	0.06238892
235	0xbc548ba0	-0.012972742
236	0xbddc4434	-0.10755196
237	0xbc53e74f	-0.012933566
238	0xbc056048	-0.008140631
239	0x3c5920a4	0.013252411
240	0xbd057fac	-0.03259246
241	0xbd568077	-0.052368607
242	0xbdd6fa3b	-0.104969464
243	0xbcfec505	-0.031099806
244	0x3d4e6dc4	0.05039765
245	0xbcaaacbc	-0.02083432
246	0x3da9944f	0.08280241
247	0xbdcff0b7	-0.101533346
248	0xbdd3a362	-0.10333897
249	0x3c08e892	0.00835623
250	0x3d88220e	0.066471204
251	0x3ddcc9bd	0.10780666
252	0xbdbc2b82	-0.09187986
253	0xbd8821c7	-0.066470675
254	0x3d200313	0.03906543
255	0xbc99ddf8	-0.0187826

layer2.bias f4 [256]
0	0xbc4d9db0	-0.012549803
1	0x3e06a40f	0.13148521
2	0xbe0d7a9b	-0.13816302
3	0xbc269d33	-0.010169315
4	0xbe074ff2	-0.1321409
5	0xbe09843a	-0.13429347
6	0xbdd5c54a	-0.104380205
7	0xbdd10b47	-0.10207229
8	0xbddb5da9	-0.10711224
9	0xbc8c3829	-0.017116623
10	0x3b8f5267	0.004373837
11	0xbdd9caf7	-0.106344156
12	0x3e003928	0.12521803
13	0xbbc723ca	-0.0060772644
14	0x3dc5beb3	0.096555136
15	0xbe0c7bc0	-0.13719082
16	0x3db56640	0.08857393
17	0x3ca1beb9	0.019744264
18	0x3df07099	0.11740226
19	0xbde1cc53	-0.110253
20	0xbe14aac7	-0.14518271
21	0xbc1be035	-0.009513904
22	0x00000000	0.0
23	0xbddee4e8	-0.10883504
24	0xbb3f8048	-0.0029220749
25	0xbdff3eb8	-0.124631345
26	0xbdd071ae	-0.10177933
27	0xbdd4d7fc	-0.10392758
28	0xbddf74a7	-0.109109215
29	0x00000000	0.0
30	0xbbf72d7f	-0.0075432654
31	0xbdcfb803	-0.10142519
32	0x3df88aa7	0.12135821
33	0xbde8a2eb	-0.11359199
34	0xbde2143b	-0.11039015
35	0xbde1fad1	-0.110341676
36	0xbbee04d5	-0.0072637596
37	0xbddadbd3	-0.106864594
38	0xbc8afd64	-0.01696653
39	0x3d8da9d6	0.06917159
40	0x00000000	0.0
41	0xbe116cb8	-0.14201629
42	0x3d5d6a46	0.05405643
43	0xbac8c1b2	-0.0015316515
44	0x3dfcd6e9	0.12345678
45	0xbded45e8	-0.11585599
46	0x3c2c659c	0.010522272
47	0xbde5468c	-0.111950964
48	0xbc66904f	-0.014072492
49	0xbc322a93	-0.010874408
50	0x3e3cd4a6	0.18440494
51	0x3d333ac2	0.043757208
52	0xbe19f337	-0.15034185
53	0x3d949837	0.07255595
54	0xbc2ac83d	-0.010423717
55	0xbe11ab48	-0.14225495
56	0x3d68e2ac	0.056856796
57	0xbdf0e753	-0.117628716
58	0x3da8acd2	0.08236088
59	0xbde643b6	-0.112433836
60	0xbe11a6f8	-0.1422385
61	0x3e2db6fd	0.16964336
62	0xbe0c7a34	-0.13718492
63	0xbdf10fc7	-0.117705874
64	0xbe142f3f	-0.14471148
65	0xbdebb91f	-0.115099184
66	0xbdf64aaf	-0.120259635
67	0xbbfb16cb	-0.0076626292
68	0xbdd29eba	-0.10284181
69	0xbe1acad6	-0.15116438
70	0xbde23543	-0.11045315
71	0xbc4c1687	-0.012456543
72	0xbba78c79	-0.005113181
73	0x3df926fc	0.12165639
74	0xbc542440	-0.012948096
75	0xbe24c208	-0.16089642
76	0xbdd945a9	-0.1060899
77	0xbe0a915e	-0.13532016
78	0xbe0d148e	-0.13777372
79	0x3de56fe3	0.11202981
80	0xbcb9cdac	-0.02268108
81	0x3d9af986	0.07567124
82	0xbd978464	-0.073982984
83	0xbdf097d4	-0.11747709
84	0xbdeacdd8	-0.11465043
85	0xbddaaae4	-0.10677126
86	0xbdf28416	-0.118416
87	0xbc4f8b7a	-0.012667531
88	0xbe059938	-0.1304673
89	0xbddc9fc8	-0.10772663
90	0x00000000	0.0
91	0xbdf1bc85	-0.11803535
92	0xbddc1c73	-0.10747614
93	0xbc2d8f67	-0.010593272
94	0xbbff8901	-0.0077983146
95	0xbba30fd2	-0.004976251
96	0xbe14d48a	-0.14534202
97	0xbdf89f5c	-0.121397704
98	0xbc30af04	-0.0107839145
99	0x3d899a3a	0.067188695
100	0xbc17bf43	-0.009261909
101	0xbdf06755	-0.11738459
102	0xbdd40fff	-0.103546135
103	0x3d819036	0.06326334
104	0x3e26519b	0.16242068
105	0xbc5e29af	-0.013559743
106	0xbde21b61	-0.11040378
107	0xbe088931	-0.13333584
108	0x00000000	0.0
109	0x3d200fbc	0.039077505
110	0xbdea2e69	-0.11434633
111	0xbe10bdf1	-0.14134957
112	0xbc409c97	-0.011756084
113	0xbc26dbfa	-0.010184282
114	0xbdcbfc06	-0.09960179
115	0xbdd36565	-0.10322074
116	0x3e187642	0.14888862
117	0xbe15f040	-0.1464243
118	0x3d791a6d	0.060816217
119	0xbe169de5	-0.1470867
120	0xbe063169	-0.13104786
121	0xbdda8fa6	-0.1067193
122	0xbe0b96ae	-0.13631698
123	0xbdcf17e0	-0.10111976
124	0x3e0f8f54	0.14019519
125	0xbd056f1d	-0.03257667
126	0xbdd84fe3	-0.10562112
127	0xbe1357c2	-0.14388946
128	0x00000000	0.0
129	0xbc175681	-0.009236933
130	0xbc1f3bdf	-0.009718864
131	0xbb96ea1a	-0.004605544
132	0xbdd9b8e0	-0.10630965
133	0xbdee39ef	-0.11632144
134	0xbe0becf8	-0.13664615
135	0x3dc2efb1	0.09518374
136	0xbdd7bf5f	-0.10534548
137	0xbc398a28	-0.011324443
138	0xbe230192	-0.15918568
139	0x3e11916c	0.1421563
140	0x3af34f4e	0.0018563063
141	0xbddc52ad	-0.10757957
142	0xbdfc4e63	-0.123196386
143	0xbdd60471	-0.10450066
144	0xbe09f405	-0.13471992
145	0xbddde058	-0.10833806
146	0xbdd8d88d	-0.10588179
147	0xbde423c0	-0.11139631
148	0xbc459a46	-0.012060707
149	0xbcb1bc2d	-0.021696175
150	0xbc4b51d2	-0.012409644
151	0xbc8416bf	-0.016124127
152	0xbc9ca6d0	-0.019122511
153	0xbdd9b29b	-0.106297694
154	0xbe0f7b22	-0.14011815
155	0xbba8234f	-0.0051311622
156	0xbdeaed8b	-0.11471089
157	0xbe27376c	-0.16329736
158	0xbdda594a	-0.10661562
159	0xbe023e9a	-0.12719193
160	0xbe084f56	-0.13311514
161	0xbe0f08b8	-0.1396817
162	0xbe0dcb1a	-0.13847008
163	0xbde22b79	-0.11043448
164	0xbc88ace1	-0.016683998
165	0xbde0519c	-0.10953066
166	0xbdd38c36	-0.103294775
167	0x3de7dd2e	0.113214836
168	0x3d81aebe	0.063321576
169	0xbdd7551e	-0.10514282
170	0x3e0c6c59	0.13713206
171	0xbde8a914	-0.11360374
172	0x3e2473eb	0.16059844
173	0x00000000	0.0
174	0xbdd3d9d5	-0.103442825
175	0xbdd18c4c	-0.10231838
176	0xbe003cf3	-0.1252325
177	0xbdc48032	-0.09594764
178	0xbc2cdd1e	-0.010550765
179	0x3df16411	0.11786664
180	0xbddb8f00	-0.107206345
181	0xbcc4b6b6	-0.024012905
182	0xbc40a108	-0.011757143
183	0xbc933381	-0.017968895
184	0x3e0b4d49	0.136037
185	0xbe0ad64c	-0.1355831
186	0xbe18b226	-0.14911708
187	0xbc03aaea	-0.008036355
188	0xbdd80c7b	-0.105492555
189	0xbde47279	-0.111546464
190	0xbddcca1a	-0.10780735
191	0xbddf37e0	-0.10899329
192	0x3d06fb6e	0.032954626
193	0xbe133910	-0.14377236
194	0xbdd3ac37	-0.10335582
195	0xbde471c2	-0.1115451
196	0xbc5d6f32	-0.013515281
197	0xbb07e8d3	-0.002073814
198	0xbe10647a	-0.14100829
199	0xbc214205	-0.0098424
200	0xbbbebb56	-0.005820672
201	0xbbc4c9d8	-0.006005507
202	0x3d40face	0.047114186
203	0xbe0c78fe	-0.1371803
204	0xbe07c2e3	-0.13257937
205	0xbded5f0f	-0.115903966
206	0xbe214c18	-0.15751684
207	0xbe210e7c	-0.15728182
208	0xbde32189	-0.11090381
209	0xbdf10292	-0.117680684
210	0xbdd7f8a5	-0.10545472
211	0xbde00e8c	-0.109402746
212	0xbe075a6b	-0.13218085
213	0xbe07fd68	-0.1328026
214	0xbdda56b1	-0.10661066
215	0x3e0e38d8	0.13888872
216	0xbddb2fb9	-0.10702462
217	0x00000000	0.0
218	0xbc61c35b	-0.0137794865
219	0xbe12eece	-0.1434891
220	0xbca90c06	-0.020635616
221	0xbe1f33ea	-0.15547147
222	0xbdfe2c6b	-0.12410816
223	0x3c927569	0.017878251
224	0x00000000	0.0
225	0x3de18ceb	0.11013206
226	0x3e373958	0.17892969
227	0xbc849985	-0.016186485
228	0xbdcf5b88	-0.1012488
229	0xbdee1a90	-0.1162616
230	0xbdcf9a8a	-0.10136898
231	0x3df8cd5c	0.12148544
232	0xbdc54bcb	-0.09633597
233	0x3dfb421d	0.122684695
234	0xbe0f392a	-0.1398665
235	0xbe2acb41	-0.16679098
236	0xbe242aaf	-0.16031907
237	0xbc2990f4	-0.010349501
238	0xbc0ba870	-0.008524045
239	0xbdce5b42	-0.10076
240	0xbddd2084	-0.107972175
241	0xbc1f62e2	-0.009728165
242	0xbbdbcb2b	-0.006707569
243	0xbbbc86a0	-0.0057533532
244	0xbe0a506e	-0.13507244
245	0xbc332441	-0.010933937
246	0xbbb0d20c	-0.0053961333
247	0xbba8234b	-0.0051311604
248	0xbe201864	-0.15634304
249	0xbe0be13a	-0.13660136
250	0x00000000	0.0
251	0xbc25fa52	-0.010130482
252	0xbdea8170	-0.114504695
253	0xbbaca61e	-0.005268826
254	0xbdeda09c	-0.116028994
255	0xbde53729	-0.111921616

layer3.weight f4 [256, 256]
0	0x3d5b6dfe	0.053571694
1	0xbe38ca59	-0.1804594
2	0x3d300b44	0.042979494
3	0x3bde3c29	0.006782074
4	0x3c06afe7	0.008220649
5	0x3dce335a	0.10068388
6	0xbccf87bf	-0.025333283
7	0x3d1828f4	0.03714843
8	0xbd02a032	-0.031891055
9	0xbb11f21b	-0.002226955
10	0xbd3371d8	-0.04380974
11	0xbd1611ec	-0.036638185
12	0xbe88efba	-0.26745397
13	0x3d1e6e82	0.038679607
14	0x3e0fcc74	0.14042836
15	0x3dd12d28	0.10213691
16	0x3c516854	0.012781221
17	0xbeac261d	-0.33622828
18	0xbe99358f	-0.29923674
19	0x3d0c39ee	0.034234934
20	0x3db0d061	0.08633495
21	0x3d4d173e	0.050070994
22	0xbd41517b	-0.047196846
23	0xbc234c6f	-0.009966954
24	0xbccc5e8c	-0.024947427
25	0x3dda45c0	0.10657835
26	0xbd205064	-0.039139166
27	0x3da262ce	0.07929002
28	0x3d70eb53	0.058818173
29	0x3a826800	0.0009949207
30	0xbdc8bc8b	-0.09801587
31	0xbcf8857e	-0.030337092
32	0xbea0ddf2	-0.3141933
33	0x3da98343	0.08276989
34	0x3d6800ec	0.056641504
35	0xbd3c7dc8	-0.04601839
36	0x3d700453	0.058597874
37	0xbd2301ec	-0.039796755
38	0x3b684439	0.0035441054
39	0xbd13a05f	-0.036041614
40	0xbb9c1020	-0.0047626644
41	0x3d7fac82	0.062420376
42	0x3a5d72f0	0.0008447608
43	0xbdac8529	-0.08423836
44	0xbe823e74	-0.25438273
45	0xbd8cbb28	-0.06871635
46	0x3cfb2690	0.030658036
47	0x3e0d0a21	0.13773395
48	0xbdbcfa66	-0.09227447
49	0x3d51b569	0.051198397
50	0xbeafe382	-0.34353262
51	0x3e0388fe	0.12845227
52	0x3df318fe	0.11870001
53	0x3e2a174c	0.1661045
54	0xbd0a476f	-0.03375953
55	0x3e307d9e	0.17235419
56	0xbea0d8d5	-0.3141543
57	0x3c9daaee	0.019246545
58	0xbe3036ab	-0.17208354
59	0x3dfd7e69	0.123776264
60	0xbacd0094	-0.0015640431
61	0xbecc6f78	-0.39928794
62	0x3e12d628	0.14339507
63	0xbba046a1	-0.004891232
64	0xbcedefbe	-0.029044982
65	0x3d29810d	0.041382838
66	0x3dd7d9ef	0.105396144
67	0x3d31b9b9	0.04339001
68	0xbcfe8d94	-0.03107337
69	0x3da2d319	0.0795042
70	0x3dffe7f3	0.12495413
71	0xbcb73242	-0.022362832
72	0x3d908536	0.07056658
73	0xbedbc43e	-0.42923158
74	0xbd6d56ef	-0.057944234
75	0x3d394c7b	0.045238953
76	0x3d8755fc	0.06608197
77	0x3bca8a9c	0.0061810743
78	0x3e109cb6	0.1412228
79	0x3e7d82f8	0.24756992
80	0x3d8e14e7	0.069375806
81	0xbdc442cb	-0.09583052
82	0xbe56a97c	-0.2096309
83	0x3d0da349	0.03457955
84	0x3da922ab	0.082585655
85	0xbc1b54ce	-0.009480668
86	0x3d41022f	0.047121223
87	0xba527dc9	-0.00080296077
88	0x3d97a095	0.074036755
89	0x3dacbd1c	0.08434507
90	0x3d700eb2	0.058607765
91	0xbd241f8c	-0.040069148
92	0x3c9b9352	0.018991146
93	0xbd0b5620	-0.034017682
94	0x3da32a44	0.07967046
95	0x3da91253	0.08255448
96	0x3da66210	0.08124173
97	0xbd203a5b	-0.039118152
98	0x3de45b72	0.11150254
99	0x3e345ebf	0.17614268
100	0xbdeab70b	-0.11460694
101	0x3cb19a23	0.021679943
102	0x3d6e1bbd	0.058131922
103	0xbe201f63	-0.15636973
104	0xbe975497	-0.29556724
105	0xbb63a99b	-0.0034738544
106	0x3e13a3b8	0.14417922
107	0x3df5d3ea	0.1200331
108	0x3dc45307	0.09586149
109	0x3cc04bf9	0.023473727
110	0xbd9a24e3	-0.07526567
111	0x3da20df3	0.07912817
112	0xbd5f716a	-0.05455152
113	0xbda57dd3	-0.0808064
114	0xbd67829d	-0.056521047
115	0x3df41bf6	0.119193956
116	0xbe23e48f	-0.16005157
117	0x3e143386	0.1447278
118	0xbebf1df8	-0.37327552
119	0x3dce086b	0.10060199
120	0x3d0f9f88	0.03506425
121	0xbd5a6267	-0.0533165
122	0xbd360f0e	-0.04444795
123	0x3d87e827	0.066360764
124	0xbe70f9cb	-0.23532788
125	0x3dbb35ac	0.091410965
126	0x3e12d4ef	0.1433904
127	0x3e107b29	0.14109482
128	0x3d92aea5	0.07162217
129	0xbdbb2c1a	-0.09139271
130	0x3d4a2295	0.049349386
131	0x3d150d01	0.036389355
132	0x3da91f71	0.0825795
133	0x3dd20fe3	0.102569364
134	0x3df54930	0.1197685
135	0x3c61f93e	0.013792334
136	0x3d7eff6d	0.06225531
137	0xbd8fce74	-0.070218
138	0x3a2a3ab0	0.00064937305
139	0xbea76c55	-0.32699838
140	0x3a8125ab	0.0009853145
141	0x3d999fc3	0.07501175
142	0xbcb4c26f	-0.02206537
143	0x3db40b27	0.0879119
144	0x3d658ef2	0.056044526
145	0x3cff0322	0.031129424
146	0xbcaea009	-0.021316545
147	0xbcc0d089	-0.023536937
148	0x3df10cdf	0.11770033
149	0xbced0d88	-0.028937116
150	0xbddb6f8a	-0.10714634
151	0x3da301aa	0.07959302
152	0xbc5c0556	-0.013429007
153	0xbd14228b	-0.036165755
154	0x3ce6d193	0.028176105
155	0x3d504be8	0.05085364
156	0x3dff457a	0.124644235
157	0x3e3dd04c	0.1853649
158	0x3e13558e	0.14388105
159	0x3e0d7d34	0.13817292
160	0x3e414525	0.18874033
161	0x3d5dd6fd	0.054160107
162	0x3d44d9c7	0.04805925
163	0x3d8a0e63	0.06741025
164	0x3cb2dc3a	0.021833528
165	0x3da8713d	0.082247235
166	0x3d9f8246	0.077885196
167	0xbe86ab03	-0.26302347
168	0xbdd896e3	-0.10575654
169	0x3d113577	0.03545138
170	0xbe17bdf1	-0.1481855
171	0xbd519b8b	-0.051173728
172	0xbea5cde3	-0.32383642
173	0x3d927723	0.0715163
174	0x3df2002d	0.1181644
175	0x3d843e87	0.06457239
176	0x3db23f09	0.08703429
177	0x3dccf937	0.100084715
178	0xbb297924	-0.002585956
179	0xbefe6d65	-0.49692836
180	0x3d3655b5	0.04451533
181	0xbbd24648	-0.0064170696
182	0xbd2b5cdd	-0.04183661
183	0x3cb05087	0.021522773
184	0xbd97d424	-0.074135095
185	0x3cc48f2e	0.023994055
186	0xbc95baab	-0.018277487
187	0x3d071fb9	0.032989237
188	0x3c54f6a5	0.012998258
189	0x3d793c76	0.060848676
190	0x3d049c03	0.032375347
191	0xbb01b3eb	-0.0019791077
192	0x3dcf1c50	0.10112822
193	0xbd4682bc	-0.04846452
194	0x3bc31fe3	0.005954729
195	0x3da67662	0.081280485
196	0xbd8b6dce	-0.06808053
197	0xbd874712	-0.066053525
198	0x3d5e845d	0.05432545
199	0x3d9f3fe5	0.07775859
200	0x3d9261e4	0.071475774
201	0x3d08df18	0.033415884
202	0xbc285574	-0.01027428
203	0x3e3143bc	0.17310995
204	0x3d9982f7	0.07495683
205	0xbd358aae	-0.04432171
206	0x3e4b00db	0.19824545
207	0x3dcff176	0.10153477
208	0x3dd35ffb	0.10321041
209	0x3da85d01	0.08220864
210	0xbc5faceb	-0.013652067
211	0x3d2a4a79	0.04157493
212	0x3c64c30e	0.01396252
213	0x3c608dae	0.013705654
214	0x3e178f11	0.14800669
215	0xbe4f6d28	-0.20256484
216	0x3d600019	0.054687593
217	0x3ce98f9c	0.028510861
218	0x3dbd0fc5	0.092315234
219	0x3e1a3350	0.15058637
220	0xbd522da5	-0.05131306
221	0xbcc100cd	-0.023559952
222	0x3da78e0b	0.081813894
223	0xbd988b6b	-0.07448467
224	0xbd56e5fb	-0.05246542
225	0xbdfd87c7	-0.12379413
226	0xbe9db88d	-0.30804864
227	0xbd91bf85	-0.071166076
228	0xbdb6b4f7	-0.08921235
229	0x3c0d8ea0	0.0086399615
230	0x3decc7d5	0.115615524
231	0xbd902731	-0.07038725
232	0xbcce6e1b	-0.025198987
233	0xbeb602d5	-0.35549036
234	0x3dc10ae1	0.09425903
235	0x3e1f9b2a	0.15586534
236	0x3d755892	0.05989892
237	0x3da7e76a	0.081984356
238	0xbcefb130	-0.029259294
239	0xbcb62b36	-0.022237401
240	0x3ddf1651	0.108929284
241	0xbd9099b9	-0.0706057
242	0xbc6699a3	-0.014074716
243	0xbe20b6d0	-0.15694737
244	0xbd002561	-0.031285647
245	0xbd735f42	-0.059417017
246	0x3cca6e2d	0.024710739
247	0x3cf0e744	0.029407151
248	0x3d258bf8	0.040416688
249	0x3de7277c	0.11286828
250	0x3d875273	0.06607523
251	0x3d1d110e	0.038346343
252	0xbd836204	-0.06415179
253	0xbcac1166	-0.02100439
254	0xbd0d52f5	-0.034502942
255	0x3dfa6e26	0.122280404

layer3.bias f4 [256]
0	0xbdc8e2b6	-0.09808867
1	0xbdee173b	-0.116255246
2	0x3da82750	0.08210623
3	0xbda7d07a	-0.081940606
4	0x3d39d5b2	0.04536981
5	0xbd7ecf1d	-0.062209237
6	0xbd59e366	-0.05319538
7	0xbc55bb76	-0.013045182
8	0xbdba579d	-0.09098742
9	0x3c980fc3	0.018562203
10	0x3da7856d	0.08179746
11	0xbc078aab	-0.008272807
12	0xbcd03582	-0.02541614
13	0xbbd777fd	-0.006575583
14	0xbc92ad1c	-0.01790481
15	0xbc7cb410	-0.01542379
16	0xbcb684ea	-0.022280175
17	0xbd80c6e4	-0.062879354
18	0xbd9f949c	-0.07792017
19	0xbd888799	-0.06666488
20	0xbd89e7e7	-0.06733685
21	0xbd989209	-0.07449729
22	0xbc56eebd	-0.013118443
23	0x3d7304b8	0.059330672
24	0xbdcb8923	-0.09938266
25	0x3d660fc6	0.056167386
26	0xbc074048	-0.008255072
27	0x3da253bf	0.079261295
28	0xbd7bffeb	-0.06152336
29	0xbd59a3c3	-0.05313469
30	0x3ad779aa	0.0016439457
31	0xbd592ef3	-0.05302329
32	0xbc5450fa	-0.012958759
33	0xbc064f94	-0.008197684
34	0xbd44a3b3	-0.04800768
35	0xbc858002	-0.01629639
36	0x3d996c65	0.07491378
37	0xbd84130a	-0.06448944
38	0xbc0f6682	-0.008752467
39	0xbc9b3eb3	-0.018950796
40	0x3d282482	0.04105044
41	0x3d3a9af7	0.045557942
42	0x3e0f1675	0.1397341
43	0x3e14cdae	0.14531586
44	0xbc375c05	-0.011191373
45	0xbc8b221b	-0.016984036
46	0x3d487caf	0.048947033
47	0x3d0725ef	0.03299516
48	0xbc4db817	-0.0125560975
49	0xbd559e46	-0.052152894
50	0xbc1bf36e	-0.009518487
51	0x3d0edba5	0.034877438
52	0xbdb3292a	-0.08748086
53	0x3cb3716a	0.021904666
54	0xbc47856a	-0.0121778045
55	0x3d96f5b3	0.07371082
56	0xbc924884	-0.017856844
57	0xbd8ec7ef	-0.06971728
58	0xbbf492cb	-0.007463788
59	0xbbcf6f64	-0.0063304175
60	0xbc58dbc9	-0.013235995
61	0xbc9a7ed5	-0.018859306
62	0xbd8212c6	-0.06351237
63	0xbd50c8a8	-0.05097261
64	0xbb8f2bdd	-0.0043692426
65	0xbd2f031e	-0.042727582
66	0xbc1ff27c	-0.009762403
67	0xbbc31dc1	-0.0059544747
68	0xbd3e9827	-0.046531823
69	0xbc267cfb	-0.010161634
70	0xbb0cdce2	-0.002149396
71	0xbdc7496f	-0.09730803
72	0x3d02f4d9	0.031971786
73	0xbd539a03	-0.05166055
74	0xbca6395d	-0.020291025
75	0x3cbbac1e	0.02290922
76	0x00000000	0.0
77	0xbd72fec1	-0.059324984
78	0xbc014483	-0.00788987
79	0xbdaf3896	-0.08555715
80	0xbccdd32f	-0.025125114
81	0x3cb50ca6	0.022100758
82	0xbbfb7d37	-0.007674839
83	0xbda6c419	-0.081428714
84	0xbc5b062a	-0.013368169
85	0x3c3ba820	0.011453658
86	0xbbcfc7c3	-0.006340952
87	0xbdaa4612	-0.08314146
88	0xbd889009	-0.066680975
89	0xbd59a1fc	-0.053132996
90	0x3cf4f425	0.029901573
91	0xbbaa0a04	-0.0051891822
92	0xbc0ce0fa	-0.0085985605
93	0xbd4890fb	-0.04896639
94	0x3c7cd48d	0.015431535
95	0xbd4bda29	-0.0497686
96	0x3d9bf6ac	0.07615408
97	0x3c067a73	0.008207905
98	0xbd2d1025	-0.042251725
99	0x3d249d69	0.04018918
100	0x3dad5282	0.08463003
101	0x3dada20f	0.08478176
102	0x3dc7807e	0.09741305
103	0x3dc6e952	0.09712471
104	0x3d9c3ffd	0.07629392
105	0x3d881355	0.06644312
106	0xbc2c16d3	-0.010503489
107	0xbd902449	-0.07038171
108	0x3d391bbe	0.045192473
109	0x3d7379b0	0.059442222
110	0xbd559195	-0.05214079
111	0xbd8d9007	-0.06912237
112	0xbd6a6f6e	-0.057235174
113	0xbbeebc23	-0.0072856112
114	0xbdab22e3	-0.083562635
115	0x3db4d0c1	0.08828879
116	0xbd8d94d0	-0.06913149
117	0x3d859dfb	0.06524273
118	0xbbe128ea	-0.0068713324
119	0xbd6276e0	-0.05528915
120	0xbc3728a5	-0.011179124
121	0xbd56cf4a	-0.05244378
122	0xbd79d55c	-0.06099449
123	0xbd8e17ac	-0.06938109
124	0xbd96d708	-0.07365233
125	0xbd8140c8	-0.06311184
126	0xbd750f73	-0.059829187
127	0x3d9ed2c3	0.07755043
128	0xbd6675b1	-0.056264583
129	0xba197e08	-0.0005855267
130	0xbd620419	-0.05517969
131	0xbd6101d5	-0.054933388
132	0xbc8c3d58	-0.017119095
133	0xbdd20fbe	-0.10256909
134	0xbc81028f	-0.01574829
135	0x3d896c13	0.06710067
136	0xbd63dcba	-0.055630423
137	0xbdb084bb	-0.08619066
138	0x00000000	0.0
139	0x3d250afc	0.04029368
140	0x3c9b8e70	0.018988818
141	0xbca40f28	-0.020026758
142	0xbc635d78	-0.013877265
143	0xbd577201	-0.052598957
144	0x3d67b91b	0.056573015
145	0xbd5c2f48	-0.05375603
146	0x3c3af7b3	0.011411595
147	0xbd4c8b93	-0.049937796
148	0xbdb9661c	-0.09052679
149	0xbcaf0e98	-0.021369264
150	0xbdcb550e	-0.09928332
151	0xbd74e464	-0.059788123
152	0x00000000	0.0
153	0xbd256ebc	-0.040388808
154	0x00000000	0.0
155	0xbd2fde2f	-0.0429365
156	0x3c119f6f	0.00888811
157	0xbc45f980	-0.012083411
158	0xbd952232	-0.07281913
159	0xbdb9dadd	-0.09074948
160	0xbdb486be	-0.088147625
161	0x3d208d47	0.039197233
162	0xbb8bc0d9	-0.0042649326
163	0xbd82d999	-0.0638916
164	0xbd77cb20	-0.06049645
165	0xbc3d81e2	-0.011566611
166	0xbb37b86d	-0.002803351
167	0xbd968833	-0.07350197
168	0xbc5381b0	-0.012909338
169	0x3da853fe	0.08219145
170	0xbc3ee45d	-0.011651126
171	0x3d9b525d	0.07584069
172	0xbdb30959	-0.08742017
173	0x3dedbe1f	0.11608528
174	0xbd863d51	-0.06554664
175	0xbbebdf0d	-0.0071982206
176	0xb81d1c9d	-3.7458365e-05
177	0x00000000	0.0
178	0xbd53ed8d	-0.051740218
179	0xbd9475b2	-0.07249011
180	0xbd974c9e	-0.073876604
181	0xbc7b5c27	-0.015341795
182	0xbc13af57	-0.009013972
183	0xbd35533f	-0.044268843
184	0x3b8965cb	0.004193043
185	0x3d28e4f3	0.041233968
186	0xbcf7a4e7	-0.030229999
187	0xbd746e93	-0.059675764
188	0xbc522df1	-0.012828336
189	0x3dc96051	0.09832824
190	0xbc4a6465	-0.0123530375
191	0xbad97706	-0.0016591258
192	0xbd656817	-0.05600747
193	0xbd83056c	-0.063975185
194	0xbd5e38b8	-0.05425331
195	0x3d92c5fa	0.07166667
196	0x3dd2b06a	0.102875546
197	0xbc2d37ac	-0.010572355
198	0xbcb335be	-0.021876212
199	0xbd8ffd37	-0.07030719
200	0xbc1e0b79	-0.00964629
201	0xbdde581f	-0.108566515
202	0xbd59a167	-0.05313244
203	0xbdc8db5d	-0.09807465
204	0x3d30cd6b	0.04316465
205	0xbc187883	-0.009306076
206	0xbd8ba26a	-0.068180874
207	0xbc219eff	-0.009864568
208	0x3ad4bc59	0.0016230448
209	0xbcd8080c	-0.026371025
210	0xbdd3b986	-0.1033812
211	0xbd58330d	-0.05278306
212	0xbdc5897c	-0.09645364
213	0xbd7324a7	-0.059361126
214	0xbd9c380f	-0.0762788
215	0xbc2e242c	-0.010628741
216	0xbc733d54	-0.014846165
217	0xbd58f7f5	-0.052970845
218	0xbc2ef5bb	-0.010678704
219	0xbd76cbf8	-0.060253114
220	0xbd6cbe83	-0.057798874
221	0xbbd94ac4	-0.006631227
222	0xbdb6881c	-0.089126796
223	0xbd9ad3fd	-0.07559965
224	0xbda4a1b8	-0.08038658
225	0x3dc781fc	0.097415894
226	0xbdbbd049	-0.091705866
227	0x3d7aa8f0	0.061196268
228	0xbc992720	-0.018695414
229	0x3d249fd6	0.040191494
230	0x3b044fa3	0.0020189069
231	0xbc37529e	-0.011189131
232	0xbd015607	-0.031576183
233	0xbd662713	-0.056189608
234	0xbc27f353	-0.010250884
235	0xbd6d961a	-0.058004476
236	0xbd9f569c	-0.07780191
237	0x3cd53f67	0.02603121
238	0xbd4245f4	-0.047429994
239	0xbd6d9425	-0.05800261
240	0xbd787bd4	-0.060664967
241	0xbcb942de	-0.022614893
242	0x3c676479	0.014123076
243	0xbb4db62a	-0.0031389096
244	0x3df648e1	0.12025619
245	0xbdc1b65e	-0.09458612
246	0xbc21f39c	-0.009884741
247	0xbcef0dc9	-0.029181378
248	0xbdcf8c0e	-0.10134135
249	0x3c9f9ffe	0.01948547
250	0x3aaa670c	0.0013000681
251	0x3bf7f411	0.007566937
252	0x3cd8aafc	0.02644872
253	0xbc6de7ba	-0.01452058
254	0x3ba7fa63	0.005126284
255	0xbc01dff4	-0.00792693

mu.weight f4 [4, 256]
0	0x3e1b24ad	0.1515071
1	0x3d4a0643	0.049322378
2	0x3e502c76	0.2032946
3	0xbda538b2	-0.080674544
4	0x3e7387c4	0.23782259
5	0xbd1a61ae	-0.03769081
6	0xbe47c100	-0.19507217
7	0x3d3247cd	0.043525506
8	0x3cc76c5e	0.024343666
9	0x3e301f39	0.1719941
10	0xbdf7f4ea	-0.121072605
11	0x3db0ad39	0.086267896
12	0x3d9b2aa7	0.07576495
13	0x3ac6cd10	0.0015167315
14	0xbda348a0	-0.079728365
15	0x3e089def	0.13341497
16	0xbdff2495	-0.12458149
17	0xbdbdba33	-0.0926403
18	0x3dae754e	0.08518468
19	0x3d2e8afe	0.042613022
20	0xbde570e8	-0.11203176
21	0xbcdde026	-0.027084421
22	0xbd4ae12f	-0.049531158
23	0x3e04d43f	0.1297159
24	0xbd3945bd	-0.045232523
25	0x3c08690d	0.008325827
26	0x3c99965e	0.018748458
27	0x3e36d6c1	0.1785536
28	0x3c55e75e	0.0130556505
29	0xbe5cb2b8	-0.21552551
30	0xbc83473d	-0.01602518
31	0xbe2aa126	-0.16663036
32	0x3d648387	0.055789497
33	0x3a505655	0.0007947435
34	0xbd8b979d	-0.06816027
35	0xbd7f1429	-0.062275086
36	0x3dfa9afc	0.12236592
37	0xbc713135	-0.0147212045
38	0x3c33c9a0	0.010973364
39	0x3d6d969c	0.05800496
40	0xbde7aa56	-0.11311786
41	0x3d884023	0.06652858
42	0x3e7fa3fe	0.24964902
43	0x3e557cea	0.20848432
44	0x3dfd67c2	0.12373306
45	0xbe2aee4c	-0.16692466
46	0x3e2753c3	0.16340546
47	0xbd321f2c	-0.04348676
48	0x3db161b0	0.086612105
49	0xbe2d240a	-0.16908279
50	0xbc3a4c4c	-0.01137073
51	0x3e05e585	0.13075836
52	0xbda4084c	-0.08009395
53	0x3d7c747b	0.061634522
54	0xbd717398	-0.05894813
55	0x3e0c6a45	0.13712414
56	0xbcd618d3	-0.026134884
57	0xbd12920a	-0.035783805
58	0xbdddcbe7	-0.10829907
59	0xbde4aa76	-0.11165325
60	0x3e0f783d	0.14010711
61	0x3c08c869	0.008348563
62	0xbc9d0351	-0.01916662
63	0xbe07db51	-0.13267256
64	0xbe3a5168	-0.18195117
65	0xbe2fb7ae	-0.17159912
66	0xbcb75329	-0.022378521
67	0x3d278d15	0.04090603
68	0xbe524778	-0.20535076
69	0x3e0dca7c	0.13846773
70	0xbe230ad4	-0.159221
71	0xbdf42383	-0.11920836
72	0xbd488049	-0.048950467
73	0xbe2f6f47	-0.17132293
74	0xbe78ebf1	-0.24308755
75	0x3c7fa03f	0.0156021705
76	0xbe074bec	-0.13212556
77	0xbe28ad3d	-0.16472335
78	0x3e08b368	0.13349688
79	0x3d879c61	0.06621624
80	0xbd473ee6	-0.04864397
81	0x3e23ca14	0.15995055
82	0x3d7818a9	0.060570393
83	0xbd2ff5d0	-0.042959034
84	0xbd76ff52	-0.060302086
85	0x3d6ae44c	0.057346627
86	0xbdb7033e	-0.08936165
87	0xbe3ce7a8	-0.18447745
88	0x3da03b35	0.07823793
89	0xbdd7d1aa	-0.10538037
90	0xbcb69db4	-0.022291996
91	0xbd62169e	-0.05519735
92	0x3de08b6b	0.10964092
93	0xbdcd767e	-0.10032366
94	0xbe1e4daa	-0.15459314
95	0xbe5734e2	-0.21016267
96	0x3e49ad1d	0.19694944
97	0xbe36c524	-0.1784864
98	0x3e006798	0.12539518
99	0xbd8f0db1	-0.06985033
100	0x3e0e59e7	0.13901483
101	0xbdb6f24d	-0.08932934
102	0x3e838f9c	0.25695503
103	0xbc6648f7	-0.014055482
104	0x3e8f4b05	0.27986923
105	0x3e41cc24	0.1892553
106	0xbdb08420	-0.08618951
107	0xbcdd541a	-0.027017642
108	0x3d1ff898	0.039055437
109	0xbe3f6305	-0.18690117
110	0xbe175c81	-0.14781381
111	0x3db9e073	0.090760134
112	0xbe073630	-0.13204265
113	0x3de20b86	0.11037354
114	0x3c843a77	0.01614116
115	0x3e8baba9	0.27279404
116	0xbcc9fdcc	-0.024657153
117	0x3e2619f8	0.16220844
118	0xbd04ebbf	-0.032451387
119	0xbe6b9c52	-0.2300885
120	0x3d9eb149	0.07748658
121	0xbdfdb109	-0.123872824
122	0xbc2db8c8	-0.010603137
123	0xbe505f77	-0.20348917
124	0xbd69ab24	-0.057047978
125	0xbd289c17	-0.041164484
126	0xbe379540	-0.17928028
127	0xbd75d860	-0.060020804
128	0xbe382faf	-0.1798694
129	0xbdcc363e	-0.099712834
130	0x3dbccf43	0.092192195
131	0xbd947086	-0.07248025
132	0xbe0611c3	-0.13092713
133	0x3d8dce6c	0.069241375
134	0xbc42b294	-0.011883397
135	0x3e2354f9	0.15950383
136	0xbe1e4d8e	-0.15459272
137	0x3dbc90b9	0.09207291
138	0x3d8f348e	0.06992446
139	0x3c2cc6d8	0.010545455
140	0x3ddf277f	0.10896205
141	0xbe134757	-0.14382683
142	0x3e0b6b4c	0.1361515
143	0xbd7305e6	-0.059331797
144	0x3e311be7	0.172958
145	0xbdc5fffb	-0.09667965
146	0x3dee914f	0.11648809
147	0xbc37826d	-0.0112005295
148	0xbd4403d2	-0.047855206
149	0x3c2a57a1	0.010396869
150	0xbd62afd2	-0.055343457
151	0xbe6018eb	-0.21884505
152	0xbd62f55c	-0.055409774
153	0xbe28e5c4	-0.16493899
154	0x3dc265ac	0.094920486
155	0xbe54638b	-0.20741098
156	0x3cb6ba4d	0.022305632
157	0x3da2eded	0.07955537
158	0xbd91fb76	-0.071280405
159	0xbc8dfafc	-0.017331593
160	0xbd801a6f	-0.06255042
161	0x3e29e0ef	0.16589712
162	0x3dddae61	0.10824276
163	0xbe129afc	-0.14316934
164	0xbe440278	-0.19141567
165	0xbe04e09d	-0.12976308
166	0x3df96eba	0.121793225
167	0xbdd7466e	-0.1051148
168	0xbd31bf11	-0.043395106
169	0x3e2f48eb	0.1711766
170	0x3d8fef5c	0.07028076
171	0x3c86f81f	0.016475735
172	0x3d068b49	0.032847676
173	0x3e6c4aa9	0.23075356
174	0xbe05141e	-0.12995955
175	0xbbf4262a	-0.0074508386
176	0x3e00142c	0.12507695
177	0x3abaa280	0.0014239103
178	0xbde42a59	-0.1114089
179	0xbd68f0b9	-0.056870196
180	0xbe29672e	-0.16543266
181	0x3e0771ee	0.13227054
182	0x3df2614a	0.11834963
183	0xbe60cdae	-0.2195346
184	0xbb35dd61	-0.002775036
185	0x3d22396f	0.039605554
186	0x3cbcc43a	0.023042787
187	0xbdc77028	-0.09738189
188	0xbc958710	-0.01825288
189	0x3e608980	0.21927452
190	0xbddf68a3	-0.1090863
191	0x3d954673	0.07288828
192	0xbd9f9a7c	-0.077931374
193	0xbbbe4e3d	-0.0058076666
194	0xbe4c2feb	-0.19940154
195	0x3e0041a0	0.12525034
196	0x3e86f672	0.26359898
197	0xbd14c1c4	-0.0363176
198	0x3de70204	0.11279681
199	0xbe330495	-0.17482217
200	0xbd58895e	-0.05286538
201	0x3d812bcf	0.06307184
202	0xbe42f33b	-0.19038098
203	0xbca698bb	-0.0203365
204	0xbdafb58b	-0.085795484
205	0x3dda6431	0.10663641
206	0xbdab9e1a	-0.08379765
207	0x3d6e5ca0	0.058193803
208	0xbc99df0b	-0.018783113
209	0xbdb11dab	-0.08648237
210	0x3db048ef	0.08607661
211	0xbe008ff4	-0.12554914
212	0xbe1238e3	-0.14279513
213	0xbcc9b0a8	-0.02462037
214	0xba3116b4	-0.0006755397
215	0x3dc84f3b	0.09780737
216	0x3c45aed6	0.01206561
217	0xbe5dc0c4	-0.21655566
218	0xbd8f1c95	-0.069878735
219	0xbe531dfb	-0.20616905
220	0xbdff7fff	-0.12475585
221	0x3ba3d701	0.0049999957
222	0x3d897a38	0.067127645
223	0xbdbe903f	-0.093048565
224	0xbbe9a1b4	-0.007129872
225	0x3ddd1bbc	0.107963055
226	0xbc7c881f	-0.015413313
227	0x3e452602	0.1925278
228	0xbe75bfba	-0.23998919
229	0xbe440ba9	-0.19145073
230	0xbdfe9c9e	-0.12432216
231	0x3e03264b	0.12807576
232	0xbe53dd5c	-0.2068991
233	0xbe20b42b	-0.15693729
234	0x3d7cc33e	0.061709635
235	0xbd786671	-0.06064457
236	0xbda19d7d	-0.07891367
237	0x3e40e601	0.1883774
238	0xbe421331	-0.18952633
239	0xbddde56e	-0.10834776
240	0xbc05370f	-0.008130803
241	0x3d16e2c9	0.036837373
242	0x3dc78c8d	0.09743605
243	0xbe92304f	-0.28552482
244	0x3df2e393	0.118598126
245	0xbcbf713a	-0.02336942
246	0xbdd0dae9	-0.10198004
247	0xbd3ef08e	-0.04661613
248	0x3db48565	0.088145055
249	0xbd09ee6f	-0.033674654
250	0x3d8a3002	0.06747438
251	0xbcb897f9	-0.022533404
252	0xbd1f7f3d	-0.038939703
253	0x3ddb4fcf	0.10708582
254	0x3dc53961	0.09630085
255	0xbe06ac95	-0.13151772

mu.bias f4 [4]
0	0x3ca3b7b5	0.01998506
1	0x3d147365	0.03624286
2	0x3d13420d	0.035951663
3	0x3ca32a08	0.019917503
