llirl_sumo/saves/120p4k_ultimate/env_models.pth (torch, 894382 bytes, 15 tensors)

layer1.weight f4 [256, 160]
00000000: d4ea a4bd e031 623d f46b 683d 80b5 a7bd
00000010: 6474 5a3d fc14 2c3d 784e bb3c cc4d b6bc
00000020: ea26 76bd 668b e53d fecc f13d 579c 99bd
00000030: bc9e 873d 94ba 333d 28f6 c13c 8684 9cbd
00000040: 08f9 a2bd cf2e b9bd bc69 b5bd bbd4 ebbd
00000050: ea5e 45bd 000f 273d 3472 a4bd 506b 81bc
00000060: d2d3 c3bd 90bc 0abd 72f4 51bd ec95 033d
00000070: 1c5a 2d3d d8fe 923d 422a 9d3d e9b3 cdbd
00000080: aa95 973d f464 86bd fc2a bb3d 72af a23d
00000090: d8b1 863d dcac 6f3d d043 5bbd c817 06bd
000000a0: 1439 603d dca4 b3bd 948c 0b3d dc58 f13d
000000b0: d1e9 6fbd 2051 76bb c88d 4ebc d933 aabd
000000c0: ecc8 0b3d 1214 e73d 106a 233c 2871 49bd
000000d0: dc1f a0bd a0ed ad3b 6a46 a83d bcc4 303d
000000e0: d6e6 d7bd de29 08bd bdbe b1bd 00d1 213b
000000f0: 166d ed3d a075 043d c699 ef3d b4d9 623d
00000100: f025 223c 45cc f5bd 1407 5fbd 8404 6a3d
00000110: 0c8a bfbc 74e0 30bd f008 4b3d 6205 df3d
00000120: 6487 a5bd f480 d83d 16ac e3bd 3e06 36bd
00000130: 0044 263d d53f c1bd 44aa 363d 3694 a7bd
00000140: 2819 3e3d 8a2a cf3d 10e5 dabb 10af 8ebd
00000150: c4d9 c5bd 5d38 b9bd 6059 b23d 4c85 8e3d
00000160: ac65 9cbd 6cbd 13bd 3e9d c63d 86e1 d03d
00000170: 5ac4 843d c0c1 6dbd 78ca e23d 88dc eabd
00000180: e00a 42bb d2d1 ecbd 284e be3c 9015 c5bd
00000190: 366c 88bd 00c6 b2bb 7e04 c73d 10f8 e2bd
000001a0: 488f 32bd 84fb aabc 036b d6bd 307a efbd
000001b0: b8f0 cc3d e844 3b3d 18b2 023d c044 8d3c
000001c0: e696 b53d 1070 d3bb e011 5e3b 8a25 f43d
000001d0: 2c3d 02bd 3422 f03d 70c2 9dbc c019 d1ba
000001e0: 4a88 833d 00e2 d939 e262 01bd 00dd 543c
000001f0: 96a4 f53d 0c9a b83d 8023 9abd 6d58 d6bd
00000200: c8c8 eb3d 3cfc ccbc 840b 973d b064 24bc
00000210: 086b ef3c b0e4 4e3d c8d9 453d 763d acbd
00000220: 5839 023d e60f e83d 6051 6a3c 6aa3 c53d
00000230: a8cd 603d 2ab7 813d b08b 9abc c3c5 f3bd
00000240: 8004 b93b 38d7 173d df95 c6bd ec4d 783d
00000250: b6d1 47bd 05f6 e3bd 3093 6f3d 13f0 bdbd
00000260: 70b0 063c c191 70bd dc0b ce3d b259 dfbd
00000270: 7a6a 96bd a689 78bd 0021 fabc e889 44bc
00000280: ec32 91be bfb0 44be e8ed 8ebe f4c6 0abe
00000290: a535 1cbe a421 16be 94a7 fdbd a893 54bd
000002a0: 521d dabd 794b 3abe 2433 69be ea04 61be
000002b0: 9a9a cabd a8f6 0abe cb40 08bd 31e0 09ba
000002c0: 4d09 8c3d fc66 81be a93c 82bc 69f1 b5bd
000002d0: 5bd5 15be e9a9 eabd 4012 57bc 55b8 56be
000002e0: 24ab 4abe b7fa 01be 158b 16be ce61 4fbe
000002f0: 5903 42bd da35 4abe 6d4e c1be 488d c8be
00000300: 770b c9be a4ca eabe 23ac 61be 25ae 78be
00000310: a22a 82bd 382b 09be 8f9a 30be 6c54 1dbe
00000320: c990 79be 6c5b 2cbe f259 4ebe 2b04 42be
00000330: 464b 6cbe 46ff 0abe 9bb6 17be 6a82 1bbd
00000340: 7b0b 5abd df2a a7bd 11a3 3dbe 55bc 1fbd
00000350: 6969 d03b 255a bbbd f9a6 5dbe 36e2 43bd
00000360: 91f5 0dbe 2012 8cbd fbf3 17bc f011 04be
00000370: f864 4fbe c4e0 5fbc 00ee 90be 7142 abbd
00000380: 43a3 d6bd 1789 97be 4ab5 c2be 8a20 c5be
00000390: f591 8dbe c836 c3be 826c 6bbe 4006 88be
000003a0: 7729 c5bd c636 a1be 31f7 91be 47ea 53be
000003b0: 6cc3 1abe dd9c 50be 8e78 53bd 8c8c 43bd
000003c0: 0a5d 0ebe 8256 b4bd 9a45 e6bd 1018 2fbe
000003d0: 935b 22be 0bd1 5cbe e7c1 59be 006b 16bc
000003e0: c360 1abd 0ba0 30be 867a 25be 23f9 043c
000003f0: 0324 2dbe b736 b6bd f948 c7bb ed11 35be
-0.080526024 0.055223346 0.056743577 -0.08188915 0.053333655 0.0420122 0.022864565 -0.022253893
-0.060095705 0.11208229 0.11806677 -0.075005226 0.06622073 0.043879107 0.023676947 -0.07642464
-0.07957655 -0.09042131 -0.08858058 -0.115151845 -0.04818622 0.04078579 -0.08029595 -0.01579824
-0.09561886 -0.033871233 -0.05125851 0.0321254 0.042322263 0.07177514 0.07674076 -0.10044081
0.07401593 -0.06562224 0.09139058 0.0794362 0.0657689 0.05851446 -0.053531468 -0.032737523
0.054741934 -0.08771679 0.034069613 0.11784527 -0.058572594 -0.0037584975 -0.0126070455 -0.083106704
0.03412716 0.11283125 0.009974018 -0.04918018 -0.07818577 0.005307868 0.082165554 0.04315637
-0.10542075 -0.033243053 -0.086789586 0.0024691224 0.11593072 0.03233874 0.11699252 0.0553834
0.00989674 -0.12001852 -0.05445011 0.057133213 -0.023381256 -0.043182805 0.04956907 0.108896986
-0.08082464 0.10571471 -0.11116807 -0.044439547 0.040592194 -0.09436003 0.04459597 -0.08182566
0.04641071 0.101155356 -0.0066801384 -0.06966984 -0.09660676 -0.090439536 0.08708453 0.06959018
-0.0763658 -0.03606932 0.0969796 0.10199265 0.064827636 -0.058046103 0.11073774 -0.11467844
-0.0029608533 -0.115634575 0.023230627 -0.09623253 -0.066612646 -0.0054557323 0.09717654 -0.110824704
-0.043593675 -0.020871885 -0.104696296 -0.11693227 0.10006851 0.04572001 0.031908125 0.017244697
0.08866672 -0.006452568 0.0033885166 0.119212225 -0.03179662 0.11725274 -0.019257754 -0.0015953109
0.064224795 0.00041557848 -0.031588443 0.012992144 0.11994283 0.09013757 -0.07526302 -0.10466085
0.11512905 -0.025022618 0.07375243 -0.010033771 0.029225841 0.050511062 0.048303396 -0.0841016
0.03179297 0.113311574 0.014301628 0.096503094 0.05488363 0.06333764 -0.018865436 -0.119029544
0.0056462884 0.037070483 -0.096965544 0.060621187 -0.04878398 -0.11130909 0.05848998 -0.09274306
0.008220777 -0.05873275 0.10060856 -0.1090578 -0.073445275 -0.060678147 -0.030533314 -0.01199577
-0.28359163 -0.19208048 -0.27915883 -0.13552457 -0.15254839 -0.1466127 -0.123854786 -0.05189863
-0.10650124 -0.18192853 -0.22773415 -0.21974531 -0.09892769 -0.13570654 -0.033264916 -0.00052595424
0.068377115 -0.25273883 -0.015898066 -0.08883936 -0.1463217 -0.11458189 -0.01312691 -0.20968755
-0.19791847 -0.12693296 -0.14701493 -0.20252153 -0.047366474 -0.19747105 -0.37755147 -0.3917029
-0.3926656 -0.45857728 -0.22038321 -0.24285181 -0.06355788 -0.13395393 -0.1724646 -0.15364236
-0.24371637 -0.1683175 -0.20151499 -0.18946902 -0.2307559 -0.13573942 -0.14815752 -0.03796617
-0.053233605 -0.08162474 -0.18519236 -0.038997967 0.006360222 -0.09148053 -0.21645726 -0.047823153
-0.13863207 -0.068393946 -0.009274478 -0.12897468 -0.2025336 -0.013664428 -0.2830658 -0.08362282
-0.104803585 -0.2959678 -0.38028938 -0.38501388 -0.2765042 -0.38127732 -0.22990611 -0.26567268
-0.096270494 -0.314871 -0.28508905 -0.20694838 -0.1511361 -0.20372339 -0.05162864 -0.047741458
-0.13902679 -0.088055626 -0.11243744 -0.17099023 -0.15855245 -0.21564119 -0.21265374 -0.009180784
-0.037689935 -0.17248552 -0.1616002 0.008116039 -0.16908269 -0.08897155 -0.006081697 -0.1768262

layer1.bias f4 [256]
00000000: 0000 0000 e024 883d bc03 23bc 5938 323d
00000010: b670 20bd b030 343d f38a f2bc bb0a 17bd
00000020: 827a 653d 69e5 6d3d 9bed 58bd 114f 0abd
00000030: bd71 9f3d 5c43 d8bc 14df 40bd 558a 21bc
00000040: 5b5f 2cbd 206f 353d ee5e d4bc bdb0 4bbd
00000050: 7483 41bd 48ff 08bd d8a9 873d 95cd 073d
00000060: fb39 acbc bbfc 11bd 85c2 a1bc 05d9 1cbd
00000070: 67d5 29bd d73b 2bbd 37e1 9ebc dbf2 9fbb
00000080: 0000 0000 0000 0000 9beb 22bd e318 7dbb
00000090: b530 5a3d 370f 08bd bc64 dfbc f50b 3ebd
000000a0: e7a2 a53d 0000 0000 b560 edbc b463 58bd
000000b0: 6d77 08bd 0000 0000 274c 89bc e3c2 733d
000000c0: 360f 5dbd 1256 fcbb 7cad 02bd 65d0 bbbc
000000d0: 2053 a0bc c17c f5ba 3f28 cbbc 7d00 f1bc
000000e0: 5cac ddbc 3aba 9dbc 69eb 3fbd bf2d 44bd
000000f0: 4657 1ebb 0059 6fbd cbea cabc d7c2 85bc
00000100: 2d36 603d 7e16 00bd 0000 0000 2e8c 49bd
00000110: 0000 0000 ba40 a13d 4c0d 14bd 4342 b4bc
00000120: d974 42bd 0000 0000 e14b 0ebd 610e 4bbc
00000130: e8af 07bd df1c 603d ddea 5d3d 0000 0000
00000140: f54b 33bd 0000 0000 6422 bc3c 5c91 0cbd
00000150: 73fd 8f3d 702f 0bbd d4d0 10bd 084e 77bc
00000160: faa8 7a3d 58f0 0abc 237c 22bd 0000 0000
00000170: 8c02 113d 3ada 53bd 5be8 c3bc 4b3a 16bd
00000180: fc0c 27bc ff80 513c 6815 9d3d c308 adbc
00000190: e5ad 8e3d 25e7 eb3c 2fbd 0dbb ebaa 30bd
000001a0: 6641 f8bc ff3a 02bd 0c56 843d 5556 2abd
000001b0: 8624 3fbc 0b31 15bd 6ab6 12bd 490f 88bc
000001c0: 1e3c b1bc bdba 943d cee8 1abc bec3 d0bc
000001d0: 94f5 823d 3135 8e3c 9cb4 17bd 331c 943d
000001e0: bfe9 f3bc 56f8 2fbd 281c 20bd ca6a 44bd
000001f0: d8f2 7f3d 0000 0000 1e65 c3bc bfa1 873d
00000200: e981 e0bc 0000 0000 c773 22bd f3d4 b7bb
00000210: ca11 2ebd 7955 b8bc a787 47bd d430 a5bc
00000220: dbc5 3bbd c943 f8bc 0000 0000 0fde c0bc
00000230: 1dd9 51bd 3bf9 3dbd d793 903d fccf 3abd
00000240: 0e8d 3fbb 2c35 28bc 862a 22bd 4ac8 79bd
00000250: 5e54 573d 6968 12bd 0000 0000 7c65 15bd
00000260: d9bc 933d 44a6 03bd f2c5 3ebd 4294 31bd
00000270: dd47 3dbd 084a bdbc fd58 61bd c2f3 1ebd
00000280: 1c60 d5bc 0a1b 07bd ad26 0bbd 2d71 8b3d
00000290: 4699 b3bc 6480 3abd 75e4 06bd f5e7 54bd
000002a0: f2b1 853d 2a47 17bc 8f2c 98bd 685e 2cbc
000002b0: 0368 3abd f8e1 a13c 7444 39bc 7bc1 9f3d
000002c0: 2929 0fbd 47eb 42bd 0000 0000 0000 0000
000002d0: 0a7f 2fbd 2780 5bbc 4d3d 643d 477c 13bd
000002e0: 4342 b8bb eab1 25bd a53c abbb 43a0 10bd
000002f0: aa30 49bd 6cdd 05bc f054 3e3d 49da 59bd
00000300: 0000 0000 3af0 71bc b83c abbb 70a6 6bbd
00000310: 7230 773d 2ece 0fbd ec27 413d db31 c9bc
00000320: e1a0 1ebd 4523 023d 8d4f 653d 1791 4b3d
00000330: a48c f4bc c371 6bbd 12f4 4ebc 14d3 08bd
00000340: 3958 bcbc 3a97 12bc 63f6 b43c 9695 bbbc
00000350: 4b25 05bd 07ce 0bbc 9caa 12bd 968f 933d
00000360: f9f1 fabc fe54 043d 0000 0000 8a86 10bd
00000370: a67d b0bc 2f2c 8b3c db65 80bd 9e00 edbc
00000380: 4276 fcbc 648f 4f3c bec9 babc 4a63 9b3d
00000390: 6697 c0bc 9c80 18bd 48f2 80bb 0000 0000
000003a0: 42e5 10bd a882 19bd e436 c8bc 24ad 80bc
000003b0: 9336 67bd c7b7 b8bc 757e 8bbc 0000 0000
000003c0: 607e 2dbd 340e 913d 7a83 cabc c2ba d7bc
000003d0: ae6e 22bd 5ef1 93bc abcd 3fbd 2323 9b3d
000003e0: 30df 7e3d 48fb 39bd 4010 29bd 7dc4 cebc
000003f0: 37d9 1cbd 0000 0000 863b 06bd 6b45 8abc
0.0 0.06647658 -0.009949621 0.04351077 -0.03916999 0.043991745 -0.029607272 -0.036875468
0.056025036 0.05808011 -0.052960973 -0.03376681 0.07785366 -0.026399307 -0.047087744 -0.009859641
-0.042083126 0.04429543 -0.025924172 -0.049729098 -0.047244504 -0.03344658 0.06624192 0.033155043
-0.021023741 -0.035641413 -0.019746074 -0.038292903 -0.041463282 -0.041805115 -0.0193945 -0.0048812455
0.0 0.0 -0.039775472 -0.003861957 0.053269107 -0.033217635 -0.027269714 -0.046398122
0.08087712 0.0 -0.028976778 -0.05282946 -0.03331702 0.0 -0.016759945 0.05951203
-0.053969584 -0.00770069 -0.03190373 -0.022926519 -0.019570887 -0.0018729196 -0.024799464 -0.029419178
-0.027059726 -0.019253839 -0.046855364 -0.04789519 -0.0024160906 -0.058434486 -0.024770161 -0.016328258
0.054739166 -0.03127145 0.0 -0.04920595 0.0 0.07873674 -0.036145493 -0.022004252
-0.047474716 0.0 -0.034740333 -0.012393565 -0.03312674 0.054715034 0.05417906 0.0
-0.04377361 0.0 0.022965617 -0.034318313 0.070307635 -0.033980787 -0.035355404 -0.015094288
0.061196305 -0.008480154 -0.039669167 0.0 0.03540282 -0.05172179 -0.023914507 -0.036676686
-0.010195967 0.012787103 0.076700985 -0.021122342 0.069667615 0.028796742 -0.0021627655 -0.04313175
-0.030304622 -0.031794544 0.06461725 -0.04158624 -0.011666423 -0.036423724 -0.035818495 -0.016608851
-0.021635111 0.0726218 -0.009454919 -0.025483962 0.063944966 0.017359348 -0.037037477 0.07231941
-0.029774545 -0.04296144 -0.039089352 -0.047953404 0.062487453 0.0 -0.023851927 0.066226475
-0.027405696 0.0 -0.039661195 -0.0056101023 -0.042497434 -0.022501694 -0.048713353 -0.020164885
-0.045842987 -0.03030576 0.0 -0.023543386 -0.051232446 -0.046380263 0.07059448 -0.045608506
-0.0029228362 -0.010266583 -0.039591335 -0.060982026 0.052570693 -0.035744105 0.0 -0.036473736
0.07213754 -0.032140985 -0.046575494 -0.04335428 -0.046211112 -0.02310659 -0.055016506 -0.038806684
-0.026046805 -0.03298477 -0.03397243 0.06808696 -0.021923672 -0.0455326 -0.032932717 -0.051979024
0.06528081 -0.009233275 -0.07430374 -0.010520555 -0.04550935 0.01976107 -0.011307824 0.07800575
-0.034951363 -0.04758766 0.0 0.0 -0.042845763 -0.013397253 0.055722523 -0.036007192
-0.0056231334 -0.040452875 -0.0052257353 -0.035309087 -0.049118675 -0.008170467 0.04646772 -0.05318669
0.0 -0.014766747 -0.005225744 -0.057531774 0.060348935 -0.035108738 0.047157213 -0.024559906
-0.038727645 0.031771917 0.05598407 0.049698915 -0.029852219 -0.05748154 -0.012631433 -0.033404425
-0.022991287 -0.008947188 0.022090143 -0.022898477 -0.03250627 -0.008533007 -0.035807237 0.07205121
-0.03063296 0.032307617 0.0 -0.035284556 -0.021544289 0.016988842 -0.062694274 -0.028930958
-0.030818108 0.012668464 -0.022801276 0.07587297 -0.023509692 -0.037232026 -0.003935132 0.0
-0.035374887 -0.03747812 -0.024440236 -0.01570756 -0.05644853 -0.02254857 -0.017028073 0.0
-0.04235685 0.07082787 -0.024720896 -0.02633417 -0.039656334 -0.018059429 -0.046827 0.07575061
0.062224567 -0.045405656 -0.041275263 -0.025240177 -0.03829309 0.0 -0.03277161 -0.016878804

layer2.weight f4 [256, 256]
00000000: 758e a93d 51f0 163d 0e4e a1bd ba59 28bd
00000010: 03f3 c8bd 9119 dc3c 57de 9abc dfc9 c63d
00000020: 3502 3dbc dd6c d93c bdf9 22bd cbf5 f0bd
00000030: 6b3f c53d 1087 52bc 43c7 323d 4406 d23c
00000040: 34f5 003d bdb1 dcbd f6fc 3d3d ee44 b63d
00000050: 63cb b9bd 9f99 d6bd ccbf 803d 314d 9f3d
00000060: e453 a23d d4ef bebc fcff 57bd 768e 883d
00000070: e9b3 2b3d 6dfe c73b 421b a43b 1401 fbbc
00000080: 00e6 b3bd 885e 21bd ed17 9b3d 2067 d5bc
00000090: af35 d8bd 11eb 9ebd 7665 55bb 370e 0d3c
000000a0: 726d b93d aa71 7f3d fa12 45bd d92c 2ebd
000000b0: 9dd7 84bd 8100 823d c45f c33c 0026 bf3c
000000c0: f4bf abbd a6f4 d6bd 76a7 933c d0a2 0bbb
000000d0: 42c1 583d 4f21 6ebd 3797 4cba 6ebf 893d
000000e0: 7d7e 2dbd 03df b23d ea99 c2bd 146e 9ebd
000000f0: f360 7abd 22ec 97bc 8c03 8fbc c832 4a3c
00000100: 5659 cebd b331 003d 3307 c9bd 6271 44bd
00000110: 6c26 f33c 1e12 9e3c 0d41 bb3d 9f5f 673d
00000120: a70c fc3c c49b 55bd 5fff f4bc 72c6 c8bd
00000130: e604 ceba 9149 8c3c 747b 723c a7e8 74bd
00000140: 1fa4 9bbd 4416 8dbd 4112 b8bd 2323 803d
00000150: 8e1d 803d 724d 6bbd 5d18 72bd e5d5 af3d
00000160: f5db adbc 0e43 a9bd 3cb5 52bd 4de5 bcbd
00000170: fe4e 01bd cb07 6f3d c58b a8bd 87d1 843c
00000180: 8ed3 b7bd 4cff a43c 763d 82bd e93a 89bd
00000190: 912a 1c3c 4d61 023d f2be 333d 67c0 623c
000001a0: 7ecd 773d 83c8 2c3d fc92 b9bd 1e96 cd3b
000001b0: 9c98 d3bc 412e fc3c 2cab 0b3d 633c cb3d
000001c0: 52ff 1f3d 6b02 b3bd 149c ca3c dc54 c9bd
000001d0: 1cd4 9abd 4b6f 58bc 9aff 10bd 86cc d2bd
000001e0: 8275 3fbd 9239 9ebd 753c 00bd c57f 813c
000001f0: 9d9d 80bc 2bab b83d 454c 983d 8e24 24bd
00000200: 83ee 7c3d ccb4 d03c 1f5d e4bd 8a95 553d
00000210: 9e59 bbbd e5bb 1abd 64b7 c43d 733d e0bd
00000220: a4e1 2bbd 664b f13c 7ea9 b3bd e07e c63d
00000230: 566c 18bd 7a2d 9cbd 19ff 343d bd7f 76bd
00000240: d068 ebbc dcba 803d f17a 4c3d 65c1 3f3d
00000250: aa02 883c dbec 85bd 2533 933d c71e b4bc
00000260: dc30 84bd de82 be3d d75d 323d 2e9e bebd
00000270: e73f cabd 80d9 c1bd 5e05 aebd a412 8dbd
00000280: d9b5 8abc 334f 14bc 4a77 903d f683 25bd
00000290: 0596 2fbd 2d63 0d3d 085d 9c3d b31f 913d
000002a0: b2d7 513c 6a7b 9f3d 7008 a73d e222 9a3d
000002b0: 0761 9cbd 286f e3bc fb0c 903d 2f39 65bd
000002c0: 7cf6 203d 3193 663c 0006 64bc 00fe 4cbd
000002d0: 9fd9 fbbc f8e1 243d daed b53c a06e aebd
000002e0: 9453 aa3c 9e4d 2a3d b127 933d 067b 713d
000002f0: b2c6 84bc 0d38 843d 639d 4c3d 0bc7 4b3d
00000300: 7527 84bd f0ec f63b b47a d43c 3d20 29bd
00000310: 2b51 00bc 94b5 1cbd ac17 c1bd 3679 6dbd
00000320: b6f7 acbd 73f4 b93d 8aba c23d 0fa3 9abd
00000330: 6c96 0e3d 59c1 803d 5e94 ac3d 7519 5f3c
00000340: c91d 343d 3f57 6dbd 7d5b c13d 82a3 e83d
00000350: 342c 8abd d11c 893d 0db5 9cbd a0d1 a93d
00000360: 687e 503d 6464 76bd 4635 313d 0595 aabc
00000370: 8d63 a7bd 25c7 a53d aa0e a4bd c81d 3c3d
00000380: 4c6b 1f3d 9869 94bd d24a 9fbd 0004 a13d
00000390: 4d97 f43c 6112 dabd 2bb7 b43d 8b9e cc3d
000003a0: d9f4 8e3d efba 6d3d 226a 22bd 30d0 ccbc
000003b0: 01d2 55bc 3c63 843d 1bc1 863d a0a7 07bb
000003c0: d537 80bd 357c 83bd b6a0 3dbb 8a68 ca3d
000003d0: 5e01 c53d fa91 bc3d 6af7 b73c 2ab7 5a3d
000003e0: d21a 55bd bddd cebd 8ac1 a13c f326 0dbd
000003f0: d7f5 b1ba cbfc 883d f114 be3c d84f 2cbc
0.08279125 0.036850277 -0.07876216 -0.041101195 -0.09811976 0.02686766 -0.018904848 0.097064726
-0.011536171 0.026541168 -0.03978895 -0.11765631 0.09631237 -0.012849584 0.043647062 0.025637753
0.031483844 -0.107760884 0.04638382 0.08899866 -0.09071996 -0.1047852 0.06286582 0.07778395
0.07926157 -0.023307718 -0.05273436 0.06667797 0.041919623 0.006103328 0.005008132 -0.030640163
-0.087841034 -0.039396793 0.07572923 -0.02605015 -0.10557114 -0.07759679 -0.0032561696 0.008609346
0.09054078 0.062364258 -0.0481138 -0.04252324 -0.064864375 0.06347752 0.023849376 0.02333355
-0.083862215 -0.10495882 0.018024188 -0.002130676 0.05291868 -0.058137234 -0.0007804515 0.067259654
-0.042356957 0.08733942 -0.09502013 -0.077358395 -0.061127614 -0.018545214 -0.017457746 0.012341209
-0.10075633 0.031297397 -0.09815826 -0.047959693 0.029681407 0.019295748 0.09143267 0.056487676
0.030767752 -0.052150503 -0.029906927 -0.098034754 -0.0015718013 0.017124923 0.014799941 -0.059792187
-0.07599663 -0.068890125 -0.08987857 0.06256702 0.06255637 -0.057446904 -0.059105266 0.08585719
-0.021223048 -0.08264743 -0.05144237 -0.09223423 -0.031569473 0.05835704 -0.08229784 0.016213192
-0.08975898 0.020141266 -0.06359379 -0.06700689 0.009531633 0.031831075 0.04388327 0.013839818
0.060498707 0.04218341 -0.09061238 0.006273999 -0.025829606 0.030783774 0.03409879 0.09923627
0.03906185 -0.087406956 0.024732627 -0.09830639 -0.07559988 -0.013210128 -0.03540001 -0.10292916
-0.046742924 -0.077258244 -0.031307656 0.015807996 -0.015700156 0.09017023 0.07436422 -0.040073924
0.0617509 0.025476836 -0.11150574 0.052144565 -0.091479525 -0.037776846 0.096052915 -0.109492205
-0.041963235 0.029454898 -0.087725624 0.09692168 -0.037212692 -0.076258615 0.044188593 -0.060180414
-0.028736502 0.062856406 0.049921934 0.046815295 0.016602833 -0.06539317 0.071874894 -0.021987332
-0.06454632 0.09302305 0.043546524 -0.09307514 -0.0987547 -0.09465313 -0.084971175 -0.06888321
-0.016932415 -0.009052086 0.070540026 -0.04040905 -0.04286768 0.03451841 0.07634932 0.07086124
0.012807773 0.07787211 0.08155906 0.075261846 -0.07635694 -0.027762964 0.07033726 -0.055962738
0.039297566 0.014073179 -0.013917446 -0.05004692 -0.030743418 0.040254563 0.022208143 -0.08517194
0.020791806 0.041577928 0.07185305 0.058955215 -0.016208027 0.06456003 0.049954783 0.04975037
-0.06452838 0.0075355694 0.025937416 -0.04129051 -0.007831852 -0.038259104 -0.09428343 -0.057976924
-0.084456846 0.09079828 0.09508236 -0.07550632 0.034811422 0.06286878 0.08426736 0.013616909
0.043973718 -0.057944532 0.09441278 0.11359312 -0.06746712 0.066949494 -0.0765172 0.08291936
0.0509018 -0.060154334 0.043263696 -0.020823011 -0.08173285 0.080946244 -0.080106094 0.04592684
0.038920686 -0.07246703 -0.07777943 0.07862091 0.029857302 -0.10648037 0.08823999 0.09991177
0.06980295 0.058039602 -0.039651997 -0.025001615 -0.013050557 0.0646424 0.06579801 -0.0020699278
-0.06260649 -0.06420175 -0.0028934903 0.098832205 0.096194014 0.0920753 0.022456843 0.053397335
-0.05202753 -0.10100887 0.019745607 -0.034460973 -0.0013577294 0.066888414 0.023203345 -0.010517083

layer2.bias f4 [256]
00000000: 2dd0 f0bb 3a4e a2bb d5ce ecbc 0000 0000
00000010: d5f5 86bd 552c 783d fe7a ddbc a5c4 05bc
00000020: b6c9 223d 42e8 763d 23f7 01bd dcfc 56bd
00000030: dbb0 183d 0910 f1bc ec16 913c 1070 04bd
00000040: fc70 02bd 7dbb 2cbc 115b b3bc a442 c3bc
00000050: 2876 8cbc eed9 70bd 0000 0000 a991 19bd
00000060: b4c3 82bc 7f07 923d b6b0 4fbd 39a0 f6bc
00000070: 91a3 d6bc 1abb 0e3d 61f8 fcbc 0000 0000
00000080: a0de a6bb 8a60 c9bb be6e 483d 65b3 94bb
00000090: 710f d3bc e204 59bd 0ca0 1cbc d751 cbbc
000000a0: 48d8 4c3d 8b64 bcbc 6465 d7bc ca7f 1abc
000000b0: 0dc1 22bc 2634 c2bc 1732 2ebd 4fd0 46bc
000000c0: 7a45 21bd 3b80 86bc 8d7c 633d bfd4 363d
000000d0: 98e2 0d3c f12b 13bc fa77 debc 61f4 4dbc
000000e0: 25c0 54bb 630e 4ebc a299 c4bc 0000 0000
000000f0: 17ca 14bd b4b5 3bbc 0e18 90bb b71d 93bc
00000100: ff50 8e3d 1475 d5bc 992c 18bd c4d1 b5bc
00000110: 3c1a 80bc ae2b 283d ce68 153d 77c8 d4bc
00000120: 9ad6 0cbd 02d7 afbb ee09 a73c 3a7e 8e3d
00000130: 638a 28bc d397 3f3d 479a 03bd 3296 0abd
00000140: ded9 96bd 0000 0000 4fcb 14bc 8970 f3bc
00000150: cf1f 8cbd b298 773d 84b9 eabc b265 953d
00000160: 6039 dcba 183f ff3c b33c 073d 9e66 683d
00000170: 8e5f 313d fb68 dfbc 4486 0abc f242 61bd
00000180: 9640 e9bb 765f 1cbd 0542 38bc 0022 26bd
00000190: 003e 0d3d 39b6 33bc 580c 5c3d 3f20 7fbd
000001a0: c392 d2bc a1dc d2bc 3968 04bd 0000 0000
000001b0: 38a0 cebc 28ce 1abc 9df5 c1bc 7d57 a9bc
000001c0: 8905 77bc d2a3 853d 07e4 86bc 733c 193d
000001d0: 4a97 483d 684d 383d 762b bebc e82e 7dbd
000001e0: e8d2 873d 8c97 82bd c619 813d 9a5b 6c3d
000001f0: 3f58 103b 7c87 c0bc ace5 83bd 742d 7dbd
00000200: 84d5 bcbb ec7d b9bc b08b 873d 07dc 783c
00000210: b681 3b3d ff59 c7bc c4d1 98bb e5f8 38bd
00000220: cc9b 30bb 27f9 19bd fb0c e4bc 6419 683d
00000230: 212d 88bb 21e7 ab3c 79a6 d8bc 0000 0000
00000240: 99f9 a339 b367 ff3c 5049 8cbc bc33 03bd
00000250: 836e 8b3c 600e dbbc 506c 91bb a68f edbc
00000260: 5927 b6bb 898a d7bc 758d f7bc 9e52 42bc
00000270: d216 5c3d 0e41 833d 26d7 d5bb b889 d7bc
00000280: a187 d9bb e2c3 bcbc a631 9bbc c638 86bd
00000290: d8ee 4bbc 247e 4e3d b10b a43b 5e5a 03bd
000002a0: 39d1 6e3d aca0 89bb 0000 0000 7be7 f2bb
000002b0: c448 28bc a870 e1bc 7667 f4bb 182d 5abd
000002c0: 7d28 d13b b04e 9cbc c374 71bd 21f3 683d
000002d0: 0000 0000 9b5f b8bc 059c 07bd bdeb 653d
000002e0: 4594 513d feb6 933d 0000 0000 dfb0 883d
000002f0: 178d 8bbc 2d5d 08bd 11ad 09bd 6733 613d
00000300: c56e 613d 8bb4 5d3b e7da 01bc 3546 2dbc
00000310: 0000 0000 f004 f5bc 222e 64bd 5f4c 19bd
00000320: 8a9f 1ebc 7dd0 1fbc abc5 81bd 3a20 813d
00000330: c1d1 c2bc 6c8a d9bc d96f dabc 40c7 83bc
00000340: 0000 0000 e14b 58bd 6284 f4bb 6e4d 1c3b
00000350: 28fd 89bc 609e 0abc 350d fcbc de68 71bc
00000360: 4a58 baba 6d4e 39bd 53ac d9bc 7835 72bc
00000370: 2c13 87bc a4b2 1f3c 0f96 78bd 7901 acbb
00000380: 161b 0fbc 9f02 13bd a15d 35bc e231 403b
00000390: c887 bcbc 1144 14bd d851 cfbc 06db 2dbc
000003a0: 218b 13bd 1bd3 0ebd cd77 f4bc 7e2c c0bc
000003b0: bde4 703d 3e77 f7bb efb8 ebbc 4e2d 7bbc
000003c0: e4c6 333d f7ea 443d 682b 0fbc 7942 51bc
000003d0: 0000 0000 87be 8c3d e266 1cbd ce5a aabc
000003e0: e53f 79bc d2c3 593d f002 bcbc a82c 69bd
000003f0: 7bce 0a3d 9bd3 c4bc d55b bbbc 930e d6bc
-0.0073490352 -0.004953173 -0.028907219 0.0 -0.065898575 0.060589153 -0.027036186 -0.0081645595
0.039743148 0.060280092 -0.03172983 -0.05248724 0.037278038 -0.029426591 0.017711125 -0.032333434
-0.03184603 -0.010542748 -0.02189401 -0.023835488 -0.017146185 -0.058801584 0.0 -0.037492428
-0.01596246 0.07130336 -0.050705634 -0.030105697 -0.026201041 0.034846403 -0.030880155 0.0
-0.005092457 -0.0061455416 0.048933737 -0.004537987 -0.025764199 -0.052983172 -0.0095596425 -0.024819298
0.05001095 -0.022997161 -0.026293464 -0.009429881 -0.009933722 -0.023706507 -0.04252824 -0.012134626
-0.0393729 -0.016418567 0.055538703 0.044636484 0.008659981 -0.008982644 -0.027156819 -0.0125704715
-0.003246316 -0.012576672 -0.02399904 0.0 -0.03632554 -0.011456896 -0.004397399 -0.017958505
0.069490425 -0.026056804 -0.037151907 -0.02219475 -0.01563751 0.04105728 0.036476903 -0.025974495
-0.034384347 -0.005366207 0.020390477 0.069576696 -0.0102869 0.04677565 -0.032129552 -0.033834644
-0.073657736 0.0 -0.009081676 -0.029716747 -0.068420045 0.060448356 -0.028652914 0.072947875
-0.0016801767 0.031158015 0.03301687 0.05673849 0.04330402 -0.027271738 -0.008454863 -0.054995485
-0.007118295 -0.038176976 -0.011246209 -0.04055977 0.034482956 -0.010968738 0.05372271 -0.06228661
-0.025704747 -0.02573997 -0.032325957 0.0 -0.025222883 -0.009448566 -0.023676688 -0.0206716
-0.015077003 0.06525387 -0.016466154 0.037411164 0.048972405 0.044995695 -0.023214083 -0.06181231
0.06632024 -0.063765615 0.06303744 0.057704546 0.0022025255 -0.023502104 -0.06440291 -0.061810926
-0.0057627577 -0.022643052 0.0661844 0.015189177 0.045778 -0.024334906 -0.004663678 -0.04515924
-0.002694833 -0.037591126 -0.02783822 0.05666484 -0.0041557704 0.020984234 -0.026446568 0.0
0.00031275747 0.031177377 -0.017124802 -0.03203176 0.01702047 -0.026740253 -0.0044379607 -0.028999161
-0.00555889 -0.026311176 -0.03021882 -0.011860518 0.0537327 0.064088926 -0.006525892 -0.026310787
-0.0066384827 -0.023042623 -0.018944573 -0.065537974 -0.0124470815 0.050413266 0.0050062765 -0.032068603
0.058305 -0.004200062 0.0 -0.0074128485 -0.010271255 -0.027519539 -0.0074586226 -0.05326566
0.0063830004 -0.01908049 -0.058949243 0.05687249 0.0 -0.022506526 -0.033107776 0.05613302
0.05116679 0.07212637 0.0 0.066743605 -0.01703505 -0.033291984 -0.033612315 0.05498066
0.05503728 0.0033829536 -0.007925726 -0.010575821 0.0 -0.029909581 -0.05570806 -0.03742635
-0.009681592 -0.009754297 -0.0633653 0.06304975 -0.02378166 -0.026555263 -0.026664661 -0.01608622
0.0 -0.05280674 -0.0074620703 0.0023849863 -0.016844347 -0.008460611 -0.030768016 -0.014734475
-0.0014216986 -0.04524081 -0.026571428 -0.014783256 -0.016488634 0.009747181 -0.060689982 -0.005249199
-0.008734485 -0.03589117 -0.011069686 0.0029326607 -0.023013964 -0.036197726 -0.02530758 -0.010611301
-0.036021356 -0.034869295 -0.029842282 -0.023458716 0.05881189 -0.0075520566 -0.028774707 -0.015330626
0.04389085 0.048075642 -0.008738376 -0.012772196 0.0 0.06872278 -0.038184054 -0.020795252
-0.015212988 0.053165264 -0.02295062 -0.056927353 0.03388832 -0.024026683 -0.022870937 -0.026129996

layer3.weight f4 [256, 256]
00000000: 0588 9dbd 562b 363d 0240 77bc 15c0 88bd
00000010: 4049 23be 008d d7bb f3ff 8dbc 6a75 63bc
00000020: c1bb a0bd 164d 6abc f70e fdbc 7d10 003c
00000030: f655 bdbd 3182 71bd ac28 fe3c f776 6bbd
00000040: 0f12 ccbd 2053 d9bd d3ca 97bd 5024 443d
00000050: 282e e43c 7cd7 213d ae72 9bbd 49b9 9a3d
00000060: e24b 4f3b ad8a dfbc 2570 d1ba 8aee e33c
00000070: b111 083d 0a46 113d fc54 afbc f056 cb3b
00000080: 86dc 003d f602 1d3d 6b85 f7bc d300 9ebc
00000090: ec5b 3fbd 0810 1b3d 8d62 0e3d 4d50 0a3e
000000a0: 3222 a23d 682c 1e3b 6f56 0a3d dd86 8f3d
000000b0: 66df d5bd 9f7d 8ebd c180 cfbc 063f 383d
000000c0: 3d1d ae3d a7e1 853b c3f9 12bd ac6e 71bd
000000d0: c655 013d cc73 e9bd 5e69 55bd 9e2d a1bc
000000e0: 137d 31bd c404 d2bd 67ea 88bd 0e31 5a3d
000000f0: c3a9 f6bd 1da5 a43d 84c1 193d bdb1 51bd
00000100: 7ecc 57bd 5654 223d 738c 9dbd d704 bf3c
00000110: 1837 d1bd 5c00 703d 0200 ad3d bd15 fd3d
00000120: b65d 02bd 6894 9fbd 4b9e 5fbd ddf8 d03c
00000130: b39b a9bd b618 f33d b32b f53c a0c1 b3bd
00000140: 9aa2 e53c e287 95bd cf7a bb3d a7f1 b1bd
00000150: c457 183d 0266 edbc 732c c03c 9af1 da3d
00000160: 63cc b3bb cddc f3bd 8a5d 873c b281 c53c
00000170: aa7c 81bd d590 e83d 4deb b8ba f4f3 c8bd
00000180: 5e1f ba3d 723e ca3d a83a daba 0b43 403d
00000190: 9f11 973d 1a0d 8ebd fd4f 9bbc 85d2 9fba
000001a0: 7f5e 70bd f253 953d b876 17bb 10eb 49bc
000001b0: 1583 5d3d 6d51 afbd 797e 843d 8bca 9dbd
000001c0: 57ea 9c3c 852c 33bd 034e 3bbd 5ef4 c53d
000001d0: d44c 6bbd b696 1cbd 3548 dabd d165 9dbd
000001e0: 76b9 c33d b166 06be 3ee5 bf3d 6abe 2e3d
000001f0: 65b2 87bd 8b31 7f3d 8a79 113c 6b16 b4bd
00000200: 435b 303d 045f bc3d 98a3 ba3d 91be 363d
00000210: f35c 383d ea3b 803c 1382 53bd 3476 a5bd
00000220: e393 cb3d 9be1 7dbd 68f5 bcbd 84a0 2dbd
00000230: 6fb1 50bd bd7c 123d 835d b43c 9d67 dd3d
00000240: eb77 cdbd 5a6c cf3d a3b5 97bb 37b2 9cbd
00000250: 417e 81bd e985 4c3d ff5b 41bd 0ee3 9abc
00000260: 6604 493d ed86 bcbd a466 4f3d 52e9 65bc
00000270: fc3d 033d cefe 753c 4066 963d 6b1c aabd
00000280: 7b62 4bbd 6d13 77bd 6edf cc3d f102 acbd
00000290: 46cc 32bd 356b b33d fe29 0b3e 5dbb bbbd
000002a0: d998 163e 92b8 173d 4588 ae3d 7c65 a83d
000002b0: 048c 803c 0af5 bdbb 11e8 87bd 0642 7dbd
000002c0: eb83 b73d 56a4 1cbd 9659 5f3c 0fa1 f23d
000002d0: 360e 1fbd 4e2d a73b 8727 ee3d dda6 2b3d
000002e0: 1426 d03d 0320 5fbc 22d8 3ebd 65d5 b63d
000002f0: b83a b63d ee63 20bd 1f31 d73d d348 8dbd
00000300: d259 873d 0261 cb3d 98e5 d43a b1f2 99bd
00000310: b239 08bd 94fe 853d 0e73 063d bd56 603d
00000320: e7f1 adbd 815c d03c ff41 d6bd b1be 3fbd
00000330: c459 e93c 320d 833b 23a2 97bd 890c 9fbd
00000340: 4057 d73a 5ead 443d 942c fdbc 0318 d0bd
00000350: d566 c23d ce75 293d d3d5 943c fcbb e5bc
00000360: 0171 abbd b864 9c3c 78d4 a4bd f277 9fbd
00000370: f4ff b3bd 1242 dfbc 664d 22bd 1150 993d
00000380: d685 c23d 75e3 563d 7e2a a3bd 6276 1a3c
00000390: f42c 203d ae63 03bc 427a c23d dcc3 893c
000003a0: c8ad 263c 5ffa c53d 2110 68bd 33b3 5b3d
000003b0: 6237 93bc ede9 0c3d 721b ef3d ef9c 78bc
000003c0: 129b 5fbd 5572 cdbd e5b4 983d 0661 84bc
000003d0: e0ba 5cbb 5ccc 083e 68d7 df3d 700f 2dbc
000003e0: 770a 49bd e15e 803c b887 263d c3e8 e53c
000003f0: 66ad 303d d9f3 febd ab10 a8bc b4b2 77bd
-0.07691959 0.044474922 -0.015090944 -0.06677262 -0.15945911 -0.006578088 -0.01733396 -0.013882974
-0.07848311 -0.014300605 -0.030890925 0.007816431 -0.092449114 -0.05896205 0.031025253 -0.0574865
-0.09964382 -0.10611558 -0.074117325 0.047886193 0.02785404 0.039512143 -0.07590233 0.075548716
0.0031630923 -0.027287805 -0.0015978856 0.027823705 0.033219997 0.035467185 -0.021402828 0.006205432
0.031460308 0.038332902 -0.030214986 -0.019287502 -0.046718523 0.037857085 0.034761954 0.13507195
0.079166785 0.0024135355 0.033773836 0.07008145 -0.104430005 -0.06957554 -0.02532995 0.04498198
0.085016705 0.0040857377 -0.035882723 -0.058943436 0.03157594 -0.113990396 -0.05210244 -0.019675072
-0.04333217 -0.10254815 -0.06685334 0.05326944 -0.12044098 0.08039305 0.037538067 -0.051194895
-0.052685253 0.03963121 -0.07692804 0.023317738 -0.102155864 0.058594093 0.08447267 0.12357662
-0.03182765 -0.07791978 -0.05459432 0.025509292 -0.082816504 0.118699476 0.029928064 -0.087771654
0.028031636 -0.07301308 0.09154283 -0.0868867 0.037193075 -0.028979305 0.023458695 0.10690613
-0.0054870113 -0.11907349 0.016524095 0.024109695 -0.06322606 0.113557495 -0.0014108211 -0.09812155
0.09088014 0.09875192 -0.0016649561 0.046938937 0.07376408 -0.06936093 -0.01895904 -0.0012193477
-0.05868387 0.07291402 -0.0023111533 -0.01232411 0.054080088 -0.085604526 0.06469435 -0.07704648
0.01915471 -0.04374363 -0.045728695 0.0966575 -0.057446316 -0.038229667 -0.10658304 -0.076854356
0.09556858 -0.13125111 0.09369896 0.04266206 -0.06625823 0.062303107 0.008879075 -0.087933384
0.043055784 0.0919781 0.09113234 0.044615332 0.04501052 0.01565357 -0.05163772 -0.08079186
0.099403165 -0.061982732 -0.09226495 -0.042389408 -0.050950464 0.03576349 0.022017246 0.10810778
-0.10032638 0.10128088 -0.004629807 -0.07651179 -0.06322909 0.049932394 -0.047206875 -0.018907096
0.04907646 -0.092054226 0.050634995 -0.014032679 0.032041535 0.015014363 0.073437214 -0.083062015
-0.049654465 -0.06032126 0.10003553 -0.083989985 -0.04365184 0.087606825 0.13590237 -0.09166596
0.14706744 0.037041254 0.08522085 0.082224816 0.015691765 -0.005797033 -0.0663606 -0.061830543
0.08960708 -0.03824266 0.013632199 0.11847126 -0.038831912 0.0051018363 0.11628633 0.04190718
0.10163513 -0.013618472 -0.04659284 0.089274205 0.088979185 -0.0391578 0.10507416 -0.06898656
0.06608929 0.09930612 0.0016242741 -0.07516993 -0.033258148 0.065426975 0.03282457 0.05477022
-0.08493405 0.025434734 -0.104618065 -0.046812717 0.028485186 0.0039993757 -0.07403972 -0.07766063
0.0016429201 0.0480169 -0.030905046 -0.1016083 0.0949227 0.041372113 0.018168366 -0.02804374
-0.08371163 0.019090995 -0.08048338 -0.0778655 -0.087890536 -0.027253184 -0.039624594 0.074859746
0.094981834 0.052463014 -0.07967089 0.009427639 0.03910537 -0.008019371 0.09495975 0.016817026
0.010173269 0.09666895 -0.056656007 0.053637695 -0.017970745 0.034402777 0.11675157 -0.015174135
-0.054591246 -0.10031573 0.07456378 -0.016159546 -0.0033680722 0.13359207 0.10929757 -0.010562763
-0.049082246 0.015670242 0.040656775 0.028065091 0.043134116 -0.12448854 -0.02051576 -0.06047316

layer3.bias f4 [256]
00000000: 2e57 f83c 4ade 503d e747 3bbb 3589 f33c
00000010: 2224 81bb bc44 4bbc 0000 0000 5760 b6bc
00000020: a3ce ab3b 0000 0000 efba 55bc 83d7 fb3c
00000030: c899 02bd b319 74bc 697d 82bc 06e5 5abc
00000040: 7732 cbbb e13e 0bbc c663 aebb e934 b0bc
00000050: ff45 073d 0635 a9bb ad17 04bc 2cce e53c
00000060: 49c8 a5bc 262e abbb 8a67 813d 59d0 0abc
00000070: dbc9 c4bb 32ee f3bb d1ac 59bc 8233 083b
00000080: 308f 2dbc 26de 20bc 9b46 513d abfa 9abb
00000090: 9fe0 e5bb fb7e 75bd fa04 4fbd 1760 18bc
000000a0: c693 4b3b 6d4f 7bbc 5f13 0fbc fac6 7f3c
000000b0: 5cf3 873d a7b1 8cbc 60be a13d bb85 713d
000000c0: 041e b1bb 4c98 b0bb b7e1 93bc 2d00 5cbc
000000d0: 2d85 90bc 7f92 8b3a 817d 72bc 7f9c 2abc
000000e0: a47b f3bb f0e2 afbb 503c a93a 2be5 67bb
000000f0: 8c1f da3b 9407 913b 60d2 29bd 9482 3a3d
00000100: 1e8e e2bb 82ad c73c 5546 6f3c f699 ff3c
00000110: 20cc a73d 1409 6bbc 9a47 8e3d 057b 1f3d
00000120: 1a85 c83b 7967 123d 6ea6 72bd b9ad 2cbc
00000130: 3ff2 14bc 4b20 023d 8d4b 18bc 6a1b a6bc
00000140: b58b 083d c8da a038 a7cf 0dbc 0000 0000
00000150: 1ae5 133d d17a 1f3d 277f bfba 61d4 b13c
00000160: 664c cfbc 98e2 47bc adf0 5e3d 6082 3fbd
00000170: 5d75 833d f3f8 02bb c524 d9bb 7bbb 253b
00000180: 066e 2dbc d706 693d 0374 213d e7f3 353d
00000190: 3ff1 d43c 2bba 15bc 957d 33bc 945b 2fbc
000001a0: b05b 0cbc 5288 8ebc 7d4b c93c 9b12 a3bb
000001b0: f464 693d a21b a63c a0a7 1ebc 5969 dfbb
000001c0: d378 dabc f2f6 853d ccd7 93bc edb4 33bc
000001d0: 4e9c 613c 0000 0000 0000 0000 d3fb db3b
000001e0: d229 0cbc 0000 0000 2ec1 9bbc d3b3 04bc
000001f0: 3433 ac3c fc41 b2bc f24b 12bc 10dc 763c
00000200: cfe3 5d3d 3797 533b e1fc 97ba 741d 843a
00000210: 7b7f a5bb 0000 0000 d64d d6bc a214 74bb
00000220: 77a9 183d ec21 c53a 37a3 83bc b777 2fbd
00000230: 6f6c 053c ac96 9ebb e30e 97bc 8fe2 0d3c
00000240: 4d08 51bc 22ad 6fbc b566 8aba fc48 1b3c
00000250: 0f88 bbbc 2309 42bd 77c8 67bb 4e6b 8fbd
00000260: 562a 64bc 8b8b 8b3c fd0d 26bc 0ef5 a9bc
00000270: a2c1 07bd e31e 72bb 347f 173d 0511 7abb
00000280: 10aa eabb 5153 c5bb 9803 d73c 5f24 1d3d
00000290: c137 273c 78e0 24bc d85d 23bc cdd6 3abc
000002a0: ad75 9cbc fb0c c0bc 7520 04bd 521f 35bc
000002b0: ad4a cd3c 6846 833d 57d2 6cbd 8dba 5fbc
000002c0: 0000 0000 1b04 a73c fb3a 7fbd 7303 003d
000002d0: 2fcd a8bb 0000 0000 8ff9 97bc 50fa 8fbd
000002e0: 5c67 babc 3e48 4c3d 84ef 0fbc 8e96 fc3c
000002f0: 2349 20bc a170 563d 3426 c3bb 2c38 30bd
00000300: 9fe0 0dbc a59c fc3c a5ab 2dbc d3e2 d33b
00000310: 5383 73bc 0000 0000 78fe 8cbc 8cde aabb
00000320: bd18 c6bc 3af7 e2ba b9a5 473d 2f5d edbb
00000330: b0af 373d aa79 16bd 158f 86bc 0183 f93c
00000340: 8ec4 c2bc 0fab 5fbc 4838 27bb 6f6a 23bc
00000350: 0000 0000 0000 0000 a4c3 b33b 0000 0000
00000360: 0181 d83b 23c0 6bbc bae3 d9ba cd27 01bb
00000370: 2b1d c3bc 193a 823c f248 40bc ef6b d7bc
00000380: e28a 603d d6ec a3bb 9c55 f03c f2a9 98bc
00000390: 20dd 17bd 7186 2bbc cb12 1d3d c01b 1e3d
000003a0: 5ec7 353d fa07 ddbb 777a e4bb ac7c 46bd
000003b0: a7b2 a33c b3f0 023c 5e3e 993c 2edd c5bb
000003c0: eac1 08bd 996e 92ba 52f8 cdbc 980b 493c
000003d0: 2657 33bb 80a6 a4bd 55b8 59bc 160e 08bd
000003e0: 3926 c8bc 5542 4cbc a0f4 42bc a42a 38bc
000003f0: 2dd8 3dbd b044 6dbc 3e81 0cbc f28a 67bc
0.030315008 0.05099324 -0.0028576793 0.029728511 -0.003941075 -0.012406524 0.0 -0.022262735
0.005243139 0.0 -0.013045057 0.030742412 -0.03188494 -0.014898705 -0.01592894 -0.0133602675
-0.0062010842 -0.008498878 -0.0053219525 -0.021509605 0.033025738 -0.0051637916 -0.008062285 0.028052412
-0.020237105 -0.005224007 0.06318577 -0.0084725255 -0.0060055084 -0.0074441666 -0.013285832 0.0020782654
-0.010593221 -0.009818589 0.051092725 -0.004729589 -0.0070153023 -0.05993555 -0.050541855 -0.009300253
0.0031063422 -0.015338761 -0.008732646 0.015611405 0.06638214 -0.017174555 0.07897639 0.058965426
-0.0054051895 -0.005389249 -0.018051965 -0.013427776 -0.017641628 0.0010648518 -0.01480043 -0.010413288
-0.0074305106 -0.005367629 0.0012911651 -0.0035384397 0.0066565927 0.004425952 -0.041460395 0.045534685
-0.0069139143 0.024374727 0.014604171 0.031201344 0.08193231 -0.014345426 0.06947251 0.03893568
0.0061193826 0.03574321 -0.05924075 -0.010539466 -0.009090959 0.03176908 -0.009295356 -0.020276744
0.03333636 7.670146e-05 -0.008655465 0.0 0.03610716 0.038935486 -0.0014610038 0.021707715
-0.025304984 -0.01220002 0.054428745 -0.046755195 0.0641887 -0.001998481 -0.0066266977 0.002528875
-0.010585314 0.05689129 0.039417278 0.044422057 0.025993941 -0.009138624 -0.010955234 -0.010702986
-0.008566782 -0.017398987 0.024572128 -0.004976583 0.056981042 0.020276848 -0.00968352 -0.0068179783
-0.026668942 0.06541242 -0.018047236 -0.010968429 0.013770176 0.0 0.0 0.0067133694
-0.008554893 0.0 -0.019013014 -0.008099514 0.02102051 -0.02175998 -0.00892924 0.015067115
0.054172333 0.0032286176 -0.001159575 0.0010079578 -0.0050505972 0.0 -0.026160162 -0.0037243743
0.03727099 0.0015040017 -0.016069038 -0.04283878 0.008143528 -0.004839739 -0.018439716 0.008659973
-0.012758327 -0.01462868 -0.0010559174 0.00947785 -0.022892026 -0.047371995 -0.003536729 -0.070028886
-0.013926109 0.017034313 -0.010135171 -0.020746734 -0.033143647 -0.003694468 0.036986545 -0.0038157117
-0.0071613863 -0.006021895 0.02624683 0.038364764 0.010206164 -0.010063283 -0.009971105 -0.011403752
-0.019099081 -0.02344369 -0.032257516 -0.011054831 0.025060022 0.06409913 -0.057817783 -0.013655317
0.0 0.0203877 -0.062312108 0.03125329 -0.005151413 0.0 -0.018551616 -0.07030165
-0.022754364 0.049873583 -0.008785132 0.030833509 -0.009783062 0.052353505 -0.005955482 -0.04302232
-0.008659511 0.030836413 -0.010600005 0.0064662485 -0.014862853 0.0 -0.017211184 -0.005214518
-0.024181718 -0.0017316111 0.04874203 -0.0072437744 0.044845283 -0.03673712 -0.016425649 0.030457975
-0.023775365 -0.013651623 -0.0025515724 -0.009974106 0.0 0.0 0.0054859687 0.0
0.0066071753 -0.014389071 -0.0016623654 -0.001970756 -0.02381762 0.015896844 -0.0117361415 -0.026296584
0.05481995 -0.0050025983 0.029337697 -0.018635724 -0.037076116 -0.010469065 0.038348 0.038600683
0.044379584 -0.0067453356 -0.0069726068 -0.04845874 0.019982649 0.0079919575 0.018706497 -0.0060383296
-0.033388056 -0.0011171877 -0.025142822 0.012270831 -0.0027365177 -0.0803957 -0.013288577 -0.03321656
-0.024432288 -0.012466987 -0.011899143 -0.011240635 -0.04634874 -0.014481708 -0.008575736 -0.014132248

mu.weight f4 [4, 256]
00000000: f0d3 7d3c 9bd2 983d 1fd6 38be b56c 38be
00000010: 0ea8 85bb acb6 633d 22d0 9ebd d4b3 c7bc
00000020: e73e 5dbc e8dd 523d dd31 053d 8531 acbd
00000030: 3148 11be 81d6 ad3d 8e9f 53be 7b9f 033e
00000040: 54d2 3bbe 628c 25bd 126a 153e adb9 35be
00000050: 8903 edbd 335f 52be 1948 f93d b931 053e
00000060: 88e4 4bbe 8adb c93d dd73 143e 663f c13d
00000070: c99e d93d 8df1 ccbd c97a f6bd b382 d23d
00000080: 05c8 2ebe 3e83 8dbd 8828 9b3c 5fc6 c63d
00000090: f2b2 42be a0d2 17be efdf 05be 5abb e23d
000000a0: 9a53 a13c 2f5e d63c d023 0bbe 505c cd3d
000000b0: 36fa 1c3e 7bd1 25bd 7f44 663d 15c4 d7bc
000000c0: ece4 fb3d de4d bcbd d6a3 b8bb 453f 07bd
000000d0: 5293 d5bd 4611 05be 1139 dabd 6d2c b63c
000000e0: 0e66 86ba 0daa 883d 1f7a 14bd 6410 11bd
000000f0: c1bc cebd 2148 983d 0c3d 4cbe d992 b7bd
00000100: 350a 6b3d 7e80 10bd 4230 8bbd 63c7 0dbd
00000110: f67f e0bc 359b 8d3d 1654 4e3d 466e 6b3d
00000120: b787 bebd e1fc 9a3d a8cc b73d f768 cb3b
00000130: 83d0 63b9 cd64 743d 3619 02be 47e0 7fbd
00000140: 1ea7 21be b4f0 e2bd 260b c23d b0b8 903d
00000150: 7905 d53c 8786 6fbc cde3 11be 624e e03d
00000160: 0b92 02bd b3b4 85bd 41b8 eebc 2f85 60be
00000170: 9e3e 223e 7d6b a7bd 3a94 cfbb bee9 33bd
00000180: a30c 753b 7fe7 a63d 4f1e d13d 2b98 45bd
00000190: 213b 28bc 6b37 ce3d 231f 9dbb 6a6b 023e
000001a0: 2a1d 38be 0e26 24bd 19ca 233d 1975 423c
000001b0: 4b15 81bd 5c23 ed3d b113 d0bd 211e df3d
000001c0: a7a3 9bbc c56a d53d 2ac3 c23d d50d d6bd
000001d0: d680 abbd aa52 09be 1c42 71bd 8cad ac3d
000001e0: 0676 cfbd 642a 9e3d 72fc 813d c055 ba3d
000001f0: f25d 08be da07 c1bd ca1a 45bd 82d1 16be
00000200: d4a6 933d f241 42bd a361 303d 3e6c 993d
00000210: 51a0 e73d c8bf 8c3d 4f39 4dbd c7c1 5b3c
00000220: 1f3f 2f3e b320 30be 7a9d c0bd 38eb 473d
00000230: 2bfe 1fbe c72c 4dbe 1e2d f3bd 07ff 2f3e
00000240: 5d4d 35be e81a ecbb 3861 23be 24d6 0a3e
00000250: c9d6 7abd c2a3 eb3d d60c b33c 8fd4 d53d
00000260: ddbd 78bd 4556 4b3d 7146 593c be67 e2bd
00000270: c052 87bd eb00 f8ba 9a04 22bd 3a50 8d3c
00000280: 92e3 e73c 1944 ff3d 8b59 87bc e3b3 213d
00000290: 7790 00be 9696 63bd 74b4 48be f1e7 29bd
000002a0: 45d9 83bd 6254 11be 96e0 aa3d 76bf 18be
000002b0: b152 23bc 0318 70bb b66d b73d 3eb5 45bb
000002c0: dc97 003e 7364 383e a605 4bbd b63b 56bd
000002d0: 7b04 0d3e 009a 00ba 9996 48be 05ad 443d
000002e0: 4a42 e83d 9aa0 e23d 2326 c8bd e8ca 1f3d
000002f0: 990b 9f3d a9de 1d3e 964b 093e 412c fcbd
00000300: 0a25 903d d6a8 df3d db65 e83d e3de 3b3b
00000310: de64 893c aa61 d2bd 7877 70bd b6da dbbd
00000320: 3386 3dbe 8920 50bd 1f89 0f3e 0a90 d7bd
00000330: 85a1 c53c 4897 1fbe bfff 43be 0d41 4abe
00000340: 482a 22be 4681 073d e6bb dabd 3405 463d
00000350: aee8 7dbd fcbf 51bd cfd4 06be 76ba 4abd
00000360: 445a 04be 7be7 45bd 9fcf d4bd ada7 a43d
00000370: f713 2abe 9b1a 94bc f9a5 c5bb e884 e7bd
00000380: ef66 153e b2b3 dbbd fb34 0dbe c41a 7a3c
00000390: f95d 87bd 2533 86bd b180 613c b93e db3d
000003a0: 60e1 923d 3a93 8f3d 1e1a 1d3e a0e3 35be
000003b0: 6509 c73d ca32 cb3d 16f0 53bd fa8a 0abe
000003c0: 6ac9 36be 00fa 563c f6df ee3d 1d21 5e3c
000003d0: 836a c73b da2d 743d 6812 403d d3d3 423d
000003e0: bf05 8e3d abcb 9a3d 2e04 0e3e e4e1 7d3d
000003f0: ad3a 2bbe 36b5 903d 024f 113e 30d8 5e3d
0.015492424 0.07462045 -0.1805043 -0.18010218 -0.0040788716 0.05559413 -0.07754542 -0.02437774
-0.013503767 0.051481158 0.032518256 -0.084078826 -0.14187695 0.08488179 -0.20666334 0.12853806
-0.18341953 -0.040417083 0.14591244 -0.17746611 -0.1157294 -0.20544128 0.12171955 0.13007249
-0.19911397 0.09856327 0.14497323 0.094359204 0.10625989 -0.1000701 -0.12035138 0.10278835
-0.17068489 -0.06909798 0.018940225 0.09705805 -0.19013575 -0.14826441 -0.13073705 0.11070891
0.019693185 0.026167957 -0.1358788 0.10027373 0.15329823 -0.04048298 0.056217667 -0.026338616
0.12299523 -0.091945395 -0.005634765 -0.033019323 -0.1042849 -0.1299487 -0.10655416 0.02223798
-0.0010253803 0.066730596 -0.036249276 -0.035416022 -0.10094596 0.074356325 -0.19945163 -0.08963556
0.05738278 -0.03527879 -0.06796314 -0.034613978 -0.027404767 0.06914369 0.05037316 0.05747821
-0.09303229 0.07567764 0.08974582 0.006207581 -0.00021726084 0.059666444 -0.1270493 -0.062469747
-0.15786406 -0.11081067 0.09474783 0.07066476 0.026003586 -0.014619476 -0.14247055 0.1095245
-0.03187756 -0.06528606 -0.029140593 -0.21925806 0.15844199 -0.08174799 -0.0063348087 -0.043924086
0.0037391565 0.08149623 0.10210859 -0.04824082 -0.010268004 0.10069164 -0.0047949716 0.12736288
-0.17979875 -0.040075354 0.039987657 0.011868739 -0.063028894 0.1157901 -0.10160006 0.108944185
-0.018998934 0.10420755 0.09509881 -0.10451857 -0.08374183 -0.1341044 -0.058900937 0.08431539
-0.10129933 0.07722929 0.06346978 0.09098387 -0.13317087 -0.09425326 -0.04812125 -0.14728358
0.07209554 -0.04742617 0.043061864 0.07491349 0.11309875 0.06872517 -0.05010348 0.013412899
0.17113923 -0.17199974 -0.09405036 0.048808306 -0.15624301 -0.20036612 -0.1187384 0.17187129
-0.17705293 -0.007205356 -0.15955055 0.1355825 -0.06123999 0.11505844 0.021856707 0.10440933
-0.060727943 0.04964282 0.013261423 -0.110549435 -0.0660758 -0.0018921172 -0.03955517 0.017250169
0.028306756 0.124641605 -0.01652219 0.039478194 -0.12555109 -0.05556353 -0.19600087 -0.041480962
-0.06437925 -0.14192346 0.083436176 -0.14916787 -0.009968446 -0.0036635406 0.089564726 -0.0030167843
0.1255793 0.18007068 -0.049565934 -0.05230304 0.1377124 -0.000490576 -0.19588698 0.048016567
0.11340769 0.110657886 -0.09772899 0.039011866 0.07765884 0.1541697 0.1340774 -0.12313128
0.07038315 0.10920875 0.113475524 0.0028666786 0.01677173 -0.10272534 -0.058707684 -0.10735075
-0.18508224 -0.050812278 0.14017151 -0.1052552 0.02412487 -0.15585053 -0.19140528 -0.19751377
-0.15836442 0.03308227 -0.1068037 0.048344806 -0.06198948 -0.05120848 -0.13167118 -0.04949423
-0.12925059 -0.04831646 -0.10391163 0.08039794 -0.16609178 -0.018079093 -0.0060317484 -0.11304647
0.14590047 -0.107276335 -0.13789742 0.0152651705 -0.06609721 -0.06552724 0.013763593 0.10705323
0.07171893 0.07010503 0.15341994 -0.17762613 0.09718589 0.099217966 -0.051742636 -0.13529578
-0.17850271 0.013121128 0.11663811 0.0135576995 0.0060856952 0.05961404 0.046892554 0.047565293
0.0693469 0.07558378 0.13868782 0.061983004 -0.16721602 0.07065813 0.14190295 0.05440539

mu.bias f4 [4]
00000000: 8c8f 06bb cb06 5fbc 3b9a babb f042 a8bc
-0.0020532338 -0.013612459 -0.0056946552 -0.02053973

sigma f4 [4]
00000000: e019 da3c 23ff 95bc 9d87 d4bc 5531 443c
0.026623666 -0.018310135 -0.025943572 0.011974652
