llirl_sumo/saves/120p4k_ultimate/learners_state.pth (torch, 394482 bytes, 15 tensors)

exp_avg f4 [4]
-0.008792874 -0.0046573244 0.010648849 -0.0038100476
00000000: fd0f 10bc 789c 98bb 8378 2e3c feb1 79bb

exp_avg_sq f4 [4]
0.00012472547 8.4575724e-05 9.979686e-05 9.141793e-05
00000000: bdc8 0239 3f5e b138 084a d138 a1b7 bf38

exp_avg f4 [200, 36]
9.164299e-05 8.5822576e-05 9.701294e-05 9.164299e-05 8.5822576e-05 9.701294e-05 8.8152476e-05 9.841845e-05
9.011701e-05 8.8152476e-05 9.841845e-05 9.011701e-05 8.8152476e-05 9.841845e-05 9.011701e-05 0.00012393219
3.2065425e-05 0.00018944002 0.00012393219 3.2065425e-05 0.00018944002 4.397017e-05 1.1888307e-05 0.00015498315
4.397017e-05 1.1888307e-05 0.00015498315 4.397017e-05 1.1888307e-05 0.00015498315 2.3252387e-05 5.6029467e-06
8.847798e-05 2.3252387e-05 5.6029467e-06 8.847798e-05 9.4053365e-05 2.2778759e-05 0.00013096168 9.4053365e-05
2.2778759e-05 0.00013096168 8.303673e-05 2.4896406e-05 0.00013192696 8.303673e-05 2.4896406e-05 0.00013192696
8.303673e-05 2.4896406e-05 0.00013192696 2.3345347e-05 5.969198e-06 6.340758e-05 2.3345347e-05 5.969198e-06
6.340758e-05 2.9034916e-05 7.603455e-06 0.000118817145 2.9034916e-05 7.603455e-06 0.000118817145 2.9034916e-05
7.603455e-06 0.000118817145 3.1947442e-05 8.702647e-06 6.74892e-05 3.1947442e-05 8.702647e-06 6.74892e-05
-3.9763127e-05 -6.3382176e-06 -5.80285e-05 -3.9763127e-05 -6.3382176e-06 -5.80285e-05 -2.3065622e-05 -4.002764e-06
-4.1087005e-05 -2.3065622e-05 -4.002764e-06 -4.1087005e-05 -2.3065622e-05 -4.002764e-06 -4.1087005e-05 -9.252695e-05
-5.9092017e-06 -0.00014075782 -9.252695e-05 -5.9092017e-06 -0.00014075782 -0.00011145747 -1.1689447e-05 -0.00024361334
-0.00011145747 -1.1689447e-05 -0.00024361334 -0.00011145747 -1.1689447e-05 -0.00024361334 -2.0562624e-05 -2.2108563e-06
-4.6375997e-05 -2.0562624e-05 -2.2108563e-06 -4.6375997e-05 5.6698027e-05 1.6980852e-05 5.1708237e-05 5.6698027e-05
1.6980852e-05 5.1708237e-05 5.4389075e-05 1.3704577e-05 9.218038e-05 5.4389075e-05 1.3704577e-05 9.218038e-05
5.4389075e-05 1.3704577e-05 9.218038e-05 1.3525099e-05 4.6488562e-06 -0.00011972908 1.3525099e-05 4.6488562e-06
-0.00011972908 2.481503e-05 3.859684e-06 -6.929772e-05 2.481503e-05 3.859684e-06 -6.929772e-05 2.481503e-05
3.859684e-06 -6.929772e-05 8.111388e-06 5.768148e-06 1.8265258e-05 8.111388e-06 5.768148e-06 1.8265258e-05
8.524119e-05 -2.200156e-05 0.00015676003 8.524119e-05 -2.200156e-05 0.00015676003 8.101356e-05 3.126112e-05
0.00022700163 8.101356e-05 3.126112e-05 0.00022700163 8.101356e-05 3.126112e-05 0.00022700163 -8.650957e-06
-6.2554955e-06 4.313261e-05 -8.650957e-06 -6.2554955e-06 4.313261e-05 -9.5815456e-05 -1.9393483e-05 0.00013975028
-9.5815456e-05 -1.9393483e-05 0.00013975028 -9.5815456e-05 -1.9393483e-05 0.00013975028 9.750749e-05 2.1326909e-05
6.0704504e-05 9.750749e-05 2.1326909e-05 6.0704504e-05 9.863238e-07 2.8462891e-05 3.8170358e-05 9.863238e-07
2.8462891e-05 3.8170358e-05 -4.2867425e-05 2.6856625e-05 5.6583194e-06 -4.2867425e-05 2.6856625e-05 5.6583194e-06
-4.2867425e-05 2.6856625e-05 5.6583194e-06 0.00010954716 2.5454094e-05 0.0002030548 0.00010954716 2.5454094e-05
0.0002030548 4.8811726e-05 1.5185909e-05 0.0001343961 4.8811726e-05 1.5185909e-05 0.0001343961 4.8811726e-05
1.5185909e-05 0.0001343961 1.2259877e-05 5.6588983e-06 5.589576e-05 1.2259877e-05 5.6588983e-06 5.589576e-05
7.457566e-06 3.7743448e-06 8.1406115e-06 7.457566e-06 3.7743448e-06 8.1406115e-06 9.617993e-06 5.2738787e-06
9.9297595e-06 9.617993e-06 5.2738787e-06 9.9297595e-06 9.617993e-06 5.2738787e-06 9.9297595e-06 1.7782857e-07
6.2721384e-10 1.1351902e-06 1.7782857e-07 6.2721384e-10 1.1351902e-06 -2.2565284e-07 -3.9034113e-08 3.100929e-06
-2.2565284e-07 -3.9034113e-08 3.100929e-06 -2.2565284e-07 -3.9034113e-08 3.100929e-06 1.9114261e-06 5.2188915e-07
2.7273786e-06 1.9114261e-06 5.2188915e-07 2.7273786e-06 1.6885748e-19 6.2353876e-20 1.6885748e-19 1.6885748e-19
00000000: 7530 c038 a5fb b338 6d73 cb38 7530 c038
00000010: a5fb b338 6d73 cb38 80de b838 0166 ce38
00000020: 34fd bc38 80de b838 0166 ce38 34fd bc38
00000030: 80de b838 0166 ce38 34fd bc38 cbf3 0139
00000040: fd7d 0638 6ba4 4639 cbf3 0139 fd7d 0638
00000050: 6ba4 4639 9c6c 3838 e473 4737 f982 2239
00000060: 9c6c 3838 e473 4737 f982 2239 9c6c 3838
00000070: e473 4737 f982 2239 1f0e c337 f200 bc36
00000080: 418d b938 1f0e c337 f200 bc36 418d b938
00000090: 843e c538 0315 bf37 c252 0939 843e c538
000000a0: 0315 bf37 c252 0939 0124 ae38 a0d8 d037
000000b0: e055 0a39 0124 ae38 a0d8 d037 e055 0a39
000000c0: 0124 ae38 a0d8 d037 e055 0a39 c0d5 c337
000000d0: 054b c836 aff9 8438 c0d5 c337 054b c836
000000e0: aff9 8438 0290 f337 2e21 ff36 782d f938
000000f0: 0290 f337 2e21 ff36 782d f938 0290 f337
00000100: 2e21 ff36 782d f938 4eff 0538 9601 1237
00000110: fd88 8d38 4eff 0538 9601 1237 fd88 8d38
00000120: 55c7 26b8 e0ac d4b6 a163 73b8 55c7 26b8
00000130: e0ac d4b6 a163 73b8 0c7d c1b7 7b4f 86b6
00000140: d654 2cb8 0c7d c1b7 7b4f 86b6 d654 2cb8
00000150: 0c7d c1b7 7b4f 86b6 d654 2cb8 070b c2b8
00000160: a847 c6b6 6498 13b9 070b c2b8 a847 c6b6
00000170: 6498 13b9 46be e9b8 cb1d 44b7 7572 7fb9
00000180: 46be e9b8 cb1d 44b7 7572 7fb9 46be e9b8
00000190: cb1d 44b7 7572 7fb9 e67d acb7 395e 14b6
000001a0: d983 42b8 e67d acb7 395e 14b6 d983 42b8
000001b0: 0bcf 6d38 1a72 8e37 4ce1 5838 0bcf 6d38
000001c0: 1a72 8e37 4ce1 5838 d31f 6438 b6ec 6537
000001d0: f750 c138 d31f 6438 b6ec 6537 f750 c138
000001e0: d31f 6438 b6ec 6537 f750 c138 dce9 6237
000001f0: 5ffd 9b36 0f17 fbb8 dce9 6237 5ffd 9b36
00000200: 0f17 fbb8 df29 d037 6f82 8136 ee53 91b8
00000210: df29 d037 6f82 8136 ee53 91b8 df29 d037
00000220: 6f82 8136 ee53 91b8 2516 0837 048c c136
00000230: 5838 9937 2516 0837 048c c136 5838 9937
00000240: 84c3 b238 fe8f b8b7 f35f 2439 84c3 b238
00000250: fe8f b8b7 f35f 2439 d3e5 a938 5f1e 0338
00000260: 4907 6e39 d3e5 a938 5f1e 0338 4907 6e39
00000270: d3e5 a938 5f1e 0338 4907 6e39 9423 11b7
00000280: 4ce6 d1b6 4ae9 3438 9423 11b7 4ce6 d1b6
00000290: 4ae9 3438 88f0 c8b8 30af a2b7 ee89 1239
000002a0: 88f0 c8b8 30af a2b7 ee89 1239 88f0 c8b8
000002b0: 30af a2b7 ee89 1239 ef7c cc38 30e7 b237
000002c0: f79c 7e38 ef7c cc38 30e7 b237 f79c 7e38
000002d0: d461 8435 98c3 ee37 1c19 2038 d461 8435
000002e0: 98c3 ee37 1c19 2038 8ccc 33b8 2a4a e137
000002f0: 98dc bd36 8ccc 33b8 2a4a e137 98dc bd36
00000300: 8ccc 33b8 2a4a e137 98dc bd36 afbc e538
00000310: 4086 d537 1ceb 5439 afbc e538 4086 d537
00000320: 1ceb 5439 31bb 4c38 fcc6 7e37 aeec 0c39
00000330: 31bb 4c38 fcc6 7e37 aeec 0c39 31bb 4c38
00000340: fcc6 7e37 aeec 0c39 c5af 4d37 91e1 bd36
00000350: 9e71 6a38 c5af 4d37 91e1 bd36 9e71 6a38
00000360: 013c fa36 c04a 7d36 a993 0837 013c fa36
00000370: c04a 7d36 a993 0837 f75c 2137 46f6 b036
00000380: fe97 2637 f75c 2137 46f6 b036 fe97 2637
00000390: f75c 2137 46f6 b036 fe97 2637 25f1 3e34
000003a0: 4068 2c30 d75c 9835 25f1 3e34 4068 2c30
000003b0: d75c 9835 fb4a 72b4 76a6 27b3 8e19 5036
000003c0: fb4a 72b4 76a6 27b3 8e19 5036 fb4a 72b4
000003d0: 76a6 27b3 8e19 5036 0d46 0036 f317 0c35
000003e0: 0208 3736 0d46 0036 f317 0c35 0208 3736
000003f0: 0b5a 4720 9b3a 931f 0b5a 4720 0b5a 4720

exp_avg_sq f4 [200, 36]
1.358313e-07 3.957743e-08 1.774993e-07 1.358313e-07 3.957743e-08 1.774993e-07 2.627488e-07 6.973051e-08
3.4569175e-07 2.627488e-07 6.973051e-08 3.4569175e-07 2.627488e-07 6.973051e-08 3.4569175e-07 4.2941434e-07
3.7638563e-07 4.881702e-07 4.2941434e-07 3.7638563e-07 4.881702e-07 5.603287e-07 3.1656174e-07 7.108461e-07
5.603287e-07 3.1656174e-07 7.108461e-07 5.603287e-07 3.1656174e-07 7.108461e-07 3.6962497e-08 2.9671572e-09
6.517326e-08 3.6962497e-08 2.9671572e-09 6.517326e-08 3.439448e-09 2.2363755e-10 9.088316e-09 3.439448e-09
2.2363755e-10 9.088316e-09 3.931423e-09 3.1387629e-10 6.716902e-09 3.931423e-09 3.1387629e-10 6.716902e-09
3.931423e-09 3.1387629e-10 6.716902e-09 8.720057e-09 1.7224018e-08 1.2875711e-08 8.720057e-09 1.7224018e-08
1.2875711e-08 1.180497e-08 1.7307267e-08 1.6463453e-08 1.180497e-08 1.7307267e-08 1.6463453e-08 1.180497e-08
1.7307267e-08 1.6463453e-08 8.065101e-09 6.758593e-10 1.21004735e-08 8.065101e-09 6.758593e-10 1.21004735e-08
6.749144e-09 3.6191056e-10 1.8520907e-08 6.749144e-09 3.6191056e-10 1.8520907e-08 1.4964337e-08 7.5070433e-10
4.167009e-08 1.4964337e-08 7.5070433e-10 4.167009e-08 1.4964337e-08 7.5070433e-10 4.167009e-08 1.5188421e-07
1.13439924e-07 1.7356938e-07 1.5188421e-07 1.13439924e-07 1.7356938e-07 1.9309435e-07 8.798996e-08 2.2834368e-07
1.9309435e-07 8.798996e-08 2.2834368e-07 1.9309435e-07 8.798996e-08 2.2834368e-07 3.264737e-09 2.3114315e-10
6.3286434e-09 3.264737e-09 2.3114315e-10 6.3286434e-09 4.5890305e-09 2.8735317e-10 9.612318e-09 4.5890305e-09
2.8735317e-10 9.612318e-09 8.3356575e-09 9.179717e-10 1.5111258e-08 8.3356575e-09 9.179717e-10 1.5111258e-08
8.3356575e-09 9.179717e-10 1.5111258e-08 1.5273559e-09 6.2254514e-11 8.214202e-09 1.5273559e-09 6.2254514e-11
8.214202e-09 2.0485493e-09 7.1592884e-11 1.5817953e-08 2.0485493e-09 7.1592884e-11 1.5817953e-08 2.0485493e-09
7.1592884e-11 1.5817953e-08 1.2947344e-08 8.130691e-10 1.9854818e-08 1.2947344e-08 8.130691e-10 1.9854818e-08
3.8085965e-08 1.497387e-08 4.5491436e-08 3.8085965e-08 1.497387e-08 4.5491436e-08 8.261339e-08 2.6803885e-08
9.56867e-08 8.261339e-08 2.6803885e-08 9.56867e-08 8.261339e-08 2.6803885e-08 9.56867e-08 3.0261815e-09
1.5297236e-10 6.121394e-09 3.0261815e-09 1.5297236e-10 6.121394e-09 1.9975655e-08 8.8406593e-10 4.8569945e-08
1.9975655e-08 8.8406593e-10 4.8569945e-08 1.9975655e-08 8.8406593e-10 4.8569945e-08 2.1874755e-09 1.2397196e-10
5.886719e-09 2.1874755e-09 1.2397196e-10 5.886719e-09 4.4666823e-08 1.3310457e-08 5.9544092e-08 4.4666823e-08
1.3310457e-08 5.9544092e-08 9.035531e-08 2.4130397e-08 1.2252066e-07 9.035531e-08 2.4130397e-08 1.2252066e-07
9.035531e-08 2.4130397e-08 1.2252066e-07 1.519636e-07 1.2534366e-07 1.7180626e-07 1.519636e-07 1.2534366e-07
1.7180626e-07 1.9839112e-07 9.368557e-08 2.441973e-07 1.9839112e-07 9.368557e-08 2.441973e-07 1.9839112e-07
9.368557e-08 2.441973e-07 1.2393232e-09 7.794274e-11 3.6695518e-09 1.2393232e-09 7.794274e-11 3.6695518e-09
2.308924e-09 5.935607e-10 3.714334e-09 2.308924e-09 5.935607e-10 3.714334e-09 3.753201e-09 1.1955774e-09
4.2362736e-09 3.753201e-09 1.1955774e-09 4.2362736e-09 3.753201e-09 1.1955774e-09 4.2362736e-09 4.0410086e-10
2.5977729e-11 1.2921199e-09 4.0410086e-10 2.5977729e-11 1.2921199e-09 9.3748634e-11 4.093739e-12 1.5964529e-09
9.3748634e-11 4.093739e-12 1.5964529e-09 9.3748634e-11 4.093739e-12 1.5964529e-09 2.93167e-09 1.0858469e-10
4.6356377e-09 2.93167e-09 1.0858469e-10 4.6356377e-09 7.812836e-15 9.973525e-16 7.812836e-15 7.812836e-15
00000000: 06d9 1134 d8fb 2933 a396 3e34 06d9 1134
00000010: d8fb 2933 a396 3e34 ec0f 8d34 c1be 9533
00000020: 8397 b934 ec0f 8d34 c1be 9533 8397 b934
00000030: ec0f 8d34 c1be 9533 8397 b934 428a e634
00000040: 0c12 ca34 cd0a 0335 428a e634 0c12 ca34
00000050: cd0a 0335 7f69 1635 eaf3 a934 f9d0 3e35
00000060: 7f69 1635 eaf3 a934 f9d0 3e35 7f69 1635
00000070: eaf3 a934 f9d0 3e35 b2c0 1e33 c8e6 4b31
00000080: 61f5 8b33 b2c0 1e33 c8e6 4b31 61f5 8b33
00000090: 695b 6c31 60e4 752f d622 1c32 695b 6c31
000000a0: 60e4 752f d622 1c32 2a15 8731 298e ac2f
000000b0: 7fca e631 2a15 8731 298e ac2f 7fca e631
000000c0: 2a15 8731 298e ac2f 7fca e631 37cf 1532
000000d0: 04f4 9332 fa33 5d32 37cf 1532 04f4 9332
000000e0: fa33 5d32 cfce 4a32 15ab 9432 846b 8d32
000000f0: cfce 4a32 15ab 9432 846b 8d32 cfce 4a32
00000100: 15ab 9432 846b 8d32 b08e 0a32 5fc7 3930
00000110: 72e2 4f32 b08e 0a32 5fc7 3930 72e2 4f32
00000120: 19e6 e731 62f6 c62f e817 9f32 19e6 e731
00000130: 62f6 c62f e817 9f32 ed8a 8032 1f5a 4e30
00000140: c0f8 3233 ed8a 8032 1f5a 4e30 c0f8 3233
00000150: ed8a 8032 1f5a 4e30 c0f8 3233 9d15 2334
00000160: 429c f333 635e 3a34 9d15 2334 429c f333
00000170: 635e 3a34 5f55 4f34 fef4 bc33 a22e 7534
00000180: 5f55 4f34 fef4 bc33 a22e 7534 5f55 4f34
00000190: fef4 bc33 a22e 7534 dc59 6031 0325 7e2f
000001a0: 5673 d931 dc59 6031 0325 7e2f 5673 d931
000001b0: 8aad 9d31 5df9 9d2f 6c23 2532 8aad 9d31
000001c0: 5df9 9d2f 6c23 2532 9c34 0f32 8454 7c30
000001d0: 02ce 8132 9c34 0f32 8454 7c30 02ce 8132
000001e0: 9c34 0f32 8454 7c30 02ce 8132 0feb d130
000001f0: 2de6 882e 711e 0d32 0feb d130 2de6 882e
00000200: 711e 0d32 76c6 0c31 366f 9d2e 0ce0 8732
00000210: 76c6 0c31 366f 9d2e 0ce0 8732 76c6 0c31
00000220: 366f 9d2e 0ce0 8732 056f 5e32 a77e 5f30
00000230: 358d aa32 056f 5e32 a77e 5f30 358d aa32
00000240: f693 2333 e39f 8032 5d62 4333 f693 2333
00000250: e39f 8032 5d62 4333 3169 b133 5e3e e632
00000260: 527c cd33 3169 b133 5e3e e632 527c cd33
00000270: 3169 b133 5e3e e632 527c cd33 26f5 4f31
00000280: e431 282f 5a54 d231 26f5 4f31 e431 282f
00000290: 5a54 d231 ee96 ab32 9c02 7330 389b 5033
000002a0: ee96 ab32 9c02 7330 389b 5033 ee96 ab32
000002b0: 9c02 7330 389b 5033 7a52 1631 014f 082f
000002c0: 2144 ca31 7a52 1631 014f 082f 2144 ca31
000002d0: b1d7 3f33 02ac 6432 6cbd 7f33 b1d7 3f33
000002e0: 02ac 6432 6cbd 7f33 5b09 c233 4e47 cf32
000002f0: 398e 0334 5b09 c233 4e47 cf32 398e 0334
00000300: 5b09 c233 4e47 cf32 398e 0334 702b 2334
00000310: 3496 0634 bf79 3834 702b 2334 3496 0634
00000320: bf79 3834 5605 5534 3030 c933 391a 8334
00000330: 5605 5534 3030 c933 391a 8334 5605 5534
00000340: 3030 c933 391a 8334 cf54 aa30 dd65 ab2e
00000350: 702b 7c31 cf54 aa30 dd65 ab2e 702b 7c31
00000360: 05ab 1e31 1f28 2330 413f 7f31 05ab 1e31
00000370: 1f28 2330 413f 7f31 81f5 8031 a451 a430
00000380: a88e 9131 81f5 8031 a451 a430 a88e 9131
00000390: 81f5 8031 a451 a430 a88e 9131 2428 de2f
000003a0: a580 e42d 6d96 b130 2428 de2f a580 e42d
000003b0: 6d96 b130 ca27 ce2e 1f09 902c 316a db30
000003c0: ca27 ce2e 1f09 902c 316a db30 ca27 ce2e
000003d0: 1f09 902c 316a db30 7c76 4931 bfc7 ee2e
000003e0: 8047 9f31 7c76 4931 bfc7 ee2e 8047 9f31
000003f0: 59be 0c28 d0bb 8f26 59be 0c28 59be 0c28

exp_avg f4 [200]
0.001905083 0.0021201519 -0.0016988236 0.00059090613 0.0015864611 0.0017179536 3.3116743e-05 7.663667e-17
0.0031566562 0.0029261897 0.00017541274 0.0002779948 7.8947836e-05 0.0006418875 1.3030118e-05 0.0026743559
0.00012416208 -0.0010411093 3.9340264e-11 -0.00039665026 0.0023968823 5.3125603e-13 -0.00017602387 9.803155e-07
-0.00040641878 4.4409408e-08 0.0010967135 0.0019125715 2.4946291e-06 -0.0020912967 -0.00039352814 5.294835e-11
0.00015612162 -0.00013836489 0.002820939 5.4464457e-16 -0.00010871129 -0.00065851497 -0.0010676029 1.163939e-05
0.00045895408 6.161294e-14 -4.046031e-05 3.4751342e-09 -0.0013250562 -0.0012931544 0.0022564954 0.0010009768
0.0014481427 0.002649132 1.9807723e-05 1.040469e-08 5.1294206e-15 -0.0015905015 0.00041569033 -0.0007930819
-1.1767814e-13 8.2205854e-18 0.0039538643 0.001337555 2.9607669e-05 0.002211321 -0.0016061345 -0.00051967916
1.5594671e-10 2.2899642e-12 8.85988e-10 3.3189184e-15 0.0030225646 1.1629556e-12 -0.0023947367 -0.00066857197
3.6037243e-05 0.0021424016 0.0039202278 0.00010676064 -0.0010367562 -0.0018095449 0.0032297305 1.0357773e-07
-0.00021436105 -0.0023351416 5.2596783e-07 0.0017048597 -9.723007e-10 0.001922122 -0.0005035234 6.168456e-07
-0.0004714208 -0.0015274468 0.0011749727 0.0012870173 1.5183218e-08 0.002054144 0.0024329585 -0.00023430436
0.00016467604 -0.00083830365 -0.000711892 0.0004924317 4.8082583e-17 0.00030286092 0.0045288308 -0.0037316934
0.0012273189 3.297442e-14 1.7376144e-15 0.0024153849 1.663525e-14 4.3974522e-13 0.0033384464 2.0477346e-07
-0.0006962238 -0.0006894311 0.0006507914 -0.0011317164 2.2728737e-10 0.0025620959 5.2290735e-13 0.0005904913
0.00024819636 0.0077094105 -0.003087185 0.0014214762 0.00013733983 0.0009414875 7.1588645e-11 3.1342535e-16
0.00030192875 -0.00019463748 0.00024041231 -1.824448e-12 -0.0003389277 3.3568767e-15 0.0008676724 0.0008299895
0.00015256673 7.695927e-14 2.588439e-07 0.0011322022 2.989559e-05 -0.00018370677 0.0017531817 0.0021611105
7.4049394e-10 0.0 9.411106e-05 -0.0009346249 0.00024010838 -0.0012002443 -0.0018583938 3.9571597e-12
0.00031886107 0.00017075478 2.9404594e-08 0.0009576141 0.0009346069 0.001321669 6.172699e-06 0.0028304553
0.0010475657 0.0 0.00048553513 0.0017892398 0.00081646006 0.00050323585 4.1110748e-06 7.961451e-05
-0.0003556181 0.00039000495 9.801659e-12 0.00049047 8.563291e-14 -0.00022056916 5.9391654e-12 1.4341094e-05
0.002935669 4.217889e-10 -5.046181e-05 0.0001981657 3.370242e-08 0.0008200614 0.00042781126 0.0035090535
1.6240323e-17 0.00074429304 -0.0009183768 1.6788728e-13 0.000241246 0.0003619768 2.3012965e-14 0.00041215582
-0.0006625171 0.0001751119 -0.0021348759 6.849975e-17 0.0036677439 0.003568172 -0.00054674165 -6.1247687e-09
00000000: fab3 f93a 3ff2 0a3b 10ab deba 0ae7 1a3a
00000010: cdf0 cf3a f52c e13a d5e6 0a38 4eb6 b024
00000020: e7df 4e3b 51c5 3f3b 00ef 3739 d5bf 9139
00000030: cc90 a538 5744 283a ee9b 5a37 3f44 2f3b
00000040: 8131 0239 d575 88ba 3305 2d2e 7ff5 cfb9
00000050: 0315 1d3b 0889 152b 0c93 38b9 6293 8335
00000060: 9b14 d5b9 a9bc 3e33 99bf 8f3a 40af fa3a
00000070: 6769 2736 230e 09bb 7452 ceb9 8bde 682e
00000080: 94b4 2339 0b16 11b9 81df 383b adfb 1c26
00000090: eefb e3b8 31a0 2cba cfee 8bba cd46 4337
000000a0: c69f f039 71bd 8a29 edb3 29b8 35cf 6e31
000000b0: 82ad adba 107f a9ba b6e1 133b 3533 833a
000000c0: 9bcf bd3a 0f9d 2d3b c328 a637 50c0 3232
000000d0: 8ece b827 6078 d0ba 03f1 d939 d3e6 4fba
000000e0: 6a7e 04aa 9ea4 1723 6b8f 813b e650 af3a
000000f0: fc5d f837 cfeb 103b ee84 d2ba 143b 08ba
00000100: 1977 2b2f 5424 212c dd89 7330 3d27 6f27
00000110: 3816 463b e4ab a32b 04f1 1cbb 1b43 2fba
00000120: b226 1738 8967 0c3b 4175 803b afe4 df38
00000130: c4e3 87ba 402e edba e3a9 533b 766e de33
00000140: 1bc6 60b9 2d09 19bb 3c30 0d35 9975 df3a
00000150: caa1 85b0 b6ef fb3a e2fe 03ba 4f95 2535
00000160: 0729 f7b9 9c34 c8ba 8b01 9a3a 22b1 a83a
00000170: 406c 8232 d19e 063b 4572 1f3b 99af 75b9
00000180: e3ac 2c39 9bc1 5bba 439e 3aba 8816 013a
00000190: e5bd 5d24 4ec9 9e39 9666 943b 6d8f 74bb
000001a0: fddd a03a eb80 1429 a86a fa26 6f4b 1e3b
000001b0: 46d6 9528 f78d f72a d6c9 5a3b b3df 5b34
000001c0: ca82 36ba f0ba 34ba df99 2a3a 1a56 94ba
000001d0: b5e7 792f d6e8 273b 722f 132b 33cb 1a3a
000001e0: 5a20 8239 399f fc3b 5f52 4abb d450 ba3a
000001f0: e102 1039 28ce 763a d36c 9d2e 6bad b425
00000200: 314c 9e39 9a17 4cb9 3017 7c39 5562 00ac
00000210: 1bb2 b1b9 72e3 7127 8274 633a a793 593a
00000220: 52fa 1f39 004c ad29 3cf7 8a34 6766 943a
00000230: 4ac8 fa37 69a1 40b9 04cb e53a 6ba1 0d3b
00000240: a18b 4b30 0000 0000 7e5d c538 9e01 75ba
00000250: 9ac5 7b39 8451 9dba 5995 f3ba ed3a 8b2c
00000260: cf2c a739 a30c 3339 6395 fc32 6508 7b3a
00000270: 6800 753a da3b ad3a 151f cf36 297f 393b
00000280: 794e 893a 0000 0000 6c8f fe39 ed84 ea3a
00000290: b507 563a 96eb 033a ddf1 8936 b7f6 a638
000002a0: 4172 bab9 9479 cc39 bf6e 2c2d e292 003a
000002b0: 03d4 c029 9548 67b9 3ff7 d02c 889a 7037
000002c0: 5a64 403b 83e1 e72f f5a6 53b8 b3ca 4f39
000002d0: 34c0 1033 64f9 563a db4b e039 26f8 653b
000002e0: 61ca 9523 a91c 433a 39bf 70ba 3706 3d2a
000002f0: fbf6 7c39 b4c7 bd39 4948 cf28 9e16 d839
00000300: c5ac 2dba 3e9e 3739 46e9 0bbb 1ef3 9d24
00000310: 885e 703b fed7 693b 3653 0fba 0972 d2b1

exp_avg_sq f4 [200]
2.9556077e-06 8.790361e-07 9.310524e-07 2.0615025e-06 2.3273521e-06 1.4765347e-06 1.1349218e-07 7.403464e-10
3.8850176e-06 4.0572813e-06 6.225935e-07 4.7157056e-07 4.5316213e-07 5.382275e-07 3.746716e-07 1.8358678e-06
8.337672e-07 1.8708114e-06 3.553427e-09 2.1075089e-06 3.0293995e-06 9.2681525e-09 1.2310963e-06 9.308545e-09
7.876161e-07 3.8432294e-08 4.442613e-06 2.357178e-06 1.9241675e-06 4.333365e-06 1.0557322e-06 7.9888295e-08
1.8687919e-06 1.539638e-06 2.485799e-06 1.0885451e-08 3.8759867e-07 8.457782e-07 2.050592e-06 1.0372482e-06
2.760879e-07 4.5362078e-10 4.973902e-07 6.705865e-08 2.2349197e-06 2.4449512e-06 1.0639001e-06 1.0924691e-06
3.064228e-07 1.7116205e-06 3.5010808e-07 1.7908079e-07 2.5965894e-11 2.3241391e-06 1.3889071e-06 1.1509115e-06
7.151888e-08 2.1941511e-11 2.8511206e-06 3.0833953e-06 3.1171368e-07 1.4354994e-06 2.9273524e-06 1.1937954e-06
6.6449655e-09 4.2536903e-09 3.355512e-08 2.4577945e-08 2.350398e-06 5.304836e-09 2.5693541e-06 1.3558393e-06
7.336505e-08 3.7390791e-06 5.5055016e-06 4.0942913e-07 1.2006428e-06 3.8167045e-06 3.0593596e-06 5.104793e-09
3.2608236e-06 2.5866382e-06 1.1161134e-07 2.3037207e-06 2.2553837e-07 9.126556e-06 2.2396814e-06 1.787454e-07
9.043626e-07 6.2018194e-07 1.6418392e-06 2.1602687e-06 1.0712626e-07 1.60262e-06 3.243357e-06 1.1098034e-06
5.6969435e-07 2.2019008e-06 1.7288917e-07 1.7327604e-06 3.969812e-10 5.2217047e-07 3.142326e-06 3.374392e-06
8.621228e-07 1.162238e-08 7.2435946e-10 3.5045243e-06 1.6998802e-08 2.38774e-08 2.307151e-06 1.0903506e-07
3.2948378e-06 1.6660476e-06 6.9568046e-07 5.029681e-07 2.6752232e-08 2.0713262e-06 3.885646e-08 1.2140976e-06
7.955897e-07 1.0329988e-05 7.4616736e-07 1.3311948e-06 2.0206126e-06 6.966656e-07 3.1286582e-08 2.0867155e-09
9.149719e-07 1.959607e-06 1.2588531e-06 1.6877424e-08 1.2035547e-06 1.703658e-07 1.154896e-06 6.5909416e-07
6.17998e-07 1.341012e-08 1.9383162e-07 4.5256616e-07 1.745163e-07 1.3681341e-06 2.156976e-06 7.330426e-07
9.469833e-08 0.0 5.9356347e-07 1.5555856e-06 6.3844476e-07 3.1853408e-06 2.7683172e-06 8.603164e-09
1.8340709e-06 3.8427729e-07 2.118985e-07 2.5892157e-06 2.2969573e-06 2.611065e-06 7.059934e-07 1.6987187e-06
1.7180388e-07 0.0 8.614924e-07 4.5946496e-07 2.0130713e-06 4.4481789e-07 1.1203767e-07 7.978623e-07
4.8654994e-07 1.5781546e-06 3.099002e-08 6.554348e-07 5.5013476e-08 6.023287e-07 2.544757e-08 4.4915055e-07
2.8417703e-06 5.6901325e-08 1.4258652e-07 7.9959875e-07 6.220152e-08 3.6271827e-06 9.641973e-07 6.2209697e-06
1.889184e-10 1.8718597e-06 3.3251029e-06 1.1978685e-08 7.737123e-07 2.7562785e-06 1.1181288e-07 2.8044344e-06
1.5478195e-06 3.1851505e-07 4.9197815e-06 8.8544075e-11 4.9853456e-06 5.7742704e-06 1.960804e-06 4.0289443e-08
00000000: f458 4636 e7f6 6b35 6fed 7935 5858 0a36
00000010: 9b2f 1c36 592d c635 fcb8 f333 3f81 4b30
00000020: 0c5c 8236 c823 8836 4d20 2735 2a2c fd34
00000030: 214a f334 b67a 1035 7926 c934 f067 f635
00000040: 0cd0 5f35 9718 fb35 8d30 7431 ba6e 0d36
00000050: b04c 4b36 c439 1f32 263c a535 6aeb 1f32
00000060: 916c 5335 c110 2533 c111 9536 0230 1e36
00000070: f220 0136 5267 9136 afb2 8d35 0e8f ab33
00000080: 33d3 fa35 8fa5 ce35 b4d1 2636 b802 3b32
00000090: 2817 d034 6f09 6335 e79c 0936 9437 8b35
000000a0: 3b39 9434 7361 f92f 6584 0535 e201 9033
000000b0: a1fb 1536 f113 2436 54cb 8e35 f4a0 9235
000000c0: 6e82 a434 d5ba e535 7df6 bb34 5a49 4034
000000d0: ff65 e42d 68f8 1b36 7c6a ba35 0579 9a35
000000e0: ec95 9933 e4ff c02d e155 3f36 54ec 4e36
000000f0: 9a59 a734 62ab c035 8873 4436 7f3a a035
00000100: bc51 e431 db27 9231 3f1e 1033 791f d332
00000110: 88bb 1d36 d545 b631 2b6d 2c36 49fa b535
00000120: dd8c 9d33 e4ec 7a36 e6bb b836 83cf db34
00000130: c625 a135 3e11 8036 664f 4d36 3c66 af31
00000140: 86d4 5a36 1b96 2d36 fcae ef33 9f99 1a36
00000150: 842b 7234 421e 1937 6f4d 1636 29ed 3f34
00000160: 53c3 7235 947a 2635 2a5d dc35 22f9 1036
00000170: 490d e633 9b19 d735 73a8 5936 8ef4 9435
00000180: 19ed 1835 5ec4 1336 6aa3 3934 3291 e835
00000190: 233e da2f 482b 0c35 c0e0 5236 9d73 6236
000001a0: a16c 6735 c5ab 4732 441c 4730 452f 6b36
000001b0: c304 9232 f51a cd32 8dd4 1a36 a826 ea33
000001c0: e21c 5d36 f69c df35 ccbe 3a35 b403 0735
000001d0: c8cc e532 1d01 0b36 21e3 2633 13f4 a235
000001e0: 8290 5535 f64e 2d37 3b4c 4835 81ab b235
000001f0: dc99 0736 7f02 3b35 f65f 0633 e365 0f31
00000200: 649c 7535 cb81 0336 ddf5 a835 d9f9 9032
00000210: d389 a135 cbed 3634 ed01 9b35 9bec 3035
00000220: 80e4 2535 5562 6632 0820 5034 38f8 f234
00000230: ad62 3b34 bba0 b735 91c0 1036 4ec6 4435
00000240: f55c cb33 0000 0000 5f55 1f35 84c9 d035
00000250: 9761 2b35 bdc3 5536 54c7 3936 1ecd 1332
00000260: 322a f635 ab4e ce34 3786 6334 63c2 2d36
00000270: 6d25 1a36 c139 2f36 7f83 3d35 88ff e335
00000280: 1779 3834 0000 0000 4f41 6735 62ac f634
00000290: 4d18 0736 4ecf ee34 5c99 f033 ae2c 5635
000002a0: 759b 0235 fbd0 d335 e319 0533 23f1 2f35
000002b0: f547 6c33 b7af 2135 cc97 da32 c822 f134
000002c0: 3eb5 3e36 ab63 7433 e219 1934 02a4 5635
000002d0: a693 8533 866a 7336 9169 8135 b9bd d036
000002e0: cdb7 4f2f 9c3c fb35 d524 5f36 d0ca 4d32
000002f0: 1bb1 4f35 81f8 3836 c81d f033 d133 3c36
00000300: acbe cf35 6000 ab34 9a14 a536 e2b5 c22e
00000310: cb47 a736 9bc0 c136 5b96 0336 b60a 2d33

exp_avg f4 [200, 200]
1.03536794e-13 1.8378895e-15 7.0675555e-14 5.499912e-14 1.9892584e-14 5.2588288e-14 -3.5014296e-16 0.0
8.580589e-15 2.52768e-13 7.0150205e-14 1.10861985e-14 2.4739984e-14 5.9573974e-15 9.5285845e-15 2.1812532e-13
1.6835984e-14 8.427446e-14 9.010686e-20 1.35212e-13 2.8289669e-14 7.678574e-20 1.242426e-13 1.225246e-23
2.8592092e-14 9.013524e-21 9.456836e-14 1.1535517e-13 3.9411145e-14 8.100368e-14 5.4138914e-14 2.842974e-17
6.297059e-14 1.914554e-13 6.752138e-14 3.4525412e-21 2.4283774e-14 1.472069e-14 5.3634777e-14 4.000923e-14
3.7964467e-14 2.7522565e-21 2.1560075e-14 1.2251305e-19 1.421025e-13 4.7878402e-14 1.23127835e-14 2.4379312e-14
3.7637986e-21 1.6760114e-13 1.2317421e-14 -3.4529669e-16 0.0 2.0469427e-14 1.01234405e-14 1.1191789e-13
3.2597227e-22 5.6861017e-21 4.0870976e-14 4.4336022e-14 -9.520587e-18 1.6813201e-13 9.524169e-14 1.1401023e-14
2.3915267e-20 -2.7653603e-15 3.770984e-17 2.6377064e-20 9.572722e-14 -6.268436e-17 9.2931454e-14 3.7230608e-14
2.1700102e-14 1.2312853e-13 5.8843745e-14 1.6231308e-14 -1.2954019e-15 5.4140493e-14 1.404052e-13 8.086588e-21
3.1167272e-14 1.0035276e-13 2.1055642e-15 2.1372918e-14 4.515135e-15 1.551244e-14 2.7841743e-14 2.7867166e-20
8.708457e-14 1.0117677e-13 6.261249e-14 7.386221e-14 3.5724385e-15 1.1409045e-13 9.245468e-14 -2.8610782e-15
7.018261e-17 2.7177273e-13 2.05525e-15 5.0517956e-14 0.0 2.9106722e-14 6.877693e-14 -4.0152885e-16
1.2736537e-14 0.0 3.584543e-21 9.2131476e-14 3.4292935e-22 2.1152419e-20 1.3982198e-13 4.3454315e-20
5.3712026e-14 1.5922081e-13 8.226821e-14 3.589075e-14 1.702622e-17 1.395779e-13 1.3388059e-19 1.3860586e-14
2.4644354e-14 1.7747297e-13 4.278142e-22 9.72301e-14 1.3571438e-13 3.077555e-14 6.5489233e-20 1.3378011e-20
3.0076022e-14 1.9603114e-14 1.4566128e-15 4.6803054e-21 2.1774656e-14 3.640572e-20 9.974626e-15 9.096656e-14
8.2868595e-16 7.5158264e-20 8.614773e-15 9.28202e-16 9.36995e-15 7.435395e-14 8.996763e-14 2.4846106e-14
4.392833e-15 0.0 -6.5198692e-15 9.912112e-14 -1.8577189e-20 3.218205e-14 4.6420438e-14 1.8864836e-20
1.1258508e-13 2.7463605e-14 -7.3991266e-17 1.588588e-13 1.3693101e-13 9.967025e-14 9.48152e-14 7.4420166e-14
3.5969716e-20 0.0 3.0671924e-14 4.7988154e-14 3.253912e-13 2.7801129e-14 1.645833e-15 3.5142145e-16
8.908974e-15 7.920715e-14 4.563127e-20 1.20002e-14 2.3003285e-20 2.1746149e-13 8.693701e-22 1.5385476e-14
6.4621675e-14 -2.0602967e-20 1.4384542e-14 7.195654e-15 -8.671802e-16 1.3060477e-13 2.2731326e-15 2.0392433e-13
2.9566653e-20 1.0486663e-13 8.1839334e-14 9.398328e-21 5.8370336e-15 6.0919165e-14 1.9894379e-20 3.908213e-14
1.8715434e-14 9.48237e-14 9.273908e-14 0.0 1.3342651e-13 9.081186e-14 1.1460092e-13 3.4075606e-15
-1.6709531e-05 3.0014805e-06 2.7880433e-05 8.675935e-06 -1.6829223e-05 -1.6650984e-05 -3.63819e-11 4.1652912e-20
6.711594e-06 3.763844e-05 1.8793036e-05 -1.16385145e-05 2.209886e-06 1.6725263e-06 -2.2155574e-11 9.2398495e-06
1.1405979e-05 4.1032734e-05 2.111208e-13 2.709455e-05 -4.0353716e-06 -3.1433297e-15 3.0980296e-05 4.4266243e-11
3.5706005e-06 2.330387e-17 -1.4323032e-06 1.8613127e-05 1.7402599e-06 1.9273159e-05 1.2507444e-05 -1.5633453e-16
3.489595e-05 -7.780435e-06 3.8349735e-06 4.325954e-20 2.3740922e-06 3.6649453e-06 1.0320788e-05 -1.0594928e-06
1.0468533e-05 3.2707406e-19 3.6191736e-07 -1.4230553e-10 -1.2018602e-05 2.430727e-05 -5.752941e-07 -4.479613e-07
5.156367e-06 1.4298503e-05 9.2860315e-09 8.2611105e-11 0.0 3.531791e-05 -1.6516522e-06 5.5184926e-05
00000000: e624 e929 146f 0427 af25 9f29 abb1 7729
00000010: 2d2d b328 2bd6 6c29 fbd7 c9a5 0000 0000
00000020: fb92 1a28 b54b 8e2a d7f6 9d29 11b6 4728
00000030: 85d6 de28 4ba3 d627 d7a6 2b28 5896 752a
00000040: 23a5 9728 ebc4 bd29 41c2 d41f 353c 182a
00000050: 89cf fe28 224e b51f 7ee2 0b2a 3eff 6c19
00000060: 70c4 0029 ba42 2a1e f3f2 d429 dde0 012a
00000070: f57d 3129 7167 b629 ebd1 7329 ea1b 0324
00000080: 13cc 8d29 438f 572a 6d0b 9829 ee6e 821d
00000090: 92ba da28 9a97 8428 b08c 7129 802f 3429
000000a0: 0dfa 2a29 62f4 4f1d 2632 c228 4ca3 1020
000000b0: 42fe 1f2a 0aa0 5729 b1ce 5d28 de96 db28
000000c0: 3a31 8e1d bdb3 3c2a 14e4 5d28 cc0c c7a5
000000d0: 0000 0000 495f b828 215e 3628 4504 fc29
000000e0: c409 c51b 9ad0 d61d 0711 3829 f4ab 4729
000000f0: b39f 2fa3 c14c 3d2a 1977 d629 f061 4d28
00000100: 91df e11e e543 47a7 ece7 2d24 d41f f91e
00000110: fc8e d729 518a 90a4 5643 d129 f8ab 2729
00000120: 0775 c328 62a1 0a2a 1c81 8429 d932 9228
00000130: e5af baa6 bdd3 7329 0b15 1e2a 57c0 181e
00000140: 6b5d 0c29 6df9 e129 ceb8 1727 9882 c028
00000150: c5ac a227 40b9 8b28 b0c6 fa28 5699 031f
00000160: d618 c429 70d4 e329 a5fd 8c29 aa52 a629
00000170: eeb5 8027 5574 002a 7f30 d029 9429 4ea7
00000180: 80d4 a124 94fe 982a ac18 1427 3d83 6329
00000190: 0000 0000 c415 0329 33df 9a29 3377 e7a5
000001a0: e970 6528 0000 0000 936b 871d 2e76 cf29
000001b0: bf49 cf1b 69c7 c71e f16c 1d2a 0b35 4d1f
000001c0: c0e5 7129 4644 332a 6540 b929 38a3 2129
000001d0: 060a 9d23 9726 1d2a ed0e 1e20 acb0 7928
000001e0: 03fa dd28 1ad1 472a 854c 011c 56f1 da29
000001f0: 02cd 182a cb99 0a29 d0a1 9a1f 17b4 7c1e
00000200: 4b73 0729 b491 b028 87eb d126 23d1 b01d
00000210: f020 c428 d1eb 2b1f d8af 3328 a7d6 cc29
00000220: 3bda 6e26 6276 b11f a130 1b28 9cc4 8526
00000230: 44cb 2828 226e a729 cf96 ca29 38cb df28
00000240: bc44 9e27 0000 0000 2ee7 eaa7 6f33 df29
00000250: e374 af9e 61ef 1029 1f0f 5129 602c b21e
00000260: e184 fd29 c35e f728 bc9c aaa4 efdb 322a
00000270: ad2b 1a2a fd6f e029 3e81 d529 4e94 a729
00000280: b8dc 291f 0000 0000 5222 0a29 931e 5829
00000290: d02d b72a 0a69 fa28 8530 ed26 a794 ca25
000002a0: 647d 2028 d05b b229 d27c 571f 282d 5828
000002b0: 8842 d91e 02d7 742a 2060 831c 7e94 8a28
000002c0: dc83 9129 eb96 c29e 7f90 8128 19a0 0128
000002d0: 9bf2 79a6 430c 132a e5cb 2327 3099 652a
000002e0: e49f 0b1f 7f23 ec29 2a49 b829 8787 311e
000002f0: 224d d227 822d 8929 a8e5 bb1e a102 3029
00000300: da92 a828 2486 d529 71d4 d029 0000 0000
00000310: 9339 162a 797d cc29 7707 012a 668a 7527
00000320: 722b 8cb7 0b6d 4936 c6e0 e937 db8e 1137
00000330: 7b2c 8db7 b7ad 8bb7 6102 20ae 48b3 441f
00000340: 2734 e136 f8dd 1d38 bda5 9d37 0a43 43b7
00000350: 8d4d 1436 917b e035 ebe1 c2ad da04 1b37
00000360: 4f5c 3f37 901a 2c38 6db3 6d2a 1a49 e337
00000370: 9467 87b6 3380 62a7 d7f0 0138 5caf 422e
00000380: 739e 6f36 b5f0 d623 903d c0b5 6323 9c37
00000390: e092 e935 cbac a137 10d7 5137 cf3d 34a5
000003a0: 3e5d 1238 b788 02b7 2cae 8036 9349 4c1f
000003b0: 9852 1f36 48f3 7536 7227 2d37 e533 8eb5
000003c0: 02a2 2f37 0912 c120 8b4d c234 7277 1caf
000003d0: 81a3 49b7 77e7 cb37 e96d 1ab5 557f f0b4
000003e0: db04 ad36 9ae3 6f37 6688 1f32 eba9 b52e
000003f0: 0000 0000 5122 1438 56ae ddb5 5d76 6738

exp_avg_sq f4 [200, 200]
4.0375307e-12 2.5555258e-14 4.360908e-12 9.967262e-13 1.3250399e-13 6.858739e-12 1.2961858e-15 0.0
1.7559526e-13 3.857291e-11 4.3827103e-12 1.6164728e-12 7.064748e-13 1.5170004e-14 4.6450934e-13 1.554558e-11
3.136541e-12 1.9508312e-11 5.421085e-15 2.2403093e-11 2.7473146e-13 3.671948e-15 1.9355297e-11 1.1000635e-22
1.2231175e-12 2.8274357e-17 9.051871e-12 2.7654927e-12 1.018468e-11 1.436944e-11 3.6345844e-12 3.3372596e-15
2.8029159e-12 2.9368216e-11 2.7498982e-12 6.964396e-18 3.5843334e-13 2.9047468e-13 1.4597183e-12 1.2279392e-11
2.2922788e-12 6.8458696e-18 8.775804e-13 8.518098e-15 9.2952555e-12 1.06493e-11 3.2850353e-14 1.6716062e-12
5.032907e-18 2.0577534e-11 9.92336e-13 1.9165586e-15 0.0 9.840768e-13 4.4288283e-14 1.8127786e-11
7.7863254e-20 1.33471e-17 1.4469036e-12 5.195844e-12 3.034857e-15 6.9985957e-12 1.6343966e-11 2.106247e-13
4.1910314e-16 3.233468e-13 2.865563e-14 2.660807e-16 3.398461e-12 7.3514487e-16 8.7381396e-12 3.7994464e-12
4.415021e-12 3.7584484e-12 3.0171022e-12 1.7276156e-13 8.903475e-15 3.678914e-12 6.8691272e-12 2.1512873e-17
6.386271e-12 3.0234797e-12 9.425548e-14 3.8614126e-13 1.1551799e-13 1.4444138e-12 1.4555858e-12 5.690568e-16
3.779428e-12 7.0279746e-12 1.5631037e-12 3.022379e-12 1.05752985e-13 1.3509467e-11 1.0933326e-11 9.426704e-14
3.250934e-15 1.1438746e-10 2.0183884e-14 8.074023e-12 0.0 4.3350146e-13 1.3327782e-12 1.7863533e-15
4.828762e-13 0.0 4.5909856e-18 1.1021749e-11 8.6174713e-20 3.2786157e-16 4.679756e-12 5.238376e-16
1.1891357e-11 1.317752e-11 3.3056036e-12 6.910154e-12 1.5210325e-14 5.2999003e-12 4.545017e-15 9.062217e-13
1.3275074e-12 8.9206064e-12 1.3411609e-19 2.8257982e-12 5.582946e-12 2.5036644e-12 1.2512808e-15 8.933616e-17
7.456462e-13 2.7963224e-12 2.7508227e-14 7.503936e-18 2.1336283e-12 6.198066e-16 5.233483e-13 2.2928805e-12
2.0218975e-14 1.3835984e-15 6.452401e-13 1.7225736e-14 2.0172159e-13 2.799931e-11 2.5619003e-12 2.2765813e-12
1.00734125e-13 0.0 5.74145e-13 1.1134383e-11 8.4360425e-17 5.0486035e-12 7.2528433e-12 1.5559565e-16
1.05883245e-11 1.2475565e-13 6.189109e-13 1.013441e-11 5.722903e-12 9.6028515e-12 2.4220797e-12 2.8770218e-12
6.1677795e-16 0.0 2.9743515e-13 5.261244e-13 6.6536e-11 6.927116e-12 1.2911445e-13 4.0811104e-14
2.6286444e-13 4.7851623e-12 1.120248e-15 1.0227331e-12 1.2908103e-16 3.057044e-11 7.3429997e-19 5.0310324e-12
1.32759055e-11 1.1359293e-16 2.6371358e-13 1.4119244e-13 1.8267983e-14 4.7014697e-12 9.469024e-13 1.0905035e-11
2.628273e-16 4.4977646e-12 6.1209384e-12 6.472494e-17 1.5824356e-12 1.5735385e-12 2.9002228e-16 8.689561e-12
6.6812327e-13 2.5829376e-12 2.8023775e-12 0.0 4.3792153e-12 5.089604e-12 9.903927e-12 1.5008136e-13
2.336581e-08 3.2021424e-10 1.751722e-08 5.4004787e-11 9.292922e-11 6.4872694e-08 1.4809013e-11 1.4084992e-15
1.2053189e-08 1.4723022e-07 2.534083e-08 1.4729902e-08 1.2125725e-09 4.349242e-11 7.909747e-11 3.623897e-08
2.6570532e-08 1.4504587e-07 2.1008698e-13 9.266236e-08 7.7938704e-11 1.487814e-10 5.463311e-08 4.511463e-14
1.8731555e-08 2.0886995e-13 4.2086857e-08 2.954245e-10 6.519863e-08 1.1092114e-07 5.8701513e-08 2.0517464e-14
1.5756047e-08 1.8348567e-07 2.9449745e-10 1.691276e-15 3.6394763e-09 1.626787e-08 2.9827236e-09 4.8003738e-08
4.816594e-10 4.6627785e-14 1.901995e-09 6.6766134e-11 3.3425867e-08 4.5764118e-08 9.691613e-11 1.1195691e-10
7.168851e-11 4.1383835e-08 1.1529116e-08 1.4367396e-12 0.0 7.675011e-09 6.334385e-11 7.166311e-08
00000000: d80e 8e2c 6a2e e628 916f 992c d946 8c2b
00000010: ad2f 152a 0752 f12c d1cc ba26 0000 0000
00000020: e3b3 452a 3ca5 292e f233 9a2c 927f e32b
00000030: e0da 462b a6a3 8828 6dbf 022b 89bd 882d
00000040: e6b6 5c2c d098 ab2d af50 c327 480f c52d
00000050: faa8 9a2a be4b 8427 4140 aa2d 51fd 041b
00000060: 7423 ac2b 7864 0224 013e 1f2d b09a 422c
00000070: b92b 332d 34ca 7c2d dac2 7f2c 9379 7027
00000080: d83c 452c ac29 012e c381 412c 6e78 0023
00000090: b0c7 c92a d085 a32a e56f cd2b 7705 582d
000000a0: 064e 212c 6991 fc22 5504 772b cb72 1928
000000b0: 1c86 232d 2f58 3b2d e1f1 1329 f641 eb2b
000000c0: 76ae b922 7d00 b52d aca8 8b2b 441a 0a27
000000d0: 0000 0000 1a7f 8a2b ea74 4729 2574 9f2d
000000e0: 73d9 b71f e635 7623 32a2 cb2b 01d0 b62c
000000f0: 3baf 5a27 bf3d f62c 57c3 8f2d 7024 6d2a
00000100: b598 f125 2f07 b62a b10d 0129 9562 9925
00000110: 3b25 6f2c 1ee4 5326 15b9 192d 5fae 852c
00000120: f956 9b2c 183d 842c 484f 542c 2183 422a
00000130: 0864 2028 b670 812c 99af f12c d66b c623
00000140: 6ab2 e02c 2bc2 542c 963e d429 d260 d92a
00000150: cb0f 022a 7e48 cb2b 01db cc2b fb04 2426
00000160: 10fa 842c 5e46 f72c bffc db2b 57ae 542c
00000170: 7222 ee29 3ba9 6d2d 5357 402d 4045 d429
00000180: 2641 6a27 6a8a fb2e decc b528 2b0a 0e2d
00000190: 0000 0000 250a f42a 6592 bb2b 67b8 0027
000001a0: e6ea 072b 0000 0000 a260 a922 8be5 412d
000001b0: 6b79 cb1f d4ff bc25 7fa7 a42c 64fc 1626
000001c0: e931 512d 46d2 672d 769c 682c 2221 f32c
000001d0: 9f00 8928 4279 ba2c 62c0 a327 2814 7f2b
000001e0: 7fd4 ba2b d7ee 1c2d 1a56 1e20 0ed9 462c
000001f0: b56e c42c 022e 302c 1d54 b426 c3fe cd24
00000200: 79e1 512b 11c6 442c a7c5 f728 566c 0a23
00000210: 0824 162c a8a5 3226 384f 132b dd58 212c
00000220: c81d b628 c565 c726 739e 352b d827 9b28
00000230: 4a1e 632a d748 f62d 1847 342c 3e33 202c
00000240: 45d5 e229 0000 0000 829b 212b cee0 432d
00000250: 9b85 c224 c7a1 b12c ce2f ff2c bb63 3325
00000260: 9345 3a2d 5e76 0c2a 3b35 2e2b 5349 322d
00000270: 545b c92c 66ef 282d 4f70 2a2c d173 4a2c
00000280: 2ec6 3126 0000 0000 ec70 a72a 4217 142b
00000290: 7050 922e eab9 f32c b55e 112a 00cc 3729
000002a0: c2fa 932a e95c a82c db71 a126 d8ef 8f2b
000002b0: ffd1 1425 4173 062e 23ba 5821 8303 b12c
000002c0: 5d8d 692d b7f6 0225 2275 942a f3f7 1e2a
000002d0: 1a8b a428 136b a52c c143 852b e9d7 3f2d
000002e0: 7782 9725 4340 9e2c 835c d72c dc3e 9524
000002f0: 40b5 de2b b374 dd2b bc2f a725 4ede 182d
00000300: 5b0f 3c2b 11c2 352c 2533 452c 0000 0000
00000310: 7714 9a2c 1413 b32c 523b 2e2d 02fa 282a
00000320: f6b5 c832 260a b02f c678 9632 fc83 6d2e
00000330: 805a cc2e 2450 8b33 ef42 822d 73fc ca26
00000340: 7c12 4f32 5616 1e34 13ad d932 cb0e 7d32
00000350: 9aa7 a630 1d48 3f2e ebef ad2e 2ba5 1b33
00000360: 383d e432 e8bd 1b34 7389 6c2a acfd c633
00000370: 9763 ab2e 3e96 232f bda5 6a33 a12d 4b29
00000380: 20e7 a032 aa2a 6b2a fdc2 3433 4d69 a22f
00000390: 5303 8c33 8b33 ee33 ff1e 7c33 0dce b828
000003a0: ea57 8732 2804 4534 d5e6 a12f 12bd f326
000003b0: 581a 7a31 6dbd 8b32 a1f8 4c31 ab2c 4e33
000003c0: c465 0430 2dfe 5129 40b4 0231 fed1 922e
000003d0: 2190 0f33 2e8e 4433 ee1e d52e 2332 f62e
000003e0: 0ba5 9d2e 02be 3133 9711 4632 0034 ca2b
000003f0: 0000 0000 0edb 0332 6b4b 8b2e 36e5 9933

exp_avg f4 [200]
2.190955e-12 0.0006861191 0.003993689 7.913591e-17 0.0003908847 -0.0007220235 0.00020391372 -0.00028390056
0.0026371405 0.00068393425 -6.3462765e-05 0.0013255068 2.5650084e-14 0.00041547112 -0.0023358683 0.0017537457
2.9771955e-12 -0.0009107443 0.00032629765 2.1174293e-07 -6.866238e-05 0.00022292288 0.0036773977 3.1163613e-12
-9.113604e-05 0.0015591771 -0.00022746895 -0.0030800945 0.0003089368 1.3464807e-15 4.4169883e-17 4.1769713e-12
0.0013205464 0.0028779826 -4.001435e-08 0.0008212704 0.00066871213 0.00010878124 2.3470158e-13 0.0008285823
-0.00017453368 8.063154e-15 -6.861418e-05 5.4422706e-08 0.003376779 0.0017473811 0.0012356073 3.1532999e-12
-0.00094792777 0.00037203653 0.0001926163 2.2270588e-15 0.0052306135 -0.00029039016 -0.00013834893 1.9696746e-09
4.084923e-16 0.0030489315 1.7759953e-16 0.00024858493 0.0051012556 0.0 0.0013678496 0.00041413872
0.0015342754 0.00014938158 0.0009542701 0.0015452132 2.9134483e-07 7.418259e-08 0.00012480866 1.0694399e-08
1.7236399e-06 4.0967186e-13 3.9684227e-07 0.00094721164 0.0026748641 3.6396912e-08 7.560559e-15 5.110034e-17
0.0010952386 3.2203626e-08 -0.00046852432 -4.7772225e-14 9.691133e-17 -0.00035826382 5.0584852e-11 1.006786e-10
7.617876e-11 0.0019971959 -4.5578195e-06 3.3518004e-15 3.7570993e-16 0.003928137 6.622076e-08 5.640255e-15
0.00017118774 0.00027122095 3.0335384e-06 -0.00031998157 5.5473405e-17 -0.0005838997 5.973254e-07 0.003120226
-0.0016486162 5.7105785e-06 -0.0011986359 -0.00059497566 1.2317254e-06 3.4759655e-15 -0.0014575145 0.00011429351
-0.000615503 8.087313e-08 4.4041393e-15 -0.0007474076 -0.0002904696 -0.00034844785 1.0388116e-10 0.003277642
0.00013318726 -0.0010673567 5.917324e-16 0.0023533725 0.0004003214 9.019844e-05 -0.001577377 -0.003328313
-0.001077051 2.9866473e-14 5.6336784e-09 0.0011543734 0.0002681416 2.6595223e-14 2.2353147e-07 0.00016703895
0.0018217643 0.003370407 5.668477e-05 1.4723016e-16 -0.0020346001 0.001946063 0.0037138634 0.00252776
0.0015121922 3.7377068e-16 3.3346648e-17 0.0009914796 3.792903e-05 0.006088548 0.0005696902 0.005663365
-0.0020988653 3.4281842e-15 1.6380192e-14 3.9377948e-15 -4.715332e-05 -0.0018063961 2.4676891e-16 0.004160476
-0.00022717941 2.7588213e-08 0.00124182 1.7209479e-05 3.4141001e-15 3.4462613e-11 3.6806694e-05 -4.7637983e-05
1.0648441e-09 0.0013483675 0.0004258297 0.002027967 -0.0020756545 5.9470185e-05 4.2690717e-06 0.00057291094
4.569215e-17 2.9157317e-14 0.0045644087 -0.0024536217 0.00037809642 0.00028677643 2.3630438e-09 -0.00014993145
0.0003141586 -0.0019526447 -3.7748778e-05 0.0015053983 0.000102888895 -0.0063949744 5.5644644e-14 6.568169e-05
0.0039146827 -0.0011057494 1.1270219e-13 -0.0013601525 9.546126e-05 5.2006173e-14 -0.0005653065 4.408259e-07
00000000: bd2c 1a2c acdc 333a 7edd 823b 9979 b624
00000010: a8ef cc39 2d46 3dba acd1 5539 7dd8 94b9
00000020: e0d3 2c3b 0d4a 333a 5017 85b8 a1bc ad3a
00000030: 1109 e728 97d3 d939 5e15 19bb f1dd e53a
00000040: 6380 512c 04bf 6eba ee12 ab39 745b 6334
00000050: d6fe 8fb8 68c0 6939 7f00 713b 604b 5b2c
00000060: 4a20 bfb8 4d5d cc3a bb84 6eb9 69db 49bb
00000070: ccf8 a139 5f0c c226 98b2 4b24 d0f6 922c
00000080: 2f16 ad3a 899c 3c3b 3edc 2bb3 864a 573a
00000090: 834c 2f3a 7c21 e438 1020 842a 3835 593a
000000a0: 0703 37b9 bc40 1128 f5e4 8fb8 66be 6933
000000b0: f34c 5d3b 6108 e53a 1af4 a13a cde4 5d2c
000000c0: 5b7e 78ba e60d c339 0bf9 4939 fc79 2027
000000d0: 9165 ab3b 823f 98b9 c211 11b9 e25a 0731
000000e0: d37a eb25 95d0 473b 21c2 4c25 8154 8239
000000f0: 6f28 a73b 0000 0000 6b49 b33a c220 d939
00000100: bd19 c93a 50a3 1c39 fb27 7a3a c088 ca3a
00000110: 216a 9c34 4f4e 9f33 12df 0239 77ba 3732
00000120: d157 e735 f09f e62a 960d d534 4c4e 783a
00000130: c64c 2f3b d452 1c33 ed32 0828 a2a8 6b24
00000140: 1c8e 8f3a 4350 0a33 45a4 f5b9 a025 57a9
00000150: 5a76 df24 5bd5 bbb9 7b79 5e2e 0365 dd2e
00000160: d484 a72e 63e3 023b 5fef 98b6 ce85 7127
00000170: 0095 d825 9ab7 803b 3f35 8e33 2c36 cb27
00000180: dc80 3339 a932 8e39 cb93 4b36 33c3 a7b9
00000190: 70d3 7f24 d810 19ba e457 2035 b57c 4c3b
000001a0: 6116 d8ba 7f9d bf36 8c1b 9dba 24f8 1bba
000001b0: c351 a535 3f78 7a27 120a bfba dcb0 ef38
000001c0: b559 21ba 79ac ad33 04ad 9e27 aded 43ba
000001d0: 2b4a 98b9 e1af b6b9 e56f e42e b5cd 563b
000001e0: 2fa8 0b39 8ce6 8bba 258e 2a26 0a3b 1a3b
000001f0: 3be2 d139 eb28 bd38 fdbf ceba d31f 5abb
00000200: d62b 8dba b381 0629 5c92 c131 584e 973a
00000210: 5b95 8c39 698c ef28 dd03 7034 2d27 2f39
00000220: 44c8 ee3a 0ce2 5c3b cfc0 6d38 acbe 2925
00000230: ed56 05bb 0a13 ff3a 4a64 733b c7a8 253b
00000240: c034 c63a d176 d725 c6c8 1924 89f4 813a
00000250: fc15 1f38 7182 c73b 4357 153a c093 b93b
00000260: 1e8d 09bb d606 7727 278a 9328 bfdf 8d27
00000270: 7ec6 45b8 98c4 ecba aa40 8e25 9a54 883b
00000280: 0237 6eb9 1ffb ec32 91c4 a23a 135d 9037
00000290: 0803 7627 7491 172e e360 1a38 e5ce 47b8
000002a0: df59 9230 b5bb b03a e541 df39 a4e7 043b
000002b0: b407 08bb a06f 7938 0c3f 8f36 672f 163a
000002c0: c5b7 5224 1950 0329 0991 953b f1cc 20bb
000002d0: 3e3b c639 7b5a 9639 1b63 2231 eb36 1db9
000002e0: a7b5 a439 e2ef ffba 7154 1eb8 c950 c53a
000002f0: 0ec6 d738 ef8c d1bb e899 7a29 97be 8938
00000300: bd46 803b cbee 90ba 64c8 fd29 2547 b2ba
00000310: 6032 c838 0937 6a29 1431 14ba a6aa ec34

exp_avg_sq f4 [200]
1.5801542e-09 1.4127605e-06 2.5001866e-06 2.037444e-09 4.121424e-06 8.7162726e-07 1.7599959e-06 4.339555e-06
2.1662179e-06 6.567778e-07 1.9316197e-07 1.3252062e-06 5.690862e-08 3.4119626e-07 3.2660225e-06 1.5542174e-06
2.0070885e-08 1.3849633e-06 7.573725e-07 2.5598695e-10 7.42685e-07 7.8282574e-07 2.6008222e-06 7.666836e-09
2.2133627e-06 1.5422456e-06 2.3364687e-06 4.1505295e-06 8.041084e-07 7.973941e-09 1.9626678e-09 9.410622e-08
2.2222823e-06 2.9536652e-06 2.6374486e-10 1.7466434e-06 1.1945185e-06 1.6649509e-06 3.2552812e-08 1.5389371e-06
3.5448509e-06 1.1352607e-08 6.543255e-07 5.3185266e-07 3.1471504e-06 2.1031033e-06 2.1574924e-06 6.3655904e-07
2.8569987e-06 2.5651925e-06 3.9600644e-07 1.6836442e-07 4.0912596e-06 1.949061e-06 3.6906852e-07 7.3664532e-09
4.4616e-08 2.1961148e-06 2.1707306e-08 2.1358019e-06 4.7848253e-06 0.0 3.659371e-06 3.1305404e-07
1.15033e-06 1.0545662e-06 3.2586438e-06 1.9089098e-06 1.2470813e-06 7.645835e-09 8.89062e-07 1.1652915e-07
3.9868178e-07 2.2719167e-08 3.3852995e-08 2.807681e-06 1.2068389e-06 1.2499678e-06 1.4958395e-08 4.789443e-10
7.211335e-07 2.1588324e-08 9.2675367e-07 2.4294988e-07 4.692077e-09 4.456833e-07 1.5546597e-08 2.1658256e-08
1.8533693e-07 1.8271895e-06 7.9226305e-07 2.0295344e-08 2.4166968e-10 2.6490764e-06 5.3748814e-09 1.284645e-10
3.3123501e-06 1.0684279e-06 4.951854e-07 2.7931117e-06 7.379141e-10 3.5270505e-06 3.9193395e-08 1.5813334e-06
1.5989095e-06 6.668613e-07 3.5784794e-06 2.7650162e-06 6.677523e-08 1.6837788e-07 2.9520281e-06 1.8390267e-06
8.545373e-07 3.0603115e-07 7.916297e-08 6.961198e-07 1.42749235e-08 2.6848284e-07 1.8514189e-07 2.751539e-06
9.641477e-07 3.960507e-06 5.822019e-08 2.756444e-06 2.7357248e-06 2.7078013e-07 1.3032584e-06 4.0214113e-06
1.8238325e-07 1.1633555e-07 7.133889e-08 3.8734896e-07 1.6111433e-06 2.088747e-08 6.6116394e-07 1.9941865e-06
7.99926e-07 3.1758514e-06 6.8600514e-07 4.5496105e-09 1.3045486e-06 3.3361748e-06 3.6734764e-06 1.2597684e-06
1.1402233e-06 5.965925e-08 6.114404e-10 1.6853634e-06 1.0682014e-06 5.977793e-06 7.565708e-07 4.9960177e-06
1.2574314e-06 2.4712715e-08 2.4235036e-09 4.0225574e-09 7.5254997e-07 4.0312784e-06 1.3678634e-08 3.5956812e-06
2.396981e-06 1.2537516e-06 2.8858733e-06 1.5919878e-06 2.3075282e-08 4.784571e-07 6.06204e-07 1.1547058e-06
3.9602193e-07 2.4257116e-07 1.3591832e-06 1.8006565e-06 1.8777012e-06 1.499572e-07 2.0729037e-07 1.7359671e-06
7.278397e-10 2.2384003e-07 4.5126826e-06 2.6561468e-06 4.69129e-07 5.631312e-07 3.216879e-07 1.528441e-06
1.6351314e-06 1.6105535e-06 2.8908457e-06 2.0374248e-06 2.8367313e-07 5.292463e-06 2.251414e-07 6.5550886e-08
3.0727292e-06 8.8484984e-07 5.7913148e-08 2.0535003e-06 3.3029437e-06 3.8084238e-08 8.4448385e-07 1.7095141e-07
00000000: bc2c d930 159e bd35 e1c8 2736 1803 0c31
00000010: c34a 8a36 c5f9 6935 0039 ec35 7e9c 9136
00000020: 575f 1136 6d4d 3035 f567 4f34 bddd b135
00000030: b06b 7433 a82d b734 d72d 5b36 819a d035
00000040: 5868 ac32 fae2 b935 3e4e 4b35 f6ba 8c2f
00000050: ed5c 4735 6023 5235 c989 2e36 1ab7 0332
00000060: 4889 1436 28ff ce35 3acc 1c36 c744 8b36
00000070: e9d9 5735 c3fd 0832 9edf 0631 7117 ca33
00000080: 8522 1536 9537 4636 cafe 902f 366e ea35
00000090: 5853 a035 4777 df35 32d0 0b33 7a8d ce35
000000a0: 13e4 6d36 4b09 4332 e8a4 2f35 a3c4 0e35
000000b0: a233 5336 0a23 0d36 70c9 1036 01e0 2a35
000000c0: ddba 3f36 ac25 2c36 b69a d434 a9c7 3434
000000d0: a747 8936 9dcc 0236 6424 c634 021c fd31
000000e0: d09f 3f33 f760 1336 df76 ba32 cc54 0f36
000000f0: 568d a036 0000 0000 8493 7536 d211 a834
00000100: 0a65 9a35 9e8a 8d35 13af 5a36 d21a 0036
00000110: 6361 a735 bd5a 0332 e0a7 6e35 943e fa33
00000120: 680a d634 fa27 c332 c365 1133 986b 3c36
00000130: abfa a135 91c4 a735 dc7d 8032 b5a6 0330
00000140: eb93 4135 3a71 b932 07c6 7835 c76e 8234
00000150: f237 a131 3f46 ef34 548b 8532 020b ba32
00000160: 0701 4734 c13d f535 e7ab 5435 ef55 ae32
00000170: fcdb 842f c9c6 3136 f5ad b831 8b3f 0d2f
00000180: be49 5e36 e766 8f35 e2ec 0435 4b71 3b36
00000190: 17d6 4a30 44b2 6c36 9855 2833 343e d435
000001a0: 1d9a d635 5c02 3335 cf25 7036 9e8e 3936
000001b0: 1266 8f33 5ccb 3434 751b 4636 7ad4 f635
000001c0: 5b63 6535 9a4c a434 4e00 aa33 fddc 3a35
000001d0: c73d 7532 0024 9034 6acb 4634 14a7 3836
000001e0: dd67 8135 7fe4 8436 c70d 7a33 59fb 3836
000001f0: 6597 3736 bd5f 9134 9eeb ae35 a9ef 8636
00000200: 20d5 4334 25d4 f933 f832 9933 d6f4 cf34
00000210: 763e d835 086c b332 d77a 3135 ddd3 0536
00000220: 7fba 5635 b620 5536 ea25 3835 cc52 9c31
00000230: f317 af35 0ce3 5f36 d885 7636 5015 a935
00000240: c609 9935 051e 8033 4b12 2830 a534 e235
00000250: 1f5f 8f35 da94 c836 2617 4b35 77a3 a736
00000260: 04c5 a835 d647 d432 ba8a 2631 ca36 8a31
00000270: d702 4a35 6b44 8736 45ff 6a32 554d 7136
00000280: d2db 2036 9446 a835 edaa 4136 49ac d535
00000290: 1537 c632 526f 0035 06ba 2235 64fb 9a35
000002a0: d79c d434 ba3a 8234 2e6d b635 16ae f135
000002b0: 5205 fc35 ec03 2134 8b93 5e34 60ff e835
000002c0: 2a11 4830 ae58 7034 a66b 9736 4140 3236
000002d0: 99dc fb34 152a 1735 73b4 ac34 d524 cd35
000002e0: b076 db35 322a d835 5a00 4236 b1ba 0836
000002f0: bd4b 9834 e995 b136 66be 7134 fbc4 8c33
00000300: 1635 4e36 6b86 6d35 2ebc 7833 dece 0936
00000310: 24a8 5d36 1092 2333 7db0 6235 c48e 3734
