llirl_sumo/saves/120p4k_ultimate/optimal_policy_period_5.pth (torch, 196916 bytes, 7 tensors)

sigma f4 [4]
00000000: e019 da3c 23ff 95bc 9d87 d4bc 5531 443c
0.026623666 -0.018310135 -0.025943572 0.011974652

layer1.weight f4 [200, 36]
00000000: 320a 7b3d 8b1f 2f3e ac81 aa3c f91a 0d3d
00000010: 984c 753d 33dd a93d f8e0 70bd 96a5 513d
00000020: 647d 26bd ec65 ba3d f933 58bd 49f7 643d
00000030: 602a d13d e55d 0abe 41cc 3d3d 3e97 0b39
00000040: 858a 04be b31a 2dbd b90f bfbc a765 f63d
00000050: 8c7d c0bd 9021 043e 4001 69bd 5eb0 9d3d
00000060: 15dd 433d b8e3 eb3d 1435 de3d df0f 04be
00000070: fe18 f23a 63eb 0fbe d092 5e3c 2a6a b5bd
00000080: 607b 183e de8d bd3d 88be 8ebd d669 073d
00000090: 1ee7 8dbd 3946 dbbd cd8f f53d 6a7a fbba
000000a0: 2846 213d cdd3 153d 4473 803c 12d5 7c3d
000000b0: 35b7 92bd 175c 3ebd dc72 cabd 7b10 babd
000000c0: 353b adbd ea4e 023c 5862 07be 7c0e d4bb
000000d0: 70ea 013e 05e5 2cbe 3baf 673c 77b9 d43d
000000e0: 1953 4bbc 01f1 883d 1ef6 d3bd a68f a8bc
000000f0: 10dc 95bd 0f53 b9bb d347 6bbd fdc8 21bb
00000100: e415 053e b0a4 8fbd a90b 6d3d 3051 4fbd
00000110: 6fcc e23d a6c8 7c3d bc28 35bd b71e 063e
00000120: c715 e2bd 98ec 05be bbf2 2abe c598 d5bd
00000130: 56a2 27bd b356 b7bd ea60 1a3e 8448 11be
00000140: 0898 d1bc e53c e6bd f776 203e 16b8 48bd
00000150: 3003 13be b3a6 963d ed8a b0bd 9841 ab3d
00000160: 75d1 153e 036a 30bc 4217 fd39 2ac8 18be
00000170: 2432 e23a 56c3 d93d 5a30 b23d 24c5 9f3d
00000180: 40cf f9bd 0131 d53d d48e bf3d 1d8c efbc
00000190: c1b4 28be 7a23 053e ae8a 02bc 3d6b dbbd
000001a0: 3789 f53d 17db 0cbe 9b78 16be 3e42 f63d
000001b0: b3f2 f63d bf58 ecbb efe9 93bc 0997 47bd
000001c0: 6fdb ebbd 9f18 b5bd 7fb4 d9bd 087e 693b
000001d0: daf6 84bd 0421 9fbc 58bf acbd 4b1b 763d
000001e0: f2f0 9f3d 9763 10bd 24e6 ce3d 19bf 24bc
000001f0: 2716 1dbe a71e 8ebd 7ffb 37be c641 66bd
00000200: f0b3 9e3d 7c08 adbc c93d 2dbd 0b48 8c3c
00000210: c5fa 61bd bbb8 0ebe f484 da3b dd49 1bbe
00000220: 8b23 543d 19fe 44bd 71aa c3bb 2662 1dbe
00000230: f299 7dbc 5fe6 8fbc 348d fcbd 3066 4fbd
00000240: 9c6e 633d 2d9a c2bc 748e 78bd 321c c93d
00000250: ee17 143e 4525 c2bd 8bb4 b13b 2f03 fdbc
00000260: 6772 d4bc 197c ab3d d7e3 5bbb df6a f3bc
00000270: 34aa 213d 44ff fe3d f4bc 023e cd3b 873d
00000280: 0a92 87bd 41c4 a9bd 8b51 e7bd cff6 0abe
00000290: 26ab 3fbe 9c58 30bd 6d8c 12bb 546e e13d
000002a0: 3752 17bc 243c 53be 5bf5 d9bd 3fbc d33d
000002b0: 88d5 b03d 3ee6 2d3c 2a8f 98bd eebc 893d
000002c0: 3464 bc3b 215c 23be f5da 0abe 4426 9fbd
000002d0: 7cde 1abd a103 8bbd 51c0 15bd 67de cf3d
000002e0: 4bfa ee3d 0d9e 07bd 3951 b63d fe15 a43d
000002f0: e994 98bd 6670 fc3d 46cd 8e3c da46 74bd
00000300: f66d 1f3e e877 58bd 29a6 bfbb 9290 5b3d
00000310: 4a7b c73c 7e8e 893c d84d 83bd 47c4 413d
00000320: faf4 733c 41cf dfbc 5637 02be 11a8 7abd
00000330: a364 1f3e 72ab f03d c121 3d3d 4de4 82bd
00000340: 0bd3 bd3d 1d27 c63d 3b61 f8bd c7aa afbd
00000350: ef8f 1abe 0ca3 3bbe 09e5 d63d a6b8 5f3c
00000360: 28d9 dfbc 83f9 f6bc 4350 17bd b772 133e
00000370: 9b44 1ebe c493 a73d a004 6b3d ccfa 34bd
00000380: f25e b8bd 66bc 5ebd 7e1a e1bd e708 0b3d
00000390: 5691 d33d 968b 8d3d c3d0 0fbe deda 973d
000003a0: ceef 423c 8f81 ebbc b284 05be 3036 dabd
000003b0: 2bea 113e d095 203d b4fb 00be 9886 21bc
000003c0: 0223 82bd 76e9 4cbd e32f 833d 0d55 0cbe
000003d0: 8f34 0abe 6597 d5bd cb6e dcbd 84d7 c8bd
000003e0: d611 be3d 3355 0c3e 7ae8 f7bd 9be1 c1bd
000003f0: 05bb bf3d dd64 853d daf1 0abe b87d 33bd
0.06128902 0.17101876 0.020813785 0.03444955 0.0598875 0.082941435 -0.058808297 0.051183306
-0.040646926 0.09101471 -0.05278394 0.055899892 0.102131605 -0.1351238 0.04633737 0.00013312415
-0.12943466 -0.04226179 -0.023322927 0.120311074 -0.09398946 0.12903428 -0.056885958 0.07699655
0.047818262 0.11518043 0.108499676 -0.1289668 0.0018470583 -0.14054637 0.0135848075 -0.0885814
0.14890814 0.09255575 -0.06969935 0.033059917 -0.06928848 -0.10706753 0.119903184 -0.0019186263
0.039373547 0.036578942 0.015679963 0.061726637 -0.0716385 -0.046474542 -0.09885189 -0.09085175
-0.084585585 0.007953385 -0.13221109 -0.0064714532 0.12687087 -0.16884239 0.014140899 0.10386937
-0.012409949 0.06686593 -0.103496775 -0.02057631 -0.07317364 -0.0056556533 -0.057441544 -0.0024686449
0.12996632 -0.070138335 0.057872448 -0.050614536 0.11074149 0.06171479 -0.0442283 0.13097654
-0.1103931 -0.13078535 -0.16694157 -0.10429529 -0.0409263 -0.089520834 0.15076032 -0.14187819
-0.02558519 -0.112420835 0.15670381 -0.049003683 -0.14356685 0.07356014 -0.08620248 0.083621204
0.14630683 -0.010767463 0.0004827325 -0.14920107 0.0017257375 0.106329605 0.087006286 0.078012735
-0.12197733 0.104097374 0.09353414 -0.029241616 -0.16475202 0.13001814 -0.007967634 -0.107138135
0.11989062 -0.13755451 -0.14694445 0.120243534 0.1205801 -0.007212728 -0.018055884 -0.048728023
-0.11516463 -0.08842587 -0.1063013 0.00356281 -0.06492396 -0.019424923 -0.084349334 0.060084622
0.078096285 -0.035251226 0.101024896 -0.010055327 -0.15340482 -0.0693944 -0.17967032 -0.05621507
0.07749164 -0.02112221 -0.04229525 0.017124197 -0.055170793 -0.13937657 0.0066686813 -0.15164895
0.05179171 -0.04809389 -0.005971246 -0.15369472 -0.015478598 -0.017565904 -0.1233162 -0.050634563
0.055525407 -0.023755157 -0.06068273 0.09819831 0.14462253 -0.09479765 0.0054231337 -0.030885307
-0.025933458 0.08373279 -0.0033552551 -0.029714046 0.03946896 0.12451032 0.12767392 0.06603203
-0.066196516 -0.082893856 -0.1129485 -0.13570713 -0.18717632 -0.043053254 -0.0022361532 0.110073715
-0.00923591 -0.2062841 -0.10642501 0.103386395 0.08634478 0.010613976 -0.074491814 0.067254886
0.00574925 -0.15953113 -0.13560088 -0.077709705 -0.037809834 -0.067878015 -0.03656036 0.10149842
0.11668833 -0.033109713 0.08902211 0.08012007 -0.07450277 0.12326126 0.017431866 -0.05963788
0.1556929 -0.052848727 -0.0058486653 0.05360467 0.024350781 0.016791578 -0.06411332 0.047306325
0.01488995 -0.027320506 -0.12716421 -0.061195437 0.15565734 0.117514506 0.04617477 -0.06391201
0.09268769 0.09675429 -0.1212792 -0.08577495 -0.15093969 -0.18323916 0.10492904 0.013654863
-0.027325228 -0.030148273 -0.036941778 0.14399229 -0.15455858 0.08182481 0.057377458 -0.04418449
-0.090024844 -0.05437889 -0.10991381 0.033944037 0.10330455 0.069113895 -0.1404448 0.074147925
0.011897994 -0.028748302 -0.130389 -0.10654867 0.14249484 0.039205372 -0.12596017 -0.00985875
-0.063543335 -0.050027333 0.06405618 -0.1370432 -0.13496612 -0.10429267 -0.107633196 -0.09806731
0.09280746 0.13704376 -0.12104888 -0.09466859 0.09361843 0.06513379 -0.13568822 -0.043821067

layer1.bias f4 [200]
00000000: 35fc 5ebc 5cb2 943c 6743 edba 3fa8 9e3c
00000010: 5d56 38ba 6b56 a8ba e956 97bc 83cf 2dbc
00000020: a2b0 693c 459e 083c d38b 05bc bd39 69ba
00000030: 773d 68bc 98d2 003c 80c5 44bc 68f8 6c3c
00000040: 96d9 ea3b b997 0cbc 7e75 b4bc ecaf 0cbc
00000050: d2fe 3c3c df52 c3bc dcf8 eabb 52c5 10bc
00000060: 5b80 4b3b f7f8 b3bb cf26 60bc 5c9b 48bb
00000070: dd0c bcbc 7d92 663c 392d c9bc df8d f2bb
00000080: a095 ab3c 011b 8dbc f324 8a3c ad6f 2ebc
00000090: 6796 ba3b 9f77 81bb b2f1 8fbb 9586 81bc
000000a0: f0bc 82bc 23d0 25bc 6b82 b8bb e064 a4bc
000000b0: 67de 45bc 5451 1ebb 0319 2fbc 963c 323c
000000c0: 516b fa3b 7c55 ea3c 81fd dabc 4729 32bc
000000d0: a3ca f8bb 79ab bd3c 856e b53b 376b 4a3c
000000e0: 9350 9abc 24b8 12bc 5df0 5f3a f386 ca3c
000000f0: 294e 16bc 7b0e c93b 5f53 4abc 6aee 09bb
00000100: be4a 0abd 5900 bfbc 73ec 7ebc b5f3 88bb
00000110: bc78 b13b 6fe7 9fbc 629d 013c a735 913b
00000120: a6ba bfbc f713 ef3b b883 ddba 8ddb 97bc
00000130: 725c 0f3d 21a1 a63c 43e3 053d 24a6 35bc
00000140: 6f86 883c ebec 313a ca2d 3dbc 6df2 3d3b
00000150: 4b78 3ebc 57bc 543b fbf7 9cbb 10b2 0ebd
00000160: 3d9a 873c f23d 86bb 8290 213c b437 c0ba
00000170: 6f8f e6bc e8d1 ac3c fa6a f03c ca0f f4ba
00000180: 9c28 a4bc 55ab cebb 9767 12b9 df1b 453c
00000190: cff8 3bbc 6a79 4d3b 7740 8a3b aed4 333b
000001a0: f4c4 953c cfba ebbb 7e85 5ebc 54e1 973c
000001b0: 836c 10bb f3bf 4bbc 56ce 1c3c f11c 15bc
000001c0: 3c0c 483b 85d1 7dbc 9ddd 03bc f66d 7fbc
000001d0: ead7 d5bc 2888 2b3c 9646 93bc 51ba 623c
000001e0: b2ce 4abc 2ccb 743c 5ca8 cb3c 70de 983b
000001f0: 3b37 993c fbbc 3ebc da58 77bc fb66 4dbc
00000200: 93d9 8dba fbd8 823b ee04 14bc 5008 83bc
00000210: e6cf 42bb c22f 5abc 9cc1 433b 7398 1dba
00000220: 3cb0 8c3b 9b76 3ebb cb72 8dbc 982d 1d3c
00000230: f651 b1bc 13ec abbc e5b8 8c3b 4be8 db3c
00000240: 99a2 c1bc 0000 0000 eacb 0f3c ee51 b93b
00000250: 1d9f 34bc 9e2b 603b f864 4cbb 9f16 1ebc
00000260: 342f 993b 46e9 33bc e7b7 e6bc e12d ddbc
00000270: df09 0dbd 3d30 ddbc a755 09bc ff68 27bc
00000280: 797f 62bb 0000 0000 20ff 113c 2543 78bb
00000290: 0e22 b5bb fcf5 58bc ddaa 24bd f3f1 63bc
000002a0: 65d7 88bb a62d 9abc db35 babb 5adc eebc
000002b0: 5678 b4bc fb10 d6bc 3f2f 74bc 4532 e8bc
000002c0: 1d77 a8ba fc54 6ebc 61bd d3ba 69b8 d3bc
000002d0: bd82 a2bc 6c81 2fbc 2376 d5ba ded0 c93a
000002e0: ecb8 90bb e05d 6e3b e25b 54bc f8c6 95bc
000002f0: ecd5 883b 85d3 dcbc b4ab 6abc 835d 693b
00000300: f9f7 063c 7260 d7bb 641f 583c 90b5 41bc
00000310: 35c2 54bb 31f7 41ba ebea bd3c e925 63bc
-0.0136099355 0.018151455 -0.0018101753 0.019367335 -0.0007031912 -0.0012843137 -0.01847406 -0.010608557
0.014263304 0.008338516 -0.0081510125 -0.00088968483 -0.014174811 0.007862709 -0.012009978 0.014463522
0.0071670515 -0.008581095 -0.02202868 -0.008586865 0.011535363 -0.023843227 -0.0071707796 -0.008836107
0.0031051848 -0.0054923254 -0.013681128 -0.003061018 -0.022955352 0.014073011 -0.024557697 -0.0074021663
0.02094537 -0.01722479 0.016863322 -0.010646743 0.005694199 -0.0039510275 -0.004392826 -0.015811244
-0.015959233 -0.010120424 -0.0056307814 -0.020067632 -0.012076951 -0.0024157362 -0.010687116 0.010878703
0.0076421876 0.028605215 -0.026732208 -0.010874099 -0.0075925156 0.023153054 0.0055368566 0.012354664
-0.018837249 -0.008955035 0.0008542592 0.024722552 -0.009173908 0.0061357594 -0.012348979 -0.0021046647
-0.033762686 -0.023315595 -0.015559304 -0.0041794428 0.005416004 -0.019519536 0.007911058 0.0044314447
-0.02340443 0.007296081 -0.0016900217 -0.018537307 0.035000272 0.020340504 0.032687437 -0.011086974
0.016665665 0.00067873177 -0.0115465615 0.0028983608 -0.01162536 0.0032460892 -0.0047903038 -0.034837782
0.016553039 -0.00409674 0.0098611135 -0.0014665038 -0.028144566 0.021096185 0.029347885 -0.0018620428
-0.020038895 -0.0063070455 -0.00013962235 0.012030571 -0.011472895 0.0031352886 0.0042191106 0.002744
0.018282391 -0.0071939 -0.013581632 0.018540062 -0.0022037334 -0.012435901 0.009570679 -0.009101138
0.003052487 -0.015491848 -0.008048442 -0.015590182 -0.026103932 0.010469474 -0.017977994 0.013838367
-0.012378382 0.014941018 0.024860553 0.0046651885 0.018703094 -0.011641736 -0.015096867 -0.0125367595
-0.0010822288 0.0039931512 -0.009034378 -0.015995175 -0.0029725968 -0.01331705 0.002987004 -0.00060117914
0.0042934697 -0.0029062394 -0.017266652 0.00959339 -0.021645527 -0.020986592 0.004294502 0.026844164
-0.023637103 0.0 0.008776644 0.0056555187 -0.011024264 0.0034205685 -0.0031188112 -0.009648948
0.0046748165 -0.01098091 -0.028163863 -0.026999416 -0.034433242 -0.02700054 -0.0083822375 -0.010217904
-0.0034560843 0.0 0.008910924 -0.0037881818 -0.0055277413 -0.013242241 -0.04020201 -0.013912666
-0.0041760677 -0.018820595 -0.0056826896 -0.029157806 -0.022030037 -0.026131144 -0.0149038425 -0.028344283
-0.0012852881 -0.014546629 -0.0016154462 -0.02584477 -0.019837731 -0.010712009 -0.0016285818 0.001539733
-0.0044165757 0.0036371872 -0.01296136 -0.018283352 0.004175892 -0.02695633 -0.014323164 0.0035608716
0.008237832 -0.0065727765 0.013191078 -0.011823073 -0.003246439 -0.00073992 0.023183307 -0.013864019

layer2.weight f4 [200, 200]
00000000: e244 3f3c dfc1 693d a1cd b5bd e8a1 15be
00000010: 3d9b 6f3b bcae 93bc 4a87 a13d 5cb9 8f3c
00000020: ebf8 c7bd fcd0 83bd 26d1 663c 851a 523c
00000030: 0029 01be 9b39 5c3d d8b0 c13d df11 993d
00000040: f078 5ebc f5f4 f2bd df30 22bd 6f76 f03d
00000050: d0b1 afbd d1f6 89bd c4c4 90bc 0594 693d
00000060: 7383 aebc 334e 01be 2f2f 373d 812a 94bc
00000070: 02bb d43b 45d6 ab3c 7251 2fbd 30f0 a5bd
00000080: cba5 4c3d ec66 b5bd 230f b8bb d1fe 9b3c
00000090: 6b41 873d ed75 9b3d 3ebf 9cbd 2757 dd3c
000000a0: 44af dcbb e5b6 bcbc 6dc3 473d 9012 de3d
000000b0: 5d06 063c 9b65 4ebd ebea 32bd 92ad 943c
000000c0: 9480 30bd fcc8 8abc 8af4 4f3c 089d 083d
000000d0: bf79 b33d 4b1c 3bbd f465 f2bd 2303 dcbc
000000e0: e4bd c2bd 84f8 9bbd f251 3ebd e78c aebc
000000f0: 5534 753d 7307 2e3d a9a5 833d 5d54 b3bd
00000100: 88cd 3b3d b28d 4a3d 2caf bc3d 90b7 883d
00000110: f4cb 7fbc 7889 fc3d 1692 b53d c43a bbbd
00000120: cf61 9d3d 9b57 e3bc 99df 03be 9673 b7bc
00000130: 1348 bebd 36d1 4e3d 24cb 94bc c784 9cbc
00000140: ea86 05bd ecfd 9cbd eea2 12be 07e6 293d
00000150: 0fa7 523b 6823 11be 19bf 503d 1d1e e1bd
00000160: 7220 23bc ecc1 073e b1bd b8bb ff03 b1bd
00000170: db5b b4bd 0272 883d 69a2 b7bd e40e 26bd
00000180: 24c4 9cbd 88a7 c03d 17c2 fabd cbc9 84bc
00000190: a0ed 603b b3ed aabd a4e6 c53d c72c f1bd
000001a0: 2ff0 80bd 16bc 2a3d 3da9 edbb dcaa 953c
000001b0: e528 b1bd 7642 003d 4d22 9fbd 9bbf be3d
000001c0: a4a6 f6bd 7c9b 1bbd 13d7 aebd 7fd8 b4bd
000001d0: a558 f5bc 0d64 c6bd 7bfb d7bd 9734 b5bd
000001e0: 240d a0bd 11e1 3cbc b8ea 6ebc f667 803d
000001f0: 93ab 403d 6db9 96bd 498e 63bd 452c 9abd
00000200: 8ab1 92bd 63ad 9dbd fc60 903c b5fb 963d
00000210: 78ea 233c d6ca 6fbd 819e 33bd 7f7d b6bd
00000220: 26fc c23c 51da c23d fbcb 22bd a86c a63d
00000230: 3270 2dbc b757 7cbd 7f79 793d 43a4 6abd
00000240: 3dca 583d f4e5 c63c 591d a0bd ebc2 6ebc
00000250: edf5 a63d 5727 67bd 357c 4bbd 05d8 9e3d
00000260: 073a 833d e037 7abd bc74 01bd 768f 04bd
00000270: 181f 09be 40a9 f4bd 8646 063d 9bcc d03d
00000280: 7c89 a73d ec01 f0bc 766e 3abd 01d2 183d
00000290: 836a 77bb f673 1b3d d319 c43d 7927 b83d
000002a0: ea17 973d 2907 23bd beee bbbd a3ae e4ba
000002b0: 86f0 c0bd d040 e83d fd20 e33d 4ccb efbd
000002c0: 5dd3 c8bd 25ab b13c b668 7dbd f678 f9bc
000002d0: ddac cfbd 3643 493d d2e2 af3b 152e 01be
000002e0: 0b6c d43d 80bc a63d 0357 3a3c d466 853d
000002f0: 92a3 9d3d 0811 13be 9764 8f3d e2ba 4cbc
00000300: 6e75 29bc b313 d3bd b11c 8b3d 0000 71b9
00000310: c3d3 753d 725b d7bc f847 0fbc 5894 eabd
00000320: d045 3cbd dc46 26bc 4ebd bebc 194c 843d
00000330: 5f75 563d e1d0 67bc e47b d3bd 8521 8f3c
00000340: 01c4 143d 7c6d 113c 7be6 16bd 598d d03d
00000350: 2d0c dcbd 37a1 3ebd ee0d 863d 23a9 8ebd
00000360: 4011 e0bc 855e 583d 38a9 85bd a580 a33c
00000370: 9fe4 02bd 1d94 97bb ec7f e0bd 2dc4 d0bd
00000380: bf1f d6bb 3d82 d0bc 40f7 df3c 17a7 dd3c
00000390: 1bab 9c3d 69d7 9c3d 5cc7 dfbd e84f 913d
000003a0: 7a8c 83bb d084 103d 86ee e43c 8ac8 0dbb
000003b0: 2a60 5d3d 29c5 41bd 45e2 213d 8431 033b
000003c0: 7fcb df3d 3f03 b5bc 1be7 b1bc 8e6a 363b
000003d0: e041 cf3d ffc7 3f3d 9b57 fd3c 2daa 30bd
000003e0: 5d6d ab3c b7c5 afbd 04d9 3cbd 6f11 bbbd
000003f0: f4d6 b23c e0d0 e13d fe10 9d3d a850 be3d
0.011674138 0.057069656 -0.08877111 -0.14612544 0.0036561035 -0.018027656 0.078871325 0.01754444
-0.09764274 -0.06436345 0.014087951 0.012823706 -0.12613297 0.053765874 0.094575584 0.07474112
-0.013578638 -0.11863128 -0.03959739 0.117413394 -0.08578837 -0.067365296 -0.01767195 0.057025928
-0.021302914 -0.12627487 0.044722732 -0.018086674 0.0064920196 0.020976195 -0.04280228 -0.08102453
0.0499628 -0.088575214 -0.005617039 0.019042404 0.06604274 0.07590852 -0.07653664 0.027019097
-0.0067347605 -0.02303643 0.048770357 0.10843384 0.008180228 -0.050389867 -0.043681066 0.018149171
-0.04309137 -0.01694154 0.01269258 0.03335288 0.087634556 -0.04568128 -0.11835852 -0.026856964
-0.09508875 -0.0761576 -0.046464868 -0.021307422 0.05986436 0.042487573 0.064280815 -0.087563254
0.045850307 0.049451537 0.09213099 0.06675637 -0.015612591 0.123309076 0.08865754 -0.09142068
0.07684671 -0.027751734 -0.12878264 -0.022393983 -0.09291091 0.050492488 -0.018163271 -0.019106282
-0.032599367 -0.07665619 -0.14319965 0.041479137 0.0032143032 -0.14173663 0.050963495 -0.10992072
-0.009956466 0.13257569 -0.0056378474 -0.0864334 -0.088065825 0.0666237 -0.08966524 -0.040541545
-0.07654598 0.09406954 -0.12244051 -0.016209504 0.0034321323 -0.08346119 0.09663132 -0.11776119
-0.062958114 0.04168328 -0.007252841 0.018269949 -0.08650378 0.031313382 -0.07770214 0.093138896
-0.12043503 -0.03799008 -0.08537116 -0.08830356 -0.029949496 -0.09687052 -0.10546013 -0.08847921
-0.078150064 -0.011528269 -0.0145823285 0.06269829 0.047038626 -0.07359586 -0.055555616 -0.07527975
-0.07162769 -0.076990865 0.01762437 0.07372228 0.010004632 -0.05854305 -0.043852333 -0.08910655
0.023801874 0.09514297 -0.039745312 0.08126193 -0.0105858315 -0.06160709 0.060906883 -0.05728556
0.052927244 0.024279572 -0.078180976 -0.014572839 0.08152375 -0.056434 -0.049679 0.07756046
0.06407552 -0.061088443 -0.031605467 -0.032363378 -0.13390768 -0.119463444 0.0327821 0.101952754
0.0818052 -0.029297791 -0.0455155 0.03730965 -0.0037752695 0.037952386 0.09575238 0.08991904
0.07377608 -0.03980175 -0.09176396 -0.0017447065 -0.09420876 0.11340487 0.110902764 -0.11708698
-0.09805939 0.021688053 -0.06186744 -0.030453186 -0.10140393 0.049136363 0.0053676153 -0.12615235
0.1037217 0.08141422 0.011373284 0.065137535 0.07697214 -0.14361966 0.07001608 -0.012495728
-0.010342939 -0.10306492 0.06792582 -0.00022983551 0.060016405 -0.026288722 -0.008745186 -0.114540756
-0.045965016 -0.01014873 -0.023283627 0.06459827 0.052358028 -0.014148922 -0.10326365 0.017472038
0.036319736 0.008876201 -0.036840897 0.1018321 -0.1074451 -0.046540465 0.065456256 -0.06965854
-0.027351975 0.052824516 -0.065264165 0.019958803 -0.03195631 -0.004625811 -0.10961899 -0.101936676
-0.006534546 -0.025452727 0.027339578 0.027057214 0.07649823 0.07658274 -0.10926697 0.07095319
-0.004014549 0.03528291 0.027945768 -0.0021634423 0.054046787 -0.047307167 0.039522428 0.0020018527
0.10927486 -0.022096274 -0.021716645 0.0027834508 0.101199865 0.04682159 0.030925563 -0.043131042
0.020926172 -0.08582633 -0.0461054 -0.091341846 0.021831013 0.11026168 0.07669257 0.09292728

layer2.bias f4 [200]
00000000: ece1 e6bc 4470 33bc 16c3 713c 658b 16bc
00000010: 3a36 60bb e1f7 18bb 05ba 3b3b 6126 8c3c
00000020: 1f83 a03c a6f5 89bc 5e45 a3ba 4e98 87bb
00000030: 132e f5bb 0fc5 1fbc e1b9 0abc 68d2 ec3b
00000040: 8acc 80bc 35b0 26bc 9206 5cbc 2004 cabc
00000050: bfd6 523c 0347 653c d439 fa3c f0b6 f4bb
00000060: 3575 9a3a cfbf 8a3c 9a34 91ba 654d 63bb
00000070: 1a27 04bc 6ce5 0abc adb5 bbbb d2f9 e53a
00000080: 0530 9dbb cc64 383c a5b2 9b38 ab3b afbb
00000090: 44d5 14bd 6c2a 4f3c 8e4a 28bc 0a98 353c
000000a0: c355 bf3b f37f d8ba 9e0b 5ebc 8672 63bc
000000b0: c4f1 fe3b b2ef 2a3b 4e76 9b3c 2ea2 cbbb
000000c0: 7391 8dbc 56bb 9d3c 9500 583a c4c3 bebb
000000d0: 9841 ac3c f77d 80bb 0e16 7cbc 838e 36bc
000000e0: efb6 23bc 6c34 e33b 7f0e dcbb 2ed2 803c
000000f0: 54a2 f93b 0000 0000 9713 cfba d7f3 0ebc
00000100: 8df9 5b3c 69b0 12bc 5cca e63c 14d8 03bc
00000110: 961c 79b9 a761 f9bb d6ca 85bb 1a0a a8bc
00000120: 6466 a4bc 499b 34bc ee03 0ebc 3176 843c
00000130: b84e c43c 3bdc 0539 665c 67bc 093a 10bc
00000140: 47a1 dc3b 9d56 1ebc bedb 50ba 978a 38bc
00000150: 8a5f f8bb ea44 b8bb e35e 20bc a600 34bc
00000160: f592 4bbc 25f4 1f3c 3e1b 5f3b f501 dabb
00000170: 6050 00bc 41e6 b23c 1987 b0bc 92fb 8cbc
00000180: 99e6 68bc 76d4 0cbc 4ebf 2cbc a0cd 923c
00000190: c915 25bc 303c d93c 7eff a7bc 8cd7 5e3c
000001a0: c03a bdb8 da07 0d3a 383d 58bc 3230 c33c
000001b0: 2f30 edbb 19b4 aebc 8d94 463a 8035 83ba
000001c0: 68ca 1fbb eeec 79bc 77de 3ebc e94a 2d3c
000001d0: e1e5 0abc 7272 7b3c 5633 17bc fa7c 9c3b
000001e0: 537e 90bb c9a5 b23c 62ef 3cbc 458f b33c
000001f0: c1b5 a7ba db60 abbc 5245 07bc 83cf 8cbc
00000200: 264f 033d 295e afbb f810 babc ed44 573c
00000210: f6ed d7bb 6716 8bbc 05ed 77bc f7e5 03bc
00000220: 3750 ee3b 304c 213c 2625 a13b 89b5 f4ba
00000230: cdf0 e93a 20be 983c 9dce 363c d875 613c
00000240: faa4 3a3c b309 07bc 2257 f2bb 7cb1 6a3c
00000250: 35ac aa3b df56 5a3c 520b 22bc 5f2c d53c
00000260: 8ac9 c7bb 6c6d 39bc 1140 a5bc ac85 7dbb
00000270: 3cf2 85bc 6640 a23c 38ca 2abc 40dc ad3c
00000280: 139d 83bc 7a0c 813b ca22 b7bb 4aa0 b5bc
00000290: 13c6 86bc b9ae c8bb 77f7 053c 40b4 e8bb
000002a0: 2c9b e73a b102 453c 783a cc3c 986e f03b
000002b0: 210e 3d3c 9c0a 7ebc 5215 07bc 3c57 3a3b
000002c0: 9b97 0dbc 4adb 80bc 943f a7ba e067 9eb9
000002d0: 1503 13ba 2556 cebb 9245 2bbc da91 33bb
000002e0: 975e 283c 19e3 653b 5ebe a6bb a0d2 c73c
000002f0: 62ce 49bc 09f3 303c de59 35bc 3d4e 0ebc
00000300: bc62 623c b996 833c 9246 3cbc 1d50 583a
00000310: 9a27 663c 61df e1bb 2e5b 8e3c 1ebc dcbc
-0.0281839 -0.010952059 0.014755985 -0.009188508 -0.003421201 -0.0023341107 0.0028644812 0.017108144
0.019593773 -0.016840767 -0.0012456586 -0.004138029 -0.007482299 -0.009751572 -0.008467169 0.007227231
-0.015722532 -0.010173847 -0.013429301 -0.02466017 0.012868582 0.013993981 0.030545153 -0.007468097
0.0011784198 0.016937165 -0.0011078299 -0.0034683582 -0.008065963 -0.00847755 -0.0057284446 0.0017545766
-0.004796984 0.011254501 7.424251e-05 -0.005347689 -0.0363362 0.0126443915 -0.0102716815 0.011083612
0.005839081 -0.0016517624 -0.013552574 -0.013882285 0.0077802856 0.002608281 0.01897731 -0.0062144017
-0.01728127 0.019254368 0.0008239833 -0.005821677 0.021027371 -0.003921266 -0.015386118 -0.011142376
-0.009992345 0.0069337394 -0.0067155953 0.015725221 0.007618228 0.0 -0.0015798685 -0.008725128
0.013426197 -0.008953192 0.028172664 -0.0080471225 -0.0002375714 -0.007610518 -0.004083018 -0.02051263
-0.020068355 -0.011023351 -0.008667929 0.01616964 0.023963317 0.0001276591 -0.014121151 -0.008802899
0.006733093 -0.009664205 -0.00079673145 -0.011263511 -0.0075797485 -0.0056234496 -0.009788248 -0.010986483
-0.012425174 0.009762798 0.0034043337 -0.0066530653 -0.007831663 0.02183831 -0.021548795 -0.017209802
-0.014215135 -0.0085955765 -0.0105436575 0.017920315 -0.010075995 0.026517957 -0.02050757 0.013601195
-9.023165e-05 0.0005379893 -0.013198189 0.023826692 -0.00723841 -0.021326112 0.00075752364 -0.0010010451
-0.0024382118 -0.015254242 -0.011649719 0.010576942 -0.008477659 0.01534711 -0.009228548 0.0047756406
-0.0044095903 0.021807568 -0.011531683 0.021918902 -0.0012795256 -0.020920208 -0.008256273 -0.017188793
0.032057904 -0.005351801 -0.02271317 0.013138992 -0.0065896465 -0.016978456 -0.015132193 -0.008050433
0.007272746 0.009844825 0.0049177585 -0.0018669824 0.0017848253 0.018645346 0.011157659 0.013761006
0.011391873 -0.008242059 -0.007395641 0.014324542 0.005208517 0.013326376 -0.009890394 0.026022134
-0.0060970234 -0.011317592 -0.02017215 -0.003868441 -0.016350858 0.019806098 -0.010424189 0.021223187
-0.01606611 0.003938255 -0.005588864 -0.022171158 -0.016451871 -0.006124344 0.008176676 -0.0071015656
0.0017670146 0.012024567 0.024930224 0.0073374026 0.011539013 -0.015505459 -0.008244829 0.0028433343
-0.008642103 -0.015729565 -0.0012760037 -0.000302135 -0.0005608064 -0.0062968903 -0.010453599 -0.0027400167
0.010276458 0.0035077988 -0.0050886115 0.024392426 -0.012317272 0.010800132 -0.011068789 -0.008685646
0.013817485 0.016063081 -0.011491435 0.0008251684 0.014047528 -0.006893084 0.017377462 -0.02694517

mu.weight f4 [4, 200]
00000000: a642 233d b042 7f3d cbb5 86bd 501d 13bc
00000010: b7e2 1fbe ea99 13bd f5a6 bd3d 2a24 253e
00000020: 5a92 c83d eaf7 18be 095c 3ebd ff13 bdbd
00000030: 02df 1c3e 6980 383c 6706 073e f797 89bd
00000040: 5feb 2d3e 0945 f33d c37a c13d 140f dc3d
00000050: 6c27 783d bb31 9e3d 9cfa 233d aeac a5bd
00000060: 2ccb c43c 08f9 a33d b3ef 233c 048a fd3d
00000070: 97a9 9bbd 8581 d4bd 1621 143e d27b 81bd
00000080: 0777 24be 3d38 0fbc 8d80 1e3d cbc8 1bbe
00000090: a464 1dbe 774a 443d 4f04 89bd a62d dfbc
000000a0: 789a 61bd 71ec 2ebe 1ecb 86bd d6c0 0f3e
000000b0: d850 abbd 3052 02be 926b 163d a8a2 76bd
000000c0: ed2c e1bd eb8e 3bbd efd2 253e 9ebe 8dbd
000000d0: d5a5 94bd d7c4 b43d 5b01 f53c cdf3 fdbd
000000e0: 6df7 ce3d df9a b4bd 989a f63c 0711 f63d
000000f0: a762 22be 8c7c 783d acf1 1cbe 6b46 3fbd
00000100: 6681 88bc adf5 023e d6d2 053e 922c 9ebd
00000110: aac1 9e3d 5dae 82bd 8a0f f8bd 5de1 e53d
00000120: e3cf 933c 2b99 0bbd 584c 90bd ceba 1d3e
00000130: a1c6 52bc 4549 acbd b8a0 05be 0fcb c13d
00000140: 9f41 95bd 64d5 503d 24b7 d13d 2d6f 42bc
00000150: ecc7 e23d cbad dc3c 802a 0dbe cdcd d8bd
00000160: cea6 7d3d 355f 05be 14f0 95bb e504 493b
00000170: 2dc7 1c3d a8e5 20bd 19e0 57bc 3db2 963d
00000180: 5753 313e a9e3 bebd 0d2d e7bd 02f6 f73d
00000190: 7904 41bd 1d52 323e c6a8 76bb 1f60 2dbd
000001a0: 9156 69bd e835 f3bd 836d c43d e654 183e
000001b0: 9f06 07be 763e 983b 4a92 3fbc 8874 46bc
000001c0: f2d2 0e3e 9c7a 7b3d 079d d4bc 9a38 233d
000001d0: 29ad a6bd 6514 883b 121f 0bbe 5fdb dcbd
000001e0: d29d 10bd 0aba 193e 36dd 213c 5278 823d
000001f0: 1522 21bc a227 80bd c2f1 fdbd 2fbe ea3d
00000200: 970f ca3d e47e 15be 1a7a 53bd e1ce bcbc
00000210: 6c45 b73d 80cd da3d ec6c e03d c32f e0bd
00000220: dd8c 97bd fff5 1ebe cce3 233d 4824 ecbc
00000230: e15e d53d 6135 643d e70e fabd 531d 97bd
00000240: 6e54 64bd 5ab0 2bbd 32be 043e 928e 863d
00000250: 4a85 14bd 2835 12be a5f9 c4bd e1f5 4abd
00000260: 5164 0abd 2f67 b4bb 5870 063e a834 883c
00000270: a275 df3d ceca 303e 8f2e 6b3d 6004 ef3b
00000280: 8426 cfbd 7d39 f0bd 76a2 26be 5a35 373d
00000290: ea1e 083e 2140 abbd c381 a8bc 7a52 6dbd
000002a0: 75d1 6d3d adc6 edbc 5d16 863d d86e cdbd
000002b0: a270 1a3e 07c3 17be 8e90 23be 0ddd 033e
000002c0: 658c adbc 8c99 15be f49f 23be 8b0e fb3d
000002d0: 291c 02bd c961 893d c2ce afbd 53e4 d93d
000002e0: 0d70 ce3d a072 0d3e bfad 0fbe 09d1 713d
000002f0: b113 c13d f430 023e 8c11 2d3d b0d7 fb3d
00000300: fe92 a6bd f322 843d 8143 a2bd 3e95 9cbb
00000310: 77c7 9e3d 6971 b43d c680 c83c 6356 ef3d
00000320: 69b1 e73d c3be e6bd 5334 af3d 713c 0ebd
00000330: ae6c 02be 9f08 753d 18eb eebd 033c f2bd
00000340: 8b6a 773d 1e61 013e fab7 df3d 6a46 d1bd
00000350: 4ba0 12be ae95 b73d e0d4 c9bd d5ac 60bd
00000360: 1ff0 bb3d f337 0bbd 08bb febc 441a c83d
00000370: a108 ab3d a213 a73d 3381 183c 28c7 a9bc
00000380: 1979 d1bd 0c17 aa3d 5f38 eb3d 905b 16be
00000390: cb9f c9bd 8c8c 3abd a9ac a8bd 7407 913d
000003a0: a352 78bc 7a5a 28be 5da2 32bd 2b19 d5bc
000003b0: b5a1 cc3d 81d9 dfbd c27d c3bb 8c7f 323d
000003c0: 2749 11be 5f79 62bd c14e 493d 32da 1bbe
000003d0: b5be 53bd 4ac3 b43d 783b 2abe 8110 a83d
000003e0: 7b3c 31be 9042 bebd bc7f dc3a 170b 0fbe
000003f0: 9239 8cbd 54e4 61bd 64e1 de3b e9f7 5f3d
0.039858483 0.062319458 -0.06577643 -0.008979157 -0.15613829 -0.036035456 0.0926036 0.16127077
0.09793539 -0.14938322 -0.04647449 -0.092323296 0.15319446 0.011261084 0.13186036 -0.06718438
0.16984318 0.11878402 0.09447243 0.107450634 0.06058447 0.07724329 0.04003392 -0.08089577
0.024022661 0.08006483 0.010005879 0.1237984 -0.07600706 -0.103762664 0.14465746 -0.06322445
-0.1606103 -0.008741436 0.038696814 -0.15213315 -0.15370423 0.047922578 -0.06690275 -0.027243447
-0.055078954 -0.17082383 -0.0658171 0.14038405 -0.08365029 -0.12726665 0.03672368 -0.060213715
-0.10994897 -0.045790594 0.16193746 -0.06921123 -0.072581924 0.08826607 0.029907873 -0.12400017
0.101057865 -0.08818602 0.030103013 0.120149665 -0.15857945 0.060665652 -0.15326566 -0.046698015
-0.016663264 0.1278903 0.13068709 -0.07723345 0.07751782 -0.063809134 -0.12112339 0.11224625
0.018043464 -0.03408162 -0.070458114 0.15403292 -0.01286474 -0.084124126 -0.1304959 0.094625585
-0.07287907 0.050984755 0.102400094 -0.011867327 0.11073288 0.02693834 -0.13785744 -0.105861284
0.061926655 -0.130246 -0.0045757387 0.0030673083 0.038275886 -0.039281517 -0.013175988 0.07358215
0.17316948 -0.093207665 -0.1128789 0.12107469 -0.047123406 0.17414136 -0.0037637218 -0.042327996
-0.05696732 -0.11875516 0.095912 0.14876136 -0.1318612 0.004646118 -0.011692593 -0.012112744
0.13947657 0.061396226 -0.025953783 0.0398489 -0.081384964 0.004152822 -0.13586071 -0.10784029
-0.03530676 0.15012375 0.009879401 0.063706055 -0.009834786 -0.06257559 -0.12399627 0.11462056
0.09866255 -0.14599186 -0.051630117 -0.023047866 0.08948788 0.10683727 0.10958275 -0.1094661
-0.073999144 -0.15523528 0.040012166 -0.028825894 0.10418487 0.05571497 -0.12209874 -0.0737864
-0.05574458 -0.04191623 0.12963179 0.06570162 -0.036259927 -0.1427809 -0.096179284 -0.049550895
-0.033787075 -0.0055054645 0.13128793 0.016626671 0.109111086 0.17264864 0.05741745 0.0072942227
-0.10114768 -0.11729715 -0.16272911 0.044728614 0.13293043 -0.08361841 -0.020569688 -0.057939984
0.058061082 -0.0290254 0.06547234 -0.100309074 0.15082029 -0.14820491 -0.15973112 0.12877293
-0.02118511 -0.14609355 -0.15978986 0.12258633 -0.031765137 0.06708104 -0.08584358 0.106392525
0.10079966 0.13813257 -0.14031123 0.059037242 0.09427584 0.12713987 0.042253062 0.122969985
-0.08133505 0.064519785 -0.079230316 -0.0047785332 0.07752889 0.08810694 0.024475466 0.11686399
0.11313135 -0.11266854 0.08554902 -0.03472561 -0.1273677 0.059822675 -0.11665934 -0.118278526
0.06040434 0.12634704 0.109237626 -0.102185085 -0.1431896 0.08964096 -0.09855056 -0.054852325
0.09176659 -0.033988904 -0.031095043 0.09770635 0.08351255 0.081580415 0.009308147 -0.020724848
-0.10228176 0.08305177 0.11485361 -0.14683366 -0.09844931 -0.045544192 -0.08236057 0.070815
-0.015156421 -0.16440764 -0.043611873 -0.026012978 0.09991781 -0.109301575 -0.0059659192 0.04357867
-0.14188062 -0.05529153 0.04914737 -0.15219954 -0.051695544 0.08826311 -0.16624248 0.08206273
-0.17308228 -0.092900395 0.0016822736 -0.13969074 -0.06846918 -0.05514939 0.006801771 0.054679785

mu.bias f4 [4]
00000000: 145b 023c 6674 353b dd7e dcbb e0c1 d03c
0.007956285 0.0027687787 -0.0067289905 0.025483072
