llirl_sumo/saves/120p4k_ultimate/optimal_policy_period_2.pth (torch, 196916 bytes, 7 tensors)

sigma f4 [4]
000000 48 9f 15 3d a8 96 be bc a6 82 ed bc 10 03 44 3c
       0.036528856 -0.023265198 -0.028992962 0.011963621

layer1.weight f4 [200, 36]
000000 93 45 81 3d 3a af 26 3e 10 4d 4b 3c ee 9b 14 3d
       0.06312098 0.16277781 0.01240851 0.03628152
000010 4f 8b 53 3d 6b a6 98 3d 7b 7c 58 bd 6f 8d 9a 3d
       0.051646527 0.07453617 -0.05285309 0.075465076
000020 b0 f2 e1 bc 2c 98 c6 3d 6a 7d e9 bc a9 3d 8d 3d
       -0.027581543 0.09696993 -0.028502185 0.06896526
000030 a0 5c dd 3d 21 01 e3 bd 4d 50 73 3d 09 2e 55 3c
       0.108086824 -0.110842 0.059402753 0.013011464
000040 85 0b 04 be 99 f0 ef bc c3 1f 2b bc b1 63 f7 3d
       -0.1289502 -0.02928953 -0.010444584 0.120795615
000050 53 ec a5 bd 8a 22 08 3e 83 ca 5c bd a3 4a a7 3d
       -0.08101716 0.13294426 -0.053904068 0.08168533
000060 01 e1 53 3d 18 ff f1 3d 59 cf e7 3d e2 0e 00 be
       0.051728252 0.118162334 0.11318845 -0.12505677
000070 2c 3c 9e 3b 31 1e 0b be 05 39 9f 3c c8 d1 ba bd
       0.0048289504 -0.13585736 0.019436369 -0.09122044
000080 1c c8 17 3e c2 89 c9 3d 26 26 94 bd cc 9c 04 3d
       0.1482243 0.09840728 -0.07233839 0.032376096
000090 69 b2 e5 bd ac 48 25 be f6 2f 8c 3d 6d 72 37 bd
       -0.1121567 -0.16141003 0.06845085 -0.04478686
0000a0 5c 40 75 bc a8 af 73 bc 87 42 ba 3c db 4e 63 3d
       -0.014968958 -0.014873423 0.0227368 0.055495124
0000b0 9c cc a3 bd 6b 74 21 bd fd 35 d7 bd e2 25 cb bd
       -0.079980105 -0.039417665 -0.10508344 -0.09919335
0000c0 65 c7 9e bd 41 b0 e1 3a 09 ed 0f be ab e1 01 bc
       -0.07752875 0.0017218665 -0.14055265 -0.007927339
0000d0 3f 03 03 3e 77 3c 1e be c9 d4 4f 3c 1e eb d6 3d
       0.12794207 -0.15452753 0.012685009 0.10494064
0000e0 d0 ad f9 3a f6 8a 9e 3d f6 9e d1 bd 8d 1a c2 bb
       0.0019048993 0.077413484 -0.102353975 -0.0059235753
0000f0 1b 42 80 bd 8e e0 93 bb 5b 43 2f bd 5c 5d 04 3c
       -0.062626086 -0.004512853 -0.042788845 0.008078899
000100 77 41 06 3e e2 44 63 bd 58 5f 37 3c 3a 68 02 be
       0.1311091 -0.055485614 0.011192165 -0.12735072
000110 26 8b 91 3d 47 53 76 3c 3a bc f7 bd 2a fc ba 3d
       0.071066186 0.015034503 -0.12096448 0.09130128
000120 25 1d ca bd 5e 99 01 be 50 a1 1d be 23 a0 bd bd
       -0.0986884 -0.12656161 -0.15393567 -0.09259059
000130 78 55 16 bd db b3 9c bd 64 8f 1b 3e 71 19 21 be
       -0.036702603 -0.07651492 0.15191418 -0.15732361
000140 43 a1 ff bc e9 df e3 bd 0a a6 10 3e b6 bc 5f bd
       -0.031204825 -0.11126692 0.14125839 -0.05462333
000150 b6 d4 11 be 98 09 6e 3d 37 0d bc bd bb 48 98 3d
       -0.14241299 0.058114618 -0.09182208 0.07435747
000160 cb 5f 18 3e 46 45 b8 bc 46 de 0f bc d4 39 16 be
       0.14880292 -0.02249397 -0.008781021 -0.14670497
000170 41 da 23 bc b1 a4 cc 3d e8 c1 bb 3d 78 86 90 3d
       -0.010000766 0.0999235 0.09167844 0.07056898
000180 f1 76 03 be 8f c2 de 3d 28 50 b0 3d 62 03 12 bd
       -0.12838341 0.10876953 0.086090386 -0.035647757
000190 f7 eb 23 be 53 08 fb 3d 9e 00 b6 bc 66 84 fe bd
       -0.16007982 0.12257447 -0.022217091 -0.12427597
0001a0 6b e6 df 3d 7b 72 1b be 21 05 28 be 72 9f e0 3d
       0.109326206 -0.1518039 -0.16408207 0.10967912
0001b0 63 87 fb 3d be 41 01 bb 54 4f d2 ba a9 6d 3e bd
       0.12281682 -0.0019723023 -0.001604537 -0.0464913
0001c0 ef 1f e1 bd 64 67 93 bd ac 83 d5 bd 20 60 d5 bb
       -0.10992419 -0.071974546 -0.10425505 -0.006511703
0001d0 de 7d 55 bd c6 5d 8e bc 47 61 c1 bd 94 45 95 3d
       -0.05212199 -0.017378699 -0.09442382 0.072886616
0001e0 c5 21 a4 3d 86 a7 39 bd 12 1e e9 3d c2 9a 8d 3c
       0.080142535 -0.04532578 0.113826886 0.017285708
0001f0 7c 1e 09 be 90 3a 55 bd 35 fc 1b be 04 63 16 bd
       -0.13390535 -0.052057803 -0.15232928 -0.036715522
000200 4d 35 c2 3d 99 f8 0d bc 2b f4 3e bd 8e dd bf 3c
       0.094828226 -0.008665227 -0.046619575 0.023421075
000210 ab f4 2e bd 52 26 13 be 7c 6d 54 3c 5a 88 0e be
       -0.042713802 -0.14370087 0.012965556 -0.13919201
000220 29 6d 42 3d 52 33 2b bd 37 1a 48 3c c9 d2 0d be
       0.047467384 -0.04179699 0.012213281 -0.1384994
000230 32 43 cb 3b f6 2a 22 3a 76 6e dd bd a0 2e ed bc
       0.0062030787 0.0006186211 -0.108120844 -0.028952897
000240 7f e4 71 3d 40 9b a8 bc 24 3a 6e bd 1c 57 d0 3d
       0.0590558 -0.020581841 -0.058160916 0.10172865
000250 cb 57 17 3e 20 fb bc bd 05 38 1f 3b e9 64 49 bd
       0.14779584 -0.09227586 0.0024294865 -0.0491685
000260 35 81 a9 bc 89 5a a5 3d 2a 43 b1 bc ad 79 c8 bc
       -0.020691494 0.08073909 -0.021638472 -0.024472082
000270 27 67 15 3d 97 8d d9 3d 1b 1b 08 3e a1 6b 87 3d
       0.036475327 0.10622709 0.1329159 0.066123255
000280 1a 43 a7 bd 5c a2 8d bd bf 21 e7 bd 54 cf 1a be
       -0.081670955 -0.06915733 -0.112857334 -0.15118152
000290 2e 9a 31 be 86 3f 24 bd d4 c4 33 3d 79 22 01 3e
       -0.17343971 -0.040099643 0.04388888 0.12610807
0002a0 d0 db cd bb c1 00 24 be bf 1e b9 bd c7 c8 d9 3d
       -0.006282307 -0.16015913 -0.090390675 0.10633998
0002b0 2d a6 07 3e 88 4d da 3c 92 fb 68 bd fc 23 ad 3d
       0.13246985 0.026648298 -0.05688054 0.08454129
0002c0 01 2f b9 3b 70 53 11 be de 4e f2 bd 9c 59 9f bd
       0.0056513553 -0.14191985 -0.11831449 -0.077807635
0002d0 89 9f 04 bd cc cc 90 bd 2b d9 12 bd e6 fd da 3d
       -0.032378707 -0.07070312 -0.03585164 0.106929585
0002e0 20 31 e9 3d e7 b6 04 bd 7b 4a b6 3d 04 8a cf 3d
       0.11386323 -0.03240099 0.08900925 0.10133746
0002f0 3b 70 81 bd b0 69 fc 3d b2 4e 1e 3d 70 fd 45 bd
       -0.063202344 0.12324846 0.03864927 -0.0483374
000300 97 6a 1f 3e d9 8f 01 bd 23 a5 b2 3b 42 83 85 3d
       0.15568005 -0.031631324 0.0054518147 0.06519176
000310 6a 50 cb 3c 42 72 e0 3c bf 25 57 bd d9 ae 43 3d
       0.024818618 0.027398232 -0.05252623 0.04777417
000320 42 de d0 3c a8 eb b8 bc 84 1f fd bd 53 77 6a bd
       0.025496606 -0.022573307 -0.12359527 -0.057242703
000330 0e 41 24 3e 93 fa f7 3d 7f 52 4d 3d d0 56 72 bd
       0.16040441 0.1210834 0.050127503 -0.059164822
000340 2c 22 c5 3d 74 3f ce 3d 36 0a e5 bd 82 50 7e bd
       0.096256584 0.100706965 -0.11183588 -0.062088497
000350 5b 2b 14 be 8b f7 31 be c5 b3 03 3e d4 00 a3 3c
       -0.14469664 -0.17379586 0.12861545 0.019897856
000360 40 17 bc bc 5c d1 d2 bc c4 e7 42 bc e8 ea 17 3e
       -0.022960305 -0.025734596 -0.011896078 0.14835703
000370 97 bf 19 be e8 de da 3d e8 e0 7a 3d e1 2f a2 bc
       -0.15014492 0.10687047 0.061249644 -0.019798221
000380 03 55 a6 bd 1b e0 4e bd 0f 29 af bd c6 1c 2f 3d
       -0.081216834 -0.050506692 -0.08552753 0.04275205
000390 7d 7f db 3d 05 7d bf 3d ca cb 06 be 21 f8 da 3d
       0.10717676 0.093500175 -0.13163677 0.10691858
0003a0 39 81 4a 3d 82 10 ac bc 1e ec c7 bd 8b 53 8d bd
       0.049439643 -0.021003965 -0.09761833 -0.069007
0003b0 4a d8 19 3e 7d 66 36 3d 00 ad be bd 73 27 f5 bb
       0.15023914 0.044531334 -0.09310341 -0.0074815094
0003c0 61 75 6e bd 98 a9 8c bc 41 0e 88 3d e5 e0 06 be
       -0.05821741 -0.017170712 0.06643344 -0.13171728
0003d0 b6 1e d1 bd 08 b9 d0 bd 24 a1 bc bd ee 9e c4 bd
       -0.10210936 -0.10191542 -0.09210423 -0.09600626
0003e0 45 1c e6 3d 04 3c 1c 3e e4 af f3 bd 2c d7 99 bd
       0.11235861 0.15257269 -0.11898783 -0.07511744
0003f0 18 bb bf 3d f0 64 85 3d d2 f1 0a be 8f 7d 33 bd
       0.09361857 0.06513393 -0.1356881 -0.043820914

layer1.bias f4 [200]
000000 a6 35 77 bc b9 4e 4e bc 69 a7 fc bb 07 b3 eb 3c
       -0.015088474 -0.012592011 -0.0077103865 0.02877189
000010 6a 0f 0c 3c 0a ad 59 3b 30 c9 10 bc 77 ce 2d bc
       0.008548597 0.0033214712 -0.008837029 -0.010608307
000020 a6 c2 57 3c f6 38 60 3c 5e 16 a3 bb e1 b2 32 bb
       0.013168966 0.013685456 -0.0049770316 -0.0027267265
000030 aa 74 eb bb eb f8 d3 3b 91 ee 01 bc 70 3c 94 3c
       -0.0071855383 0.0064688823 -0.007930414 0.018095225
000040 fe 0a c1 3b 67 0a ab bc 9b f9 24 bc c1 26 b0 bb
       0.005891203 -0.020878984 -0.010069276 -0.0053757136
000050 3f d6 41 3c bf 48 bf bc 95 be 14 bc a3 5d 9b bb
       0.011830865 -0.023350118 -0.009078641 -0.004741387
000060 06 97 69 bb a1 84 0f bb 2c 3f e0 bb 0d db 6a 3c
       -0.0035642995 -0.0021899121 -0.006843468 0.014334452
000070 1b 52 59 bc ce 03 62 3b 80 8b 91 bc 9a ab 29 bb
       -0.013264204 0.003448713 -0.017766714 -0.0025889636
000080 a6 2a 61 3c 6b 90 04 bc d8 c0 81 3c ba 6d 2e bc
       0.013743078 -0.008091073 0.015839025 -0.010646278
000090 f5 c6 04 bc 50 9d af bb ab 4b 15 bc fe 90 87 ba
       -0.008104076 -0.0053593293 -0.009112279 -0.0010342894
0000a0 29 2b 2d bc 0c 94 21 bc 74 7d 51 bc dd f9 15 bc
       -0.010569372 -0.009861957 -0.012786258 -0.00915381
0000b0 1a eb 2f bc bd ec eb ba 46 44 4f bc 79 1e 24 3c
       -0.010737205 -0.0017999631 -0.012650555 0.010017031
0000c0 cc 0f 82 bc 6e 24 df 3c 03 a4 90 bc 5e 57 f9 bb
       -0.015876673 0.02723905 -0.017656332 -0.007609292
0000d0 89 d8 f5 bb 6d 3a 52 b9 65 51 14 3c e1 66 f2 39
       -0.0075026196 -0.00020048926 0.009052609 0.00046234488
0000e0 05 a3 9a bc 7e b7 12 bc d3 b8 8a ba 75 0d 98 3c
       -0.018876562 -0.008954881 -0.0010583646 0.018561104
0000f0 38 ba 74 bb 81 50 cd 3b 0c 0d 84 bc f3 99 9f 3b
       -0.003734244 0.0062657003 -0.016119502 0.004870647
000100 94 7f 2f bc aa 4c a5 bc 87 50 10 bc da e3 88 bb
       -0.010711569 -0.020178158 -0.008808262 -0.0041775526
000110 d3 26 9d 3b 46 37 94 bc 21 a0 c6 bb 17 0d fe b9
       0.004795888 -0.018092763 -0.0060615693 -0.00048456408
000120 66 40 87 bc c7 f7 29 3c 54 4b 68 3c e2 b5 86 39
       -0.0165102 0.010374016 0.014178116 0.00025693985
000130 1a f0 60 bc f8 90 3c 3c 94 83 06 3d 78 aa e1 bb
       -0.01372912 0.011509173 0.032840326 -0.0068867765
000140 3b e8 41 3c de 1d 41 bb d0 18 df bb b8 59 60 3b
       0.011835153 -0.0029467265 -0.006808378 0.0034233164
000150 52 3a 97 bb 3b 42 ba 3b d2 92 94 bb 9d 00 56 bc
       -0.0046151066 0.005684165 -0.004534104 -0.01306167
000160 90 7f 3b 3b 57 ed 44 bc a0 45 7c 3c e2 74 39 3a
       0.0028609969 -0.012019477 0.015397459 0.0007074607
000170 77 28 73 bc 3d 73 84 3c 13 24 b1 3c 8a 8f 28 3c
       -0.014841191 0.016168231 0.021623647 0.010288129
000180 9d b4 33 bc c8 6f 4e bb 2a ec 8c bc f0 d3 fc 3b
       -0.0109683545 -0.0031499732 -0.017202456 0.0077156946
000190 ed f7 3b bc 47 5c 20 3c cd af c9 bb 62 a1 19 bc
       -0.011472684 0.009787626 -0.0061549903 -0.009376856
0001a0 52 5d 95 39 8f d5 ea bb 51 6d 5e bc ae 2d 7f 3c
       0.00028489024 -0.0071665714 -0.013575868 0.015574856
0001b0 43 ad 0f bb 57 95 47 bc df 67 78 3c ff 2c 0c bc
       -0.002192334 -0.0121816015 0.015161484 -0.00855565
0001c0 8e 4f f4 ba 2a c4 16 bc fe b2 3f 3c 9b b0 41 bc
       -0.0018639432 -0.009202043 0.01170039 -0.011821891
0001d0 0c b6 b1 bc 15 10 7d 3c 7a 55 91 bc 5e 67 4a 3c
       -0.021693252 0.015445729 -0.017740954 0.012353746
0001e0 ce c1 0c bb 6f a2 97 3c aa 52 03 bc d6 08 cd bb
       -0.0021477821 0.018510072 -0.008015314 -0.006257157
0001f0 6e 04 94 3c 01 39 8a ba 93 0c 2c bc 6d 64 4d bc
       0.018068518 -0.0010545553 -0.010501045 -0.01253615
000200 c9 dc a1 3b 4f 71 a3 ba cf 6f 63 bb 13 50 8d bc
       0.0049396497 -0.0012469682 -0.0034704094 -0.017250096
000210 61 51 bd ba bb 2c 5a bc 6e ac 5c 3c ac b5 0f 3c
       -0.0014443808 -0.013316329 0.013468845 0.008771341
000220 ce 8a 62 3b 4d 92 3a bb 81 79 2a bc ad 5e 76 bb
       0.0034567597 -0.002846855 -0.010404945 -0.0037593052
000230 f7 0d c6 bb 55 ac 91 bb 47 a3 88 3c 71 f4 ab 3c
       -0.006044145 -0.0044455924 0.01667942 0.020990582
000240 62 ed 85 bc 00 00 00 00 1f a2 3b 3c 4f 37 06 bc
       -0.016348545 0.0 0.011452227 -0.0081918975
000250 c7 8a e9 bb 24 2c b5 bb cf e9 5a bc f9 5e ca bb
       -0.0071271393 -0.0055289436 -0.013361408 -0.0061758724
000260 59 91 d4 3b 9c c9 23 3c fa 13 ae bc 8d 34 30 bc
       0.0064870534 0.009996798 -0.02124976 -0.010754717
000270 8d 9d 88 bc a4 d4 9f bc 3e f2 fe 3c 9a 21 c1 bb
       -0.016676689 -0.019510575 0.03112137 -0.005893898
000280 fb a4 aa b9 00 00 00 00 46 52 4d 3c 94 8a 87 bc
       -0.00032547847 0.0 0.012531823 -0.016545571
000290 d0 13 67 3a 4f c5 e0 bb 3e fb f3 bc 9c c2 01 bc
       0.0008814903 -0.0068594585 -0.029782888 -0.007919934
0002a0 c3 17 cf bb 63 0d 75 bc 25 86 0d bb a1 f9 49 bc
       -0.0063199713 -0.014956805 -0.002159485 -0.012327583
0002b0 f0 33 b4 bc f7 b4 e4 b9 1e ad 3d bc 8e 6e 75 bc
       -0.021997422 -0.00043622378 -0.011576919 -0.014979972
0002c0 42 30 e4 39 ea 9d 67 bc 86 50 80 3b 6e 55 91 bc
       0.00043523504 -0.014136771 0.003915849 -0.017740931
0002d0 5b 7e 9b bc aa 34 36 bc 27 92 36 bb d6 80 a5 3b
       -0.01898115 -0.0111209545 -0.002785811 0.005050759
0002e0 0b b8 90 bb 88 bc 1d 3b d0 6a 69 bc 89 a7 94 bc
       -0.004416471 0.0024068672 -0.0142466575 -0.018146293
0002f0 96 4f 7b 3c 43 a0 13 bc ec 91 6a bc 21 4e 55 3c
       0.015338799 -0.009010377 -0.014317017 0.013019116
000300 bd 94 80 b8 61 2d 3e 3c 67 9b c9 3c d8 b2 41 bc
       -6.13122e-05 0.011607499 0.024610234 -0.011822425
000310 e2 f3 ae bb ed f9 19 3c 66 a6 9f 3c bb 94 b9 bb
       -0.0053391317 0.009397966 0.019488525 -0.005663482

layer2.weight f4 [200, 200]
000000 e7 4b 85 3c 90 e2 6d 3d 67 9e af bd 6a 9b 10 be
       0.016271545 0.058077395 -0.08575135 -0.14121786
000010 a4 3b 0b 3c 1e 00 85 bc ed e3 9f 3d 5c b9 8f 3c
       0.008498106 -0.016235407 0.07807145 0.01754444
000020 a7 40 c4 bd 60 be 78 bd e8 e6 8b 3c b5 d6 5e 3c
       -0.09582644 -0.06072843 0.017077878 0.013600995
000030 16 f4 fc bd 0b 7e 6d 3d de 3c c4 3d bd 2f a3 3d
       -0.12351243 0.057981532 0.09581922 0.0796809
000040 29 94 50 bc af 77 ef bd c7 30 22 bd ef af f5 3d
       -0.012730637 -0.1169275 -0.0395973 0.11996447
000050 19 e0 a5 bd c6 f6 89 bd 4e 38 78 bc 05 94 69 3d
       -0.08099384 -0.067365214 -0.015150143 0.057025928
000060 17 a4 9b bc 30 4e 01 be 68 ad 42 3d 7d f6 42 bc
       -0.018999143 -0.12627482 0.047528654 -0.011899588
000070 42 db f8 3b 9a 77 bb 3c e0 f0 24 bd 54 da a5 bd
       0.007594497 0.022884179 -0.04026878 -0.080982834
000080 97 63 5a 3d b0 f0 ae bd 8a 1b 02 bb eb fe 9b 3c
       0.053317633 -0.08542001 -0.001985284 0.019042453
000090 e4 a3 8e 3d 37 6e a0 3d c2 a4 94 bd ee b0 e5 3c
       0.069648534 0.07833522 -0.072579876 0.028038468
0000a0 1e 69 93 bb d1 b6 bc bc ce 28 50 3d 9b 12 de 3d
       -0.004498615 -0.023036392 0.050820164 0.108433925
0000b0 04 32 4a 3c 2e 08 49 bd ef 78 1a bd ca 72 a2 3c
       0.012341026 -0.049080066 -0.037712988 0.019830126
0000c0 87 80 30 bd 6f 83 5f bc 8a 00 62 3c 11 eb 05 3d
       -0.043091323 -0.013642176 0.013794074 0.03269488
0000d0 bf 79 b3 3d df 94 33 bd 1c b9 e9 bd a1 c8 c8 bc
       0.087634556 -0.043843146 -0.1141226 -0.02450973
0000e0 e4 bd c2 bd 7d f8 9b bd 69 ea 31 bd cf 54 a0 bc
       -0.09508875 -0.07615755 -0.04343644 -0.01957169
0000f0 00 25 75 3d 99 43 45 3d 88 f4 87 3d 54 d0 ae bd
       0.05984974 0.04816017 0.066384375 -0.08535829
000100 9d cd 3b 3d 7c c8 48 3d 68 b9 bc 3d 9d b7 88 3d
       0.045850385 0.04901932 0.09215051 0.066756465
000110 1d e6 33 bc 52 28 fc 3d 69 51 bb 3d 58 bd b7 bd
       -0.010980156 0.12312378 0.09146387 -0.08971661
000120 ee 44 9f 3d 60 ec b4 bc 72 c7 00 be c3 13 9b bc
       0.07776819 -0.022085369 -0.12576082 -0.018930322
000130 b7 b6 c0 bd d5 21 59 3d 32 3f 5b bc 98 84 9c bc
       -0.0940985 0.05301078 -0.013381766 -0.019106194
000140 b3 04 01 bd d7 72 92 bd ea 03 12 be cf 6c 36 3d
       -0.031498622 -0.0715081 -0.14259306 0.04453736
000150 61 df 8f 3b d7 f5 0f be db 2b 59 3d 14 1e e1 bd
       0.0043906425 -0.14058624 0.05302034 -0.10992065
000160 a9 4b c3 bb dd 3e 0b 3e f1 d7 99 ba 0b 41 a9 bd
       -0.005959947 0.13598199 -0.0011737329 -0.08264359
000170 12 5e b2 bd 0a 1f 8e 3d a5 85 b2 bd 45 6f 29 bd
       -0.08709349 0.06939514 -0.08716897 -0.04136588
000180 7c 8d 9c bd b5 4d c5 3d e2 2a f8 bd 43 93 6f bc
       -0.076441735 0.09633962 -0.12117554 -0.014622512
000190 a0 ed 60 3b 4a e0 a2 bd 44 c6 d0 3d 51 cb f2 bd
       0.0034321323 -0.07952936 0.10194066 -0.11855186
0001a0 9d 32 7b bd 16 bc 2a 3d bc a8 ed bb a5 f6 a9 3c
       -0.061327565 0.04168328 -0.0072527807 0.020747492
0001b0 e5 28 b1 bd 8b 42 00 3d 7b 52 93 bd ac bf be 3d
       -0.08650378 0.03131346 -0.07193466 0.09313902
0001c0 91 cd f3 bd 1f 91 0b bd c5 92 a6 bd 97 59 b2 bd
       -0.11904443 -0.034073945 -0.08133463 -0.08708494
0001d0 6b 3f f5 bc 5b 4f bb bd 68 fb d7 bd ac 8c b2 bd
       -0.029937467 -0.09145995 -0.10545999 -0.08718237
0001e0 b9 25 9c bd 17 f2 cb bb af ea 6e bc d0 f8 8a 3d
       -0.076243825 -0.0062239277 -0.01458232 0.067857385
0001f0 79 aa 55 3d fc 2b 93 bd 23 8e 63 bd 3c 2c 9a bd
       0.05216453 -0.07186124 -0.055555474 -0.07527968
000200 98 57 8c bd 35 89 9b bd 7e b0 96 3c bc fb 96 3d
       -0.06852645 -0.075945295 0.018394705 0.07372233
000210 dc b1 39 3c bb ca 6f bd 12 98 2e bd bf 84 ab bd
       0.011333909 -0.05854295 -0.042625494 -0.08374929
000220 e3 28 c7 3c 64 da c2 3d f5 e2 1e bd 4e b0 a7 3d
       0.024311488 0.09514311 -0.03879066 0.08187924
000230 bc 1a 0f bc d3 33 77 bd 14 01 87 3d 74 a0 64 bd
       -0.008734401 -0.060352158 0.065920025 -0.055817083
000240 85 ce 5d 3d f4 e5 c6 3c ce ae a1 bd 88 4f 43 bc
       0.05415203 0.024279572 -0.078946695 -0.011920817
000250 de f5 a6 3d 23 eb 61 bd f4 2e 45 bd 10 d8 9e 3d
       0.08152364 -0.055155884 -0.04814048 0.077560544
000260 78 8d 89 3d d0 01 5e bd 80 7d 01 bd 61 a0 e4 bc
       0.06716436 -0.054200947 -0.031613827 -0.027908506
000270 ff e3 03 be e3 c7 ee bd c0 87 1c 3d 6c d0 d8 3d
       -0.12879942 -0.11659219 0.0382154 0.10586628
000280 87 89 a7 3d ec 01 f0 bc 9a f6 25 bd ba ee 30 3d
       0.08180528 -0.029297791 -0.04051838 0.043196417
000290 46 32 5e b9 88 50 1f 3d 8f ee c4 3d ba 77 b8 3d
       -0.00021190298 0.03889516 0.09615814 0.09007211
0002a0 17 41 9a 3d 29 cb 15 bd b3 ee bb bd cd 3f 34 ba
       0.07531946 -0.0365707 -0.09176388 -0.0006875962
0002b0 76 f0 c0 bd 73 72 ef 3d fd 20 e3 3d 65 8a ee bd
       -0.09420864 0.11691751 0.110902764 -0.116474904
0002c0 29 95 c5 bd e0 aa b1 3c dd 37 73 bd b6 91 eb bc
       -0.09647591 0.021687925 -0.059379447 -0.028756004
0002d0 ac d2 d0 bd 2a 47 5f 3d 55 b4 b6 3b d0 11 f7 bd
       -0.101964325 0.054511227 0.0055756965 -0.12063944
0002e0 1a 6c d4 3d b9 c5 af 3d bb b5 6a 3c db 66 85 3d
       0.10372181 0.085826345 0.0143255545 0.06513759
0002f0 69 7c 9e 3d 39 a2 0e be a0 64 8f 3d ea 56 39 bc
       0.07738573 -0.1392907 0.070016146 -0.011312226
000300 2e 10 08 bc cf 4c c8 bd 56 3b 95 3d 00 00 71 b9
       -0.008304639 -0.09780275 0.07286708 -0.00022983551
000310 a3 90 86 3d 40 ee b9 bc 68 09 b4 bb 8a fb e8 bd
       0.06570556 -0.022696614 -0.0054942854 -0.11376102
000320 d9 8b 86 bd 11 7a d5 bb ca 9a 3f bc 3e 0b 8f 3d
       -0.065696426 -0.0065147956 -0.011694619 0.06984566
000330 f3 c6 46 3d c0 bb 8a bc 52 e0 9b bd b4 21 8f 3c
       0.048529577 -0.01693523 -0.07611145 0.017472126
000340 b7 2b ee 3c a6 3e 14 3b c4 50 f4 bc 61 1d c0 3d
       0.02907358 0.002262035 -0.029823668 0.093806036
000350 be 06 ee bd 6a ec 2d bd 23 e9 b6 3d 84 34 b3 bd
       -0.1162238 -0.04246179 0.08931186 -0.08750251
000360 70 85 b3 bc 70 15 4e 3d 14 6b 5f bd e9 b1 a2 3c
       -0.021914214 0.050313413 -0.054545477 0.019860225
000370 d5 62 dc bc 39 55 98 bb 8a 2b e2 bd 64 0e cb bd
       -0.026902596 -0.004648831 -0.11043461 -0.09914854
000380 da e1 91 bc c3 78 d0 bc 20 f9 8b 3c b9 b7 0e 3b
       -0.01780789 -0.025448209 0.017086565 0.0021776988
000390 c3 20 89 3d 3f f4 93 3d 64 5c e4 bd 31 49 91 3d
       0.06695702 0.072243206 -0.111504346 0.07094038
0003a0 74 cd 6f 3b 94 f0 ea 3c 24 1c a1 3c 15 c7 0d bb
       0.0036590965 0.02867917 0.019666739 -0.0021633555
0003b0 da 58 82 3d a3 93 9d bd 4d b5 12 3c 73 60 43 bb
       0.06364603 -0.07694175 0.008954358 -0.0029812127
0003c0 81 59 d0 3d fa 02 b5 bc cd 79 ed bc 4e aa 16 3d
       0.101733215 -0.022096146 -0.028988743 0.03678351
0003d0 74 47 bd 3d b7 04 5f 3d 64 0c 76 3d c0 55 14 bd
       0.09242144 0.054447856 0.06007041 -0.03621459
0003e0 c7 c2 1c 3c 46 e3 c5 bd 22 c5 32 bd e1 cb b0 bd
       0.009567923 -0.096624896 -0.04364503 -0.08632637
0003f0 f4 d6 b2 3c 20 c6 fe 3d 97 a9 a3 3d 37 c5 d0 3d
       0.021831013 0.12440133 0.07991331 0.10193866

layer2.bias f4 [200]
000000 a2 89 be bc e6 e5 48 bc 54 04 c3 3c bf 8a 16 bc
       -0.023258988 -0.012261843 0.023805775 -0.009188353
000010 3a 5e 78 3b 1e e6 fd bb 05 2f ec bb 8e 76 f2 3b
       0.003789796 -0.0077483794 -0.0072077536 0.0073993867
000020 0e 3e b1 3c 33 77 92 bc dd fe 37 3b d1 18 ed bb
       0.021636035 -0.017879104 0.0028075494 -0.0072356244
000030 7c dd f4 bb 72 94 1c bc 58 9f 25 bc e5 55 13 3c
       -0.007472692 -0.0095568765 -0.010108791 0.008992647
000040 90 3b 70 bc 9b 44 51 bc 83 c2 25 bc e4 66 38 bc
       -0.014662638 -0.0127727045 -0.010117176 -0.011255
000050 ce ef 83 3c ed 13 9c 3c ad 04 dc 3c 3a 2e ad bb
       0.016105559 0.01905247 0.026857698 -0.0052850517
000060 eb 90 b0 bb 76 c7 cc 3c 7c 60 4e 3c 0a 3f 1e bc
       -0.0053883693 0.024997454 0.012596246 -0.009658584
000070 fd 70 8f bc cb df 0a bc f3 b4 bb bb 4e c0 22 3b
       -0.017509932 -0.008476208 -0.005728358 0.002483386
000080 41 7b d1 38 69 ff 4a 3b b7 fb a9 38 dd e5 3b bb
       9.9888544e-05 0.003097499 8.1054335e-05 -0.0028670945
000090 80 f9 e2 bc 12 20 10 3b 07 63 26 bc cb 3c 85 3c
       -0.027706861 0.0021991772 -0.010155446 0.01626434
0000a0 40 30 ac 3b 10 9d d7 ba 6d 8b 32 bc d3 ac 85 bc
       0.0052547753 -0.0016450007 -0.0108974995 -0.01631776
0000b0 14 ad 28 3c f6 64 7f 3c dc f0 07 3c 82 0f c0 bb
       0.010295171 0.015588036 0.008297171 -0.0058612237
0000c0 1c e7 86 bc fc c5 a2 3c 45 e6 b2 3c b4 bf be bb
       -0.016467623 0.019869797 0.021838317 -0.0058211926
0000d0 e9 65 97 3c 21 d2 97 ba 4f ac 0c bc 18 fd 21 bc
       0.018481212 -0.0011583009 -0.008586003 -0.009887002
0000e0 37 b6 23 bc 32 d6 06 3c 9d 0d dc bb 86 8b 8e 3c
       -0.009992174 0.008229779 -0.00671549 0.017400514
0000f0 0d 9f 01 3c 00 00 00 00 03 af a1 3b 83 16 d1 bb
       0.007911456 0.0 0.004934193 -0.0063808574
000100 4d 22 f9 3b 6e 10 a2 bb 7b 1e 4f 3c fb 4e 3d bc
       0.007602966 -0.004945806 0.012641544 -0.011554475
000110 62 51 56 3c 3a 45 e7 bb e7 d1 2f 3b 10 44 24 bc
       0.013080927 -0.007057813 0.0026827992 -0.010025993
000120 d9 ee e4 ba 9c 66 33 bc 6e 1f 01 bc a2 cf a0 3c
       -0.0017466202 -0.010949757 -0.007881029 0.019630257
000130 20 7d b3 3c c3 15 29 3a 40 45 67 bc 2b 39 10 bc
       0.02191025 0.0006450081 -0.014115632 -0.008802692
000140 b1 e7 3a 3c 77 b3 e1 bb 7b 73 74 3b e6 ae 38 bc
       0.011407779 -0.006887849 0.0037300277 -0.011272168
000150 7d 5e f8 bb 51 14 c4 bb 28 da 62 3c 0d 56 2c bc
       -0.0075796233 -0.005983867 0.013845958 -0.010518563
000160 68 b7 03 bc 7f 2c 81 3c 12 c0 44 3c 54 f0 d9 bb
       -0.008039333 0.015768288 0.012008684 -0.006650964
000170 53 47 00 bc 0c c9 9c 3c 83 b7 3b bc 5d 9e 8c bc
       -0.007829505 0.019138835 -0.011457327 -0.017165357
000180 64 c3 2c bc d9 4e e5 ba 08 43 72 bb 67 91 3e 3c
       -0.010544632 -0.0017494812 -0.0036966223 0.011631346
000190 0a 15 25 bc cf b3 d1 3c 2a 10 8f bc 1d 49 eb 3b
       -0.010075817 0.025598435 -0.017463762 0.0071803466
0001a0 c7 64 85 3b 29 b9 d0 3b 47 3d 95 bc a9 56 54 3c
       0.0040708515 0.006369729 -0.018217696 0.0129601145
0001b0 81 30 1e bb 85 b2 ae bc 9b 1d c3 bb 27 d2 0a 3c
       -0.0024137797 -0.02132536 -0.005954457 0.008472956
0001c0 49 66 17 bc c9 53 3c bc 9c d8 3e bc b5 d2 52 ba
       -0.009240695 -0.011494585 -0.011648323 -0.0008042262
0001d0 bb 9f 53 bc f9 da 4b 3b cc 87 a6 bb 69 55 4e 3b
       -0.012916501 0.003110586 -0.005082106 0.0031484014
0001e0 7f 32 db bb 45 95 81 3c 7b ee 3c bc 5c 0c c8 3c
       -0.006689369 0.015818248 -0.011531468 0.024419956
0001f0 3a 35 3a 3b e9 98 a2 bb df 1c 9c bc 5f e6 a7 bc
       0.0028413073 -0.004962076 -0.019056736 -0.020495592
000200 e9 ec 42 3c 8a 1c af bb fe 36 88 bc cd f7 ba 3c
       0.011897304 -0.0053439783 -0.016627785 0.022823239
000210 09 ff 67 bc f0 f3 8a bc b4 eb 55 bc e9 75 9c bb
       -0.014159926 -0.016962022 -0.013056684 -0.004774798
000220 22 88 14 bb cd 79 a0 3c 56 a3 66 3b 02 af f4 ba
       -0.002266415 0.01958933 0.003519257 -0.0018667879
000230 96 a3 36 bc c7 6e 52 3c 78 97 94 3c fa 73 74 3c
       -0.0111474 0.012843794 0.018138632 0.014920229
000240 1b 1a a8 3c 23 09 07 bc 24 56 f2 bb 5c 40 bf 3c
       0.02052026 -0.008241924 -0.0073955227 0.023346119
000250 05 68 59 3c 08 87 39 3c 19 ec b5 bb 43 13 b3 3c
       0.013269429 0.011323698 -0.0055518267 0.02185977
000260 24 85 86 bc 40 65 39 bc bb 01 a5 bc 9a 28 7d bb
       -0.016420908 -0.011315644 -0.020142427 -0.0038628937
000270 e7 eb 80 bc 39 04 16 3c 71 c9 2a bc 69 c5 3a 3c
       -0.015737487 0.00915628 -0.010424004 0.011399605
000280 5c 05 4f bc 5f 62 72 3c 87 15 05 bc 54 d5 5b bc
       -0.012635555 0.014793961 -0.008122808 -0.013417561
000290 e0 c1 86 bc ff 84 be bb 94 fd 0d 3c e1 a9 b1 bb
       -0.016449869 -0.005814194 0.008666415 -0.0054218625
0002a0 bd f0 e0 3b 81 32 81 3c bb e4 94 3c d5 62 8c 3c
       0.0068646357 0.015771152 0.018175473 0.01713697
0002b0 a2 e5 ea 3b 1c bd 8b bc 41 76 84 bb 12 6f b1 3c
       0.0071684876 -0.017057948 -0.0040424173 0.021659408
0002c0 fb 96 0d bc bf cf 80 bc b7 fa 11 ba d6 fe 2b bc
       -0.008641954 -0.015724061 -0.00055686705 -0.010497769
0002d0 91 ca 4a 3c 9f 69 34 bc 44 13 07 bc a8 91 9d bb
       0.012377397 -0.01101151 -0.008244339 -0.0048086233
0002e0 78 71 7c 3c a7 ad 9a bb b9 41 37 3c 34 61 c3 3c
       0.015407912 -0.004720408 0.011185103 0.023850061
0002f0 12 0e 2a bc f4 d0 9a 3c f0 2d 35 bc 87 75 e6 bb
       -0.010379331 0.018898465 -0.011058316 -0.0070330533
000300 d4 b7 75 3c 64 c0 ce 3b 0f 97 3b bc 83 a6 0d bc
       0.014997441 0.006309556 -0.011449589 -0.0086456565
000310 48 c4 5e 3b 9d 17 e1 bb 39 27 11 ba d4 f5 74 bc
       0.0033991504 -0.00686927 -0.00055371557 -0.014951188

mu.weight f4 [4, 200]
000000 ac 4a 3d 3d 8b 23 61 3d 09 3d a0 bd cf 1c 13 bc
       0.04621379 0.054965537 -0.078241415 -0.0089790365
000010 64 2d 25 be 3b 96 2a bd 32 6f b6 3d 39 42 23 3e
       -0.16130596 -0.041647177 0.089079276 0.1594323
000020 4f 26 cb 3d 89 b2 22 be c3 16 9c bd a4 04 cb bd
       0.09919416 -0.15888418 -0.07621529 -0.099129945
000030 13 e2 1c 3e d7 ce b8 ba f0 5e 02 3e 81 b5 92 bd
       0.15320615 -0.0014099729 0.12731528 -0.071635254
000040 de ca 2d 3e 53 12 f3 3d f1 08 b5 3d c7 f9 c0 3d
       0.16971919 0.118687294 0.08839596 0.09422641
000050 f3 32 82 3d 66 ea 9c 3d 0a 7c e2 3c 4b 23 a6 bd
       0.06357374 0.076618955 0.027647037 -0.081122
000060 b3 62 9f 3c 93 81 a6 3d 0c ab 17 3c 81 f1 fd 3d
       0.019456243 0.08130183 0.009257089 0.12399579
000070 1c 9d a2 bd b9 81 d4 bd 16 21 14 3e 95 64 81 bd
       -0.079401225 -0.10376305 0.14465746 -0.063180126
000080 c6 b2 26 be 21 41 25 bc af 9a 0f 3d 66 e6 1d be
       -0.16279134 -0.010086329 0.035059627 -0.15419921
000090 49 af 14 be fa 43 2b 3d 4a 23 89 bd 83 2a eb bc
       -0.14519991 0.041812874 -0.06696184 -0.028706795
0000a0 03 bc 72 bd 58 e8 2e be 9f f2 87 bd a5 d5 0e 3e
       -0.059261333 -0.1708082 -0.06638073 0.13948686
0000b0 9d 66 af bd de 2c 0b be dd 9f 11 3d 34 d6 75 bd
       -0.08564494 -0.13591334 0.035552848 -0.060018733
0000c0 67 95 e6 bd 54 bd 4d bd 2a b1 29 3e b2 be 8d bd
       -0.11258965 -0.050229385 0.16571489 -0.06921138
0000d0 be b1 98 bd 93 6f b8 3d 43 33 07 3d 86 ec fd bd
       -0.07455777 0.09005656 0.03300787 -0.12398629
0000e0 7c f7 ce 3d ce 0e ba bd d6 9a f6 3c 7e 06 fa 3d
       0.10105798 -0.09084855 0.030103128 0.122082695
0000f0 e0 b5 28 be 8c 7c 78 3d c2 8a 20 be 51 1b 55 bd
       -0.1647563 0.060665652 -0.15677932 -0.052028004
000100 b8 32 c9 bc 97 6f f5 3d d5 16 0f 3e ab cc 9f bd
       -0.024560317 0.11984175 0.13973553 -0.07802709
000110 ea 51 a7 3d 26 90 82 bd e1 3b ef bd c7 15 e8 3d
       0.08169921 -0.063751504 -0.11681343 0.11332279
000120 d1 12 9d 3c 26 21 0a bd cc 50 8e bd 6a cd 20 3e
       0.019174011 -0.03372302 -0.069490045 0.15703359
000130 cd 3b b6 bc 55 08 ac bd e5 a1 05 be 17 cb c1 3d
       -0.022245312 -0.08400027 -0.13050039 0.094625644
000140 e0 ff a9 bd cb 20 c9 3c 7b 8f d8 3d 84 35 38 bc
       -0.083007574 0.02455177 0.10574242 -0.011243228
000150 ef c7 e2 3d d4 53 6b 3c 4e 1a 2d be bb dc d8 bd
       0.110732906 0.014363248 -0.16904566 -0.10588976
000160 0f d9 7a 3d 7d 46 0b be c2 2a 8c ba 65 13 49 3b
       0.06124216 -0.13601108 -0.0010693895 0.0030681726
000170 09 c2 1c 3d 48 3d 2b bd 35 86 64 bc 9c cd 96 3d
       0.038270984 -0.04180649 -0.013948013 0.073634356
000180 48 f6 2b 3e ca 6b ca bd 5d a2 ed bd 06 d9 f5 3d
       0.16793168 -0.098838404 -0.11603234 0.120042846
000190 61 04 41 bd 1c fd 2d 3e b7 62 07 bb f4 01 83 bd
       -0.047123317 0.16991085 -0.0020658204 -0.06396857
0001a0 8c c5 67 bd 21 d4 f2 bd 19 f6 bf 3d 6d 60 17 3e
       -0.05658488 -0.11856867 0.09373111 0.14782877
0001b0 04 a1 17 be ec 40 98 3b 9e b0 67 bc fe 22 3c bc
       -0.14807516 0.004646411 -0.01414123 -0.011482952
0001c0 c2 cf f6 3d ea 42 85 3d 5f 9d d4 bc bb 72 31 3d
       0.120513454 0.065069035 -0.025953947 0.043322306
0001d0 1d e3 be bd c8 f6 06 3b 7b c4 07 be 98 7c e7 bd
       -0.09320662 0.002059387 -0.13258545 -0.11303061
0001e0 cb c0 38 bd fb 3a 17 3e ca dd 21 3c 8e cf 65 3d
       -0.045105737 0.14768593 0.009879539 0.056106143
0001f0 5e f9 9a bc 5c a3 64 bd 45 d1 ea bd f2 5b f2 3d
       -0.018917736 -0.055819854 -0.11465696 0.118339434
000200 12 a7 7f 3d ae 80 15 be c8 4b 91 bd 41 a1 be bc
       0.06241519 -0.14599869 -0.07094532 -0.023270251
000210 ef 73 8e 3d de ce da 3d 96 c9 e0 3d 96 af e1 bd
       0.06955706 0.10683988 0.109759495 -0.110198185
000220 99 87 ce bd b7 d2 20 be 93 8c 26 3d e5 23 ec bc
       -0.10084457 -0.15705381 0.040661406 -0.02882571
000230 b6 7d cb 3d 9b 76 58 3d 6d 0f 03 be cb 20 a6 bd
       0.09936087 0.052847486 -0.12798853 -0.081117235
000240 78 5f 83 bd 39 b0 2b bd 32 be 04 3e 84 05 6a 3d
       -0.064146936 -0.041916106 0.12963179 0.057134166
000250 0f ad 04 bd 06 7c 15 be c4 84 e0 bd f1 77 69 bd
       -0.032391604 -0.14598092 -0.10962823 -0.05699915
000260 f0 b6 14 bd 14 64 b4 bb 24 67 06 3e 58 f6 87 3c
       -0.036307275 -0.0055050943 0.13125283 0.016596958
000270 2f 82 d8 3d 2a 1a 32 3e b9 2e 6b 3d 5a fb 22 3b
       0.105717055 0.17392793 0.057417605 0.0024869055
000280 60 70 d2 bd d8 32 f7 bd 30 07 26 be 44 26 2c 3d
       -0.1027534 -0.120702446 -0.1621368 0.04202868
000290 0a 1f 08 3e 26 47 ab bd b3 a2 a8 bc c4 79 78 bd
       0.1329309 -0.0836318 -0.020585394 -0.060663
0002a0 dd b5 7f 3d 41 82 f8 bc 67 7f 83 3d 43 42 dc bd
       0.062429298 -0.030335547 0.064207844 -0.10754826
0002b0 8e ec 1b 3e d0 25 18 be da b1 25 be a5 e4 09 3e
       0.15226957 -0.14858174 -0.16181126 0.13466127
0002c0 b4 8c ad bc 87 9a 15 be 04 ea 24 be 6a de f5 3d
       -0.021185257 -0.14609729 -0.16104895 0.12005313
0002d0 a6 1a 2c bd fa fd 8a 3d 1e e4 b4 bd 1e 7d d3 3d
       -0.0420176 0.067867234 -0.088325724 0.103265986
0002e0 00 fd d0 3d d8 02 0d 3e f1 a0 1b be 60 eb 5e 3d
       0.10204506 0.13770616 -0.15198113 0.05442369
0002f0 49 e7 c5 3d 67 98 0e 3e eb fd 2c 3d b4 57 e4 3d
       0.09663255 0.13925324 0.042234343 0.111495405
000300 d8 64 b5 bd 15 32 81 3d e4 43 a2 bd 26 96 e9 bb
       -0.08857125 0.063083805 -0.07923105 -0.007128495
000310 35 c3 99 3d a5 6c b4 3d 45 18 b2 3c bc e0 d4 3d
       0.07507936 0.08809785 0.021740088 0.10394427
000320 97 01 e4 3d 93 2f 05 be dc cc ca 3d 98 3c 0e bd
       0.11133116 -0.1300643 0.09902355 -0.034725755
000330 c7 63 f3 bd 35 ab 61 3d f3 c2 03 be 71 4d fb bd
       -0.118842654 0.055094916 -0.12867336 -0.1227063
000340 19 06 6e 3d 70 ae f9 3d 3d 33 f8 3d 05 db c9 bd
       0.058111284 0.121914744 0.12119148 -0.09856228
000350 96 a4 12 be 8f 50 90 3d f8 f4 dc bd 1e 58 42 bd
       -0.14320597 0.07046615 -0.107889116 -0.047447316
000360 71 2c bc 3d 87 46 16 bd 52 6d 59 bd 64 35 e3 3d
       0.09188164 -0.036688354 -0.05308277 0.11094168
000370 60 60 ae 3d 50 2e 92 3d ca 37 b6 3c 25 2a bd bc
       0.08514476 0.0713774 0.0222434 -0.023091385
000380 a8 5e ce bd ab 92 b6 3d 0f 44 ea 3d 34 ec 18 be
       -0.10076648 0.089146934 0.114387624 -0.14933854
000390 20 0d b8 bd 44 8d 3a bd b3 ac a8 bd 82 d7 91 3d
       -0.089868784 -0.045544878 -0.08236065 0.07121183
0003a0 1c 44 11 3b b0 f6 25 be 81 c2 27 bd c6 6d 57 bc
       0.002216584 -0.16207385 -0.040956978 -0.013148731
0003b0 e3 ce df 3d 7b b5 ea bd 1f d3 c1 bb 55 1a 47 3d
       0.109281324 -0.11460396 -0.00591506 0.048609097
0003c0 9f 0c 11 be 18 7c 62 bd ca f4 03 3d 15 c1 1e be
       -0.14164971 -0.055294126 0.03221587 -0.15503342
0003d0 57 84 2f bd 30 45 ce 3d eb bf 2a be 8a 9f a7 3d
       -0.04285082 0.1007179 -0.16674773 0.081847265
0003e0 4c 1c 2f be 7f 50 c0 bd b2 26 fa 3c 53 0b 0f be
       -0.17100638 -0.093903534 0.03053603 -0.13969164
0003f0 49 1c 56 bd ac 0b 8a bd 77 f0 5a 3c 22 23 60 3d
       -0.05227307 -0.067405075 0.013362995 0.054721005

mu.bias f4 [4]
000000 bc 9b a6 3a 78 8a 43 3c 37 af f4 bb 3e 28 be 3c
       0.0012711207 0.011934869 -0.0074671763 0.023212548
