llirl_sumo/saves/120p4k_ultimate/optimal_policy_period_3.pth (torch, 196916 bytes, 7 tensors)

sigma f4 [4]
00000000: dd4e 9a3c 2476 babc df06 d8bc c5ba 6d3c
0.018836433 -0.022761412 -0.026370464 0.014509861

layer1.weight f4 [200, 36]
00000000: 60d8 713d 2719 2d3e 6f56 bd3c 22e9 033d
00000010: 0033 6d3d 6592 ae3d bba6 88bd d1ee 633d
00000020: 8ba0 21bd ae2f aa3d beea 45bd 22d4 693d
00000030: 22f4 c03d 93cb 05be 1aa9 423d 809a 533c
00000040: 7436 03be 436f e6bc 4cb3 2cbc cb0d f93d
00000050: ff8b a3bd cc14 0c3e 63a5 57bd d5c4 b03d
00000060: 03aa 633d a591 f43d 8b49 f13d 4239 f8bd
00000070: 2065 c73b 1d61 06be 0661 833c 7753 b4bd
00000080: f45c 183e c593 c23d d5a7 8dbd 2ef0 063d
00000090: 66c3 9abd 6bfb fabd 7d7c e63d 8651 06bc
000000a0: 78b7 c33c 545a ef3c 86f7 363c aeb9 2f3d
000000b0: 70a2 8bbd d0d7 50bd 9300 f1bd b6fb b2bd
000000c0: 1579 b6bd a61e 32bc f3d7 03be ba09 78bb
000000d0: bc35 063e 2b78 20be 01da 893c 1850 dd3d
000000e0: a6ae 90b9 c699 993d c7b6 ccbd 0e0e 01bc
000000f0: 4b33 85bd 5dbb 0abb 8943 37bd a7a7 b93b
00000100: 8eb5 083e 1045 6bbd 550c 513d 0288 8cbd
00000110: a5f0 e13d 51c9 603d 8ee7 7ebd d5b0 053e
00000120: ef97 d5bd 8a0c 08be 95a9 1dbe ed1a c9bd
00000130: 2622 30bd 60c4 9cbd 01b8 163e e9ba 25be
00000140: f0aa a4bc bf8e edbd 9204 0c3e 8d41 32bd
00000150: 19ac 16be c683 5b3d a64f a5bd 4e06 9f3d
00000160: f47b 143e d694 86bc 16e3 b3bb ab1d 1abe
00000170: bdf2 80bb f86e d33d 35c1 b73d f87e 973d
00000180: ce11 00be dcc1 da3d a848 b73d d66e 04bd
00000190: 50ec 25be 6900 013e 0366 b9bb 9494 d6bd
000001a0: e07b f43d 997d 0abe 3d0d 14be e734 f53d
000001b0: 592f f03d 216d 12bc b77f 70bc bc1d 55bd
000001c0: 8463 efbd 1c2e aebd 703f d5bd 6cd6 c03a
000001d0: 2896 6dbd db4c 8dbc ee07 b1bd 6a39 893d
000001e0: 0166 a43d cdf4 18bd e811 dd3d 69b7 b7bb
000001f0: 8062 19be f8ae 9abd 476d 33be 2073 57bd
00000200: 9f23 923d a441 86bc 764a 2ebd feda 633c
00000210: 5897 4ebd e8fb 0ebe 8735 623b 0571 16be
00000220: de16 533d 582b 52bd 4ba7 cebb b1d7 1cbe
00000230: 2c8c 63bc 97a5 92bc 4b78 fbbd bde2 48bd
00000240: e8cc 6e3d 2721 c4bc d3ae 6bbd 55cb ce3d
00000250: 10e7 133e 76b5 bbbd 9dca 3c3b deca 2bbd
00000260: 3f45 97bc 2047 a63d 1d1e 6cbc b73d b6bc
00000270: 4e40 173d a05a e83d 9762 0a3e 80bc 763d
00000280: 6cef b1bd 01aa 9abd 1a2f f3bd 8025 20be
00000290: 021e 38be e558 49bd 09cb ce3c da1d f63d
000002a0: 6453 7bbc 9618 37be d545 c5bd 1a3c c73d
000002b0: b31c e93d 2db1 a93c d58d 78bd d0ba a63d
000002c0: db78 373b ff37 15be 0ab8 f8bd c330 a5bd
000002d0: 7ae8 14bd d524 88bd 4975 0ebd 6cd9 d23d
000002e0: 17d9 f13d 0553 00bd cb95 ad3d 4efc b53d
000002f0: 054d 8ebd 00b5 f33d 9466 d63c 10b7 5fbd
00000300: 4210 1b3e 42ab 34bd 3a3e 59ba 68c6 813d
00000310: 7025 ae3c c892 d83c 769f 5ebd 5919 353d
00000320: c8fe c83c 75c8 b9bc 5a9d 00be 1aee 64bd
00000330: 7725 243e 64df f33d b8db 523d 35c5 72bd
00000340: fd06 c13d 1204 d13d bce1 d2bd c523 77bd
00000350: b8e0 17be 50e3 28be f87e 053e 0756 853c
00000360: 950b 82bc a02d 8abc 15df c9bc 632c 1f3e
00000370: 20ab 10be 18c4 c03d c708 8b3d c7fe f2bc
00000380: 6310 a2bd 7caf 33bd c95c c3bd 00a6 373d
00000390: d017 e93d 4b49 ab3d 7da9 04be 14c2 a23d
000003a0: 79f2 853c 78da f4bc 1511 00be 8b17 d1bd
000003b0: 08bf 103e ead4 0c3d 37d9 00be 3e77 53bc
000003c0: 7703 8cbd a15f 4cbd 9ee3 793d 4845 11be
000003d0: 1212 0abe 7bd5 dbbd 2483 d5bd cac7 c0bd
000003e0: 2956 c63d 05cb 0f3e c0d8 efbd 489d b9bd
000003f0: 05bb bf3d dd64 853d daf1 0abe b87d 33bd
0.059044242 0.16904126 0.023112504 0.032204755 0.057909966 0.08524016 -0.06672426 0.055647675
-0.039459746 0.083098754 -0.04831957 0.05708707 0.09421565 -0.13065939 0.04752455 0.012915254
-0.12813741 -0.028129226 -0.010540795 0.12160834 -0.079856865 0.13679808 -0.05264796 0.08631293
0.055582058 0.11941842 0.11781605 -0.12120296 0.006085053 -0.13122983 0.016037475 -0.08804982
0.14879209 0.09500841 -0.06916777 0.032943897 -0.075568005 -0.122549854 0.11254213 -0.008198148
0.023891196 0.029217876 0.011167413 0.042901687 -0.06818092 -0.050987065 -0.11767688 -0.08739416
-0.08909813 -0.010871565 -0.12875347 -0.0037847594 0.13106436 -0.1567084 0.016827585 0.10806292
-0.00027595944 0.07500033 -0.099957995 -0.007876886 -0.06503924 -0.0021168806 -0.04474214 0.0056657377
0.13350508 -0.05743891 0.05103715 -0.06861879 0.110322274 0.05487949 -0.062232547 0.13055737
-0.1042937 -0.13286033 -0.15396722 -0.09819589 -0.043001316 -0.07654643 0.1471863 -0.16184582
-0.02010104 -0.11599492 0.13673618 -0.043519545 -0.14714088 0.053592466 -0.08071832 0.077648744
0.1450041 -0.016428392 -0.0054897172 -0.1505038 -0.0039351867 0.103239 0.08972398 0.07397264
-0.12506792 0.10681507 0.08949405 -0.032332264 -0.16203427 0.12597813 -0.0056579127 -0.10477558
0.1193769 -0.13524474 -0.14458175 0.11972981 0.11727781 -0.008937151 -0.014678887 -0.05203031
-0.11688903 -0.085048884 -0.1041249 0.001471234 -0.05800453 -0.017248562 -0.086440906 0.06700404
0.08027268 -0.037342835 0.10794431 -0.005606581 -0.14978981 -0.07552904 -0.17522155 -0.052600026
0.071357004 -0.016388722 -0.04255148 0.013907192 -0.0504373 -0.13963282 0.0034516768 -0.14691551
0.05153548 -0.051310867 -0.006306564 -0.15316655 -0.0138884 -0.017901225 -0.122788034 -0.04904436
0.058300883 -0.02394159 -0.057539772 0.10097376 0.14443612 -0.0916547 0.002880729 -0.041941516
-0.018465636 0.08119035 -0.014411476 -0.022246225 0.03692656 0.1134541 0.13514172 0.06023836
-0.08688244 -0.07551957 -0.11874218 -0.15639305 -0.17980197 -0.049157042 0.0252433 0.120174125
-0.015339706 -0.17880473 -0.0963246 0.0972826 0.11382427 0.020714367 -0.060682137 0.081411004
0.002799562 -0.14572142 -0.12144478 -0.08065941 -0.03635452 -0.0664765 -0.03477982 0.10295376
0.11808985 -0.031329174 0.08475836 0.08886014 -0.06948284 0.118997574 0.02617196 -0.05461794
0.1514292 -0.044108637 -0.00082871655 0.06336671 0.021258086 0.026437178 -0.054351293 0.044213627
0.024535552 -0.022678593 -0.12560025 -0.055891134 0.16029917 0.11907843 0.05147907 -0.059270103
0.09425161 0.102058545 -0.10296962 -0.060336847 -0.14831817 -0.16492963 0.13036716 0.016276373
-0.015874663 -0.016867459 -0.024642507 0.15544276 -0.14127779 0.09412402 0.067887835 -0.029662503
-0.07913282 -0.043868527 -0.09539182 0.044836044 0.11381495 0.08363589 -0.1295528 0.07947174
0.016350972 -0.02988933 -0.12506516 -0.102095686 0.14135373 0.03438274 -0.12582861 -0.0129068475
-0.06836598 -0.049895886 0.06100809 -0.14186585 -0.13483456 -0.107340775 -0.10425404 -0.09413107
0.096844025 0.1404229 -0.11711264 -0.09063202 0.09361843 0.06513379 -0.13568822 -0.043821067

layer1.bias f4 [200]
00000000: f45f f2b9 fd7e ea3b 2723 5a3a 0ec1 983c
00000010: 9c50 993b 3f0f 263c de25 37bc 83cf 2dbc
00000020: 4c20 993c 04b1 4b3c fad2 24bc 4b6b 713b
00000030: f679 11bc e5e7 223c 5829 8ebb 306c cc3c
00000040: cace a63b e0a4 263b 6abf b2bc 509e 7fbb
00000050: ac81 3c3c 364f c3bc 8e78 a7bb 8d69 9bbb
00000060: e6a7 39b9 6c93 85bb 4df1 47bc 6b5c 163c
00000070: d06d 7ebc fc2f 7b3b 6326 623b 739c f0bb
00000080: 3823 aa3c 6b8c 01bb d68c 8d3c ad6f 2ebc
00000090: 915d 4c3c 8d1b 48bc 0e7d bebb 1415 e4bb
000000a0: cca1 36bc 4ecc 25bc 97f0 34bb 6b98 81bc
000000b0: a650 f63a d8af 77bc e69b 76bb 20f7 443c
000000c0: 112e a03c 8949 283d 42f9 8fbc d843 12bc
000000d0: fac7 f8bb 89a6 0a3c 652f 143c f205 1e3c
000000e0: db50 9abc 24b8 12bc 940f 093c f9c6 c03c
000000f0: 1b9c a7ba 152c 723c 1ab2 84ba 582d d339
00000100: c8cf 07bd 09e9 bebc fcd6 65bc aaf3 88bb
00000110: 5bc8 123c d8dc 9fbc 626a 403c 164c 9b3b
00000120: 180e 9ebc 997a ab3c c929 383c bb27 0fbb
00000130: 1b6b e63c f26c c03c 7918 363d 9fd7 1abc
00000140: 78cc 7f3c d477 473b 7df2 29bc e371 383c
00000150: 5a95 febb 084f 0b3c ad96 3b3c 7ab1 85bc
00000160: 2fb5 7f3c 9595 c9ba 49d0 633c 46a3 5a3c
00000170: 807f 81bc 97bb bb3c 1d49 033d 09aa 373c
00000180: 5720 50bc 1d14 1c3c 4be9 90bc 4ece 073c
00000190: cff8 3bbc 5c8d f43b e2e8 e23b 0199 d9bb
000001a0: 97de c53b 03ba ebbb 6b85 5ebc 0a58 b43c
000001b0: db6b 10bb 2ebc 4bbc 6448 a13c e41d 0cbc
000001c0: 69f6 d6bb 1841 c1bb 182e 2b3c adde 57bc
000001d0: 713d d2bc 2823 9e3c d644 93bc b32e 6c3c
000001e0: 0c48 03bc 9c4d cc3c f314 ca3b d23a 563c
000001f0: b253 e83c 3369 87bb 883f 75bc fb66 4dbc
00000200: 38eb 243c 4a14 b2bb 7ea7 6cbb a111 83bc
00000210: 7161 323c c22f 5abc 5c96 513c c243 3e3b
00000220: 9237 663b 1673 3ebb 3861 65bc 58cf c43a
00000230: 42f3 2dbc 0112 3cbc ca11 5c3c 3722 ef3c
00000240: 3565 bbbc 0000 0000 f026 003b 961d f23b
00000250: f3b5 f0bb 610f 13bc 307a 72bb fddd 1dbc
00000260: 1748 463c 12b4 343a d7c4 9bbc 3421 63bc
00000270: 1ad8 9bbc c29b f5bb 3cae ffba 8832 99bb
00000280: 8777 833b 0000 0000 d155 243c 10af 2fbc
00000290: a8cc 443c 4322 21bc b530 16bd d759 0ebc
000002a0: af29 09bc 6a78 0dbc 09a2 b9bb 52df 35bc
000002b0: 1c78 b4bc af7a 383a d4fd 73bc 137c 73bc
000002c0: a0f7 b83b 6898 66bc 1e71 813b 192c 95bc
000002d0: 0c6c 9cbc b8d1 d23b 3e54 d6bb 1781 993c
000002e0: ecb8 90bb b0af 243c e2ee 57bb f8c5 95bc
000002f0: 3e28 5e3c 850f 84bc a0ab 6abc d2ca 263c
00000300: 9b81 cd3b 262f 633a 42a1 923c 90b5 41bc
00000310: 9679 4d3c 79ee 013c c823 ad3c f6d9 16bc
-0.00046229328 0.0071562515 0.0008321278 0.018646743 0.004678799 0.010135471 -0.011178462 -0.010608557
0.018692158 0.0124323405 -0.010060066 0.0036837633 -0.008879175 0.009942983 -0.0043384247 0.024953932
0.005090569 0.0025427863 -0.021819789 -0.0039004274 0.011505526 -0.023841482 -0.005110807 -0.0047428072
-0.00017705522 -0.004076412 -0.012203527 0.009177308 -0.015529111 0.0038328161 0.0034507744 -0.007342869
0.020768747 -0.0019767534 0.01727907 -0.010646743 0.01247348 -0.0122136 -0.0058132475 -0.0069605205
-0.011146974 -0.010119511 -0.0027609223 -0.015819749 0.0018792346 -0.015117608 -0.0037629544 0.01202181
0.019553216 0.041085754 -0.01757491 -0.008927308 -0.0075921984 0.008462557 0.009044503 0.009644972
-0.018837383 -0.008955035 0.0083655305 0.023532378 -0.0012787612 0.014781018 -0.0010123879 0.0004027884
-0.03315714 -0.02330448 -0.014028307 -0.0041794376 0.008958901 -0.019514486 0.011744114 0.0047392948
-0.01929383 0.020932483 0.011240431 -0.002184375 0.028127244 0.02348945 0.044456933 -0.009450822
0.015612714 0.0030436413 -0.010372755 0.011257621 -0.007769269 0.008502729 0.011449498 -0.016319979
0.015607162 -0.0015379662 0.0139046395 0.0133445915 -0.015807867 0.022916598 0.032052148 0.011209973
-0.012703023 0.00952628 -0.017689368 0.008288933 -0.011472895 0.0074631404 0.0069247345 -0.006640554
0.0060384977 -0.007193805 -0.013581614 0.022014637 -0.0022036943 -0.012435002 0.019687839 -0.008552048
-0.006560136 -0.0058976524 0.010448001 -0.013175649 -0.025664063 0.019303873 -0.01797716 0.014415431
-0.008012783 0.02493935 0.006167048 0.013075547 0.028360222 -0.004132414 -0.01496876 -0.0125367595
0.010065846 -0.0054345476 -0.0036110575 -0.015999617 0.01088749 -0.01331705 0.012792196 0.0029032086
0.0035128337 -0.0029060296 -0.01400023 0.0015015407 -0.010617079 -0.011478902 0.013431976 0.02919112
-0.022875408 0.0 0.0019554459 0.007388781 -0.007345909 -0.008975835 -0.00369991 -0.009635446
0.0121021485 0.00068932876 -0.019014759 -0.013862897 -0.019023944 -0.0074953744 -0.0019506882 -0.0046752132
0.0040120515 0.0 0.010030226 -0.0107228905 0.0120116845 -0.009834829 -0.036667544 -0.008688412
-0.008371755 -0.008634666 -0.005665068 -0.011100607 -0.022029929 0.0007037324 -0.01489206 -0.014861125
0.0056447536 -0.014074422 0.003950252 -0.018209504 -0.01909449 0.006433692 -0.006540804 0.018738313
-0.0044165757 0.010051653 -0.0032948782 -0.018282875 0.013559399 -0.016120682 -0.014323145 0.010180192
0.0062715537 0.00086663885 0.01789916 -0.011823073 0.012541195 0.0079303915 0.021135226 -0.009207239

layer2.weight f4 [200, 200]
00000000: 2a89 3f3c 97c5 693d 09c8 b5bd 5a9d 15be
00000010: 6eba 703b 71a1 93bc d585 a13d 5cb9 8f3c
00000020: 8ff5 c7bd 42ca 83bd 8dfd 663c 0c26 523c
00000030: 9426 01be 2c49 5c3d 23b3 c13d 081b 993d
00000040: 586c 5ebc d1f1 f2bd df30 22bd 287b f03d
00000050: f0a8 afbd d1f6 89bd 0db2 90bc 0594 693d
00000060: 5a72 aebc 334e 01be 9739 373d 97fc 93bc
00000070: bcdb d43b 6de4 ab3c 0d48 2fbd 1ff0 a5bd
00000080: 3bb2 4c3d 1561 b5bd 44a3 b7bb d1fe 9b3c
00000090: 1848 873d 6c7a 9b3d eab7 9cbd b65e dd3c
000000a0: d96c dcbb e5b6 bcbc 07cb 473d 9012 de3d
000000b0: 2944 063c c260 4ebd d8d4 32bd 07ba 943c
000000c0: 9480 30bd 7db0 8abc df04 503c a39a 083d
000000d0: bf79 b33d 7b15 3bbd 205e f2bd b8f1 dbbc
000000e0: e4bd c2bd 84f8 9bbd b946 3ebd 0780 aebc
000000f0: 4b34 753d 861c 2e3d 8da9 833d 4850 b3bd
00000100: 88cd 3b3d 198c 4a3d 32af bc3d 90b7 883d
00000110: 2c87 7fbc 2589 fc3d 4997 b53d a037 bbbd
00000120: 8063 9d3d 902d e3bc cedc 03be ec59 b7bc
00000130: 424a bebd 8eda 4e3d a5a7 94bc c784 9cbc
00000140: d582 05bd 61f4 9cbd 62a2 12be 60f1 293d
00000150: d1ec 523b 5822 11be b8c6 503d 1d1e e1bd
00000160: 14e5 22bc 10c5 073e 2439 b8bb f8fc b0bd
00000170: 0f5a b4bd 2577 883d c99d b7bd ed11 26bd
00000180: f6c3 9cbd bbab c03d c4bf fabd 03be 84bc
00000190: a0ed 603b 6ee6 aabd 7af0 c53d 382e f1bd
000001a0: 2bed 80bd 16bc 2a3d 3da9 edbb 3cbd 953c
000001b0: e528 b1bd 7642 003d 9917 9fbd 9bbf be3d
000001c0: 14a4 f6bd f48c 1bbd 95cf aebd 3dd6 b4bd
000001d0: 9258 f5bc 035a c6bd 7bfb d7bd 3232 b5bd
000001e0: 9e09 a0bd 4692 3cbc b8ea 6ebc 8871 803d
000001f0: 9bbe 403d 39b6 96bd 498e 63bd 452c 9abd
00000200: cbab 92bd 76ab 9dbd ac66 903c b5fb 963d
00000210: 34fe 233c d6ca 6fbd f399 33bd 9273 b6bd
00000220: e5ff c23c 51da c23d 74c8 22bd c86d a63d
00000230: bf54 2dbc 1053 7cbd 1a8c 793d d49e 6abd
00000240: c3ce 583d f4e5 c63c c01e a0bd 859b 6ebc
00000250: edf5 a63d 9d22 67bd 8076 4bbd 05d8 9e3d
00000260: c03f 833d 5c1e 7abd c174 01bd ee7e 04bd
00000270: 5e1a 09be f0a3 f4bd af5a 063d dad3 d03d
00000280: 7c89 a73d ec01 f0bc f05b 3abd d6e7 183d
00000290: c596 76bb 7177 1b3d 8e1a c43d be27 b83d
000002a0: c21a 973d 31fb 22bd beee bbbd 1931 e4ba
000002b0: 86f0 c0bd 5247 e83d fd20 e33d 2eca efbd
000002c0: 72d0 c8bd 25ab b13c 7c5f 7dbd 5e6c f9bc
000002d0: e3ad cfbd 2b57 493d ffe8 af3b fd28 01be
000002e0: 0b6c d43d afc4 a63d dc82 3a3c d466 853d
000002f0: 52a4 9d3d 080d 13be 9764 8f3d 51a9 4cbc
00000300: 3057 29bc f509 d3bd da25 8b3d 0000 71b9
00000310: e2e8 753d c840 d7bc b117 0fbc e792 eabd
00000320: a682 79bd 9da0 92bc 5fa3 3abc f318 8f3d
00000330: 87a4 463d 941a 9cbc 5b9b d9bd 8521 8f3c
00000340: 3030 d73c df88 e03b 9855 ffbc 4b79 bb3d
00000350: 973d e6bd 2f19 2ebd 30df 823d 3d86 acbd
00000360: cf7e c6bc fcba 593d 6c5d 85bd 6f4c 9a3c
00000370: 7e74 dcbc c994 97bb 599d d8bd 190e cbbd
00000380: e84d 85bc 3782 d0bc b997 793c 0a4b bd3c
00000390: 3e81 843d d303 933d 068d e1bd be4f 913d
000003a0: c2df ce3b b55c ef3c f0da 9f3c 8ac8 0dbb
000003b0: 09de 843d 513b 85bd afeb 0a3d 3ecc 62bb
000003c0: 99dd d23d 3f03 b5bc b475 d8bc 01b5 32bb
000003d0: a75c cf3d e31c 5d3d 03bd d03c d971 14bd
000003e0: ec63 273c 6d62 c2bd bffe 37bd 5fce b0bd
000003f0: f4d6 b23c aca9 003e 7a43 a33d 3e0b d53d
0.011690417 0.057073202 -0.08876044 -0.14610806 0.0036732215 -0.018021317 0.078868546 0.01754444
-0.097636335 -0.06435062 0.014098537 0.012826454 -0.12612373 0.05378072 0.09457996 0.07475859
-0.013575636 -0.11862529 -0.03959739 0.1174224 -0.08577144 -0.067365296 -0.017663026 0.057025928
-0.021294761 -0.12627487 0.044732656 -0.01806478 0.006495921 0.020982945 -0.042793322 -0.0810244
0.04997466 -0.088564076 -0.0056041796 0.019042404 0.06605548 0.075917095 -0.07652266 0.0270227
-0.006726843 -0.02303643 0.048777606 0.10843384 0.008194962 -0.050385244 -0.043660015 0.018155111
-0.04309137 -0.01692986 0.012696474 0.033350598 0.087634556 -0.045674782 -0.11834359 -0.026848659
-0.09508875 -0.0761576 -0.046454165 -0.021301283 0.059864324 0.04250767 0.064288236 -0.08755547
0.045850307 0.049450014 0.09213103 0.06675637 -0.015596192 0.12330846 0.08866746 -0.09141469
0.07684994 -0.027731687 -0.12877199 -0.022381745 -0.09291507 0.0505014 -0.018146345 -0.019106282
-0.032595474 -0.07663799 -0.14319757 0.04148996 0.003218461 -0.14173257 0.050970763 -0.10992072
-0.009942312 0.13258767 -0.005622046 -0.08642 -0.0880624 0.0666335 -0.08965642 -0.04054444
-0.07654564 0.09407755 -0.12243608 -0.016203886 0.0034321323 -0.08344732 0.09665008 -0.11776394
-0.06295236 0.04168328 -0.007252841 0.01827871 -0.08650378 0.031313382 -0.07768173 0.093138896
-0.12043014 -0.03797622 -0.08535687 -0.08829925 -0.02994946 -0.09685137 -0.10546013 -0.088474646
-0.07814334 -0.011509484 -0.0145823285 0.06271654 0.047056776 -0.07358975 -0.055555616 -0.07527975
-0.07161673 -0.07698719 0.017627083 0.07372228 0.010009337 -0.05854305 -0.04384799 -0.08908762
0.02380366 0.09514297 -0.03974195 0.08126408 -0.010579287 -0.061602652 0.060924627 -0.057280377
0.05293156 0.024279572 -0.07818365 -0.014563446 0.08152375 -0.056429494 -0.049673557 0.07756046
0.06408644 -0.06106411 -0.031605486 -0.032347612 -0.13388965 -0.11945331 0.032801326 0.101966575
0.0818052 -0.029297791 -0.045497835 0.03733047 -0.0037626487 0.037955705 0.095753774 0.08991955
0.073781505 -0.039790336 -0.09176396 -0.0017409652 -0.09420876 0.11341728 0.110902764 -0.117084846
-0.09805383 0.021688053 -0.06185864 -0.030447181 -0.10140588 0.049155395 0.0053683515 -0.12613292
0.1037217 0.08142983 0.011383738 0.065137535 0.07697357 -0.1436044 0.07001608 -0.01249154
-0.0103357285 -0.103046335 0.06794329 -0.00022983551 0.060036547 -0.026276007 -0.008733676 -0.11453801
-0.06091561 -0.017898852 -0.01139149 0.069871806 0.04849675 -0.019055642 -0.10625335 0.017472038
0.026268095 0.006852254 -0.031168744 0.09153994 -0.11242216 -0.042504486 0.06390226 -0.084240414
-0.024230389 0.053156838 -0.065119594 0.018835275 -0.026911017 -0.004625891 -0.10576887 -0.09914798
-0.0162725 -0.025452716 0.015233927 0.02310707 0.064699635 0.07178464 -0.11013226 0.07095288
0.006313295 0.02921901 0.019513577 -0.0021634423 0.06487662 -0.06505454 0.03391617 -0.00346066
0.10296173 -0.022096274 -0.026423313 -0.0027268531 0.10125094 0.053982627 0.025480753 -0.036241386
0.010216694 -0.094914295 -0.04492068 -0.08633112 0.021831013 0.12564725 0.079718545 0.10402535

layer2.bias f4 [200]
00000000: 57bd e6bc 0ca8 1ebc 296f a73c 658b 16bc
00000010: 89bc 1e3a 37c5 f8bb 260a 04ba 0307 2d3c
00000020: bb41 aa3c b5e4 76bc 37cc 583b 9fea 413c
00000030: ce2d f5bb 1e95 1cbc c3c3 0bbc 176a 293c
00000040: 97be 80bc 9b46 5bbb 90d0 ffbb e567 38bc
00000050: 1f75 5a3c 8410 2d3c 0914 fb3c 7158 f4bb
00000060: 14c7 383c a004 593c d02a 43ba c90d 923a
00000070: 69cf 17bc 6ce5 0abc adb5 bbbb 6f8a e63a
00000080: 5d4c 04ba acdf 9b3c bbb6 9838 fda6 36bb
00000090: 5994 f6bc f549 0d3c d848 28bc 83c3 313c
000000a0: 191c 983c 297f d8ba b6c6 5abc 2d01 55bc
000000b0: d64f a53c 698a 693c d438 a53c b297 cbbb
000000c0: ec1d 3ebc 4bd0 043d d3af 023c c4c3 bebb
000000d0: 8f1e df3c 56b3 6cbb e4a7 57bc d5fe 21bc
000000e0: efb6 23bc 3048 6d3c 7f0e dcbb 3c3e 0c3c
000000f0: b8c0 953c 0000 0000 863a 573c 3481 d239
00000100: ce3f 283c ae3b ebba 0a59 bb3c 8d51 faba
00000110: d8ee ac3b ed4f e7bb 3402 b239 bb47 2fbc
00000120: 621a 1abc b397 34bc 4b2d 01bc 7b81 ed3b
00000130: 1380 d53c 6e42 1e3a 545c 67bc 093a 10bc
00000140: 98fc aa3b 1e9c eebb 5dba 06bb b58a 38bc
00000150: 8a5f f8bb a174 fdbb 4844 1ebc 6674 30bc
00000160: 03a8 4abc c3b9 993c 38b5 a23b e801 dabb
00000170: 5b50 00bc 5bd7 fc3c e262 5bbc 42fb 8cbc
00000180: c8a6 c4ba e4b5 99bb 2b57 8cbb 79ad d33b
00000190: c915 25bc b3ec 9a3c 6711 8fbc 036a be3c
000001a0: 8083 7eba 6fbe 253b 6a57 a5bc df7c 9e3c
000001b0: a7e2 21bb 19b4 aebc 7052 493c 64d9 c63b
000001c0: 1eac c83b 0472 65bc 76de 3ebc c748 4ebb
000001d0: 63a7 53bc ce1c a53c d0f2 15bc bd9d 793c
000001e0: 74f1 1fbc 15cc 443c 62ef 3cbc 509a b83c
000001f0: 1715 b53a 9bb7 2abc dbc1 45bc 0370 abbc
00000200: c35c 703c f15d afbb fe72 8cbc c133 c13c
00000210: a460 f1b9 4c16 8bbc a728 57bc ec2e ef3b
00000220: 474f d23b daf7 a83c 2567 a2b9 87b5 f4ba
00000230: a491 8d3a 24d5 873c 552b 973c 5b63 ae3c
00000240: 78b8 8b3c b309 07bc 2257 f2bb 228c 8f3c
00000250: e565 0a3c 2aae b53c 9e32 b6bb f028 053d
00000260: af67 47bc 686d 39bc dc3f a5bc 5c85 7dbb
00000270: cad3 82bc 4eb8 273c 38ca 2abc 1d0e cc3c
00000280: b1de 823a 1101 173c f5a1 abbb 30d4 dbbb
00000290: 13c6 86bc 6b2a c8bb c0c2 0d3c 98bf 053a
000002a0: d7e7 163b 543b 993c 9be7 8e3c 817a 603c
000002b0: 0695 383b 3145 90bc d4a3 69bb 5a4a 243c
000002c0: 9b97 0dbc 43db 80bc 0154 393c 4c56 d4bb
000002d0: 3fc3 463c 6232 34bc 0caa 15bc db69 c0bb
000002e0: 7562 4d3c e74c a7bb 8211 5d3b 4c4e d13c
000002f0: 5a35 33bc 39a4 893b b959 35bc 033e f4bb
00000300: 824d 7f3c 2b28 823c f645 3cbc 807b d43b
00000310: a43b 9b3c adde e1bb 7e41 40bb 0681 cfbc
-0.028166456 -0.00968362 0.020438747 -0.009188508 0.00060553156 -0.007591869 -0.00050369126 0.010560754
0.020783296 -0.015069176 0.0033080706 0.011835723 -0.007482267 -0.009557037 -0.00853056 0.010340235
-0.01571588 -0.0033458832 -0.007806845 -0.011255239 0.013333588 0.01056302 0.030649202 -0.007456832
0.011277933 0.013245732 -0.0007445039 0.0011143024 -0.009265759 -0.00847755 -0.0057284446 0.0017588864
-0.00050467794 0.019027553 7.281961e-05 -0.002787053 -0.030100035 0.00862359 -0.010271274 0.010849836
0.018568086 -0.0016517389 -0.01335304 -0.013000769 0.02017967 0.014254191 0.0201687 -0.006213152
-0.011603814 0.032425206 0.00797649 -0.005821677 0.027236251 -0.0036117635 -0.013162587 -0.009887417
-0.009992345 0.014482543 -0.0067155953 0.00855976 0.018280372 0.0 0.013136512 0.00040150585
0.0102691185 -0.0017946863 0.022869606 -0.001909779 0.005277496 -0.0070590884 0.00033952447 -0.010698254
-0.009405704 -0.011022496 -0.007884334 0.0072481013 0.026062047 0.00060371205 -0.014121134 -0.008802899
0.0052181 -0.007281794 -0.0020557859 -0.011263539 -0.0075797485 -0.0077348505 -0.009659834 -0.010769939
-0.012369159 0.018765336 0.0049654506 -0.0066530593 -0.007831658 0.030864408 -0.013390275 -0.017209653
-0.0015003318 -0.0046908725 -0.004282852 0.0064598885 -0.010075995 0.018911695 -0.017464353 0.02324391
-0.0009708926 0.002529051 -0.020183284 0.019346653 -0.0024701746 -0.021326112 0.012287721 0.0060683955
0.0061240336 -0.014004234 -0.0116497185 -0.0031476484 -0.012918326 0.020155337 -0.009152129 0.015235362
-0.009762157 0.012011548 -0.011531683 0.02253452 0.0013815489 -0.0104197515 -0.0120701445 -0.020927435
0.014670554 -0.005351775 -0.017144676 0.023584248 -0.00046039105 -0.016978405 -0.013132251 0.0072992947
0.006418142 0.020625997 -0.00030975897 -0.0018669822 0.001080085 0.016581126 0.01845328 0.02128761
0.017055735 -0.008242059 -0.007395641 0.017522875 0.008447145 0.022177774 -0.0055602333 0.032509744
-0.012170716 -0.011317588 -0.020172052 -0.0038684225 -0.01597013 0.010236813 -0.010424189 0.024909073
0.000998458 0.009216563 -0.0052378126 -0.0067086443 -0.016451871 -0.0061085722 0.008652389 0.0005102097
0.002302637 0.018705048 0.017444422 0.013701082 0.0028164997 -0.017611118 -0.0035650628 0.010027492
-0.008642103 -0.015729552 0.011311532 -0.006480014 0.012131511 -0.01099834 -0.009134781 -0.005871994
0.012535681 -0.005105603 0.003373236 0.02555003 -0.010938013 0.004200485 -0.011068755 -0.0074536814
0.015582444 0.015888294 -0.011491289 0.006484449 0.018949337 -0.006893 -0.0029335911 -0.025330078

mu.weight f4 [4, 200]
00000000: 3b5a 233d 503a 6e3d d51d acbd 501d 13bc
00000010: 2a86 28be 8b12 30bd fd43 b53d 52ce 243e
00000020: 66c4 c43d 2c48 24be d8ba 86bd 7fa0 d4bd
00000030: 02df 1c3e 72d4 b8ba 8192 033e 4a0a 99bd
00000040: 32eb 2d3e 847d f13d ff04 b83d bcf9 c03d
00000050: 5314 793d c7d0 933d f796 e03c bcae a5bd
00000060: 46a7 a93c de18 9f3d 48db eb3b 9c87 003e
00000070: a30e aebd 8581 d4bd 1621 143e aa7b 81bd
00000080: fb1f 2bbe 4d02 48bc cb6b 1e3d b758 27be
00000090: 18f3 1abe 1a44 2d3d 6704 89bd c259 00bd
000000a0: aa95 76bd 71ec 2ebe 8417 8dbd 3fb1 0c3e
000000b0: ccdd b6bd 9e5d 10be e766 0c3d f3a1 76bd
000000c0: a7d0 e7bd 98b8 53bd a570 243e 9ebe 8dbd
000000d0: e09c adbd e873 b33d ae6d 003d 54ec fdbd
000000e0: 6df7 ce3d 5a79 c1bd 989a f63c 46ae f63d
000000f0: 2aaf 2dbe 8c7c 783d 3a89 22be e170 60bd
00000100: e470 cabc efdd 013e 3ffe 113e 366d b1bd
00000110: d1d4 a23d 5a8f 82bd 1bf7 f9bd 746e ea3d
00000120: 4bf6 853c 8494 0bbd 524f 8ebd 4284 1c3e
00000130: 6423 d7bc ef0a acbd b8a0 05be 0fcb c13d
00000140: 986a abbd 6d08 d23c 8912 d33d ea65 42bc
00000150: ecc7 e23d 6145 993c 814c 0dbe 7ad4 d8bd
00000160: 4cab 7d3d 4c41 10be 841a 8bbb ef04 493b
00000170: 2dc7 1c3d 2501 3fbd cc1b 8bbc 52b2 963d
00000180: 9e3b 2f3e 24a3 cabd f9ed e8bd 11ee ee3d
00000190: 7904 41bd 6ab0 303e 0c6a 07bb c428 83bd
000001a0: afdc 7ebd 89fa f4bd 5d01 be3d 2256 153e
000001b0: 948e 17be 763e 983b f80d 75bc ea87 47bc
000001c0: 98be 0e3e b1d1 7b3d 079d d4bc 8689 283d
000001d0: d6e2 bebd dc59 f83a 0021 0bbe 1fd7 edbd
000001e0: 9e40 34bd 76e6 143e 36dd 213c a4e6 543d
000001f0: 3033 98bc f120 7dbd a295 f2bd 1fff e63d
00000200: b1c8 9c3d e47e 15be 7c31 91bd 07ac f5bc
00000210: 8f53 aa3d 80cd da3d bbbe e03d dea8 e9bd
00000220: 0de9 b3bd ca37 28be d993 183d 4824 ecbc
00000230: 6b6b d73d fd62 4c3d 2086 08be c128 acbd
00000240: 459d 8ebd 5ab0 2bbd 32be 043e 9830 603d
00000250: 1c98 11bd 4121 1bbe 0f81 e0bd 8d32 68bd
00000260: b8f7 1cbd 2f67 b4bb 5370 063e 7434 883c
00000270: 4b3f db3d d267 2e3e 8f2e 6b3d ba42 d83a
00000280: db99 d5bd 8e86 f6bd 4747 2dbe eabb 313d
00000290: ea1e 083e 7740 abbd 7b98 a8bc 5136 7ebd
000002a0: e5f2 6e3d 485f 14bd 5f92 793d aa1c e7bd
000002b0: 087e 1a3e 2fd2 17be 12ba 25be e660 023e
000002c0: 658c adbc 8c99 15be 9305 28be 7597 f93d
000002d0: 53e6 2dbd 0e66 803d b930 b4bd 3812 ce3d
000002e0: 6c13 ce3d 846d 0d3e 14df 1cbe 0a71 653d
000002f0: c375 c13d 4419 013e 7d11 2d3d 192c f43d
00000300: 2c09 bbbd eaf6 813d 8143 a2bd 97ab 04bc
00000310: 598c 9a3d 6971 b43d 48f0 9e3c 25d2 eb3d
00000320: 15ae e73d 7747 05be b09d af3d 713c 0ebd
00000330: a95a ebbd ed33 5b3d ca88 05be 5e89 ffbd
00000340: d8fa 573d 91d3 fc3d d5ef f53d 80c6 cbbd
00000350: 4ba0 12be 7e50 903d 22a3 e5bd 5335 23bd
00000360: 73f0 bb3d 60ec 23bd 0144 69bd 5a35 e33d
00000370: ba5a ab3d d24d 8f3d 6e2e 463c 04c3 a9bc
00000380: ccb1 d7bd 60db a83d cfb7 e63d ae96 1dbe
00000390: 9dfc bbbd 8c8c 3abd a9ac a8bd dd09 913d
000003a0: d360 e13b 1d9b 25be 9797 32bd 2dfb 7739
000003b0: 1524 da3d 07c8 f2bd 427c c3bb 1b5f 413d
000003c0: 1136 12be 5f79 62bd 078a dc3c 4373 1dbe
000003d0: 948b 3cbd 6fd2 cb3d 2767 2ebe 1e10 a83d
000003e0: 7415 2ebe 9c7c c4bd ba7c 043c 170b 0fbe
000003f0: 13fa 51bd 7e62 86bd 4936 493c 8022 603d
0.039880972 0.05816108 -0.084041275 -0.008979157 -0.1645743 -0.042986434 0.08850858 0.1609433
0.096077725 -0.16043156 -0.06578606 -0.10382175 0.15319446 -0.00141014 0.12848856 -0.074726656
0.16984251 0.11791518 0.08985328 0.09422633 0.0608104 0.072175555 0.027415736 -0.080899686
0.020709645 0.07768415 0.007197771 0.12551731 -0.084988855 -0.103762664 0.14465746 -0.06322415
-0.16711418 -0.01220758 0.038677018 -0.16342436 -0.15131795 0.042301275 -0.06690293 -0.0313356
-0.060201325 -0.17082383 -0.06889251 0.13739489 -0.08929023 -0.14098212 0.034277823 -0.06021304
-0.11319094 -0.051689714 0.16058595 -0.06921123 -0.08477187 0.08762342 0.0313546 -0.12398592
0.101057865 -0.09446974 0.030103013 0.12044959 -0.16961351 0.060665652 -0.1587266 -0.05479515
-0.024712034 0.12682317 0.14257143 -0.086634085 0.07950748 -0.063749984 -0.12205335 0.114468485
0.016352793 -0.034077182 -0.06948723 0.15284827 -0.026261993 -0.08400523 -0.1304959 0.094625585
-0.083699405 0.025638783 0.1030627 -0.0118651185 0.11073288 0.01870984 -0.13798715 -0.10587402
0.06193094 -0.14087409 -0.0042451043 0.0030673107 0.038275886 -0.04663195 -0.016981028 0.07358231
0.17112586 -0.09894398 -0.11373515 0.11666501 -0.047123406 0.17254797 -0.0020662574 -0.0640426
-0.06222218 -0.11961848 0.09277604 0.14583638 -0.14800483 0.004646118 -0.014956944 -0.0121784005
0.13939893 0.061479274 -0.025953783 0.041146778 -0.09320609 0.0018947679 -0.13586807 -0.11613297
-0.044006936 0.14541039 0.009879401 0.05197777 -0.018579096 -0.061798993 -0.118449464 0.11279129
0.07655466 -0.14599186 -0.070895165 -0.029989256 0.08316719 0.10683727 0.10973879 -0.11409162
-0.08784685 -0.16427532 0.037250374 -0.028825894 0.10518535 0.04989909 -0.13332415 -0.08406211
-0.069635905 -0.04191623 0.12963179 0.054733843 -0.035545453 -0.15149404 -0.10962116 -0.056688834
-0.03832218 -0.0055054645 0.13128786 0.016626574 0.107054316 0.17031792 0.05741745 0.0016499378
-0.10429736 -0.12037383 -0.16921721 0.0433921 0.13293043 -0.08361905 -0.02058052 -0.06206352
0.05833711 -0.03622368 0.060930606 -0.11284764 0.1508714 -0.14826272 -0.16184261 0.12732276
-0.02118511 -0.14609355 -0.16408376 0.12187091 -0.042455982 0.062694654 -0.087983556 0.10062069
0.10062298 0.13811308 -0.15319473 0.056016006 0.094462894 0.12607294 0.042253006 0.119224735
-0.09132609 0.06345923 -0.079230316 -0.008097551 0.075463004 0.08810694 0.019401684 0.11514691
0.113125004 -0.13015543 0.085749984 -0.03472561 -0.114919014 0.053516317 -0.13040462 -0.124773726
0.052729458 0.123450406 0.12008635 -0.0994997 -0.1431896 0.07046603 -0.11212756 -0.039845776
0.091767214 -0.040020347 -0.05694962 0.110941604 0.08366914 0.06997265 0.012096031 -0.020722874
-0.10531959 0.082449675 0.112655275 -0.15389511 -0.091790415 -0.045544192 -0.08236057 0.070819594
0.0068779974 -0.16172452 -0.0436016 0.00023649326 0.10651413 -0.118545584 -0.0059657404 0.04720984
-0.14278437 -0.05529153 0.026921285 -0.15376 -0.04603155 0.099522464 -0.17031537 0.08206199
-0.17000371 -0.0959408 0.008086378 -0.13969074 -0.05126388 -0.06561755 0.012281009 0.0547204

mu.bias f4 [4]
00000000: ecc5 08bb ce89 80ba 6325 70bc d9fe af3c
-0.0020869924 -0.0009806694 -0.014657351 0.021483826
