llirl_sumo/saves/120p4k_ultimate/optimal_policy_period_4.pth (torch, 196916 bytes, 7 tensors)

sigma f4 [4]
00000000: 3b59 d53c 57c7 c7bc 1e4c 9ebc 6d7b 873c
0.026043525 -0.024387045 -0.019323405 0.016538346

layer1.weight f4 [200, 36]
00000000: 78c8 8a3d f6d2 333e eb07 c93c b3a1 273d
00000010: 230d 843d c27e b13d 2ecf 59bd c7be 7f3d
00000020: d40a 24bd d2ee c53d c81a 2abd d969 673d
00000030: 46b3 dc3d 31af fdbd d13e 403d e741 cc3b
00000040: 164b 03be 97d5 0ebd 6c16 8dbc 7fe4 f83d
00000050: fa5a b1bd 18df 083e 0372 66bd d8df a83d
00000060: 2fd3 563d 542b ed3d 8e64 e93d b1a4 febd
00000070: 2700 223b a453 0abe 3b48 713c 66c1 b0bd
00000080: f27b 183e 8be4 bf3d c415 8abd 186c 073d
00000090: 4a9d 92bd ba38 efbd de16 f03d 4c41 8abb
000000a0: 50c2 f23c f4e1 0a3d 62aa 0f3b 1aef 1f3d
000000b0: 54e7 86bd 119b 75bd dae5 f8bd 9a40 aebd
000000c0: b4da c8bd f348 71bc 677a 01be fb55 eabb
000000d0: d8e3 013e 522d 29be 778b 5c3c 49ac d43d
000000e0: f2d7 0fbc 8203 843d 3e27 d5bd 7193 8bbc
000000f0: 8fc9 9abd 2e65 ccbb bdc9 5cbd 5ebc 9fbb
00000100: 527d 043e a265 88bd 416b 633d 9bcf 55bd
00000110: e3ff e43d 3d28 733d 27a7 3bbd 7238 073e
00000120: c44d dfbd c8f6 03be 46e0 27be c2d0 d2bd
00000130: 2acb 1fbd c031 b1bd 1651 1b3e 83d7 0cbe
00000140: a3fa c0bc 8b5c e4bd f8e7 243e 6469 40bd
00000150: 0413 12be ad88 9f3d 9463 acbd 29d4 a93d
00000160: 2339 163e 4709 2abc e1b3 60b9 7c60 18be
00000170: 099c 0a3b c661 dc3d a3d1 b43d 805b a23d
00000180: d030 f7bd 4ad2 d73d 3025 c23d 5c12 e5bc
00000190: 1a64 27be a76e 063e 3778 c6bb 739b dbbd
000001a0: 9abd f83d 2be6 0abe b290 16be a176 f93d
000001b0: 3587 f13d 6b64 06bc 867b 74bc 0a6e 52bd
000001c0: 6ee2 edbd 95ad aebd 7e64 d8bd 8d59 db3a
000001d0: 4928 75bd 03e1 99bc e29d b0bd 5c70 853d
000001e0: f340 a13d ae20 18bd da48 d93d 7598 08bc
000001f0: 064b 1cbe e9f2 a2bd 1339 36be 4015 63bd
00000200: aedf 893d 4cd9 a4bc 5629 2fbd fb0e 533c
00000210: 2ce3 5dbd a033 0fbe 7205 1f3b f843 1abe
00000220: fe37 523d 5b5e 56bd 6737 efbb f199 1dbe
00000230: 822c 80bc 9ec9 9abc cffc fcbd f315 50bd
00000240: 7e94 583d 2752 05bd a976 7ebd 21af c33d
00000250: ab16 0b3e 6219 c5bd 4cae 113a d380 29bd
00000260: c90d b5bc 2b84 a13d e4f5 62bc 4106 d4bc
00000270: 5bba 0d3d a77f e93d 85a9 063e 8d48 6d3d
00000280: 585b adbd 5180 a1bd 12e9 f7bd 75db 1dbe
00000290: 2d89 3bbe bfeb 62bd a435 c83c 5feb ed3d
000002a0: 61cf b0bc 42eb 37be 5078 cdbd ad72 ba3d
000002b0: 5777 e73d 46e7 883c d2cd 7bbd a13f a63d
000002c0: cb8c 8a3b ff07 16be 3933 f9bd bc43 a2bd
000002d0: a371 0cbd 6c76 94bd 7959 0fbd d714 d73d
000002e0: 8087 e53d 3537 01bd e791 bd3d f8c8 b13d
000002f0: 3d00 97bd 8cd8 013e 2f99 c53c 811d 71bd
00000300: 4b0e 233e f411 3dbd 585b a6bb f019 663d
00000310: dafd c83c de2c 9d3c 5512 7cbd 8c85 423d
00000320: de98 8d3c c24f e1bc 7534 03be f8d1 78bd
00000330: 9134 1f3e 2fb1 ee3d daf7 3e3d 6e44 83bd
00000340: c8d8 bb3d 2612 c73d dc17 d5bd 93b7 7fbd
00000350: caf8 17be 61fe 29be 015a 033e 8295 843c
00000360: ca4d 4fbc 4616 60bc e229 c8bc fc78 223e
00000370: d066 0dbe 6631 c13d 3605 913d 06f6 ebbc
00000380: 6e8a 9fbd 98b6 27bd 9b9a c1bd e3b1 3c3d
00000390: 3f14 ef3d 790b ad3d 8366 03be 45a9 993d
000003a0: f74d 433c d3f0 00bd 7e9d 04be 692a dabd
000003b0: 251e 0f3e ed2d 173d 2936 02be 3454 3cbc
000003c0: f4d6 86bd 58d3 51bd 61ac 7f3d 06af 0ebe
000003d0: 046f 0bbe 18f1 d8bd 5db3 d4bd c1a4 bbbd
000003e0: b9c0 c63d e932 103e b7b5 eabd b832 b9bd
000003f0: 05bb bf3d dd64 853d daf1 0abe b87d 33bd
0.06776518 0.17560944 0.024539908 0.040925693 0.06447818 0.08666755 -0.053176098 0.0624378
-0.04004939 0.09664692 -0.041529447 0.05649743 0.10776381 -0.12386931 0.046934906 0.006233442
-0.12821612 -0.034871664 -0.017222606 0.12152957 -0.086599305 0.13366354 -0.056261074 0.0824582
0.052447494 0.1158053 0.113961324 -0.12433756 0.002471933 -0.13508469 0.014726694 -0.08630638
0.14891031 0.09369763 -0.06742433 0.03306207 -0.07158907 -0.116807416 0.117231116 -0.00421921
0.029633671 0.033906892 0.0021921624 0.039046384 -0.06587091 -0.059962336 -0.12153216 -0.085084155
-0.09807339 -0.014726865 -0.12644349 -0.007151363 0.12684572 -0.16521195 0.013460985 0.10384423
-0.008779513 0.064459816 -0.104078755 -0.017038079 -0.075579755 -0.0062376475 -0.05390333 -0.00487475
0.12938431 -0.0666001 0.055522207 -0.05219994 0.11181619 0.059364546 -0.045813706 0.13205126
-0.109035045 -0.12887108 -0.16394147 -0.10293724 -0.03901211 -0.08652067 0.1516765 -0.13754086
-0.023557013 -0.11150464 0.16104114 -0.04697551 -0.14265066 0.07789741 -0.084174305 0.082924195
0.14670233 -0.010378188 -0.00021429315 -0.14880556 0.0021150133 0.10760836 0.088290475 0.079276085
-0.12069857 0.10538156 0.09479749 -0.027962856 -0.1634678 0.13128148 -0.006056811 -0.10723009
0.12145539 -0.13564365 -0.14703634 0.1218083 0.11793367 -0.008202652 -0.014922028 -0.051374473
-0.11615454 -0.08529202 -0.10566042 0.0016735062 -0.059852872 -0.018784052 -0.08623864 0.065155715
0.07873716 -0.03714054 0.106095985 -0.00833713 -0.15262994 -0.07956488 -0.1779521 -0.055440187
0.06732117 -0.020123146 -0.04276403 0.01288199 -0.054171726 -0.13984537 0.002426472 -0.1506499
0.05132293 -0.052336078 -0.0073003056 -0.15390755 -0.015646223 -0.018894967 -0.12352907 -0.050802182
0.05287599 -0.03254905 -0.062124882 0.095548876 0.13582866 -0.09623982 0.00055572833 -0.041382622
-0.0221013 0.07886537 -0.01385257 -0.025881888 0.03460155 0.11401301 0.13150604 0.057930518
-0.08464688 -0.078858025 -0.121050015 -0.15415747 -0.18314047 -0.055400606 0.02443964 0.11617159
-0.021583261 -0.17960837 -0.100327134 0.09103904 0.11302059 0.016711842 -0.061475582 0.08117605
0.0042282096 -0.14651488 -0.12167973 -0.079230756 -0.03428806 -0.0724915 -0.034997437 0.10502022
0.11207485 -0.03154679 0.09256344 0.0868091 -0.07373092 0.12680262 0.024120895 -0.058866028
0.15923421 -0.0461597 -0.005076807 0.05617708 0.024535108 0.019186433 -0.06154092 0.04749064
0.017284807 -0.027503852 -0.1281298 -0.060747117 0.15547396 0.11654889 0.04662309 -0.06409536
0.09172207 0.097202584 -0.104049414 -0.06243093 -0.14840999 -0.16600944 0.12827303 0.016184572
-0.012652824 -0.013677185 -0.024434034 0.15866464 -0.13808751 0.0943325 0.07081072 -0.028803837
-0.07790075 -0.04094562 -0.09453317 0.046068083 0.116737835 0.08449454 -0.12832074 0.07502989
0.011920444 -0.031479668 -0.12950704 -0.1065262 0.13976343 0.036909033 -0.12715973 -0.011494685
-0.06583968 -0.051226944 0.062420253 -0.13933954 -0.13616568 -0.1059286 -0.10385773 -0.09162284
0.09704728 0.1408192 -0.114604406 -0.09042877 0.09361843 0.06513379 -0.13568822 -0.043821067

layer1.bias f4 [200]
00000000: b19c aabb 752d 953c 0517 003c 8da2 ad3c
00000010: ae2d 7b3b e8e3 c53b 782e 26bc 83cf 2dbc
00000020: e329 923c f656 f13b f108 46bc c462 0d3b
00000030: f541 57bc 0d33 433c b7d0 cebb 3b47 c43c
00000040: 7805 7e3b 1fde ca3a 0874 b4bc c761 09bc
00000050: 5ab2 4b3c df52 c3bc 66df f8bb b197 e9ba
00000060: 6cbb d43b 0319 acbb 61b2 52bc cbbd 153c
00000070: ad81 92bc f2b1 503b ede5 833a 368c f2bb
00000080: b320 e43c 7b57 e8bb 3541 823c ad6f 2ebc
00000090: 485f 183c 92ba fabb 6b04 94bb 3006 50bc
000000a0: 033e 45bc 23d0 25bc ce24 6dbb 0347 a4bc
000000b0: 6d3e caba a7ba 54bc 2fa3 fabb b883 823c
000000c0: 764b b93c f401 1f3d 8332 d0bc e2bb 31bc
000000d0: a3ca f8bb 0974 373c 144c 393c 19c6 343c
000000e0: 9350 9abc 24b8 12bc 7507 cb3b 111d af3c
000000f0: 6c79 a6ba c2c5 073c ebff 463a c9db 313b
00000100: 9e48 0abd 4800 bfbc eed6 7ebc b5f3 88bb
00000110: 3e02 453c 69e7 9fbc f934 663c b8d9 053c
00000120: 6876 b2bc 2c14 b43c 2d8f 3a3b dafb 44bb
00000130: 1852 e63c 7488 d83c cdc2 2d3d efbb 1dbc
00000140: 5a19 963c c2d4 2b3a 49b4 25bc 4b2e 203c
00000150: 6981 3ebc 121e 3e3b 5970 103c 085b 08bd
00000160: f691 8b3c 97ad 143a 6845 7e3c ea49 863c
00000170: 3a28 e6bc 4e93 ad3c cb3a 0d3d 1365 8c39
00000180: 7d10 53bc 38c0 f63b 7cd8 90bc 49df 333c
00000190: cff8 3bbc 71ab 203c 0e03 cd3b e224 4fbb
000001a0: f54b ba3c cfba ebbb 7e85 5ebc 42b5 a53c
000001b0: 836c 10bb f3bf 4bbc 967a b93c da1d 0cbc
000001c0: 1e64 1bbc e665 edbb d191 253b 1080 92bc
000001d0: d3d4 d5bc 1495 043d 9646 93bc 93b5 803c
000001e0: 80ab 1fbc 2b7e d73c 2bd4 8f3b 8b87 a33c
000001f0: a246 fe3c cea4 f2ba 0f57 77bc fb66 4dbc
00000200: 94f4 bf3b f206 93bb e1b8 e7bb 5508 83bc
00000210: e101 fe3b c22f 5abc c488 4a3c 4990 5539
00000220: 89be 803b 9b76 3ebb bb56 88bc a0fb 173c
00000230: 3756 4bbc 36ae 9ebc 1662 e73b 4fce 113d
00000240: 3e9d c1bc 0000 0000 5ffe c93b f4a3 bd3b
00000250: 9ea4 0dbc a3de 3bbc 4498 55bb 7116 1ebc
00000260: c514 123c 25a9 adbb cb29 e6bc e361 8fbc
00000270: f1fc d0bc 56ec 50bc 8572 89bb 6e1a e2bb
00000280: 032d bb3b 0000 0000 1f23 383c 1e40 89bc
00000290: 64c7 453c de75 69bc b63b 11bd 63af 4bbc
000002a0: 4b71 18bc 669d 32bc 6135 babb 611a c5bc
000002b0: 5678 b4bc 3daf e4bb 192f 74bc 7877 acbc
000002c0: 3438 a6ba 1d4d 6ebc 4dda bf3b 4bce b3bc
000002d0: 1c56 a1bc abe3 de3b d01a eabb d66d 7f3c
000002e0: ecb8 90bb 28a6 f83b 7141 39b9 f8c6 95bc
000002f0: 3f8a 7d3c adb2 a7bc b4ab 6abc 5e24 db3b
00000300: ea44 003b 0532 18bb d900 993c 90b5 41bc
00000310: 072b 193c 9541 b33a 1efc b13c adad 63bc
-0.0052066674 0.018210152 0.007817988 0.021195674 0.0038326788 0.0060391314 -0.010142915 -0.010608557
0.017842239 0.007365103 -0.012087093 0.0021573761 -0.013138284 0.011914027 -0.006311502 0.023959747
0.0038760584 0.0015477574 -0.022027984 -0.008385128 0.012432659 -0.023843227 -0.0075949905 -0.0017821697
0.006492069 -0.005252005 -0.012859912 0.009139488 -0.0178841 0.0031844345 0.001006303 -0.0074019684
0.027847623 -0.0070905066 0.015900234 -0.010646743 0.009300061 -0.0076516354 -0.004517128 -0.012696788
-0.0120387105 -0.010120424 -0.0036185267 -0.020053392 -0.0015429981 -0.0129839545 -0.0076488475 0.015931949
0.02261899 0.038820222 -0.02541471 -0.010848017 -0.0075925156 0.0111970985 0.011309642 0.011033558
-0.018837249 -0.008955035 0.0061959573 0.021376165 -0.0012700981 0.008286895 0.00075912353 0.0027139059
-0.03376066 -0.023315564 -0.015554173 -0.0041794428 0.01202446 -0.019519525 0.014050716 0.008169584
-0.021784976 0.021982275 0.0028466687 -0.0030057342 0.028115317 0.026432253 0.042422105 -0.009627326
0.018322635 0.00065548357 -0.010113784 0.009776662 -0.0116275335 0.0029009623 0.008815848 -0.03328994
0.017037373 0.0005671619 0.015519477 0.016392667 -0.028095353 0.021188404 0.034479897 0.00026778187
-0.012882349 0.0075302385 -0.017681353 0.010978528 -0.011472895 0.0098065 0.0062564677 -0.0031607677
0.022741297 -0.0071939 -0.013581632 0.020228032 -0.0022037334 -0.012435901 0.022641461 -0.008552039
-0.009484319 -0.0072448133 0.0025263915 -0.01788333 -0.026102459 0.032368734 -0.017977994 0.015711581
-0.009745479 0.026305279 0.004389306 0.019962093 0.03103954 -0.001851225 -0.01509644 -0.0125367595
0.0058580134 -0.004486912 -0.0070716 -0.015995184 0.007751689 -0.01331705 0.012361709 0.00020367013
0.0039289636 -0.0029062394 -0.016642919 0.009276301 -0.012410692 -0.01937018 0.0070612533 0.03559714
-0.02363455 0.0 0.0061643566 0.005787367 -0.008645205 -0.011466655 -0.0032591978 -0.009648905
0.008916085 -0.0052997046 -0.0280961 -0.01750273 -0.025511237 -0.012751659 -0.00419456 -0.0069001233
0.005712153 0.0 0.011238842 -0.016754206 0.012071464 -0.014249293 -0.035457335 -0.012431952
-0.009304355 -0.0109017845 -0.005682633 -0.02406043 -0.022030037 -0.006978898 -0.014903807 -0.02105306
-0.0012681545 -0.014544752 0.005854881 -0.021948954 -0.01969438 0.0068020425 -0.0071443096 0.015590152
-0.0044165757 0.0075881667 -0.00017667354 -0.018283352 0.015474855 -0.020470941 -0.014323164 0.006687685
0.0019572326 -0.0023223173 0.018677162 -0.011823073 0.009348637 0.0013676161 0.021726664 -0.013896388

layer2.weight f4 [200, 200]
00000000: 1a45 3f3c dfc1 693d a1cd b5bd e8a1 15be
00000010: 319c 6f3b b4ae 93bc 4a87 a13d 5cb9 8f3c
00000020: ebf8 c7bd fad0 83bd 48d1 663c 8c1a 523c
00000030: 0029 01be a539 5c3d d8b0 c13d e411 993d
00000040: e878 5ebc f5f4 f2bd df30 22bd 6f76 f03d
00000050: ccb1 afbd d1f6 89bd b7c4 90bc 0594 693d
00000060: 6883 aebc 334e 01be 352f 373d 5d2a 94bc
00000070: 1abb d43b 4ed6 ab3c 6d51 2fbd 30f0 a5bd
00000080: d3a5 4c3d ec66 b5bd ca0e b8bb d1fe 9b3c
00000090: 6d41 873d ed75 9b3d 3bbf 9cbd 2a57 dd3c
000000a0: 0eaf dcbb e5b6 bcbc 70c3 473d 9012 de3d
000000b0: 8f06 063c 9b65 4ebd dbea 32bd 9aad 943c
000000c0: 9480 30bd eac8 8abc 94f4 4f3c 089d 083d
000000d0: bf79 b33d 491c 3bbd f165 f2bd 1803 dcbc
000000e0: e4bd c2bd 84f8 9bbd eb51 3ebd df8c aebc
000000f0: 5534 753d 8207 2e3d a9a5 833d 5d54 b3bd
00000100: 88cd 3b3d b28d 4a3d 2caf bc3d 90b7 883d
00000110: bccb 7fbc 7889 fc3d 1692 b53d c43a bbbd
00000120: cf61 9d3d 7a57 e3bc 99df 03be 8373 b7bc
00000130: 1348 bebd 3bd1 4e3d 09cb 94bc c784 9cbc
00000140: ea86 05bd e7fd 9cbd eea2 12be 0ee6 293d
00000150: 48a7 523b 6823 11be 1cbf 503d 1d1e e1bd
00000160: 4220 23bc ecc1 073e 43bd b8bb fd03 b1bd
00000170: db5b b4bd 0272 883d 69a2 b7bd e40e 26bd
00000180: 24c4 9cbd 88a7 c03d 17c2 fabd c4c9 84bc
00000190: a0ed 603b b0ed aabd a9e6 c53d c72c f1bd
000001a0: 2ff0 80bd 16bc 2a3d 3da9 edbb e8aa 953c
000001b0: e528 b1bd 7642 003d 4722 9fbd 9bbf be3d
000001c0: a4a6 f6bd 739b 1bbd 10d7 aebd 7fd8 b4bd
000001d0: a558 f5bc 0764 c6bd 7bfb d7bd 9734 b5bd
000001e0: 240d a0bd d0e0 3cbc b8ea 6ebc fb67 803d
000001f0: a0ab 403d 6db9 96bd 498e 63bd 452c 9abd
00000200: 8ab1 92bd 63ad 9dbd fc60 903c b5fb 963d
00000210: 86ea 233c d6ca 6fbd 819e 33bd 797d b6bd
00000220: 26fc c23c 51da c23d fbcb 22bd a86c a63d
00000230: 1e70 2dbc b757 7cbd 8c79 793d 43a4 6abd
00000240: 3dca 583d f4e5 c63c 591d a0bd cdc2 6ebc
00000250: edf5 a63d 5727 67bd 357c 4bbd 05d8 9e3d
00000260: 073a 833d cd37 7abd bc74 01bd 6c8f 04bd
00000270: 181f 09be 40a9 f4bd 9446 063d 9dcc d03d
00000280: 7c89 a73d ec01 f0bc 696e 3abd 11d2 183d
00000290: cf69 77bb f673 1b3d d319 c43d 7927 b83d
000002a0: ea17 973d 2207 23bd beee bbbd 39ae e4ba
000002b0: 86f0 c0bd d140 e83d fd20 e33d 4ccb efbd
000002c0: 5dd3 c8bd 25ab b13c b168 7dbd ee78 f9bc
000002d0: ddac cfbd 4443 493d d3e2 af3b 152e 01be
000002e0: 0b6c d43d 84bc a63d 2557 3a3c d466 853d
000002f0: 92a3 9d3d 0811 13be 9764 8f3d d7ba 4cbc
00000300: 5775 29bc ae13 d3bd b61c 8b3d 0000 71b9
00000310: d2d3 753d 5f5b d7bc d247 0fbc 5894 eabd
00000320: b0de 46bd 038f 46bc b0bf b8bc 011b 8d3d
00000330: f6a3 463d 8e55 7dbc 2581 d3bd 8521 8f3c
00000340: 59ec 003d 78c8 003c b082 15bd 69f5 ca3d
00000350: 77e9 dbbd 1b2d 2ebd 900c 863d e339 95bd
00000360: 94fb d5bc aafe 563d faa8 85bd 189b a33c
00000370: 7a5b debc 1d94 97bb 5cd1 dfbd a052 d0bd
00000380: 4846 0bbc 3d82 d0bc c1a5 c63c ddb2 d33c
00000390: 7885 973d cc3f 9b3d 6bbe e1bd e84f 913d
000003a0: dceb a9bb 3c55 0a3d e7d9 c53c 8ac8 0dbb
000003b0: 4bb5 5a3d 6e15 4abd 7721 153d 79bf 3a3a
000003c0: eca4 dc3d 3f03 b5bc e93c b2bc ba34 353b
000003d0: 3bbb cc3d f5f2 433d a577 e83c a149 27bd
000003e0: 9e8c 713c 625a b3bd 2fbc 3cbd 3feb babd
000003f0: f4d6 b23c 3077 e63d 3548 a33d c45d c03d
0.01167419 0.057069656 -0.08877111 -0.14612544 0.0036561603 -0.01802764 0.078871325 0.01754444
-0.09764274 -0.064363435 0.0140879825 0.012823712 -0.12613297 0.05376591 0.094575584 0.074741155
-0.013578631 -0.11863128 -0.03959739 0.117413394 -0.08578834 -0.067365296 -0.017671926 0.057025928
-0.021302894 -0.12627487 0.044722755 -0.018086607 0.006492031 0.020976212 -0.042802263 -0.08102453
0.04996283 -0.088575214 -0.0056169974 0.019042404 0.06604276 0.07590852 -0.07653662 0.027019102
-0.0067347353 -0.02303643 0.048770368 0.10843384 0.008180275 -0.050389867 -0.043681007 0.018149186
-0.04309137 -0.016941506 0.012692589 0.03335288 0.087634556 -0.04568127 -0.1183585 -0.026856944
-0.09508875 -0.0761576 -0.04646484 -0.021307407 0.05986436 0.04248763 0.064280815 -0.087563254
0.045850307 0.049451537 0.09213099 0.06675637 -0.015612539 0.123309076 0.08865754 -0.09142068
0.07684671 -0.027751673 -0.12878264 -0.022393947 -0.09291091 0.050492506 -0.018163221 -0.019106282
-0.032599367 -0.076656155 -0.14319965 0.041479163 0.0032143164 -0.14173663 0.050963506 -0.10992072
-0.009956421 0.13257569 -0.005637796 -0.08643339 -0.088065825 0.0666237 -0.08966524 -0.040541545
-0.07654598 0.09406954 -0.12244051 -0.01620949 0.0034321323 -0.083461165 0.096631356 -0.11776119
-0.062958114 0.04168328 -0.007252841 0.018269971 -0.08650378 0.031313382 -0.0777021 0.093138896
-0.12043503 -0.037990045 -0.08537114 -0.08830356 -0.029949496 -0.096870475 -0.10546013 -0.08847921
-0.078150064 -0.011528209 -0.0145823285 0.06269833 0.047038674 -0.07359586 -0.055555616 -0.07527975
-0.07162769 -0.076990865 0.01762437 0.07372228 0.010004645 -0.05854305 -0.043852333 -0.08910651
0.023801874 0.09514297 -0.039745312 0.08126193 -0.010585813 -0.06160709 0.06090693 -0.05728556
0.052927244 0.024279572 -0.078180976 -0.014572811 0.08152375 -0.056434 -0.049679 0.07756046
0.06407552 -0.061088372 -0.031605467 -0.03236334 -0.13390768 -0.119463444 0.032782152 0.10195277
0.0818052 -0.029297791 -0.04551545 0.03730971 -0.0037752276 0.037952386 0.09575238 0.08991904
0.07377608 -0.039801724 -0.09176396 -0.0017446942 -0.09420876 0.11340488 0.110902764 -0.11708698
-0.09805939 0.021688053 -0.06186742 -0.030453172 -0.10140393 0.049136415 0.0053676157 -0.12615235
0.1037217 0.08141425 0.011373316 0.065137535 0.07697214 -0.14361966 0.07001608 -0.012495718
-0.010342917 -0.10306488 0.067925856 -0.00022983551 0.06001646 -0.026288686 -0.008745151 -0.114540756
-0.048552215 -0.012119058 -0.022552341 0.06889916 0.04849621 -0.015462292 -0.10327367 0.017472038
0.0314754 0.0078602955 -0.036501586 0.099100895 -0.10737889 -0.042523485 0.06545365 -0.07286432
-0.026120938 0.05248896 -0.0652637 0.019971415 -0.027143229 -0.004625811 -0.10928604 -0.101720095
-0.008500643 -0.025452727 0.02424896 0.025842125 0.07398504 0.07580528 -0.110226475 0.07095319
-0.0051855873 0.033772692 0.024151755 -0.0021634423 0.05339555 -0.049336843 0.036408868 0.00071238686
0.10773644 -0.022096274 -0.02175756 0.0027649836 0.09996649 0.047839124 0.028377363 -0.040841702
0.014742998 -0.087574735 -0.046077903 -0.09126901 0.021831013 0.11253202 0.07972757 0.093928844

layer2.bias f4 [200]
00000000: cfe1 e6bc 497f 51bc e3e7 793c 658b 16bc
00000010: ca53 06bb 371e 9bbb 39f1 703b adac 553c
00000020: 66ea d43c 1ab4 8ebc 17e6 95ba ec44 123c
00000030: 132e f5bb b8b5 833c 8418 e0bb 360f bf3b
00000040: 81cc 80bc 058b df39 ff45 d0bb e567 38bc
00000050: 5be3 503c c417 473c 5f56 043d a2b6 f4bb
00000060: 139e 843c c604 633c a592 43bb 879f 8f3b
00000070: 2bd5 87bc 6ce5 0abc adb5 bbbb 4bfa e53a
00000080: 9ed7 69bb 0dfc ae3c 0fa7 9838 d87c b3bb
00000090: c87c f2bc 26f1 093c 8e4a 28bc 4090 d33b
000000a0: cf98 a73c f37f d8ba 9f83 eabb 7526 62bc
000000b0: a274 a53c 4047 c53b 313d ba3c 28a2 cbbb
000000c0: 57c0 4abc 14e4 0d3d 5c03 ff3b c4c3 bebb
000000d0: 5903 d63c 7644 b1bb 34e2 81bc 6628 36bc
000000e0: efb6 23bc 3e9d 1b3c 7f0e dcbb 2539 b43b
000000f0: 8e6a 6c3c 0000 0000 c1fd 413c 1c8f 06bb
00000100: 8fd5 e83b 5eff 18bc 1fc0 d13c a877 0dbb
00000110: 5e71 2438 f44f e7bb 1d8f 3bbb 67c4 a7bc
00000120: df25 8ebc 499b 34bc 542d 01bc 2daf 313c
00000130: f357 c23c 3a13 2a39 665c 67bc 093a 10bc
00000140: c7c5 a03b 6087 1abc 5aae 71bb 978a 38bc
00000150: 8a5f f8bb e401 dbbb 175d 20bc 9dfd 33bc
00000160: 2d92 4bbc c6c3 543c 7b2f 543b f501 dabb
00000170: 6050 00bc a610 023d 9bad a8bc 92fb 8cbc
00000180: 5f81 86bb abc6 1ebc b23f 26bc 8b8c 1e3c
00000190: c915 25bc bff3 c73c 6711 8fbc aad7 9c3c
000001a0: 533d 60bb 5db0 253b 3799 afbc 92f9 d13c
000001b0: 00e6 21bb 19b4 aebc 85b0 7a3c 3b98 2b3b
000001c0: f7a3 daba 6a62 77bc 77de 3ebc 3bcd 8fba
000001d0: 67a7 53bc 7011 a03c 4532 17bc b971 333c
000001e0: 84ad 3dbc 5f82 253c 62ef 3cbc 1962 d33c
000001f0: c496 d33b d4b4 9abc 6b50 3fbc 7d53 81bc
00000200: 6d3a 563c 295e afbb 0ce2 b9bc cb0b ac3c
00000210: 0955 df3b 6716 8bbc c625 73bc 9fe4 033b
00000220: cd25 8a3b e2a1 843c 6e57 2a3a 89b5 f4ba
00000230: 9741 a33b d51b 8a3c 196f 773c 2e39 7a3c
00000240: 01c8 7e3c b309 07bc 2257 f2bb f58d 9d3c
00000250: f9d0 9a3b 7caa a43c da32 b6bb a25a 063d
00000260: 62b6 ffbb 6c6d 39bc 1140 a5bc ac85 7dbb
00000270: a853 93bc 1217 303c 38ca 2abc 973d de3c
00000280: 5d56 e439 bee7 813b a6db 1dbc ee95 17bc
00000290: 13c6 86bc 4bae c8bb 8ec2 0d3c 4e9a 4aba
000002a0: 6ad7 e73a 26f0 863c d547 6c3c bdc4 003c
000002b0: 6798 923b e249 90bc bd3f a3bb 1448 e03b
000002c0: 9b97 0dbc 4adb 80bc 2dc9 013c a39b 95bb
000002d0: 2760 9c3b 7c47 f1bb 0c33 2bbc 9441 b4bb
000002e0: dad6 3c3c abeb 60bb 876a 5fbb fe66 f73c
000002f0: 0333 51bc ad77 b73b de59 35bc aa47 f7bb
00000300: 250e 2e3c 9809 ab3c 9246 3cbc 8e71 df3b
00000310: 55fa c83c 61df e1bb 18eb 9a3a 27f3 d3bc
-0.028183846 -0.012786695 0.01525304 -0.009188508 -0.002049672 -0.0047338265 0.0036764874 0.013041657
0.025990676 -0.017419863 -0.001143637 0.008927565 -0.007482299 0.016077861 -0.00683886 0.0058306707
-0.015722515 0.00042637452 -0.0063560004 -0.011255239 0.012749518 0.012151662 0.032308932 -0.0074680606
0.016188657 0.013856119 -0.0029842046 0.004383031 -0.016581139 -0.00847755 -0.0057284446 0.0017545907
-0.0035681496 0.021360422 7.279042e-05 -0.005477529 -0.029600516 0.008419311 -0.0102716815 0.006456405
0.020458607 -0.0016517624 -0.0071568037 -0.013803114 0.020197216 0.0060204566 0.022734256 -0.006214399
-0.012374959 0.03464134 0.007782383 -0.005821677 0.026124643 -0.0054097725 -0.015854932 -0.01111803
-0.009992345 0.009497939 -0.0067155953 0.005499976 0.0144297015 0.0 0.011840285 -0.0020532077
0.0071055363 -0.009338228 0.025604306 -0.0021586213 3.920623e-05 -0.0070590917 -0.0028619238 -0.020479394
-0.017352043 -0.011023351 -0.007884342 0.010844988 0.023723578 0.00016219626 -0.014121151 -0.008802899
0.0049063894 -0.00943169 -0.0036877603 -0.011263511 -0.0075797485 -0.006683575 -0.009787819 -0.010985759
-0.012424988 0.012986129 0.0032376933 -0.0066530653 -0.007831663 0.03175416 -0.020590594 -0.017209802
-0.0041047777 -0.009690921 -0.010147022 0.009677063 -0.010075995 0.02440822 -0.017464353 0.019145805
-0.003421624 0.0025282123 -0.021435363 0.0256317 -0.002470374 -0.021326112 0.015300875 0.0026183266
-0.0016680945 -0.015099147 -0.011649719 -0.0010971198 -0.01291833 0.019539565 -0.009228294 0.010952407
-0.011577014 0.010101884 -0.011531683 0.025803613 0.0064571816 -0.018885054 -0.011676888 -0.01578688
0.013075453 -0.005351801 -0.022690795 0.021001717 0.006815557 -0.016978456 -0.014840549 0.0020125282
0.004215932 0.016190473 0.00064980134 -0.0018669824 0.004982184 0.016858974 0.015102171 0.015272422
0.015550614 -0.008242059 -0.007395641 0.01923273 0.0047246185 0.020100825 -0.005560261 0.032801278
-0.007803724 -0.011317592 -0.02017215 -0.003868441 -0.017984226 0.010747688 -0.010424189 0.027128978
0.00043551894 0.0039643934 -0.009634888 -0.009252055 -0.016451871 -0.006124293 0.0086523425 -0.00077286817
0.00176881 0.016471934 0.014421423 0.007859406 0.004473734 -0.017613355 -0.0049819634 0.00684453
-0.008642103 -0.015729565 0.007921499 -0.0045656725 0.0047722044 -0.007363258 -0.010449182 -0.0055009816
0.011525834 -0.0034320157 -0.0034090595 0.030200478 -0.01276851 0.0055989833 -0.011068789 -0.007546385
0.0106234895 0.020878598 -0.011491435 0.0068189567 0.02453343 -0.006893084 0.0011819331 -0.02587278

mu.weight f4 [4, 200]
00000000: b742 233d 7386 773d ad0c 9ebd 501d 13bc
00000010: c5d3 27be 1fa9 20bd 2166 b53d cce1 233e
00000020: f7da c63d b666 1fbe fbd4 3fbd 7cb2 cebd
00000030: 02df 1c3e aafe 953c c918 043e 2726 92bd
00000040: 5feb 2d3e bd83 ed3d ac2c bc3d bcf9 c03d
00000050: 491e 783d f774 9c3d f150 0b3d aeac a5bd
00000060: 9e66 9d3c 712f a03d aeda 263c d7f8 f73d
00000070: cc4b abbd 8581 d4bd 1621 143e d27b 81bd
00000080: 4d0a 2bbe e87e 66bc 3379 1e3d ed8d 22be
00000090: cd6d 1ebe 0305 303d 4f04 89bd da92 e0bc
000000a0: 005c 77bd 71ec 2ebe 2ba9 8cbd 42bd 0f3e
000000b0: 1a63 b6bd a0b6 0bbe 7186 053d a8a2 76bd
000000c0: 5fe3 edbd afc0 4ebd d556 273e 9ebe 8dbd
000000d0: eda1 a2bd d6b7 b23d 4425 f63c 68f3 fdbd
000000e0: 6df7 ce3d cdee c0bd 989a f63c 9c2c f23d
000000f0: 5527 29be 8c7c 783d 9d85 21be 8d0c 5bbd
00000100: d553 a5bc 8538 013e ed25 063e df59 afbd
00000110: 79e3 9e3d 5a8f 82bd b4f9 f8bd 83e5 e53d
00000120: 39e5 863c 2b99 0bbd 524f 8ebd 89f1 1c3e
00000130: e2ce adbc 5645 acbd b8a0 05be 0fcb c13d
00000140: c7e3 a6bd 92c2 4a3d 541f d13d 286f 42bc
00000150: ecc7 e23d 5b13 b73c 9a2a 0dbe cfcd d8bd
00000160: cea6 7d3d 3124 0cbe 84d3 95bb e504 493b
00000170: 2dc7 1c3d dc43 3ebd b4af 57bc 3db2 963d
00000180: 5baa 2e3e e581 cbbd f3f5 e7bd 477b ef3d
00000190: 7904 41bd 58e4 2f3e 0f6a 07bb ff34 4bbd
000001a0: 815c 7dbd 74fd f4bd e653 bb3d 2552 153e
000001b0: 878e 17be 763e 983b 2244 82bc c654 4dbc
000001c0: c236 0b3e ad83 7b3d 079d d4bc ffd0 0e3d
000001d0: d6e2 bebd da33 2cba 121f 0bbe f67d e9bd
000001e0: 99c9 36bd 1b0e 163e 36dd 213c 520b 6b3d
000001f0: 0924 69bc 64cf 84bd c418 00be be29 e33d
00000200: fb07 bb3d e47e 15be 9fc3 53bd 175d d0bc
00000210: 7131 b03d 80cd da3d b16b e03d c912 ebbd
00000220: 8887 a5bd 5dd2 23be 4db5 183d 4824 ecbc
00000230: 3c20 d23d 5fa9 543d 04a6 04be 9594 a8bd
00000240: 2c11 79bd 5ab0 2bbd 32be 043e b862 6e3d
00000250: abcd 13bd b9f4 19be 0f81 e0bd b29e 62bd
00000260: 4cca 1cbd 2f67 b4bb 5870 063e a834 883c
00000270: 8aaf de3d e41a 303e 8f2e 6b3d f877 4f3b
00000280: ec83 d9bd 7542 f0bd 757f 2fbe 9e37 2b3d
00000290: ea1e 083e 2140 abbd 7598 a8bc 3620 79bd
000002a0: 6bd2 6d3d 22ca d1bc d7ae 743d c1a4 ddbd
000002b0: 3779 183e e7d1 17be 32d5 23be 57a7 013e
000002c0: 658c adbc 8c99 15be 3381 2abe b035 f43d
000002d0: d04f 21bd 9951 8a3d 85d2 afbd 4d32 ce3d
000002e0: 7374 cd3d 2b1b 0c3e b365 12be 4b16 613d
000002f0: 2f3a c13d 1f0e ff3d 8c11 2d3d d0ed fc3d
00000300: 7a34 b6bd d366 793d 8143 a2bd 9353 0cbc
00000310: 1c3f 973d 6971 b43d 8bb2 b73c 4658 ef3d
00000320: 69b1 e73d 48fc ebbd 92d6 aa3d 713c 0ebd
00000330: 7808 01be a708 633d 02d6 f9bd 41d1 f3bd
00000340: aec7 623d 358f 023e 09a5 e03d 3246 d2bd
00000350: 4ba0 12be 3897 b73d 51da d6bd 9668 48bd
00000360: 1ff0 bb3d 6536 16bd e4ee 1ebd 5a35 e33d
00000370: 1d0c ab3d 6262 953d e79b 003c 28c7 a9bc
00000380: da39 d5bd b9ea a33d 7804 ea3d 3353 19be
00000390: d3fa c5bd 8c8c 3abd a9ac a8bd 7407 913d
000003a0: 3156 25bc d9cb 27be 65a1 32bd 3c72 adbc
000003b0: 8030 d73d c014 e7bd c27d c3bb 2955 353d
000003c0: 6e3d 12be 5f79 62bd c979 353d 81df 1bbe
000003d0: b7a2 50bd a3d3 b13d bd62 2bbe 8110 a83d
000003e0: 2f1e 30be 2548 c1bd 879f b63b 170b 0fbe
000003f0: d616 83bd 5586 6cbd 2254 d03b 23f9 5f3d
0.039858546 0.060430955 -0.077172615 -0.008979157 -0.16389377 -0.039223786 0.0885737 0.16004103
0.09709733 -0.15566525 -0.046833973 -0.10092637 0.15319446 0.01830991 0.1290008 -0.07136183
0.16984318 0.11597393 0.09188208 0.09422633 0.060575757 0.07639497 0.03401274 -0.08089577
0.01921397 0.07821549 0.010183973 0.12108009 -0.083640665 -0.103762664 0.14465746 -0.06322445
-0.16703148 -0.014068343 0.038689803 -0.15874453 -0.15471573 0.04297353 -0.06690275 -0.027413774
-0.060390472 -0.17082383 -0.06868204 0.1403704 -0.08905621 -0.13643885 0.032598916 -0.060213715
-0.11615633 -0.050476726 0.16341718 -0.06921123 -0.07941041 0.0872647 0.030047067 -0.12399942
0.101057865 -0.09420548 0.030103013 0.11824915 -0.1651891 0.060665652 -0.15773626 -0.053478766
-0.020181576 0.12619217 0.13100405 -0.085620634 0.07758231 -0.063749984 -0.12157002 0.112254165
0.016466724 -0.03408162 -0.06948723 0.15326513 -0.021216813 -0.08411662 -0.1304959 0.094625585
-0.08148914 0.049501963 0.102110535 -0.011867322 0.11073288 0.022348097 -0.13785782 -0.1058613
0.061926655 -0.13685681 -0.004572334 0.0030673083 0.038275886 -0.046451434 -0.0131644495 0.07358215
0.17057173 -0.09936885 -0.11326208 0.11693435 -0.047123406 0.1717695 -0.002066258 -0.049611088
-0.061855797 -0.11962405 0.09146862 0.14582117 -0.14800464 0.004646118 -0.015901629 -0.012532419
0.13595107 0.061404873 -0.025953783 0.034867283 -0.09320609 -0.0006569006 -0.13586071 -0.11400978
-0.044625852 0.14653818 0.009879401 0.057383843 -0.014229783 -0.06484869 -0.12509447 0.11091946
0.091323815 -0.14599186 -0.05170023 -0.025435014 0.0860318 0.10683727 0.109580405 -0.11478192
-0.08082491 -0.15998216 0.037282277 -0.028825894 0.102600545 0.051919337 -0.12953955 -0.08231465
-0.060807392 -0.04191623 0.12963179 0.058199614 -0.036084812 -0.1503476 -0.10962116 -0.055327125
-0.038278863 -0.0055054645 0.13128793 0.016626671 0.10873325 0.17197758 0.05741745 0.00316572
-0.10620865 -0.11731426 -0.17138465 0.041801088 0.13293043 -0.08361841 -0.02058051 -0.060821734
0.058062 -0.02560908 0.059737053 -0.1082244 0.1488999 -0.14826165 -0.15999296 0.12661491
-0.02118511 -0.14609355 -0.16650848 0.119243026 -0.039382756 0.06753845 -0.08585075 0.10068188
0.100319766 0.13682239 -0.14296608 0.0549529 0.09434926 0.12453865 0.042253062 0.12350047
-0.08896728 0.060889076 -0.079230316 -0.0085648475 0.07385084 0.08810694 0.022424003 0.11686759
0.11313135 -0.11522728 0.08341707 -0.03472561 -0.12600887 0.055428173 -0.12199022 -0.119051464
0.05536621 0.12749942 0.10968978 -0.10267295 -0.1431896 0.089643896 -0.10490859 -0.048927866
0.09176659 -0.03667297 -0.038802043 0.110941604 0.0835192 0.07294156 0.00784967 -0.020724848
-0.10411425 0.08003754 0.114266336 -0.14973144 -0.096669815 -0.045544192 -0.08236057 0.070815
-0.01009135 -0.16386355 -0.04361095 -0.021172635 0.105072975 -0.112832546 -0.0059659192 0.04427067
-0.14281246 -0.05529153 0.044305597 -0.15221979 -0.050936427 0.086829446 -0.16736884 0.08206273
-0.17199014 -0.094375886 0.0055732164 -0.13969074 -0.0640084 -0.057745297 0.0063576857 0.054680955

mu.bias f4 [4]
00000000: 6434 8a3b f0b5 15bb 9a88 98bc 75c7 a03c
0.004217671 -0.002284404 -0.018619824 0.019626359
