llirl_sumo/saves/120p4k_ultimate/optimal_policy_period_1.pth (torch, 196916 bytes, 7 tensors)

sigma f4 [4]
0.028696809 -0.019347342 -0.018443791 0.027620858
00000000: 9215 eb3c 517e 9ebc 6f17 97bc 2345 e23c

layer1.weight f4 [200, 36]
0.048671864 0.14680919 0.0009769321 0.021832421 0.035677906 0.06310457 -0.063780434 0.068664774
-0.035665743 0.08604261 -0.03530248 0.06088107 0.097159505 -0.1176423 0.051318564 0.019548519
-0.12345786 -0.030413253 -0.003907528 0.12628789 -0.082140885 0.13612872 -0.05474808 0.0830199
0.054912735 0.117318325 0.11452302 -0.12187228 0.003984947 -0.13452283 0.014461416 -0.09283843
0.15257844 0.09343233 -0.07395638 0.03673027 -0.10277841 -0.14785226 0.06712202 -0.0354086
-0.0014111738 -0.016202256 0.035873596 0.073626615 -0.071678765 -0.026280865 -0.08695193 -0.09089201
-0.06439198 0.019853368 -0.13225128 -0.007690899 0.12644202 -0.15479861 0.012921447 0.103440605
0.0016337936 0.07674316 -0.104286715 -0.0062190993 -0.06329641 -0.006445597 -0.043084368 0.007408577
0.12917638 -0.055781137 0.018113911 -0.11874239 0.077569894 0.021956252 -0.11235614 0.097804986
-0.08586026 -0.11513999 -0.14678326 -0.07976245 -0.025280999 -0.0693625 0.16253696 -0.13584536
-0.0107196085 -0.10064417 0.16273664 -0.034138095 -0.1317902 0.07959286 -0.071336836 0.07724497
0.15677749 -0.021027485 -0.0058935224 -0.1387304 -0.008534282 0.09889799 0.09596775 0.07002409
-0.12940896 0.113058835 0.085545495 -0.03667326 -0.15579051 0.12202958 -0.0093305465 -0.10988494
0.11973 -0.1389174 -0.14969106 0.120082915 0.123023316 -0.0014537489 0.002419043 -0.046284776
-0.10940562 -0.06795095 -0.09863065 -0.0023303155 -0.047898766 -0.011754337 -0.09024247 0.07710985
0.085766934 -0.0411444 0.11805012 0.015520045 -0.14063223 -0.049016196 -0.15409496 -0.043442428
0.097869806 -0.01456976 -0.051761333 0.017441183 -0.048618324 -0.14884265 0.0069856634 -0.14509659
0.042325627 -0.04777688 0.017083459 -0.12708339 0.015625536 0.0054888 -0.0967048 -0.019530443
0.06375641 -0.013704363 -0.050132286 0.10642925 0.1546733 -0.08424722 0.016554568 -0.0378208
-0.011906466 0.09486418 -0.010290774 -0.015687056 0.050600406 0.117574826 0.14170098 0.067114905
-0.08058774 -0.062288284 -0.111865684 -0.15009831 -0.16657063 -0.049250595 0.034177016 0.121151105
-0.015433268 -0.16987099 -0.095347635 0.09718902 0.12275796 0.021691313 -0.049269114 0.09919879
0.015362576 -0.13430843 -0.10365699 -0.068096444 -0.030674541 -0.06954333 -0.030418579 0.10863374
0.11502302 -0.02696793 0.097517155 0.106490634 -0.059122425 0.13175634 0.043802436 -0.044257462
0.16418792 -0.026478158 0.009531734 0.06523181 0.030205522 0.028919587 -0.052486204 0.05316107
0.02701796 -0.022706937 -0.122411355 -0.058047567 0.16027078 0.12226731 0.04932264 -0.05929847
0.097440496 0.09990209 -0.11414511 -0.061480746 -0.14300758 -0.17610513 0.12922317 0.021586971
-0.026832601 -0.03057378 -0.01553918 0.14448471 -0.1549841 0.10322736 0.058708053 -0.021547753
-0.08311355 -0.053048283 -0.08727705 0.040855315 0.10463517 0.09175066 -0.13353348 0.10307473
0.04972809 -0.02548598 -0.10146218 -0.06871857 0.14575717 0.04184552 -0.09977901 -0.008127591
-0.060903225 -0.023846317 0.06578735 -0.13440311 -0.10878496 -0.1025615 -0.09976876 -0.102548055
0.10294323 0.14490813 -0.12552962 -0.08453282 0.09366015 0.0651751 -0.1356465 -0.043779306
00000000: 265c 473d 2655 163e 670c 803a e8d9 b23c
00000010: ff22 123d f83c 813d 519f 82bd 1ea0 8c3d
00000020: 3e16 12bd 1c37 b03d 5599 10bd 6e5e 793d
00000030: 90fb c63d 72ee f0bd 6a33 523d 3724 a03c
00000040: 79d7 fcbd 3725 f9bc b80a 80bb 9d51 013e
00000050: 7b39 a8bd 5465 0b3e 863f 60bd 5606 aa3d
00000060: 2dec 603d 9744 f03d 0c8b ea3d 2d98 f9bd
00000070: 2994 823b 5ac0 09be 93ef 6c3c 1322 bebd
00000080: 863d 1c3e 7359 bf3d 7176 97bd 7b72 163d
00000090: 7d7d d2bd 9566 17be 4577 893d 9c08 11bd
000000a0: 23f7 b8ba 98ba 84bc 31f0 123d 8dc9 963d
000000b0: 51cc 92bd f84a d7bc da13 b2bd 9725 babd
000000c0: f1df 83bd 88a3 a23c e16c 07be f003 fcbb
000000d0: 047a 013e 8783 1ebe 7ab4 533c abd8 d33d
000000e0: 0425 d63a 852b 9d3d 4694 d5bd 96c9 cbbb
000000f0: 8ca1 81bd 9635 d3bb 3c79 30bd a6c3 f23b
00000100: d046 043e c37a 64bd a063 943c 362f f3bd
00000110: f7dc 9e3d 99dd b33c fa1a e6bd fb4d c83d
00000120: 81d7 afbd 84ce ebbd 5a4e 16be 7f5a a3bd
00000130: 191a cfbc ed0d 8ebd 1770 263e 0c1b 0bbe
00000140: 4ca1 2fbc 881e cebd 6fa4 263e 63d4 0bbd
00000150: 03f4 06be 9501 a33d 0c19 92bd 9c32 9e3d
00000160: 478a 203e d541 acbc 731e c1bb 580f 0ebe
00000170: 60d3 0bbc 088b ca3d bd8a c43d ca68 8f3d
00000180: c883 04be 648b e73d 7a32 af3d b336 16bd
00000190: 8c87 1fbe a5ea f93d 26df 18bc 5b0b e1bd
000001a0: 0135 f53d 5d40 0ebe 9d48 19be 08ee f53d
000001b0: a6f3 fb3d b88b beba cf88 1e3b 1b95 3dbd
000001c0: 0e10 e0bd de29 8bbd defe c9bd 35b8 18bb
000001d0: 7f31 44bd 4395 40bc 0bd1 b8bd c5eb 9d3d
000001e0: 93a6 af3d 0887 28bd 43c4 f13d c947 7e3c
000001f0: e501 10be 35c5 48bd 12cb 1dbe b0f0 31bd
00000200: f76f c83d 01b6 6ebc b103 54bd d0e0 8e3c
00000210: 0224 47bd 356a 18be fee7 e43b 3394 14be
00000220: a35d 2d3d b1b1 43bd 9cf2 8b3c 2622 02be
00000230: 2001 803c 64db b33b 2b0d c6bd 4ffe 9fbc
00000240: b892 823d 4488 60bc 8357 4dbd 94f7 d93d
00000250: ad62 1e3e ce89 acbd 729d 873c fce9 1abd
00000260: 5713 43bc 2748 c23d a29a 28bc 2482 80bc
00000270: 5f42 4f3d 12cb f03d 101a 113e 8a73 893d
00000280: 2f0b a5bd 0022 7fbd d619 e5bd 5fb3 19be
00000290: 7e91 2abe feba 49bd 33fd 0b3d 121e f83d
000002a0: d1db 7cbc a9f2 2dbe 9f45 c3bd 090b c73d
000002b0: 8668 fb3d fbb1 b13c 69ce 49bd bc28 cb3d
000002c0: 50b3 7b3c 2688 09be 1e4a d4bd 2676 8bbd
000002d0: 2d49 fbbc bc6c 8ebd 6230 f9bc 5e7b de3d
000002e0: 3091 eb3d d9eb dcbc 13b7 c73d c317 da3d
000002f0: 5b2a 72bd 22eb 063e 2f6a 333d 5047 35bd
00000300: e120 283e b9e8 d8bc fd2a 1c3c 4198 853d
00000310: 9271 f73c c5e8 ec3c c6fb 56bd 6cbf 593d
00000320: c554 dd3c e603 babc ceb2 fabd 49c3 6dbd
00000330: 061e 243e 4967 fa3d 8906 4a3d f4e2 72bd
00000340: e28e c73d 7899 cc3d e9c4 e9bd 3cd3 7bbd
00000350: 9470 12be e754 34be 1453 043e 29d7 b03c
00000360: 0bd0 dbbc dd75 fabc 0b98 7ebc cdf3 133e
00000370: 27b4 1ebe de68 d33d db77 703d ea84 b0bc
00000380: 7037 aabd 2849 59bd 4fbe b2bd e757 273d
00000390: f74a d63d c5e7 bb3d 00bd 08be d818 d33d
000003a0: afaf 4b3d f9c7 d0bc 67cb cfbd 52bc 8cbd
000003b0: 5e41 153e 3566 2b3d f058 ccbd 9629 05bc
000003c0: a975 79bd 5a59 c3bc 85bb 863d f8a0 09be
000003d0: a6ca debd c40b d2bd 9053 ccbd b704 d2bd
000003e0: e6d3 d23d cc62 143e d68a 00be 8b1f adbd
000003f0: e5d0 bf3d 867a 853d ebe6 0abe ee51 33bd

layer1.bias f4 [200]
-0.007453598 -0.013418934 -0.0027545115 0.026212761 0.010926488 0.010092257 -0.010497044 -0.010545402
0.017921936 0.018796029 -0.00450509 -0.0016052193 -0.0014984742 0.008880987 4.499901e-05 0.022784263
0.010985488 -0.014747756 -0.010003787 7.969426e-05 0.014528886 -0.008360999 -0.005157995 -0.0043854145
-0.0016090245 0.00093183026 -0.00057610846 0.00902408 -0.011824625 0.006403318 -0.019735903 -0.0012716865
0.020759476 -0.0053257835 0.018051567 -0.010529686 -0.0072525623 -0.00493298 -0.009749951 0.00039295232
-0.0014882659 -0.009880876 -0.013041415 -0.01001948 -0.010567995 0.004367554 -0.0028314742 0.016169965
-0.015776468 0.029164298 -0.014515617 -0.0076151835 0.0 0.0048979884 0.011439741 0.00810548
-0.008444842 -0.008915704 0.009030413 0.019605912 0.0011412525 0.012739521 -0.014881103 0.0050426917
-0.010489346 -0.010926775 -0.014131748 -0.0037047118 0.013996446 -0.015861657 -0.009184244 8.334169e-05
-0.015888415 0.011311719 0.017501391 0.0017662018 -0.015583013 0.01633685 0.033395465 -0.006827956
0.015309719 -0.00447981 0.0012693536 0.009844813 0.0070420466 0.010747748 -0.006677148 -0.0070578433
0.013489773 -0.006453763 0.017369319 0.0054086335 -0.009856035 0.020983933 0.027561935 0.0075647715
-0.012542503 0.001779253 -0.016149787 0.0144514525 -0.011418793 0.013817192 0.004380081 -0.008769896
0.009453599 -0.00034964646 -0.012352061 0.021127889 -0.00027228697 -0.007627643 0.01687153 -0.0080351215
0.001161872 -0.0035878245 0.008769701 -0.01489203 -0.016782124 0.012600673 -0.015615477 0.015256581
0.006846118 0.024175568 -0.008962936 -0.007647055 0.019662607 0.0057552657 -0.010387101 -0.012397849
0.009341014 0.0020656209 0.0041303937 -0.010655014 0.00015490832 -0.013134675 0.01650586 0.014401688
0.0058748964 -0.0013281761 -0.009363654 0.0017318311 -0.0056438125 -0.001957374 0.014837643 0.025700836
-0.009328089 0.0 0.01796243 -0.0051944163 -0.0022617811 -0.0017412711 -0.009345688 -0.0060278606
0.012970744 0.0047179474 -0.012313671 -0.006725399 -0.0051348875 -0.01717345 0.014946443 0.0021079949
0.0038478782 0.0 0.016418526 -0.013025607 0.002942789 -0.005163997 -0.020592824 -0.0058554937
-0.00013806814 -0.006215997 -0.0006285723 -0.0036955187 -0.02042092 0.00054184435 -0.0055311234 -0.01423739
0.004637753 -0.013912809 0.010362745 -0.011170014 -0.016898513 -0.007320686 0.0032320349 0.0074684354
-0.004390084 0.003507709 -0.008781082 -0.007766072 0.017655183 -0.012498343 -0.0128459 0.018316813
0.004205127 0.009407689 0.011165121 -0.011659871 0.00035209316 0.013725112 0.019178862 -0.003417672
00000000: 503d f4bb 17db 5bbc 0985 34bb 25bc d63c
00000010: 0305 333c fe59 253c cbfb 2bbc 9fc6 2cbc
00000020: 06d1 923c 21fa 993c 6f9f 93bb 3966 d2ba
00000030: 7368 c4ba 8f81 113c 52bd 3c38 10a6 ba3c
00000040: 7afc 333c 92a0 71bc ede6 23bc 8821 a738
00000050: 910a 6e3c 92fc 08bc 6604 a9bb 86b3 8fbb
00000060: e7e5 d2ba 1246 743a fc05 17ba bcd9 133c
00000070: 12bc 41bc edd2 d13b 30ad a1bc b8ae a6ba
00000080: c70f aa3c e983 aebb e1e0 933c b484 2cbc
00000090: e7a6 edbb d6a4 a1bb 42be 1fbc 2b05 ce39
000000a0: eb11 c3ba 66e3 21bc a9ab 55bc bf28 24bc
000000b0: 6225 2dbc b31d 8f3b 4190 39bb e076 843c
000000c0: a73d 81bc f7e9 ee3c e9d2 6dbc ca88 f9bb
000000d0: 0000 0000 4e7f a03b c06d 3b3c d9cc 043c
000000e0: 3c5c 0abc 2c13 12bc 4cf4 133c 949c a03c
000000f0: 1496 953a 6db9 503c dfcf 73bc 2a3d a53b
00000100: 82db 2bbc 3706 33bc d988 67bc c0ca 72bb
00000110: 5951 653c 4ef0 81bc 8379 16bc bbc7 ae38
00000120: 6c28 82bc ca54 393c 145f 8f3c e67f e73a
00000130: e54f 7fbc dcd4 853c afc9 083d 0cbd dfbb
00000140: 9ed5 7a3c 5fcb 92bb 7060 a63a 234c 213c
00000150: f8c0 e63b 5317 303c facb dabb 7b45 e7bb
00000160: 3504 5d3c 177a d3bb 1a4a 8e3c e83a b13b
00000170: 357b 21bc 7fe6 ab3c 91c9 e13c e7e1 f73b
00000180: 127f 4dbc d335 e93a 8f4c 84bc c9c5 6c3c
00000190: e415 3bbc 8161 623c c886 8f3b 9caf 0fbc
000001a0: 45e3 1a3c c150 b7b9 4d60 4abc 6514 ad3c
000001b0: bdc1 8eb9 4ff1 f9bb 2a36 8a3c bea5 03bc
000001c0: f449 983a b521 6bbb cbae 0f3c b3fd 73bc
000001d0: aa7a 89bc 0e73 4e3c 0fd8 7fbc bdf6 793c
000001e0: 6655 e03b d70b c63c 47d9 12bc 2694 fabb
000001f0: 7a13 a13c ab96 bc3b a92e 2abc 5920 4bbc
00000200: 0d0b 193c 5e5f 073b 4158 873b 5e92 2ebc
00000210: e36e 2239 d232 57bc 4c37 873c 0ff5 6b3c
00000220: 3482 c03b 3216 aeba 036a 19bc 9cfe e23a
00000230: bbef b8bb 4947 00bb 9619 733c 8f8a d23c
00000240: d7d4 18bc 0000 0000 f225 933c ec35 aabb
00000250: 643a 14bb 5d3b e4ba a81e 19bc 5c85 c5bb
00000260: 3e83 543c 0399 9a3b 48bf 49bc bc60 dcbb
00000270: 8f42 a8bb 56af 8cbc ede1 743c 4926 0a3b
00000280: af2c 7c3b 0000 0000 2580 863c 5b69 55bc
00000290: cfdb 403b bf36 a9bb 48b2 a8bc 71df bfbb
000002a0: 62c6 10b9 90af cbbb c6c6 24ba 8430 72bb
000002b0: c649 a7bc 8f0a 0e3a 6d3e b5bb f143 69bc
000002c0: 4bf8 973b 8df2 63bc 81c8 293c 6f02 37bc
000002d0: c06e 8abc 5de2 efbb 8cd0 533b c7b9 f43b
000002e0: b2da 8fbb 97e1 653b 87de 0fbc 897a febb
000002f0: 9aa1 903c dac5 4cbc 9c77 52bc 240d 963c
00000300: 29cb 893b b522 1a3c e9ed 363c 0b09 3fbc
00000310: 2599 b839 4bdf 603c fd1c 9d3c 05fb 5fbb

layer2.weight f4 [200, 200]
0.022571951 0.06661949 -0.09703012 -0.120615795 0.020388117 -0.007660933 0.07834712 0.01754444
-0.07593052 -0.06874649 0.015039354 0.023327082 -0.12082912 0.07048444 0.109984405 0.08737778
-0.004584171 -0.12564816 -0.039570794 0.1048254 -0.07375719 -0.06733793 -0.03649092 0.057026036
-0.0059956666 -0.12624826 0.047398865 -0.0050135707 0.011616312 0.011134388 -0.03921373 -0.078612454
0.047726464 -0.086325794 0.019734394 0.019058209 0.087649554 0.08583424 -0.049430005 0.034648843
0.0064738663 -0.023023777 0.05946309 0.10846285 0.0071504144 -0.049302503 -0.00882836 0.030289
-0.04307264 -0.004985267 0.021327596 0.026166882 0.087634556 -0.043272357 -0.107299 -0.03605806
-0.09508588 -0.07613607 -0.026143568 -0.002564802 0.059925538 0.061255466 0.055472173 -0.08187246
0.045873877 0.048209257 0.09782317 0.06678817 0.006123495 0.120238185 0.09446453 -0.08727274
0.085146174 -0.015289581 -0.1133307 -0.0053044166 -0.10337818 0.055500943 0.00262906 -0.01908
-0.02727985 -0.064618215 -0.13064621 0.07034707 0.014700186 -0.12643579 0.057150893 -0.109896846
-0.019923542 0.11501495 0.021015504 -0.07291311 -0.09394101 0.06690852 -0.0834145 -0.043030404
-0.07661056 0.081068754 -0.111209065 -0.012343755 0.0034321323 -0.057335455 0.11504182 -0.12317712
-0.042707536 0.04168328 -0.0072345766 0.03263115 -0.0865008 0.03133667 -0.061368063 0.093177594
-0.116880186 -0.0397067 -0.0737328 -0.09485218 -0.029687783 -0.08495565 -0.10541706 -0.06958543
-0.056453425 0.00694982 -0.01457867 0.06779242 0.06498794 -0.068720065 -0.05551662 -0.07525418
-0.04451215 -0.081126474 0.018794725 0.073743254 0.018763147 -0.058513004 -0.026868341 -0.09246792
0.035928585 0.09518563 -0.040341597 0.09260266 0.0038487269 -0.053032182 0.07712904 -0.03660617
0.06879932 0.024279572 -0.09524634 -0.023033708 0.081487395 -0.0614123 -0.043423414 0.07758914
0.073558405 -0.051783603 -0.035247993 -0.025309147 -0.1132919 -0.11695887 0.055515826 0.112733744
0.081834964 -0.029297791 -0.011395311 0.041603874 -0.010255828 0.038757604 0.10597625 0.08577971
0.09609755 -0.044463027 -0.09173535 -0.032334514 -0.094170906 0.10453222 0.110909015 -0.10373743
-0.08321738 0.021652294 -0.03278579 -0.039125323 -0.10106385 0.050182782 -0.0049955337 -0.113452636
0.10375755 0.089518614 0.004557105 0.06515795 0.06482437 -0.10889418 0.07003916 0.0026573716
-0.002919519 -0.110156536 0.06407491 -0.00022983551 0.07435613 -0.016041465 -0.008774382 -0.10129366
-0.074266285 0.0032022817 -0.016841078 0.07319582 0.052083448 -0.01750573 -0.0761306 0.017495506
0.033504084 -0.0011733603 -0.0318919 0.09472696 -0.11890824 -0.039143357 0.09473506 -0.092377745
-0.021124925 0.0459417 -0.054541018 0.019004159 -0.023332918 -0.009851286 -0.11426468 -0.099295504
-0.020768724 -0.024314916 0.015696803 -0.008191489 0.066487595 0.071020156 -0.11763491 0.07082113
0.0013937582 0.025205672 0.023122584 -0.0021410855 0.059920836 -0.07447197 0.008820683 -0.00401724
0.10366497 -0.022062663 -0.0310014 0.03680877 0.07853836 0.05235724 0.06294325 -0.036503408
0.009584323 -0.09855995 -0.045740955 -0.08513186 0.021831013 0.12580065 0.083414294 0.097511046
00000000: d0e8 b83c cd6f 883d bab7 c6bd 6a05 f7bd
00000010: fb04 a73c 9008 fbbb 7474 a03d 5cb9 8f3c
00000020: 7681 9bbd f6ca 8cbd 9f67 763c 7018 bf3c
00000030: 4275 f7bd 255a 903d 813f e13d 1ff3 b23d
00000040: d036 96bb e9a9 00be fc14 22bd b3ae d63d
00000050: 020e 97bd 78e8 89bd 8177 15bd 2294 693d
00000060: 4c77 c4bb 3947 01be 5025 423d e148 a4bb
00000070: 5852 3e3c 026d 363c 939e 20bd 91ff a0bd
00000080: d37c 433d 94cb b0bd 06aa a13c f61f 9c3c
00000090: 9c81 b33d ddc9 af3d 1e77 4abd f2eb 0d3d
000000a0: ba22 d43b 5c9c bcbc 928f 733d c521 de3d
000000b0: 064e ea3b 6cf1 49bd d3a4 10bc a320 f83c
000000c0: f06c 30bd 735b a3bb 36b7 ae3c ee5b d63c
000000d0: bf79 b33d 5b3e 31bd 94bf dbbd 9eb1 13bd
000000e0: 63bc c2bd 3aed 9bbd 092b d6bc 3d16 28bb
000000f0: 7b74 753d 03e7 7a3d ca36 633d c0ac a7bd
00000100: 3fe6 3b3d 1277 453d 8457 c83d 3cc8 883d
00000110: 99a7 c83b 703f f63d 9f76 c13d 0dbc b2bd
00000120: 1e61 ae3d 2781 7abc ed19 e8bd acd0 adbb
00000130: f0b7 d3bd f554 633d 4f4c 2c3b a94d 9cbc
00000140: fe79 dfbc 8e56 84bd 1fc8 05be 2012 903d
00000150: 0dd9 703c 6278 01be 0e17 6a3d 9911 e1bd
00000160: b236 a3bc f58c eb3d b528 ac3c 7853 95bd
00000170: 2564 c0bd 5607 893d 39d5 aabd a640 30bd
00000180: ffe5 9cbd 6007 a63d 94c1 e3bd 763d 4abc
00000190: a0ed 603b 95d8 6abd 0c9b eb3d 4944 fcbd
000001a0: 19ee 2ebd 16bc 2a3d 0710 edbb 3ea8 053d
000001b0: 5527 b1bd e15a 003d 145d 7bbd e5d3 be3d
000001c0: e15e efbd 7ea3 22bd 3901 97bd dc41 c2bd
000001d0: cb33 f3bc 3afd adbd e6e4 d7bd ce82 8ebd
000001e0: b53b 67bd 51bb e33b 60db 6ebc c1d6 8a3d
000001f0: 6618 853d 1bbd 8cbd 6565 63bd dd1e 9abd
00000200: 5f52 36bd a325 a6bd 65f7 993c b406 973d
00000210: 2cb5 993c 55ab 6fbd ff1a dcbc d25f bdbd
00000220: da29 133d aff0 c23d 3b3d 25bd 77a6 bd3d
00000230: ec3a 7c3b 4638 59bd d5f5 9d3d 5af0 15bd
00000240: a8e6 8c3d f4e5 c63c 8310 c3bd 30b1 bcbc
00000250: dde2 a63d 778b 7bbd c0dc 31bd 0ee7 9e3d
00000260: caa5 963d 0b1b 54bd 3360 10bd 2155 cfbc
00000270: 9505 e8bd 2288 efbd 9064 633d f3e0 e63d
00000280: 1799 a73d ec01 f0bc 66b3 3abc d368 2a3d
00000290: 0f08 28bc 4bc0 1e3d 130a d93d 46ad af3d
000002a0: cbce c43d dd1e 36bd bedf bbbd 3271 04bd
000002b0: addc c0bd fd14 d63d 4424 e33d 4a74 d4bd
000002c0: e06d aabd 2760 b13c 644a 06bd e041 20bd
000002d0: 90fa cebd 768c 4d3d 93b1 a3bb db59 e8bd
000002e0: d77e d43d 8955 b73d c453 953b 8871 853d
000002f0: a4c2 843d e903 dfbd b170 8f3d 4c27 2e3b
00000300: 6755 3fbb c099 e1bd b539 833d 0000 71b9
00000310: 0748 983d 6469 83bc 6dc2 0fbc 0d73 cfbd
00000320: ec18 98bd 5fdd 513b 4df6 89bc b1e7 953d
00000330: 7455 553d 2d68 8fbc 5cea 9bbd bc52 8f3c
00000340: 943b 093d 70cb 99ba 15a1 02bd 3500 c23d
00000350: 2a86 f3bd c954 20bd 7504 c23d 8b30 bdbd
00000360: 2e0e adbc 5d2d 3c3d 6766 5fbd 9cae 9b3c
00000370: ad24 bfbc 4a67 21bc 9a03 eabd 715b cbbd
00000380: 2c23 aabc 1330 c7bc 9596 803c 9835 06bc
00000390: a62a 883d 0473 913d 92ea f0bd ab0a 913d
000003a0: c4ae b63a 207c ce3c 936b bd3c 7451 0cbb
000003b0: 8d6f 753d c384 98bd a084 103c 0da3 83bb
000003c0: 4d4e d43d c2bc b4bc a6f6 fdbc cbc4 163d
000003d0: b8d8 a03d 8c74 563d 64e8 803d 9984 15bd
000003e0: 9007 1d3c cdd9 c9bd de5a 3bbd 9d59 aebd
000003f0: f4d6 b23c e3d1 003e 1dd5 aa3d dfb3 c73d

layer2.bias f4 [200]
-0.00517026 -0.011663934 0.02359694 -0.009149198 0.008326942 -0.0075264233 -0.0046790554 0.010548852
0.01936729 -0.014622588 0.007311119 -0.010526362 -0.005300531 -0.009515723 -0.0075276042 0.014857384
-0.014522855 -0.015806265 -0.008099482 -0.011194163 0.021346847 0.021284943 0.028125674 -0.004732078
-0.0052134036 0.025775455 0.014561186 -0.009872362 -0.018147351 -0.008139428 -0.005706093 0.003327504
0.0047197724 0.004854238 -1.13306e-05 -0.00024724478 -0.02630258 0.007181792 -0.004138873 0.02015687
0.0031798775 -0.0011645234 -0.012013143 -0.010691961 0.009390103 0.016843867 0.011974036 0.0026584354
-0.013013993 0.017127814 0.0 -0.0056999666 0.021175867 0.0016581133 -0.0022776206 -0.009782919
-0.009948981 0.012934528 -0.0066885673 0.017489042 0.012017934 0.0 0.001829926 -0.003724133
0.012415163 -0.0028785928 0.019714588 -0.005734302 0.015458948 -0.006737819 0.009418971 -0.009981884
-0.009054646 -0.010897661 -0.0070515736 0.019797983 0.024838937 0.0064403093 -0.012734927 -0.008750547
0.010555076 -0.007084311 0.005828714 -0.007657857 -0.0075480235 -0.004596219 0.0 -0.010382973
-0.007929786 0.017270954 0.013638327 -0.006125467 -0.0072897747 0.020589396 -0.01389954 -0.007566371
-0.009203778 0.0037639828 0.000916755 0.013180546 -0.010030208 0.019363666 -0.01731467 0.010173955
-0.0022397363 0.008358606 -0.010984444 0.012667884 -0.0013669219 -0.021136157 -0.007627788 0.013314617
-0.00385997 -0.0025270998 -0.011298706 0.0059855627 -0.012471634 0.0020344516 -0.0039573335 0.008426476
-0.0020735324 0.016487956 -0.011476693 0.023406561 0.00023851155 -0.00557565 -0.011800254 -0.022597434
0.0024344518 -0.0033881906 -0.015967414 0.023115993 -0.01476836 -0.013138283 -0.010662775 -0.0060396753
0.0042315703 0.018181484 0.008673794 -0.0018180363 -0.010928386 0.017438494 0.02045802 0.0179242
0.019772522 -0.008207745 -0.007365405 0.021686515 0.0155121405 0.015903302 -0.0034915737 0.02414433
-0.010895221 -0.010932481 -0.015188814 -0.0025466944 -0.011356311 0.011355045 -0.010376879 0.014681644
-0.014099906 0.01843816 -0.0055732 -0.01059223 -0.015947888 -0.005206341 0.012076715 -0.004795491
0.008015679 0.020134533 0.018836182 0.018946746 0.0114973495 -0.007183535 -0.0035744912 0.019630615
-0.008604125 -0.014347574 0.0024050393 -0.009409118 0.01785187 -0.011704413 -0.007595488 0.0005847005
0.01538676 -0.0011287206 0.012332722 0.021099232 -0.010205674 -0.004147313 -0.009298656 -0.0069626234
0.020030268 0.0057126447 -0.010985872 -0.0074568167 0.0010472516 -0.00091711344 0.00335817 -0.013206364
00000000: 496b a9bb 161a 3fbc 5f4e c13c 85e6 15bc
00000010: ba6d 083c 37a0 f6bb c352 99bb 18d5 2c3c
00000020: 27a8 9e3c 9493 6fbc 1d92 ef3b c376 2cbc
00000030: 14b0 adbb d6e7 1bbc 1faa f6bb 636c 733c
00000040: 45f1 6dbc 247c 81bc b1b3 04bc b967 37bc
00000050: 95df ae3c c35d ae3c d067 e63c 8c0f 9bbb
00000060: 33d5 aabb 0c27 d33c 0a92 6e3c b0bf 21bc
00000070: c1a9 94bc 3c5b 05bc 2dfa babb 4112 5a3b
00000080: 52a8 9a3b 4d10 9f3b 8e18 3eb7 a2a0 81b9
00000090: 8278 d7bc 3d55 eb3b 629f 87bb 0520 a53c
000000a0: 7e65 503b eca2 98ba c6d2 44bc 562d 2fbc
000000b0: f2d8 193c 26fc 893c bf2e 443c 2539 2e3b
000000c0: a538 55bc a14f 8c3c 0000 0000 c9c6 babb
000000d0: 0379 ad3c 0d55 d93a 2244 15bb 8948 20bc
000000e0: 0d01 23bc 58eb 533c c52b dbbb 2e45 8f3c
000000f0: dee6 443c 0000 0000 21da ef3a 9510 74bb
00000100: f868 4b3c c6a6 3cbb 7d80 a13c d0e6 bbbb
00000110: 8747 7d3c ecc8 dcbb 0752 1a3c 0e8b 23bc
00000120: f059 14bc 1a8c 32bc e310 e7bb 612f a23c
00000130: 077b cb3c 3b09 d33b 28a6 50bc 745e 0fbc
00000140: 33ef 2c3c 8223 e8bb ccfe be3b c3ee fabb
00000150: 6955 f7bb e19b 96bb 0000 0000 581d 2abc
00000160: efeb 01bc d17b 8d3c 4a73 5f3c 24b8 c8bb
00000170: 10df eebb 18ab a83c e5ba 63bc 52ef f7bb
00000180: 71cb 16bc 27ad 763b 6352 703a 38f3 573c
00000190: be55 24bc 8da0 9e3c 7fd7 8dbc a9b0 263c
000001a0: 8ac8 12bb 89f2 083c 19f8 33bc f58c 4f3c
000001b0: 4a2a b3ba bc25 adbc 86f2 f9bb 8d25 5a3c
000001c0: 8df7 7cbb b39d 25bb 351e 39bc 8a22 c43b
000001d0: d355 4cbc 6f54 053b 85ac 81bb 340f 0a3c
000001e0: 1ae4 07bb c011 873c bd08 3cbc 1ebf bf3c
000001f0: f518 7a39 f1b3 b6bb da55 41bc 411e b9bc
00000200: 538b 1f3b 680c 5ebb 18ce 82bc c05d bd3c
00000210: fef6 71bc f441 57bc ebb2 2ebc 78e8 c5bb
00000220: fca8 8a3b 56f1 943c 871c 0e3c 2d4b eeba
00000230: f90c 33bc 2cdb 8e3c 9497 a73c c6d5 923c
00000240: fcf9 a13c c779 06bc 7f59 f1bb eba7 b13c
00000250: a226 7e3c a447 823c e3d2 64bb 54ca c53c
00000260: de81 32bc 261e 33bc 81da 78bc 71e6 26bb
00000270: d20f 3abc 830a 3a3c c903 2abc 478b 703c
00000280: 4b03 67bc a00b 973c 649f b6bb 088b 2dbc
00000290: 25a5 82bc f499 aabb 6add 453c 7f23 9dbb
000002a0: 3254 033c 2df1 a43c 564e 9a3c 3536 9b3c
000002b0: 615f 3c3c dc63 ebbb 0342 6abb 62d0 a03c
000002c0: 51f8 0cbc 1612 6bbc dd9d 1d3b b428 1abc
000002d0: 163e 923c dec3 3fbc 92e3 f8bb 9646 193a
000002e0: c018 7c3c 94f1 93ba 2f0f 4a3c 4cd8 ac3c
000002f0: b335 27bc 2fe6 87bb 6459 18bc b826 e4bb
00000300: 8416 a43c 2331 bb3b 16fe 33bc 5058 f4bb
00000310: ef43 893a 716a 70ba be14 5c3b 815f 58bc

mu.weight f4 [4, 200]
0.09634289 0.06141661 -0.079331286 -0.008948304 -0.1581915 -0.046075623 0.08605196 0.16211364
0.1005683 -0.15986207 -0.07746388 -0.10184054 0.1557939 -0.0013680664 0.12221821 -0.07088235
0.16964446 0.11559277 0.084504254 0.09425825 0.06671762 0.07696519 0.0240076 -0.08131837
0.013931209 0.08283178 0.006398767 0.12259073 -0.07984045 -0.103865676 0.14467436 -0.06306542
-0.16363426 -0.0078919865 0.011857946 -0.1489369 -0.15178461 0.039501954 -0.07304981 -0.027744297
-0.05902171 -0.16767873 -0.07993269 0.14679766 -0.08693898 -0.13925551 0.035457846 -0.05918428
-0.12107512 -0.050384525 0.16605778 -0.06925512 -0.07567584 0.09131458 0.034178056 -0.12408497
0.10109197 -0.089449 0.03013316 0.11958904 -0.16616508 0.060665652 -0.15682918 -0.051424734
-0.026127787 0.10877994 0.13882457 -0.07378334 0.082574636 -0.06413606 -0.12112847 0.113325216
0.01895659 -0.033673655 -0.07020078 0.15748519 -0.021411024 -0.08562398 -0.13163175 0.09464685
-0.083489485 0.024402868 0.10609108 -0.020143708 0.1107453 0.003926656 -0.15205106 -0.10607248
0.06135141 -0.13591307 0.0029157281 0.0032844797 0.03704167 -0.043874588 -0.0062147942 0.08602501
0.16323379 -0.09898568 -0.124535516 0.12366799 -0.047098726 0.16704077 -0.001956403 -0.06604205
-0.06477155 -0.12460119 0.09142675 0.14840266 -0.14986217 0.004720204 -0.02093869 -0.014509875
0.10673149 0.075684465 -0.025996009 0.047029864 -0.09334503 0.0019673398 -0.12967354 -0.11288135
-0.04424881 0.14556782 0.009914527 0.054441363 -0.026069129 -0.057344247 -0.1161486 0.119527325
0.039342932 -0.1477114 -0.07134163 -0.02380811 0.060979776 0.10750172 0.10690139 -0.1091254
-0.10389434 -0.15777779 0.042955138 -0.028777601 0.096915305 0.055536505 -0.12722047 -0.086967774
-0.06725569 -0.041882373 0.12964925 0.05686491 -0.03324006 -0.14267181 -0.11138553 -0.058845807
-0.037408873 -0.0054240897 0.12096739 0.009336348 0.11448829 0.17411157 0.057459053 0.0017868351
-0.101876035 -0.119736336 -0.16559993 0.036302973 0.13306259 -0.08359987 -0.02178376 -0.059820842
0.060681228 -0.034341395 0.06521681 -0.10938043 0.15364215 -0.16340472 -0.16179903 0.13791001
-0.02122367 -0.1470451 -0.1636536 0.115052104 -0.044066012 0.0756905 -0.08878315 0.110198334
0.09703864 0.13788246 -0.15512937 0.051576164 0.09028055 0.1492707 0.03931562 0.111559704
-0.09037253 0.062815025 -0.07930661 -0.010992944 0.074308015 0.085817866 0.024345618 0.10678935
0.07460293 -0.13727243 0.10157009 -0.034765735 -0.12392704 0.060440186 -0.13156855 -0.123608045
0.059330497 0.12361745 0.12434728 -0.10105216 -0.1470717 0.07050338 -0.11200687 -0.045314964
0.092104614 -0.028341467 -0.05167956 0.11096969 0.08630055 0.06919376 0.024293909 -0.023136852
-0.08561764 0.091367 0.11504219 -0.1465952 -0.09577224 -0.045718398 -0.082386725 0.07114367
0.011715291 -0.15601401 -0.023613092 -0.0146604385 0.11036731 -0.11667 0.0013752145 0.046452165
-0.13266069 -0.056060176 0.06190404 -0.16649881 -0.031937465 0.10172153 -0.16550237 0.08174741
-0.16565998 -0.08638354 0.010932952 -0.13992961 -0.0452826 -0.06848163 0.021080023 0.054873504
00000000: 6c4f c53d fc8f 7b3d 7178 a2bd e89b 12bc
00000010: f4fc 21be cbb9 3cbd 033c b03d 1e01 263e
00000020: c1f6 cd3d e2b2 23be 62a5 9ebd c691 d0bd
00000030: 7088 1f3e b150 b3ba 8a4d fa3d c42a 91bd
00000040: 47b7 2d3e e7bb ec3d 9110 ad3d 780a c13d
00000050: 3fa3 883d ed9f 9d3d 96ab c43c 3f8a a6bd
00000060: ba3f 643c b5a3 a93d bfac d13b d910 fb3d
00000070: 6483 a3bd 87b7 d4bd 8425 143e 7128 81bd
00000080: bd8f 27be 644d 01bc d547 423c ea82 18be
00000090: 6d6d 1bbe cdcc 213d 249b 95bd 0248 e3bc
000000a0: c0c0 71bd f9b3 2bbe c0b3 a3bd 2052 163e
000000b0: 100d b2bd ff98 0ebe 3f3c 113d 376b 72bd
000000c0: 3cf6 f7bd 0160 4ebd 0d0b 2a3e a1d5 8dbd
000000d0: effb 9abd 2303 bb3d 4afe 0b3d 4320 febd
000000e0: 4f09 cf3d 0a31 b7bd d1d9 f63c 19eb f43d
000000f0: 2e27 2abe 8c7c 783d d497 20be bea2 52bd
00000100: f109 d6bc 04c8 de3d 0728 0e3e b81b 97bd
00000110: e41c a93d c459 83bd 3412 f8bd 0d17 e83d
00000120: da4a 9b3c 63ed 09bd 6dc5 8fbd cc43 213e
00000130: 2c66 afbc a05b afbd 79ca 06be 35d6 c13d
00000140: 89fc aabd 86e8 c73c 4846 d93d 6b04 a5bc
00000150: 6fce e23d 2eab 803b 46b3 1bbe 873c d9bd
00000160: 9e4b 7b3d cc2c 0bbe cd15 3f3b 6d40 573b
00000170: 02b9 173d d7b5 33bd 79a5 cbbb e12d b03d
00000180: c226 273e 01b9 cabd 7a0c ffbd a545 fd3d
00000190: 98ea 40bd bc0c 2b3e ff36 00bb 0e41 87bd
000001a0: f2a6 84bd e92e ffbd f33d bb3d def6 173e
000001b0: 7875 19be f1ab 9a3b 9e87 abbc d4ba 6dbc
000001c0: 0a96 da3d 7500 9b3d 95f5 d4bc 63a2 403d
000001d0: ae2b bfbd 7cee 003b 24c9 04be 562e e7bd
000001e0: 3d3e 35bd bb0f 153e 8a70 223c e8fd 5e3d
000001f0: ed8e d5bc cde1 6abd 51df edbd beca f43d
00000200: 0e26 213d a841 17be 8f1b 92bd 3a09 c3bc
00000210: eec5 793d dd29 dc3d 1eef da3d 237d dfbd
00000220: 8ec6 d4bd 8090 21be baf1 2f3d 01bf ebbc
00000230: 887b c63d 3f7a 633d 1546 02be 291c b2bd
00000240: 5abd 89bd da8c 2bbd c6c2 043e 2eeb 683d
00000250: bb26 08bd 8f18 12be 191e e4bd 4d08 71bd
00000260: 0c3a 19bd 90bc b1bb c0bd f73d 7bf7 183c
00000270: d678 ea3d 4e4a 323e 2f5a 6b3d 3d34 ea3a
00000280: 62a4 d0bd 5338 f5bd 0793 29be 6db2 143d
00000290: 8f41 083e 6936 abbd db73 b2bc b306 75bd
000002a0: e18c 783d 90a9 0cbd 6490 853d d902 e0bd
000002b0: 5e54 1d3e 9153 27be a5ae 25be 4838 0d3e
000002c0: 43dd adbc fe92 16be cf94 27be 70a0 eb3d
000002d0: 907e 34bd 9f03 9b3d f1d3 b5bd aaaf e13d
000002e0: 32bc c63d 0f31 0d3e 3cda 1ebe 8741 533d
000002f0: 02e5 b83d 6bda 183e 6a09 213d 6a79 e43d
00000300: 3c15 b9bd 2aa5 803d 816b a2bd c01b 34bc
00000310: cd2e 983d 47c1 af3d 7670 c73c 60b4 da3d
00000320: 6cc9 983d 2591 0cbe fb03 d03d 8466 0ebd
00000330: 76cd fdbd 2190 773d e8b9 06be 3726 fdbd
00000340: 8904 733d 252b fd3d c9a9 fe3d 6ff4 cebd
00000350: f799 16be 1364 903d dc63 e5bd 2f9c 39bd
00000360: 58a1 bc3d 5d2c e8bc f2ad 53bd 1444 e33d
00000370: 58be b03d 75b5 8d3d 0504 c73c 7f89 bdbc
00000380: 4d58 afbd 9f1e bb3d 3d9b eb3d 0d1d 16be
00000390: 3c24 c4bd 3743 3bbd 5fba a8bd c6b3 913d
000003a0: 7ef1 3f3c 23c2 1fbe 3e70 c1bc 5632 70bc
000003b0: 4208 e23d aef0 eebd 8b40 b43a a044 3e3d
000003c0: 34d8 07be 5b9f 65bd 178f 7d3d aa7e 2abe
000003d0: dcd0 02bd 6153 d03d 7479 29be 306b a73d
000003e0: c5a2 29be dae9 b0bd 2020 333c b549 0fbe
000003f0: 3f7a 39bd 1940 8cbd 03b0 ac3c 0ac3 603d

mu.bias f4 [4]
-0.0016818367 0.009505367 -0.004218827 0.026426455
00000000: 1371 dcba 66bc 1b3c 163e 8abb 4b7c d83c
