ddqn_sumo/saves/120p4k/ddqn_model_final.pth (torch, 783790 bytes, 24 tensors)

network.0.weight f4 [200, 36]
00000000: a25d 1ec0 9a5a 303f 0e82 49c0 6415 20c0
00000010: 64e7 133f 1488 45c0 ff75 94bf 38ff 5e3f
00000020: 514e b6bf 7648 81bf 2662 443f 99f2 a9bf
00000030: 5cb8 7fbf c64d 2f3f f32b abbf 5360 cdbf
00000040: 3ca0 cd3d 6bea 6fbf d960 d0bf 3247 b33e
00000050: 6528 7dbf c109 13c0 c35b fbbd a225 24bf
00000060: 663c 18c0 0915 4a3d 1115 1cbf 048d 23c0
00000070: a612 83bd a3d6 5bbf 65cb 2c40 a254 ce3e
00000080: b65c 4340 4dd9 3140 70ff d73e 98f2 3b40
00000090: e7ac 93bf 50a7 193e 7aa8 78be 6d0d 8bbf
000000a0: a3cd 973e c3fd a6be 871d 39bf ca84 253f
000000b0: 1291 1fbd fd06 49bf f4d1 f83e 6443 6ebd
000000c0: e1c8 52bf b4c0 173f ead5 cbbd be41 e5bf
000000d0: 5c4f 7e3e 00da 32be 509e e2bf 16c2 663e
000000e0: f553 95bc 55e2 1bbf fa7f e33d 76cd 163f
000000f0: 9cbb 3fbf cef0 553e 645d 0d3f 1aa2 2dbf
00000100: 5468 b03e 5c1d 0a3f 94cb ca3f 4e90 433f
00000110: ead4 dd3f 6849 cb3f da32 453f fa6b e03f
00000120: 0e8d 5bbf 29be a4bd ea58 18bf 9bfd 59bf
00000130: e254 1a3c f886 04bf 3c56 90be a563 703e
00000140: 7989 0a3e b88a 0bbf 9a88 083f 861d e53d
00000150: 2084 13bf be7f e63e 5aee 983d 7068 c5bf
00000160: b624 cb3e bd9b 21bc ba0c d0bf 6263 cf3d
00000170: 0e43 2c3b 4af6 0abc dc29 cc3e 9724 533f
00000180: 6078 72be e4e9 d43e d11d 573f 5081 13be
00000190: 5a86 163e c374 603f 6d93 9e3f ff4a 183f
000001a0: 3d8d bc3f 38fd 8d3f 531a 0e3f cf98 bc3f
000001b0: 1e1f 8bc1 25f6 9d3f 9b3d 94c1 e179 8cc1
000001c0: dd24 903f bbcd 94c1 62b9 60c1 7123 4d3f
000001d0: 5680 7fc1 8655 5fc1 eba1 363f 9080 7dc1
000001e0: 12c6 5dc1 c133 433f ded8 7cc1 2eb1 81c1
000001f0: f792 873f c9fe 8bc1 b50c 83c1 cf03 943f
00000200: 06d2 8ac1 a2d0 7cc1 bb3c 083f c8b6 89c1
00000210: 235c 7dc1 e1c4 de3e 3acc 89c1 54e7 7ec1
00000220: 9552 203f 603c 8ac1 bb90 cdc1 6282 b43e
00000230: cd2d bfc1 7aa8 cdc1 ee0f c43e c375 bfc1
00000240: b58c 50bf a235 e2be 479a 70bf 31a0 45bf
00000250: 53ff 8bbe fd55 79bf c422 2bbe 7cbc 35bd
00000260: 31d8 a13e d0e5 b5bd e1f4 89bc b1e8 9f3e
00000270: e845 08be ca61 e33d b37d f03e 5126 afbf
00000280: 2d97 d83e 1ad7 cd3d d50e c6bf 7d00 b53e
00000290: d571 77bb 716c 2ebd a033 083f f822 4f3f
000002a0: ac99 0fbc 3eef a73e 62b6 173f cfb3 d43d
000002b0: 7fe0 1e3f aeac 353f 3daf 333f d784 033f
000002c0: 459a 7e3f 3bea 1d3f eb2c 9f3e 993c 693f
000002d0: 9052 53c1 e787 303f 9f23 c1c0 f817 51c1
000002e0: 4dc7 5f3f 5b07 c1c0 e156 d5c0 02fb e03c
000002f0: 048e dbbf 4f3e d4c0 0349 10bd fca6 d9bf
00000300: a734 d3c0 d311 d8bd 7ac4 d2bf b25d 60bf
00000310: 6bf1 d83e 759d a4bf ca7f 7ebf 57b2 e43e
00000320: c9db a4bf 1989 35c0 f21f 00be 9248 56c0
00000330: ddd2 29c0 a7dd f43d 5c69 4fc0 8fe0 37c0
00000340: eb04 c23d b02c 4cc0 cf63 8dc1 5ca6 03bf
00000350: 365a f0c0 ade2 8dc1 4ba9 a5be e415 ebc0
00000360: e8fd c6be e963 6bbe 7b78 fdbe 8a8d 5ebe
00000370: bc64 b5be d5a8 c0be 9ba1 babc 2408 de3d
00000380: 6ea2 903e 21c5 09be 74d7 2e3d 4d1b d03e
00000390: ed8d bd3c ac06 633e 08a3 6d3e d952 8abf
000003a0: 746a 553f 4a3f 803d dd80 a4bf e217 373f
000003b0: 5b79 6f3e d1bb 9f3e b0f8 363f 0ab7 283f
000003c0: 263f 563e c468 4a3f f4a2 3b3f 44fb 0a3e
000003d0: 5eaa 343f 348a 103f c185 863f 18f0 163f
000003e0: dc6f 913f 99d7 a53f f20d 113f 72e1 723f
000003f0: e4b1 d9bf 4d2c 6dbe 4b0a cabf 7449 ebbf
-2.474465 0.68888247 -3.148563 -2.5013056 0.5777495 -3.0864305 -1.159851 0.8710818
-1.424265 -1.0100238 0.7671226 -1.327716 -0.99890685 0.6847805 -1.3372787 -1.6045021
0.10040328 -0.9371707 -1.6279556 0.35015255 -0.9888976 -2.2974703 -0.122733615 -0.64119923
-2.3786864 0.049336467 -0.60969645 -2.555482 -0.06400041 -0.85874385 2.6999142 0.40298945
3.0525336 2.778888 0.4218707 2.9366817 -1.1537141 0.15005231 -0.24283019 -1.0863472
0.29649076 -0.3261548 -0.7231068 0.64655745 -0.03895671 -0.7852629 0.48597682 -0.058169737
-0.82337767 0.59278417 -0.0995291 -1.7910688 0.2483496 -0.17465973 -1.7704563 0.22534975
-0.01822851 -0.6089223 0.11108394 0.5890726 -0.74895644 0.20892641 0.5522063 -0.6782547
0.34454596 0.5395105 1.5843377 0.76392066 1.7330601 1.5881777 0.7703072 1.7532952
-0.8576211 -0.08044083 -0.5951067 -0.85152596 0.009419652 -0.51768446 -0.28190792 0.23475511
0.13529004 -0.54508543 0.5333344 0.11187272 -0.5762348 0.45019335 0.07467337 -1.5422497
0.39676446 -0.009863791 -1.6253884 0.10126378 0.0026285085 -0.008481571 0.39875686 0.82477707
-0.23678732 0.41584694 0.8402987 -0.14404798 0.14699689 0.87678164 1.2388741 0.59489435
1.4730603 1.1092901 0.5550892 1.4734133 -17.390194 1.2340742 -18.53008 -17.559511
1.126125 -18.600454 -14.045259 0.80132204 -15.968832 -13.95838 0.7134082 -15.843887
-13.860857 0.76250845 -15.802946 -16.211514 1.0591725 -17.499407 -16.381205 1.1563662
-17.35255 -15.800936 0.5321767 -17.214249 -15.834994 0.43509582 -17.22472 -15.931477
0.6262601 -17.27948 -25.69567 0.35255724 -23.897364 -25.707264 0.38293403 -23.9325
-0.814647 -0.44181544 -0.9398541 -0.7719756 -0.27343234 -0.9739683 -0.16712481 -0.044369206
0.31610253 -0.08881724 -0.0168404 0.31232217 -0.13307917 0.11102636 0.469709 -1.3683568
0.42302838 0.10050793 -1.5473276 0.35351935 -0.0037757058 -0.042583887 0.53203773 0.80912733
-0.008764666 0.32799715 0.5926267 0.10385858 0.62061304 0.70966613 0.7018927 0.5137457
0.99454147 0.6168553 0.31088957 0.9110809 -13.207657 0.6895737 -6.0355983 -13.068352
0.87413484 -6.032148 -6.6668553 0.02746344 -1.7152715 -6.632606 -0.03522588 -1.7004085
-6.6001773 -0.10550275 -1.646621 -0.8764297 0.42371687 -1.2860552 -0.9941374 0.44667313
-1.2879573 -2.8364928 -0.12512186 -3.3481793 -2.653495 0.11956339 -3.2408056 -2.873081
0.09473594 -3.1902275 -17.673735 -0.5142572 -7.511012 -17.735682 -0.32355723 -7.346422
-0.3886559 -0.22987331 -0.49505982 -0.2173368 -0.35428417 -0.3762881 -0.022782138 0.108413965
0.28248924 -0.13454105 0.04268594 0.4064583 0.023138965 0.22170514 0.23206723 -1.0806533
0.8336556 0.062620714 -1.2851826 0.7152082 0.23386137 0.3119798 0.71473217 0.65904295
0.20922527 0.7906611 0.7329552 0.13572413 0.7057246 0.5646088 1.0509568 0.58960104
1.1362262 1.295642 0.56661904 0.9487525 -1.7007413 -0.2316143 -1.5784391 -1.8381791

network.0.bias f4 [200]
00000000: 6664 7a3f 4abe e43f 0dd0 ea3f 8e08 723f
00000010: 936a 0540 5f1a b33f a40f 0d40 bb25 e63f
00000020: 0938 b93f 5908 0240 eca1 e13f 6c3d 3b3e
00000030: 7771 7a3f db8e 0340 7bd6 0a40 3d5a df3f
00000040: d6e2 e23f e742 273f a768 2040 6f1c 243f
00000050: 720d 6b3f 267d dc3f 7395 0240 8fbd 6e3f
00000060: 94bf 2d40 96cf 0fbf 4083 8a3e fb2d d33f
00000070: eeff 963f d4c6 e83d a5e7 ba3f 830a 0040
00000080: 8ade 1c3f 6536 9e3f 3822 ab3f f6b0 2b3e
00000090: 9e8c ee3f ee90 f63f 778b e63f 82a3 083f
000000a0: 8b8b d63f 78c6 fb3f 75a3 fa3f a129 9abc
000000b0: 9609 0140 725e 0b40 3fa4 0140 acd9 f53f
000000c0: 3f77 0140 6451 903f 53d7 ac3f 94b5 f33f
000000d0: 523c 1440 22e7 0240 1c21 0540 d5c6 fb3f
000000e0: 3745 ac3f 60dd 8bbc 480d 4140 2a14 f43f
000000f0: 63f5 0a40 164e f03f e54a d73f 2eff 0340
00000100: feeb 0640 cfa9 0240 cffb 0840 35fc 0740
00000110: 2dfa ef3f f3b2 a5c0 c551 5f3f 9c6f 0240
00000120: c7ba b83e 750d 043f abbe cc3f d3be fe3f
00000130: 3610 0040 aaca 0b40 d8e1 c83f 3cfe ba3b
00000140: 0742 0140 0c54 e83f 279a 7c3f 78ad 0d40
00000150: 7312 c63f d4a5 bd3f 9d1e f73f 0820 c23f
00000160: 8279 0840 7a07 0340 ba79 6ebb 93ad 0140
00000170: 7b45 0440 135a 883f a5d8 d93f 3a73 e53f
00000180: df7d f53f 5237 b83e c931 883f 04a9 da3f
00000190: 8f08 f93f f5e0 c33f eef5 9b3e 21de 0240
000001a0: 9d4a d33f 099e 813e 5556 ff3f 82cf c23f
000001b0: 5130 ce3e b1df b93f d8df b73f aca1 733f
000001c0: ee61 e53f b983 0640 5c25 a03f 4f4d 0a40
000001d0: e45f a93b b8f5 fb3f 959a e03f d6fe df3e
000001e0: 0e43 b33f fe07 7e3f 6c55 0f40 739f ee3f
000001f0: 796c 0d40 1f91 fd3f d943 7a3e ba40 d43f
00000200: 3518 a93e 821f fd3f 1a19 0a40 a51d 183e
00000210: be1b a33f b1a6 1440 1a61 c43f f375 99be
00000220: 436c 0440 7734 e63e 1536 e13f 73ab 0c3d
00000230: 7f15 1740 8433 8e3f 0d64 57bc 782a 41be
00000240: 6dae f43f 4af0 0140 b180 0640 2c66 5dbb
00000250: df03 0a40 4f57 ef3f 6d36 e93f 18ac 0a40
00000260: 78b2 913f d803 1640 a064 3240 6a24 7b3f
00000270: 8698 0e40 95e4 673f 51f3 ef3f cf55 9a3f
00000280: 47c4 0a40 143d 923f a900 0640 db51 523f
00000290: f004 f33f 6274 123f 700e f63f 686e b33f
000002a0: 0351 1140 4327 0840 b2f1 db3f 278a 883e
000002b0: 34d5 0640 1bed 883f dacc 253f 1502 f03e
000002c0: b683 593f 3e6f 8b3f 3990 833c 6e10 0240
000002d0: 161f 0d40 6c1e 403f 9aa9 27be 7bbc c13f
000002e0: d1d5 983f 01f1 c43f 491e c63f 22dc b33f
000002f0: 102a 0d40 97bb 0840 cadd fd3f 1ea9 783f
00000300: 873f f63f 5e8b 843e 6813 0940 5890 f4bc
00000310: 53e3 0240 ac7f 0440 1a5a 0240 5f04 1040
0.97809446 1.7870572 1.8344742 0.94544303 2.0846298 1.3992423 2.2040796 1.7980264
1.4470226 2.0317595 1.762754 0.1828515 0.97829384 2.0555942 2.1693408 1.7449414
1.7725475 0.6533646 2.5063875 0.64105886 0.9181739 1.7225692 2.0403717 0.93257993
2.714818 -0.56176126 0.2705326 1.6498407 1.1796854 0.113660485 1.4601942 2.0006416
0.6127707 1.236035 1.3369818 0.16766724 1.8636663 1.9262979 1.8011311 0.53374493
1.6761335 1.9669943 1.9581133 -0.018818678 2.01621 2.1776395 2.0256498 1.9207053
2.0229032 1.1274838 1.3503212 1.9039788 2.3161817 2.0453572 2.0801458 1.9670054
1.3458623 -0.017073333 3.0164356 1.9068654 2.1712272 1.877383 1.6819731 2.06245
2.1081538 2.0416143 2.1403692 2.1247685 1.8748223 -5.1780944 0.87234145 2.038062
0.3608 0.51583034 1.5995687 1.9901985 2.0009894 2.1842446 1.5693922 0.0057065766
2.019655 1.8150649 0.9867272 2.2137127 1.547438 1.4816232 1.9306217 1.5166025
2.1324162 2.0473313 -0.0036388473 2.0262191 2.0667408 1.0652488 1.701924 1.7925789
1.9179038 0.35979706 1.0640193 1.708283 1.9455737 1.5303026 0.30461067 2.0448077
1.6507145 0.25315884 1.9948221 1.5219576 0.40271237 1.452139 1.4365187 0.95168567
1.7920511 2.1017897 1.2511401 2.1609685 0.0051689018 1.9684362 1.7547175 0.43749112
1.4004838 0.99230945 2.2395887 1.864241 2.2097456 1.9809912 0.24439944 1.6582253
0.3302628 1.977524 2.157782 0.14855058 1.2742841 2.322674 1.5342133 -0.299728
2.0691078 0.44961902 1.759463 0.034343194 2.360687 1.1109471 -0.013146413 -0.18863857
1.911573 2.030291 2.1016047 -0.0033782823 2.1564863 1.869852 1.8219734 2.1667538
1.1382589 2.3439846 2.7873917 0.9810244 2.2280593 0.90583163 1.8746129 1.2057437
2.1682298 1.142489 2.0937903 0.8215615 1.8985882 0.57208836 1.9223156 1.4018068
2.2705696 2.1273963 1.7183135 0.26667902 2.106763 1.0697359 0.64765704 0.46876588
0.849666 1.0893323 0.016059982 2.0322528 2.2050223 0.7504642 -0.16373292 1.5135645
1.1940252 1.5386049 1.5477992 1.4051554 2.2056923 2.1364496 1.983331 0.9713305
1.9238137 0.2588758 2.1418095 -0.029853985 2.0451248 2.0702925 2.0367494 2.2502668

network.2.weight f4 [200, 200]
00000000: 3db0 743b 4048 823d 8c51 ccbd f69b e2bd
00000010: 6be2 4c39 bbba 1dbd 7d55 a83d feac 0bbb
00000020: 14d7 9fbd 9f60 afbd c377 883a c7f7 363c
00000030: 1ad4 09be a12d 603d b72a bc3d be92 a63d
00000040: c0a6 55bc 9e9b 10be 5669 62bd 4c2d 9a3d
00000050: e160 c0bd b478 95bd fb3e 42bd 712c 153d
00000060: 273b c1bc dcf8 f4bd 3ae4 b23c 9410 a6bc
00000070: 42d3 d9bb dce0 c1bb b930 3fbd 3028 afbd
00000080: 12b9 0a3d caad dabd 3eb7 1c3b ba79 c23c
00000090: 48af c03d c2da 9e3d c473 8bbd 71ac 6f3c
000000a0: 45a4 39bc 9e4b 25bd 4b6a 763d c5c4 ec3d
000000b0: 9e95 a83c 8a65 87bd d82f 5ebb 88f8 803c
000000c0: a31f c5bc 0fe1 eabb f73a 273c 4a08 e23c
000000d0: be79 b33d a61a 7fbd 3cc5 eebd a3ac 1ebd
000000e0: b9ce d0bd 23cf b4bd e18c 25bd 282c a23b
000000f0: 2438 443d e68f 593d 4b53 0a3d ef24 b1bd
00000100: 1948 2f3d ea00 e53c e07c b43d 6db6 503d
00000110: f6df af3c f663 f73d 4e9f a63d 8d62 d3bd
00000120: 575f 5f3d 15db 0fbd 0555 f8bd 9526 23bc
00000130: 907a e4bd ce9c 183d 9f2b 0e3c 3dcb a3bc
00000140: e08e 29bd 687d a4bd a9fb 14be dcb4 453d
00000150: 7e13 833c bb3b f5bd 51f4 923d 955a e7bd
00000160: cc8a 22bd f06d c83d abd3 873c bb2b 86bd
00000170: d9f1 c8bd 1c78 4f3d 4505 b7bd b199 4abd
00000180: ee43 a8bd 9d0e 823d 028f 0bbe 2f19 ecbc
00000190: 5cae 883c cfd3 84bd 31d2 b13d 5435 10be
000001a0: 35f3 5bbd a2ce aa3c ede9 24bc 1cf2 533d
000001b0: 7023 d9bd 4ec4 e63c f910 9bbd a8a8 c03d
000001c0: 346c c8bd 6851 70bd 7d1d abbd 685f d0bd
000001d0: 7b8d e0bc e989 cdbd b505 e3bd 934d abbd
000001e0: 1097 39bd 7836 47bc 6c88 50bc 8e32 9b3d
000001f0: 438c 213d 995b b2bd 4c22 3dbd 8d5e 9ebd
00000200: cc7d 7cbd 9c36 a9bd 9d72 203c 9ddc 7b3d
00000210: fc16 7c3c dde9 86bd 8c89 07bd bd55 d3bd
00000220: 3e3b 8d3c 8176 d73d 29e9 3abd deee a53d
00000230: 8984 09bc df60 60bd de81 903d 840b e5bc
00000240: 1a86 813d 52eb 813c 5ac4 e1bd 65e9 c0bc
00000250: ed89 563d 31f5 9fbd 1c54 7abd 0349 7d3d
00000260: 73de 703d 5aea 8cbd 1e22 5bbd d8a0 35bd
00000270: 2afd 07be 1f30 0ebe 4fa6 3a3d 16f0 dc3d
00000280: 7110 8f3d 7b76 58bd 6a89 09bd f9d0 5f3c
00000290: 2c32 ebbb 633c d33c b5bf c13d 96f7 8a3d
000002a0: c620 ac3d 1fe3 47bd 9342 afbd b325 41bd
000002b0: 077e cdbd 9688 a63d 25fd bb3d e76e f0bd
000002c0: 1ad0 c4bd 13b6 14bc 93f9 d6bc 00db f8bc
000002d0: 774a eebd 3bb8 e73c d124 8c3b 93fa 01be
000002e0: 9fa1 b83d 61e1 b13d 8f32 aebc 2971 513d
000002f0: d918 633d dfb2 ffbd 9158 703d 210c 373c
00000300: ca46 c3bc ade6 f1bd ade9 2e3d c9ff 70b9
00000310: 5a0f 363d 5269 d4bc 99c9 c1bc aabe e6bd
00000320: 3e7b c53e 2f40 f03e 554e 273f 2b19 6f41
00000330: b9a3 f83e 2cb0 913f 2422 503f 8f22 573e
00000340: 6a52 113f c39e 5c3f b7dd 193f ee2b 5941
00000350: b545 e93e b86d 453f b029 be3e bb69 0c3f
00000360: aca3 f43e 13ff 813e dd07 d53b c0a8 0741
00000370: 1195 2a3f 862e c73e ebdf 323f 5a83 1e3f
00000380: 1c90 14c0 201f d7c0 bada cd3e 0fb5 123f
00000390: d18c 9b3f 5120 2541 3e57 c43e 1fe4 4f3f
000003a0: c419 bb40 40c0 2c3d 14ab 943e 7316 9041
000003b0: 8e85 413f c31e 103f ce7e 093f 7091 243f
000003c0: a0b6 2a3f daa1 ad3e 17f5 3f3f a10d f040
000003d0: 6d9a 593f 19d6 f73e eb3c 4e3f e6a4 333f
000003e0: 0efb 513f f634 063f 24b9 d03e 6cc6 363f
000003f0: 04e1 843f 508a 9b3f e437 4f3f 42cb 6d3f
0.0037336492 0.06361437 -0.09976491 -0.110649034 0.00019539303 -0.03850816 0.082194306 -0.0021312828
-0.07804695 -0.08563351 0.0010411668 0.011167473 -0.13459817 0.054731015 0.09187835 0.081334576
-0.013040245 -0.14121863 -0.055276237 0.07528171 -0.09393478 -0.07298413 -0.047423344 0.036419336
-0.023587776 -0.11961529 0.021837343 -0.020271577 -0.0066474983 -0.005916698 -0.046677325 -0.08552587
0.033867903 -0.10677679 0.0023912932 0.023739684 0.09408432 0.077565685 -0.0680919 0.014628516
-0.011330669 -0.040355317 0.060159963 0.11560968 0.020579156 -0.06611164 -0.0033903029 0.015743509
-0.024062937 -0.0071679424 0.010206929 0.027591843 0.08763455 -0.062281273 -0.11658713 -0.038738858
-0.10195679 -0.08828571 -0.040417556 0.0049491115 0.047905102 0.053115748 0.03377084 -0.08649623
0.042793367 0.027954537 0.088128805 0.050955225 0.021469098 0.12079613 0.08135854 -0.103215314
0.054534283 -0.035121042 -0.12125591 -0.009957929 -0.111561894 0.037258916 0.008677392 -0.019994373
-0.04139602 -0.08031732 -0.14549126 0.048268184 0.016000506 -0.11974283 0.07175506 -0.11296574
-0.03968315 0.09786594 0.016580423 -0.0655131 -0.09811754 0.050651655 -0.08936552 -0.049462978
-0.082160816 0.063504435 -0.13628772 -0.028820602 0.016684704 -0.06485712 0.08682669 -0.14082843
-0.053698737 0.020850483 -0.010065538 0.051744565 -0.10602462 0.028169777 -0.07571597 0.094071686
-0.09786263 -0.058671385 -0.08355234 -0.10174447 -0.027411213 -0.1003607 -0.11085073 -0.083644055
-0.04531008 -0.012158982 -0.012727838 0.07578002 0.039440405 -0.08708877 -0.046175286 -0.07732878
-0.061643407 -0.08262369 0.009792951 0.06148969 0.015386339 -0.06587575 -0.03309016 -0.10319088
0.017240163 0.1052065 -0.045632515 0.08102201 -0.008393415 -0.054779883 0.0705602 -0.027959593
0.06324406 0.01585928 -0.11023779 -0.023548791 0.05237763 -0.078104384 -0.06111537 0.061837208
0.058805894 -0.068806365 -0.053499334 -0.044342846 -0.13280168 -0.13885544 0.04556876 0.1078798
0.06985558 -0.052847367 -0.033578314 0.013660663 -0.007177612 0.02578563 0.09460393 0.067855045
0.084046885 -0.048800584 -0.0855762 -0.047155093 -0.100338034 0.081315205 0.09179143 -0.11739903
-0.09610005 -0.009076613 -0.026242053 -0.030377865 -0.11635297 0.02828609 0.00427685 -0.12693243
0.09015202 0.08685566 -0.021264343 0.05113331 0.05544362 -0.12485289 0.058678214 0.011172325
-0.023837466 -0.11811576 0.04270332 -0.00022983471 0.044448234 -0.025929127 -0.0236557 -0.11266835
0.3857059 0.46923968 0.653539 14.943645 0.4856241 1.1381888 0.81302094 0.21009277
0.5676638 0.8617975 0.60103935 13.573225 0.45560995 0.7712054 0.3714118 0.5484883
0.47781122 0.2538992 0.0065011815 8.478699 0.6663371 0.38902682 0.6987292 0.61919177
-2.3212957 -6.7225494 0.40205938 0.57307523 1.2152349 10.32039 0.3834781 0.8120746
5.846895 0.04217553 0.29036772 18.010962 0.75594413 0.5629694 0.53709114 0.6428442
0.66684914 0.33912545 0.7498335 7.5016637 0.8500126 0.4840553 0.80561703 0.7017349
0.82023704 0.5242456 0.4076625 0.7139652 1.0381169 1.2151585 0.8094466 0.9288827

network.2.bias f4 [200]
00000000: adc3 a8bc c655 17bf 2e29 3fbc 0162 acbe
00000010: 3d76 d3be 2dfb 30bf 4bb5 85bf d09b 86bf
00000020: ca2e 95bc a662 6cbc 91d7 47be b5a6 1fbf
00000030: 22b5 28be 147d bbbc fe93 c7bf 26f4 f0be
00000040: 18bb a8bc ea82 c3be 38ad 593f 6063 67bc
00000050: 241b b63f c2c8 b8bc 52e9 56bc 05c2 0d3e
00000060: 56e6 36bf 5d73 a0bc 4e10 66bc 7394 d7bf
00000070: 4fb1 8dbf 2fd2 05bf 804e 0abf b92d 14be
00000080: 8dc0 8dbd 335a 9fbf bd1e 943f 090a fa3d
00000090: 8def a53e e560 64bf 2ee2 55bc b61a 39bf
000000a0: a2e1 aabf fc9f c33e 655e 22bf 361e c2bf
000000b0: 798c 333d 2a73 84bd 9248 a6be 1bc1 42bf
000000c0: c22d a0bf 1351 5cbf 6868 3cbb 55eb 75bf
000000d0: 52f9 f53e 31f0 cfbc f817 4d3f 2b20 e5bc
000000e0: 81c7 e1be d6d7 c8bc bcc9 38bf 2b1c fabc
000000f0: 4a6f 00be ca3b 04bd f6bb 19bd 6baf aebe
00000100: e1eb 90bc 695d 9b3e 547f 8fbf 66e1 03bf
00000110: eeea aebc 89e8 66bd 4b51 1cbf 2451 62bf
00000120: 8563 c2be 7b6f 1abf 7937 81bf 8994 c0bc
00000130: e14d 8e3c 31ce 99be 340e 23be 3501 c63e
00000140: b083 cebc 8810 593e 76c9 df3d 8d1c 74be
00000150: d50a 87bd b4f3 d9be 627b 45bc 88a1 8e3e
00000160: 53ce c0bf 518a 623e 0c2e ebbc 7bdb 05bc
00000170: b240 9cbf 3fca 7f3e ed15 7dbe c489 9bbc
00000180: 3253 56bf 8b30 27bf ed11 2c3e a2d3 8d3f
00000190: 7954 a2bf b1bc c9bb 8aa8 20bf 3133 4e3e
000001a0: f78e 53bf bafd 66bc 465c cebf f985 20bf
000001b0: ecbb ccbc 7b16 24bf 2012 c3bf dc4d 20bc
000001c0: e1bb 5dbe 5c0b 99bc 43fb b5be 7699 37bc
000001d0: a8fa 0fbf 7abc c4bb 0531 4bbf fb1d 25be
000001e0: 898d 5ebf 5a4f 08bc 38d2 99be 1662 d7bb
000001f0: 8297 4f3e b3b0 c3be 4794 cdbf c49c 9fbf
00000200: 22ab 1f3e 48fc ffbe ab5f 04bf 9a45 e2bc
00000210: 7224 53bf 9124 74bc cf8f 25bf f18d cbbf
00000220: b028 26bf 471d 393f a7d4 2fbe ade5 71bc
00000230: fdbe a0bc 2116 7bbf 8075 84be dbec febd
00000240: 7403 29bc 9390 7e3e 50d4 413f 26a3 1abc
00000250: 0e7f e2bc f662 63be 0455 273f 9c3f ae3d
00000260: 72b9 7dbf 0000 0000 b256 0dbd eae2 88bc
00000270: d2c6 afbf 800b 28bc 6d63 1c3e c606 62bf
00000280: c3d9 aabf f940 d23e e865 a3be 5d83 0cbe
00000290: 0e67 933f e3e4 9abf 37ea 17bd b54c bcbf
000002a0: f2a0 b3bc 66c0 1d3f 09df 373e c4d5 063e
000002b0: a8e9 93bc d3f1 873d fc50 9abd 48fa dbbc
000002c0: 1e51 39bf 58f2 22bf fc6f 833e b4d0 5bbf
000002d0: 7fac 7abc 426a 5bbc 6866 99be 1601 43bf
000002e0: 25bc 503f 1a71 92bc 411d eabe 6b6c aabc
000002f0: d5a6 acbf 325e febe c321 32bf fc6e 17bc
00000300: aee9 d1bd 1e83 09bf 9e0b a73e f7e5 e3bf
00000310: 3522 77bf 9da7 04bf 9458 febc 4a7c 73bc
-0.020601118 -0.59115255 -0.011667533 -0.3366852 -0.41301146 -0.69133264 -1.0445951 -1.05163
-0.018210787 -0.0144278165 -0.19515826 -0.6236375 -0.16475347 -0.02288679 -1.5592039 -0.4706127
-0.020597026 -0.38185817 0.85029936 -0.014122814 1.4227033 -0.022556666 -0.013117151 0.13843544
-0.71445215 -0.01958626 -0.014041973 -1.6842178 -1.1069735 -0.5227384 -0.5402603 -0.14470567
-0.06921492 -1.2449402 1.157188 0.12208945 0.32409325 -0.8921035 -0.013054414 -0.7230638
-1.3350108 0.38207996 -0.63425285 -1.516547 0.043835137 -0.06467278 -0.32477242 -0.76075906
-1.2513964 -0.8606121 -0.0028748754 -0.96062213 0.4804178 -0.025383087 0.801147 -0.02796944
-0.44097522 -0.024516981 -0.7218282 -0.03053101 -0.12542453 -0.03228358 -0.03753277 -0.34118208
-0.0176906 0.30344704 -1.1210732 -0.51515806 -0.021352258 -0.056374107 -0.61061543 -0.8840506
-0.37966552 -0.60326356 -1.0095054 -0.023508327 0.01737112 -0.30040124 -0.15923387 0.38672796
-0.025209278 0.21197712 0.109270975 -0.23839016 -0.06593863 -0.42568743 -0.012053343 0.27857614
-1.5062965 0.22123076 -0.02870848 -0.008170004 -1.2207243 0.24979495 -0.24715395 -0.01898659
-0.83720696 -0.65308446 0.16803713 1.108021 -1.2682029 -0.006156527 -0.6275717 0.20136715
-0.8264002 -0.014098579 -1.612191 -0.62704426 -0.024991952 -0.640968 -1.5239906 -0.009784188
-0.21653701 -0.018682174 -0.3554326 -0.0112060215 -0.56241846 -0.0060039135 -0.7937167 -0.16124718
-0.86934716 -0.0083197 -0.30043197 -0.006572972 0.2027264 -0.38220748 -1.6060876 -1.2469716
0.15592626 -0.49997163 -0.5170848 -0.02762108 -0.82477486 -0.014901296 -0.6467256 -1.5902692
-0.64905834 0.723103 -0.17170964 -0.014764232 -0.01962232 -0.9808064 -0.25870895 -0.1244752
-0.010315765 0.24859838 0.7571459 -0.009438312 -0.027648475 -0.2220572 0.653641 0.08508226
-0.9911109 0.0 -0.034506507 -0.016709764 -1.373255 -0.010256648 0.15272303 -0.88291585
-1.3347706 0.41065195 -0.31913686 -0.13721986 1.1515825 -1.2101101 -0.0370886 -1.4710909
-0.02192733 0.616217 0.17956175 0.13167483 -0.018055752 0.06637921 -0.07534978 -0.026852742
-0.723894 -0.6365104 0.25671375 -0.8586533 -0.015299915 -0.013392033 -0.29960942 -0.7617353
0.81537086 -0.017876197 -0.45725444 -0.02080365 -1.3488413 -0.4968124 -0.69582766 -0.009242769
-0.10249649 -0.53715694 0.3262605 -1.7804555 -0.9653657 -0.5181826 -0.031048097 -0.014861176

network.4.weight f4 [4, 200]
00000000: f4c2 ac3d 2562 62c0 972c 95bd ccbd 5bc0
00000010: f2d6 81c0 4999 44c0 216a 4cc0 d585 45c0
00000020: aacf a43d fcd0 24be aae3 5dc0 a9e1 79c0
00000030: c038 51c0 e000 4fbd e841 1dc0 ee37 4dc0
00000040: 809d 283e d454 51c0 99ce 2dc0 0f2c d03d
00000050: f203 68c0 e335 523d c5a4 143c 5ffd 83c0
00000060: a4e6 67c0 8b02 813d 0ff0 5dbc e20e 0ec0
00000070: ba40 56c0 aa62 7ac0 e6f4 5cc0 0d56 7ac0
00000080: 3c13 86c0 78fe 4cc0 8f77 1dc0 1950 8ac0
00000090: a918 8fc0 7134 55c0 1f3c 7ac0 134b 4fc0
000000a0: 774c 57c0 1bdd 9cc0 2f16 54c0 8342 35c0
000000b0: 2507 96c0 9208 82c0 7016 47c0 957d 39c0
000000c0: 94b3 5ec0 8f18 61c0 0d0b 2a3e 2c69 6cc0
000000d0: beaa 8ec0 1e73 8b3d a6cc 9fbf 7230 1fbe
000000e0: adfd 45c0 7a9f 68c0 f839 62c0 9234 d13d
000000f0: a958 9cc0 8e7c 783d 0672 9cc0 92ae 60c0
00000100: 367b 35bd 740e 79c0 dd71 3ec0 2f66 7fc0
00000110: d61f 943d 5f0a 7bc0 ae6f 64c0 e423 50c0
00000120: 8ee1 59c0 a52c 61c0 0f51 33c0 abe4 1d3e
00000130: 0869 49c0 59a2 4cc0 dd5f 7dc0 2c9e 42c0
00000140: 0d89 babd c38a 5fc0 6954 fbbd bdd0 83c0
00000150: a7bc 2f3f 5f98 57c0 b56b 17be 85e4 9bc0
00000160: 3674 1ac0 64e6 89c0 ceed 733c 020b 84bb
00000170: 1279 41c0 fe89 84c0 a389 45c0 75aa a43d
00000180: 9d81 5bc0 742e 61c0 d215 8cc0 cc73 3ac0
00000190: 5ab3 34c0 a974 283e 9c50 52c0 e45b 82c0
000001a0: e153 43c0 9339 97c0 e95d 19c0 a13a 54c0
000001b0: 8935 23be 7747 54c0 212e 47c0 3be7 b2bc
000001c0: 6cc4 45c0 8372 613d ef53 37c0 628d 1f3d
000001d0: 679a 62c0 745c 1c3b 96d1 6cc0 6aa6 89c0
000001e0: 07d0 5ec0 32cd 073e 758e 57c0 439d c93b
000001f0: e299 88c0 19ed 66c0 4716 32c0 3997 0ec0
00000200: c5b5 2cc0 faef 80c0 eae0 62c0 973f 27bc
00000210: 3547 50c0 51d8 db3d 2dbe 50c0 2b69 47c0
00000220: 8586 74c0 1c3d 9ec0 2b52 52c0 32fb a0bc
00000230: 37f1 a93d 2d7e 46c0 e88d 72c0 5670 75c0
00000240: 6eaa 9bbd 347d c9be e38c 88bf 06e6 4c3d
00000250: 6558 84bd 94f3 97c0 7f65 98c0 3e95 98c0
00000260: 73bd 2fc0 ca69 723b ea82 273b 81c1 00bc
00000270: 7750 39c0 51d6 3a3e dfe4 8dc0 e361 63c0
00000280: a83c 52c0 49a5 8cc0 a86c 7dc0 252a 6ec0
00000290: 8ed0 43c0 a119 47c0 4239 5dbd 9382 49c0
000002a0: ad13 3a3d e48f 52bf a03a 4fc0 7187 90c0
000002b0: 7033 063e 2e36 92c0 9b79 87c0 85dd ec3d
000002c0: 4d24 5dc0 3590 73c0 3edb a8c0 53ed 46c0
000002d0: 7f60 69bd 62c2 553d 8011 61c0 dea2 36c0
000002e0: da90 bcbe 0be5 033e a260 76c0 c9d6 df3c
000002f0: e7f3 32c0 b0cf 3440 35d7 39c0 d3a8 dd3d
00000300: d67c 64c0 cb31 59c0 6992 67c0 e08e 18c0
00000310: 3e7e 61c0 c83a 53c0 14d7 abbd 0c3c f83d
00000320: 3b2a 493d 2c99 67c0 2bd5 ab3d f8c6 59c0
00000330: f9b1 48c0 79cc 82c0 1af9 83c0 4a3e 87c0
00000340: c830 443d e922 e23d f44c 5ec0 caf6 56c0
00000350: 6ec3 82c0 3525 2e3d d848 9ec0 edd2 7cc0
00000360: fbed d53d 8007 6dc0 53fd 84c0 0c92 dd3d
00000370: 5a6a 0641 03d6 363d 4d5e 773c 570f 2bc0
00000380: 17f6 67c0 ae50 9e3d f883 eb3d af45 a7c0
00000390: 7520 78c0 f0d6 5dc0 9901 6ec0 f36a 47c0
000003a0: 83f6 37c0 dd80 84c0 b091 84c0 d94e 23c0
000003b0: 8c80 24c0 be6a 74c0 5215 45c0 9e9b 74c0
000003c0: 1973 87c0 d615 0dc0 9465 75c0 064d 97c0
000003d0: 658a 0dc0 b527 41c0 1c42 89c0 9e63 85c0
000003e0: 185b 84c0 d67e 74c0 69a0 323c 32df 74c0
000003f0: dd09 18c0 7e9d afbd f850 4740 61c8 5a3d
0.08435622 -3.5372403 -0.072838955 -3.4334593 -4.0574884 -3.0718558 -3.1939776 -3.0862935
0.08047421 -0.16095346 -3.4670205 -3.9043982 -3.2690887 -0.050537944 -2.4571476 -3.2065387
0.16466331 -3.2708025 -2.7157347 0.101646535 -3.6252408 0.05132092 0.009072487 -4.124679
-3.6234522 0.06299313 -0.013546004 -2.2196584 -3.3477006 -3.912272 -3.4524474 -3.9115021
-4.189848 -3.2030315 -2.4604223 -4.3222775 -4.4717603 -3.3313258 -3.9099195 -3.2389572
-3.364042 -4.9019904 -3.313854 -2.8321846 -4.688372 -4.063546 -3.1107445 -2.89829
-3.4797106 -3.517124 0.16605778 -3.6939192 -4.4583426 0.06809066 -1.2484329 -0.15545824
-3.0936081 -3.6347337 -3.5347881 0.10215105 -4.885823 0.06066566 -4.888919 -3.510655
-0.044306956 -3.8915071 -2.9756997 -3.9906118 0.07232635 -3.922508 -3.5693164 -3.2521906
-3.4043918 -3.51835 -2.8018224 0.15419261 -3.1470356 -3.197409 -3.958976 -3.040904
-0.091081716 -3.4928443 -0.12271959 -4.1192307 0.68647236 -3.368675 -0.1478718 -4.8716455
-2.413343 -4.309374 0.01488824 -0.0040296325 -3.0230145 -4.1418447 -3.0865257 0.080403246
-3.429786 -3.5184603 -4.3776636 -2.9133177 -2.8234468 0.16450752 -3.28617 -4.073717
-3.0519946 -4.725778 -2.3963568 -3.3160784 -0.15938391 -3.3168619 -3.1121905 -0.021838775
-3.0901136 0.055040848 -2.864498 0.038953193 -3.540674 0.0023858817 -3.700292 -4.301564
-3.481447 0.1326187 -3.36807 0.0061527803 -4.2687845 -3.6082213 -2.7826097 -2.22798
-2.6985943 -4.029294 -3.5449777 -0.010208032 -3.2543461 0.107346185 -3.2616074 -3.115794
-3.8207104 -4.9449596 -3.2862651 -0.01965103 0.08297961 -3.1014512 -3.7899113 -3.8349814
-0.07600866 -0.39353335 -1.0667995 0.050024055 -0.064621724 -4.7484837 -4.7623897 -4.768218
-2.745938 0.0036989325 0.0025560209 -0.007858635 -2.8955362 0.18245818 -4.4341884 -3.5528495
-3.2849522 -4.3951764 -3.9597569 -3.7213223 -3.0596042 -3.1109393 -0.054009683 -3.1485946
0.04542892 -0.8225081 -3.2379532 -4.5165334 0.1310556 -4.5691137 -4.2335944 0.11565689
-3.4553406 -3.8056767 -5.276763 -3.1082351 -0.05697679 0.05218733 -3.516693 -2.8536906
-0.36829263 0.12880342 -3.849648 0.027324097 -2.7961366 2.8251762 -2.9037602 0.10823216
-3.5701194 -3.3936641 -3.6183112 -2.3837204 -3.5233302 -3.3004627 -0.08390632 0.12120828
0.04911254 -3.6187239 0.08390268 -3.402769 -3.1358626 -4.08746 -4.124158 -4.2263536
0.047898084 0.11041815 -3.4734468 -3.3588128 -4.086356 0.042515952 -4.946392 -3.950374
0.10445782 -3.7035828 -4.1559234 0.10818872 8.400965 0.04463769 0.015098167 -2.6728113
-3.6243951 0.07730232 0.114997804 -5.2272563 -3.876981 -3.4662437 -3.7188475 -3.1159027
-2.874421 -4.1407304 -4.142784 -2.5516875 -2.5703459 -3.819015 -3.0794263 -3.8219981
-4.2328 -2.2044578 -3.8343248 -4.7281523 -2.211572 -3.0180485 -4.28932 -4.1684103
-4.13612 -3.8202415 0.010902503 -3.8261228 -2.375602 -0.08574961 3.114317 0.053413752

network.4.bias f4 [4]
00000000: 2c96 1cc0 cbf5 3940 1351 52bf 7b21 2340
-2.4466658 2.905627 -0.8215496 2.5489185

network.0.weight f4 [200, 36]
00000000: eca1 1ec0 85a1 2e3f 05a0 49c0 ae59 20c0
00000010: 4f2e 123f 0ba6 45c0 c10c 96bf 0a37 5e3f
00000020: 6849 b7bf 38df 82bf f899 433f b0ed aabf
00000030: f272 81bf 9885 2e3f 0a27 acbf 0811 cdbf
00000040: 4b07 d93d bfef 6fbf 8e11 d0bf f720 b63e
00000050: b92d 7dbf 7ea3 13c0 f2e2 f7bd d9a0 25bf
00000060: 23d6 18c0 a606 513d 4890 1dbf c126 24c0
00000070: ae33 7fbd da51 5dbf 4a3f 2c40 d757 d03e
00000080: 6f60 4240 324d 3140 a502 da3e 51f6 3a40
00000090: b206 95bf 71ca 103e 7ebc 7bbe 3867 8cbf
000000a0: 345f 933e ca87 a8be 0d97 3cbf 3284 243f
000000b0: 1bbf 1dbd 8380 4cbf c4d0 f63e 6c71 6cbd
000000c0: 6742 56bf 1cc0 163f f3ec cabd 7406 e5bf
000000d0: 0710 823e bf90 2ebe 0663 e2bf c092 6c3e
000000e0: f113 66bc 649b 1fbf aa4f e43d d2d8 153f
000000f0: ab74 43bf a858 563e c068 0c3f 295b 31bf
00000100: 3d9c b03e b828 093f 6bd7 c93f 1c22 453f
00000110: 8585 dc3f 3f55 ca3f a8c4 463f 951c df3f
00000120: 1b87 5ebf 712c b8bd 308d 19bf a8f7 5cbf
00000130: 9ab1 8eb8 3ebb 05bf eeaf 97be 96ca 6b3e
00000140: 7fe4 083e 9337 0fbf 5362 073f 8dd3 e13d
00000150: fb30 17bf 3333 e43e 61a4 953d 7729 c5bf
00000160: 2c29 ce3e 0ec6 cabb c1cd cfbf 4275 db3d
00000170: f092 ce3b 871e b9bc 7f5c cc3e 5f03 523f
00000180: 6876 80be 881c d53e 99fc 553f c1f5 21be
00000190: aceb 163e 8b53 5f3f c7aa 9d3f 1319 1a3f
000001a0: 9a3b bb3f 9214 8d3f 67e8 0f3f 2c47 bb3f
000001b0: 6520 8bc1 d50d 9e3f 0036 94c1 287b 8cc1
000001c0: 8d3c 903f 20c6 94c1 b1c0 60c1 25dd 4d3f
000001d0: ad77 7fc1 d55c 5fc1 9f5b 373f e777 7dc1
000001e0: 61cd 5dc1 75ed 433f 35d0 7cc1 7c9d 81c1
000001f0: 6ecc 883f d5e2 8bc1 03f9 82c1 463d 953f
00000200: 12b6 8ac1 f8bc 7cc1 e12c 0a3f 60a1 89c1
00000210: 7948 7dc1 25a5 e23e d2b6 89c1 aad3 7ec1
00000220: bb42 223f f826 8ac1 2573 cdc1 43b7 b83e
00000230: 1a08 bfc1 e48a cdc1 cf44 c83e 1050 bfc1
00000240: de15 52bf ba2c e7be 6e1a 71bf 5a29 47bf
00000250: 6bf6 90be 24d6 79bf 8dd5 3abe f0f9 4abd
00000260: 5d8c 9f3e 624b d5bd c96f b4bc dd9c 9d3e
00000270: b1f8 17be 0ec3 d83d df31 ee3e a3e5 aebf
00000280: 0493 db3e ce51 d33d 27ce c5bf 54fc b73e
00000290: f935 90ba 0386 65bd de38 083f eebc 4d3f
000002a0: f8ff b5bc bdf9 a73e 5850 163f 0927 b93d
000002b0: bde5 1e3f a446 343f b2f5 313f b28e 053f
000002c0: 23f1 7b3f b030 1c3f a840 a33e 7793 663f
000002d0: d98c 53c1 929b 2e3f 2da2 c1c0 4152 51c1
000002e0: f8da 5d3f e985 c1c0 79de d5c0 7fd6 ca3c
000002f0: 20ac ddbf e7c5 d4c0 445b 1bbd 18c5 dbbf
00000300: 3fbc d3c0 f39a ddbd 96e2 d4bf de39 60bf
00000310: 6332 db3e 4459 a4bf f65b 7ebf 4ff3 e63e
00000320: 9897 a4bf 4802 36c0 54c8 fcbd 9974 56c0
00000330: 0c4c 2ac0 3755 f83d 6395 4fc0 be59 38c0
00000340: 7b7c c53d b758 4cc0 e342 8dc1 187e 01bf
00000350: b6e6 efc0 c1c1 8dc1 c258 a1be 64a2 eac0
00000360: 6485 cdbe 92ed 75be 8155 00bf 7d9c 6bbe
00000370: 90a9 babe 5cdb c3be a270 1bbd d6ab d33d
00000380: b3d7 8e3e 164d 19be dd1e 1a3d 9250 ce3e
00000390: 8f9c 023c 88d8 5d3e 950d 6a3e 0d12 8abf
000003a0: 74f3 563f 7391 863d 1140 a4bf e2a0 383f
000003b0: 72a2 723e a0bb 983e a310 373f 9b69 273f
000003c0: c73e 483e b780 4a3f 8555 3a3f caf5 f93d
000003d0: 51c2 343f c53c 0f3f 88a4 853f 8ce8 183f
000003e0: 5f1d 903f 60f6 a43f 6606 133f 7b3c 703f
000003f0: 0467 dabf d56d 76be 932f cabf 94fe ebbf
-2.478633 0.6821521 -3.1503918 -2.5054736 0.5710191 -3.0882595 -1.1722642 0.8680273
-1.4319277 -1.0224371 0.7640681 -1.3353786 -1.0113204 0.681726 -1.3449414 -1.6020823
0.10597094 -0.937252 -1.6255357 0.35572025 -0.9889789 -2.3068538 -0.12103833 -0.6469856
-2.3880699 0.05103173 -0.6154828 -2.5648654 -0.062305145 -0.8645302 2.6913629 0.40692016
3.0371358 2.7703366 0.42580143 2.921284 -1.1642668 0.14139725 -0.24583623 -1.0969
0.28783572 -0.329161 -0.73667985 0.64264214 -0.03851233 -0.79883593 0.4820615 -0.057725355
-0.8369507 0.58886886 -0.09908476 -1.7892594 0.25402853 -0.17047404 -1.768647 0.23102856
-0.01404284 -0.6234648 0.11148007 0.58533967 -0.76349896 0.20932257 0.54847336 -0.69279724
0.344942 0.53577757 1.5768865 0.7700517 1.7228247 1.5807265 0.77643824 1.7430598
-0.86924905 -0.089928515 -0.5998106 -0.86315393 -6.8041685e-05 -0.52238834 -0.2962641 0.23026499
0.13368414 -0.55944175 0.52884406 0.11026678 -0.59059113 0.44570312 0.073067434 -1.5403279
0.40265787 -0.0061881607 -1.6234666 0.107157245 0.0063041374 -0.022597564 0.3991432 0.82036394
-0.25090337 0.4162333 0.8358856 -0.15816404 0.14738339 0.8723685 1.2317742 0.6019451
1.4627564 1.1021903 0.5621399 1.4631095 -17.390818 1.2347971 -18.526367 -17.560135
1.1268479 -18.59674 -14.047044 0.80415565 -15.966718 -13.960164 0.7162418 -15.841773
-13.862641 0.76534206 -15.800832 -16.201897 1.0687387 -17.485758 -16.371588 1.1659324
-17.338902 -15.796135 0.5397473 -17.203796 -15.8301935 0.4426662 -17.214268 -15.926676
0.6338307 -17.269028 -25.681223 0.36077318 -23.878956 -25.692818 0.39114997 -23.914093
-0.82064617 -0.4515131 -0.94180954 -0.7779747 -0.28313002 -0.9759238 -0.18245526 -0.049554765
0.31161776 -0.10414769 -0.02202596 0.3078374 -0.14840962 0.10584079 0.46522424 -1.366383
0.42885602 0.103183374 -1.5453538 0.359347 -0.0011002413 -0.056036007 0.5321177 0.8036641
-0.022216782 0.32807723 0.58716345 0.090406485 0.620693 0.7042029 0.69515526 0.5217086
0.9841482 0.6101179 0.31885266 0.90068763 -13.221887 0.6820613 -6.051047 -13.0825815
0.86662245 -6.0475965 -6.6834073 0.024760483 -1.7318153 -6.649158 -0.037928835 -1.7169523
-6.6167293 -0.1082057 -1.6631649 -0.875883 0.4281188 -1.2839742 -0.9935907 0.45107505
-1.2858763 -2.8438892 -0.12342897 -3.3508666 -2.6608915 0.121256284 -3.2434928 -2.8804774
0.096428834 -3.1929147 -17.65766 -0.5058303 -7.496913 -17.719606 -0.3151303 -7.332323
-0.4014083 -0.24016407 -0.5013047 -0.23008914 -0.3645749 -0.38253295 -0.037949212 0.103355095
0.2789894 -0.14970812 0.03762709 0.40295845 0.007971897 0.21664631 0.22856744 -1.0786759
0.8396523 0.06570711 -1.2832052 0.7212049 0.2369478 0.29830647 0.7150976 0.65395516
0.19555198 0.79102653 0.7278674 0.12205084 0.70609003 0.559521 1.0440836 0.5972984
1.1258963 1.2887688 0.5743164 0.93842286 -1.7062688 -0.24065335 -1.5795768 -1.8437066

network.0.bias f4 [200]
00000000: 6be4 7b3f 1f73 e53f 848a eb3f 9f88 743f
00000010: 52ca 0540 c4bd b33f d66d 0d40 b8e3 e63f
00000020: eeeb b93f b669 0240 145a e23f 68c4 463e
00000030: 23a1 7b3f 6eec 0340 0c37 0b40 4612 e03f
00000040: db97 e33f 889e 283f 70b2 2040 4945 263f
00000050: d7b4 6c3f 3a2c dd3f 81f2 0240 b51a 703f
00000060: 6925 2d40 c58f 17bf 7df1 8d3e f1e7 d33f
00000070: 1939 983f 8e29 043e 699c bb3f 1168 0040
00000080: b885 203f e1ce 9e3f 39d1 ab3f 3ac5 343e
00000090: a946 ef3f 064c f73f f248 e73f e2af 0a3f
000000a0: 2943 d73f 4385 fc3f 805e fb3f 1bb5 05bc
000000b0: 0367 0140 b6bb 0b40 f901 0240 c59a f63f
000000c0: 77d4 0140 f1f1 903f f278 ad3f 9a70 f43f
000000d0: 3d9a 1440 4e91 0340 b17d 0540 9681 fc3f
000000e0: 27f1 ac3f ee32 64bb d76f 4040 f4ce f43f
000000f0: 2b53 0b40 fc07 f13f 8203 d83f df5c 0440
00000100: 5a49 0740 1103 0340 db52 0940 1452 0840
00000110: 59b5 f03f 8567 a5c0 7c53 603f 30cf 0240
00000120: 425c be3e 2987 063f 8879 cd3f 387a ff3f
00000130: b16d 0040 a036 0c40 d99c c93f bc98 a93c
00000140: 0aa2 0140 480e e93f 8223 7e3f 4e4b 0e40
00000150: 7cc7 c63f 7253 be3f b9d9 f73f ddd6 c23f
00000160: c7d9 0840 7f79 0340 fca6 143c ff0a 0240
00000170: e9a2 0440 7809 893f f991 da3f 622d e63f
00000180: 363f f63f 7ecc bc3e 5c08 8a3f cda5 db3f
00000190: aac3 f93f 4e93 c43f 6f58 a23e 673b 0340
000001a0: 6705 d43f f611 833e 8108 0040 ef84 c33f
000001b0: a626 d43e de8e ba3f ae92 b83f acf2 753f
000001c0: 121b e63f b2e2 0640 93c3 a03f 61ab 0a40
000001d0: c259 503b a1ae fc3f bb51 e13f 719b e23e
000001e0: 2cfa b33f 4d5a 7f3f 28b3 0f40 ed58 ef3f
000001f0: 9ccc 0d40 e684 fc3f 5134 823e a8fa d43f
00000200: c0d2 ac3e afda fd3f 7c7a 0a40 fadb 233e
00000210: dfc2 a33f a60c 1540 1519 c53f 3ccb 9fbe
00000220: b3cc 0440 68d7 e83e 7eec e13f 3b09 483d
00000230: aa6b 1740 6dbc 8e3f 0d64 57bc 39c7 3ebe
00000240: bf68 f53f 294d 0240 bbdd 0640 b0b5 be3b
00000250: 7b5d 0a40 b117 f03f 32ef e93f d00b 0b40
00000260: 4d5f 923f 7a6a 1640 6ecb 3140 8876 7c3f
00000270: bc0f 0f40 625c 693f 3e60 f13f 85f8 9a3f
00000280: e121 0b40 e025 943f 2b60 0640 830e 543f
00000290: d2bf f33f c25c 143f f1cc f63f 511d b43f
000002a0: 4fac 1140 c184 0840 87a9 dc3f 2440 8b3e
000002b0: 3440 0740 fb93 893f bdc9 283f d37c f33e
000002c0: 8a0f 5b3f c8de 8c3f 9446 ea3c 226e 0240
000002d0: 247d 0d40 120d 443f ce4e 26be f56d c23f
000002e0: eebb 9a3f 1aaa c53f a6bc c63f 748f b43f
000002f0: 328a 0d40 ed14 0940 1e98 fe3f ff00 7a3f
00000300: fefc f63f 7e3f 873e e773 0940 5890 f4bc
00000310: 883c 0340 5f00 0540 aab6 0240 4663 1040
0.98395413 1.7925757 1.8401647 0.9552097 2.0904737 1.4042287 2.2098289 1.8038244
1.4525125 2.037702 1.768374 0.1941086 0.9829275 2.0613055 2.1752348 1.7505577
1.7780718 0.658669 2.510891 0.6494947 0.9246344 1.7279122 2.0460513 0.9379075
2.7054083 -0.5920375 0.27723303 1.6555158 1.1892425 0.12906477 1.4657108 2.0063517
0.6270404 1.2406884 1.3423225 0.17653361 1.8693439 1.9320076 1.8069136 0.54174626
1.6817371 1.9728168 1.9638214 -0.008160855 2.0219123 2.183332 2.0313704 1.9265982
2.0285928 1.1323835 1.3552535 1.9096863 2.321914 2.0557437 2.0857966 1.9727046
1.3511094 -0.0034820396 3.0068262 1.9125657 2.1769512 1.8830562 1.687607 2.0681684
2.113852 2.0470622 2.145682 2.1300097 1.8805343 -5.1688867 0.8762739 2.0438957
0.37179762 0.5254999 1.6052713 1.9959173 2.006695 2.190834 1.5750991 0.020702712
2.025515 1.8207483 0.9927293 2.2233462 1.5529628 1.4869215 1.9363319 1.5221821
2.138292 2.0542905 0.009073015 2.0319211 2.0724432 1.0706015 1.7075797 1.79826
1.923804 0.36874765 1.0783801 1.7159973 1.9512837 1.5357454 0.31708094 2.0505006
1.6564149 0.2559964 2.000519 1.5274943 0.41435736 1.457485 1.4419763 0.9607341
1.7977011 2.1075864 1.2559685 2.1667101 0.003179178 1.9740793 1.7603067 0.44259217
1.4060721 0.99747163 2.2453098 1.8699013 2.2156134 1.9728057 0.2543054 1.6638994
0.3375454 1.9832362 2.1637259 0.16001883 1.2793845 2.328897 1.539828 -0.31209743
2.0749938 0.45476842 1.7650297 0.048836928 2.3659463 1.1151253 -0.013146413 -0.18630685
1.9172591 2.0359595 2.1072834 0.0058199987 2.1619556 1.875723 1.8276122 2.172596
1.1435333 2.3502488 2.7780414 0.98618364 2.2353354 0.9115659 1.8857496 1.2107092
2.1739428 1.1574059 2.0996196 0.82834643 1.9042914 0.5795404 1.9281293 1.4071447
2.276142 2.1331027 1.7239236 0.27197373 2.1132936 1.0748285 0.6593283 0.4755617
0.85570586 1.1005487 0.028598107 2.037972 2.210763 0.76582444 -0.16240999 1.5189806
1.2088602 1.5442536 1.5526321 1.4106278 2.2115598 2.1419022 1.9890172 0.9765777
1.9295957 0.26415628 2.147699 -0.029853985 2.0505695 2.0781476 2.042399 2.2560592

network.2.weight f4 [200, 200]
00000000: 3db0 743b 4048 823d 8c51 ccbd f69b e2bd
00000010: 6be2 4c39 bbba 1dbd 7d55 a83d feac 0bbb
00000020: 14d7 9fbd 9f60 afbd c377 883a c7f7 363c
00000030: 1ad4 09be a12d 603d b72a bc3d be92 a63d
00000040: c0a6 55bc 9e9b 10be 5669 62bd 4c2d 9a3d
00000050: e160 c0bd b478 95bd fb3e 42bd 712c 153d
00000060: 273b c1bc dcf8 f4bd 3ae4 b23c 9410 a6bc
00000070: 42d3 d9bb dce0 c1bb b930 3fbd 3028 afbd
00000080: 12b9 0a3d caad dabd 3eb7 1c3b ba79 c23c
00000090: 48af c03d c2da 9e3d c473 8bbd 71ac 6f3c
000000a0: 45a4 39bc 9e4b 25bd 4b6a 763d c5c4 ec3d
000000b0: 9e95 a83c 8a65 87bd d82f 5ebb 88f8 803c
000000c0: a31f c5bc 0fe1 eabb f73a 273c 4a08 e23c
000000d0: be79 b33d a61a 7fbd 3cc5 eebd a3ac 1ebd
000000e0: b9ce d0bd 23cf b4bd e18c 25bd 282c a23b
000000f0: 2438 443d e68f 593d 4b53 0a3d ef24 b1bd
00000100: 1948 2f3d ea00 e53c e07c b43d 6db6 503d
00000110: f6df af3c f663 f73d 4e9f a63d 8d62 d3bd
00000120: 575f 5f3d 15db 0fbd 0555 f8bd 9526 23bc
00000130: 907a e4bd ce9c 183d 9f2b 0e3c 3dcb a3bc
00000140: e08e 29bd 687d a4bd a9fb 14be dcb4 453d
00000150: 7e13 833c bb3b f5bd 51f4 923d 955a e7bd
00000160: cc8a 22bd f06d c83d abd3 873c bb2b 86bd
00000170: d9f1 c8bd 1c78 4f3d 4505 b7bd b199 4abd
00000180: ee43 a8bd 9d0e 823d 028f 0bbe 2f19 ecbc
00000190: 5cae 883c cfd3 84bd 31d2 b13d 5435 10be
000001a0: 35f3 5bbd a2ce aa3c ede9 24bc 1cf2 533d
000001b0: 7023 d9bd 4ec4 e63c f910 9bbd a8a8 c03d
000001c0: 346c c8bd 6851 70bd 7d1d abbd 685f d0bd
000001d0: 7b8d e0bc e989 cdbd b505 e3bd 934d abbd
000001e0: 1097 39bd 7836 47bc 6c88 50bc 8e32 9b3d
000001f0: 438c 213d 995b b2bd 4c22 3dbd 8d5e 9ebd
00000200: cc7d 7cbd 9c36 a9bd 9d72 203c 9ddc 7b3d
00000210: fc16 7c3c dde9 86bd 8c89 07bd bd55 d3bd
00000220: 3e3b 8d3c 8176 d73d 29e9 3abd deee a53d
00000230: 8984 09bc df60 60bd de81 903d 840b e5bc
00000240: 1a86 813d 52eb 813c 5ac4 e1bd 65e9 c0bc
00000250: ed89 563d 31f5 9fbd 1c54 7abd 0349 7d3d
00000260: 73de 703d 5aea 8cbd 1e22 5bbd d8a0 35bd
00000270: 2afd 07be 1f30 0ebe 4fa6 3a3d 16f0 dc3d
00000280: 7110 8f3d 7b76 58bd 6a89 09bd f9d0 5f3c
00000290: 2c32 ebbb 633c d33c b5bf c13d 96f7 8a3d
000002a0: c620 ac3d 1fe3 47bd 9342 afbd b325 41bd
000002b0: 077e cdbd 9688 a63d 25fd bb3d e76e f0bd
000002c0: 1ad0 c4bd 13b6 14bc 93f9 d6bc 00db f8bc
000002d0: 774a eebd 3bb8 e73c d124 8c3b 93fa 01be
000002e0: 9fa1 b83d 61e1 b13d 8f32 aebc 2971 513d
000002f0: d918 633d dfb2 ffbd 9158 703d 210c 373c
00000300: ca46 c3bc ade6 f1bd ade9 2e3d c9ff 70b9
00000310: 5a0f 363d 5269 d4bc 99c9 c1bc aabe e6bd
00000320: 2906 c73e f59c f23e 718b 283f 4231 6f41
00000330: 1894 fb3e b7d7 923f 3c79 513f 0f4f 5d3e
00000340: 2143 123f d52b 5e3f 3912 1b3f 33fc 5841
00000350: e17f ea3e 77dc 463f f609 c23e c092 0d3f
00000360: e021 f73e 9755 833e 381e 773c d9a9 0741
00000370: 4811 2c3f 9150 c93e b93c 343f e4d6 1f3f
00000380: f0cf 13c0 c659 d6c0 b97c ce3e 7405 143f
00000390: d6a8 9c3f 8b4c 2541 2c25 c63e 2954 513f
000003a0: 6b39 bb40 d0de 3c3d dfb2 963e cb1c 9041
000003b0: 8ecd 423f 2575 113f 415e 0b3f 2f6f 253f
000003c0: 38e4 2b3f 8cd5 b03e 255c 413f 786a f040
000003d0: c1ee 5a3f 0fbb fa3e ee8e 4f3f 6629 353f
000003e0: 875f 533f abc2 073f 01e6 d13e 9123 383f
000003f0: 7492 853f 7dbb 9c3f 1db4 503f 7726 6f3f
0.0037336492 0.06361437 -0.09976491 -0.110649034 0.00019539303 -0.03850816 0.082194306 -0.0021312828
-0.07804695 -0.08563351 0.0010411668 0.011167473 -0.13459817 0.054731015 0.09187835 0.081334576
-0.013040245 -0.14121863 -0.055276237 0.07528171 -0.09393478 -0.07298413 -0.047423344 0.036419336
-0.023587776 -0.11961529 0.021837343 -0.020271577 -0.0066474983 -0.005916698 -0.046677325 -0.08552587
0.033867903 -0.10677679 0.0023912932 0.023739684 0.09408432 0.077565685 -0.0680919 0.014628516
-0.011330669 -0.040355317 0.060159963 0.11560968 0.020579156 -0.06611164 -0.0033903029 0.015743509
-0.024062937 -0.0071679424 0.010206929 0.027591843 0.08763455 -0.062281273 -0.11658713 -0.038738858
-0.10195679 -0.08828571 -0.040417556 0.0049491115 0.047905102 0.053115748 0.03377084 -0.08649623
0.042793367 0.027954537 0.088128805 0.050955225 0.021469098 0.12079613 0.08135854 -0.103215314
0.054534283 -0.035121042 -0.12125591 -0.009957929 -0.111561894 0.037258916 0.008677392 -0.019994373
-0.04139602 -0.08031732 -0.14549126 0.048268184 0.016000506 -0.11974283 0.07175506 -0.11296574
-0.03968315 0.09786594 0.016580423 -0.0655131 -0.09811754 0.050651655 -0.08936552 -0.049462978
-0.082160816 0.063504435 -0.13628772 -0.028820602 0.016684704 -0.06485712 0.08682669 -0.14082843
-0.053698737 0.020850483 -0.010065538 0.051744565 -0.10602462 0.028169777 -0.07571597 0.094071686
-0.09786263 -0.058671385 -0.08355234 -0.10174447 -0.027411213 -0.1003607 -0.11085073 -0.083644055
-0.04531008 -0.012158982 -0.012727838 0.07578002 0.039440405 -0.08708877 -0.046175286 -0.07732878
-0.061643407 -0.08262369 0.009792951 0.06148969 0.015386339 -0.06587575 -0.03309016 -0.10319088
0.017240163 0.1052065 -0.045632515 0.08102201 -0.008393415 -0.054779883 0.0705602 -0.027959593
0.06324406 0.01585928 -0.11023779 -0.023548791 0.05237763 -0.078104384 -0.06111537 0.061837208
0.058805894 -0.068806365 -0.053499334 -0.044342846 -0.13280168 -0.13885544 0.04556876 0.1078798
0.06985558 -0.052847367 -0.033578314 0.013660663 -0.007177612 0.02578563 0.09460393 0.067855045
0.084046885 -0.048800584 -0.0855762 -0.047155093 -0.100338034 0.081315205 0.09179143 -0.11739903
-0.09610005 -0.009076613 -0.026242053 -0.030377865 -0.11635297 0.02828609 0.00427685 -0.12693243
0.09015202 0.08685566 -0.021264343 0.05113331 0.05544362 -0.12485289 0.058678214 0.011172325
-0.023837466 -0.11811576 0.04270332 -0.00022983471 0.044448234 -0.025929127 -0.0236557 -0.11266835
0.38871887 0.47385374 0.6583777 14.949526 0.49136424 1.1472081 0.81825614 0.2161219
0.5713368 0.8678563 0.6057468 13.561572 0.4580069 0.7768015 0.37898225 0.5530205
0.48268032 0.25651237 0.015082888 8.478967 0.6721387 0.3931928 0.70405155 0.6243727
-2.3095665 -6.6984587 0.4032953 0.5782082 1.2239025 10.331187 0.38700235 0.81769043
5.850759 0.046110928 0.29433343 18.01406 0.760949 0.56819373 0.54440695 0.6462278
0.6714511 0.34537923 0.75531226 7.5129967 0.8552056 0.4897084 0.8107747 0.70766294
0.8256764 0.53031415 0.40995792 0.7192927 1.0435319 1.2244717 0.8152483 0.9341807

network.2.bias f4 [200]
00000000: adc3 a8bc 98e3 15bf 2e29 3fbc c283 a9be
00000010: 3e9b d0be d882 2fbf 66fd 84bf fce3 85bf
00000020: ca2e 95bc a662 6cbc 5cf5 41be f43d 1ebf
00000030: 7c07 23be 147d bbbc dfe1 c6bf 1b0d eebe
00000040: 18bb a8bc a197 c0be 1b1a 5b3f 6063 67bc
00000050: c449 b53f c2c8 b8bc 52e9 56bc 784f 133e
00000060: 207b 35bf 5d73 a0bc 4e10 66bc 8ee6 d6bf
00000070: 66f7 8cbf d963 04bf efde 08bf f97e 0ebe
00000080: 487a 82bd c4a5 9ebf bcd4 943f 6185 023e
00000090: 80a6 a83e 8ceb 62bf 5e96 f4bb e1a2 37bf
000000a0: 9a2b aabf c341 c63e 35e1 20bf 8a6a c1bf
000000b0: 5287 4a3d bc0e 72bd b56c a3be 514d 41bf
000000c0: bb72 9fbf 6be3 5abf 6868 3cbb 0a7c 74bf
000000d0: b390 f83e 31f0 cfbc 60b3 4d3f 2b20 e5bc
000000e0: dcdb debe b07b 9abc 845d 37bf 2b1c fabc
000000f0: 28d5 f4bd ca3b 04bd 9e35 f7bc d7ca abbe
00000100: e1eb 90bc fe25 9e3e 6bc8 8ebf f37d 02bf
00000110: eeea aebc b537 50bd aade 1abf 78e0 60bf
00000120: d77d bfbe a9fb 18bf 7382 80bf 8994 c0bc
00000130: 35cb bc3c 65db 96be 0d4d 1dbe 5eec c83e
00000140: b083 cebc c0e0 5e3e 4833 dd3d 92a3 6ebe
00000150: 799b 7dbd d30a d7be 627b 45bc dd30 913e
00000160: 3b19 c0bf 9707 683e 0c2e ebbc 7bdb 05bc
00000170: c688 9bbf 39a5 823e 7e3e 77be c489 9bbc
00000180: f4e4 54bf 25bc 25bf 7388 313e 77cf 8d3f
00000190: a49c a1bf b1bc c9bb 8735 1fbf d9cf 533e
000001a0: c118 52bf 656f 08bc 65ad cdbf 7515 1fbf
000001b0: ecbb ccbc e0a3 22bf dc5b c2bf dc4d 20bc
000001c0: 70f9 57be 5c0b 99bc 2e19 b3be 7699 37bc
000001d0: 1381 0ebf 7abc c4bb 23b9 49bf 95a4 1fbe
000001e0: 2d17 5dbf 5a4f 08bc 19f7 96be 1662 d7bb
000001f0: 4003 553e 6dca c0be 3bde ccbf 68ed 9ebf
00000200: de57 253e a622 fdbe c5e9 02bf 9a45 e2bc
00000210: fcb4 51bf 9124 74bc e117 24bf 70d6 cabf
00000220: dbb9 24bf 2441 3a3f 79f5 29be ade5 71bc
00000230: fdbe a0bc a2a9 79bf 0f98 81be d086 f3bd
00000240: 7403 29bc e975 7d3e dba2 413f 26a3 1abc
00000250: 0e7f e2bc e6d6 5bbe 7878 283f 49a5 ba3d
00000260: 7a48 7cbf 0000 0000 b256 0dbd eae2 88bc
00000270: aa10 afbf 800b 28bc 45a8 2d3e cf9e 60bf
00000280: 5022 aabf 08f1 d43e 4280 a0be c0dd 06be
00000290: 31af 933f 7227 9abf 37ea 17bd f195 bbbf
000002a0: f2a0 b3bc 2a64 1c3f 9fc1 3d3e e441 0c3e
000002b0: a8e9 93bc 94a3 923d fe26 8fbd 48fa dbbc
000002c0: 4ddd 37bf 9579 21bf 3e5b 863e 8c5d 5abf
000002d0: 7fac 7abc 426a 5bbc 8d6a 96be 5295 41bf
000002e0: b3d7 4f3f 1a71 92bc 4c33 e7be 6b6c aabc
000002f0: 53f0 abbf 2bc3 fcbe 59ad 30bf fc6e 17bc
00000300: 5e54 c6bd 580e 08bf ee02 aa3e 4f36 e3bf
00000310: 4fb7 75bf 9133 03bf 9458 febc 4a7c 73bc
-0.020601118 -0.58550406 -0.011667533 -0.33108336 -0.4074344 -0.68559027 -1.0389831 -1.04602
-0.018210787 -0.0144278165 -0.18941253 -0.6181328 -0.15920824 -0.02288679 -1.553768 -0.46494374
-0.020597026 -0.37615684 0.8558671 -0.014122814 1.4163136 -0.022556666 -0.013117151 0.14385784
-0.70891 -0.01958626 -0.014041973 -1.678911 -1.1013 -0.51714855 -0.5346517 -0.13915624
-0.063709795 -1.2394338 1.1627421 0.12746193 0.3293953 -0.88640666 -0.007464214 -0.7173291
-1.3294556 0.38722047 -0.6284364 -1.5110638 0.049445458 -0.059096083 -0.31918874 -0.755086
-1.2456888 -0.8550326 -0.0028748754 -0.9550177 0.48547897 -0.025383087 0.8035183 -0.02796944
-0.43527114 -0.018857807 -0.7162707 -0.03053101 -0.11954719 -0.03228358 -0.030176934 -0.33553192
-0.0176906 0.3088836 -1.1154913 -0.50973433 -0.021352258 -0.050834376 -0.6049601 -0.8784251
-0.37400696 -0.59759 -1.003981 -0.023508327 0.023046115 -0.2946426 -0.15361424 0.39242834
-0.025209278 0.21765423 0.10800797 -0.23304585 -0.06191585 -0.42000446 -0.012053343 0.28357592
-1.50077 0.22659145 -0.02870848 -0.008170004 -1.2151115 0.2551668 -0.24144933 -0.01898659
-0.83161855 -0.6474021 0.17337207 1.1078938 -1.2625928 -0.006156527 -0.6219105 0.20684756
-0.8206902 -0.00832734 -1.6068541 -0.62142116 -0.024991952 -0.63531303 -1.5184283 -0.009784188
-0.21091247 -0.018682174 -0.34980148 -0.0112060215 -0.556657 -0.0060039135 -0.7879812 -0.15590127
-0.8636349 -0.0083197 -0.29485396 -0.006572972 0.20802021 -0.3765444 -1.6005319 -1.2416201
0.161468 -0.49440497 -0.51137954 -0.02762108 -0.81916785 -0.014901296 -0.64098936 -1.5846691
-0.6434609 0.72755647 -0.16597547 -0.014764232 -0.01962232 -0.97524464 -0.25311324 -0.11890948
-0.010315765 0.2475201 0.7563912 -0.009438312 -0.027648475 -0.21468696 0.6580882 0.09113557
-0.9854809 0.0 -0.034506507 -0.016709764 -1.367696 -0.010256648 0.16958721 -0.8774232
-1.3291721 0.41590142 -0.31347853 -0.13170528 1.1537839 -1.2043288 -0.0370886 -1.4655133
-0.02192733 0.6109034 0.18530892 0.1369701 -0.018055752 0.07160106 -0.06989859 -0.026852742
-0.71822053 -0.63076144 0.26241487 -0.8529899 -0.015299915 -0.013392033 -0.29378167 -0.7561847
0.81188506 -0.017876197 -0.45156324 -0.02080365 -1.3432716 -0.4936765 -0.6901451 -0.009242769
-0.096840605 -0.53146887 0.3320536 -1.7750949 -0.9598283 -0.5125056 -0.031048097 -0.014861176
